results/ppo/Racing/Racing-3168.onnx (onnx, 88644 bytes, 9 tensors)

discrete_act_size_vector f4 [1, 2]
00000000: 0000 4040 0000 4040
3.0 3.0

network_body._body_endoder.seq_layers.0.weight f4 [128, 29]
00000000: 92d8 34be 5775 c8be 5900 063e 35aa 8cbe
00000010: 011a 6dbc 55e1 983e 93e7 a93a c552 a93e
00000020: c9d2 87bd bd54 833c 0c12 9fbe 8bf5 a3bd
00000030: f3be 99be c965 a03d 8d81 773d c0c0 213e
00000040: 15be 04bd e040 a63e 4aa7 c1bb 8bfa 0e3e
00000050: 5816 543e 1e50 f03d 824d 4f3e ba65 843e
00000060: 22b1 7abe e5ca 8e3d 6477 52be 1476 e83d
00000070: 36ea a73e 4463 a1be c711 123e 31b8 9fbe
00000080: 49d1 24be 2621 8fbd b9d2 543d 07a4 803d
00000090: d072 75be 8955 d73c 824f b33d f21b b83d
000000a0: 4427 97be a26b 5abe 30fd c7be aaac 9f3e
000000b0: 7864 6d3e 0a01 2c3e 3c61 babe 0235 40be
000000c0: 0ddb 2b3e 9d9c 1ebe 61b0 fa3c 897d 2b3e
000000d0: 9780 95bd 77b9 99bd a079 99bd 8061 0e3e
000000e0: 8b84 b43e e57a 283e 5de8 823d d2ed 823d
000000f0: a015 11be f627 99be ed71 1d3e d4e3 e13e
00000100: 4afa 273e d80e 42be 050a d33d eb94 293e
00000110: 763d 91bd 73f2 2d3e bd41 97bc e8c2 56bd
00000120: 84d3 a63e 91da 783e 30c6 8d3e 41e7 f23d
00000130: f98f 0b3d 837b 96bb ba96 5d3c dd68 a23e
00000140: 2c4f 253e ae68 883d 2b30 823e e331 0c3e
00000150: 1ea9 7c3e fc12 3ebe b7ac e43d e386 90bc
00000160: 9a3e cdbe 2c09 f73e 09ea debc dbed 783d
00000170: 697c 1c3e 993c 0abe b0c3 bd3c cd7a 823e
00000180: 2862 9c3d 1909 00be 5a6d 3fbe b7db 943e
00000190: 3a26 843e 9975 cbbc 77f4 a9be 8fe1 b43d
000001a0: fb9f 703e 30f7 2abc 1239 8dbd 916f 9c3e
000001b0: 8f70 983e 26c3 8abe 7b2f 6fbe e307 07be
000001c0: 099b 11bf cf9c b33d 3ab7 573e 1555 b5be
000001d0: 32b7 3dbb c799 9a3e 21bb 6a3e 149d 30be
000001e0: ade3 8bbd dc04 003e a3aa babc 1937 33be
000001f0: 3a4e b73b a959 0dbe ee7c 3cbe 4a50 babd
00000200: b43f c73c e517 f7bd c2a1 a3bb e1de 86bc
00000210: f5d6 513e 2c10 573e af48 eabd c25e 223e
00000220: 5afa 30be f811 a03e 9019 ce3e 4f57 ba3e
00000230: 7d40 d33e 06eb 1d3d 881b 8fbe 4d65 573e
00000240: 612c 823d 2170 053e 74b8 e33e 780b d7bd
00000250: e60f e43d 7dee 95bd 7eaa 983e b97c 443e
00000260: 16b6 b53e 2b16 103d 7505 a3be 944b 47be
00000270: 200a 3b3e eb61 a1bd c18e d1bc 3ed5 a6be
00000280: b09b a9bd d702 e9bc f8f9 453d c55b a63e
00000290: 2495 5abe 070e ae3e 1a88 8c3d 9cf9 46be
000002a0: c77a 8a3d 3979 aa3e 7160 9e3e a82e 65bd
000002b0: e37f c13d bfbb 20be d6f1 bb3d 8353 37be
000002c0: 497c 89bd 6feb e03e 325e 46be 9390 fc3d
000002d0: d276 3bbd 19f2 bd3d 0936 b33e fbf5 e33e
000002e0: aefa d83c bd94 75be f52c 0cbc 225c 4ebe
000002f0: 7ae1 dcbb 3380 2fbd c769 69bd 0cba dcbe
00000300: 0b29 64be 7cce d7be 8ed4 04bd dd94 cdbe
00000310: 1004 0ebd c932 08bd 70b4 47be c140 083e
00000320: 0a16 8cbd b5c3 a2bc de5d 83bd 879a 903e
00000330: 1ef0 79be 2342 a4be bef0 15be 0a9c 9b3e
00000340: 13cb b23e 3f38 56bd 0b52 ae3c ef66 4d3e
00000350: 6243 4abe 387a f8bc 3093 cabd fcdd eabb
00000360: 276b 6d3d ecf8 113e 493f afbd 631b 823c
00000370: 7b54 123d af57 203e 3682 c63d b58d ba3e
00000380: 67a9 95bd deeb 18be cc2d af3e 79d7 b83d
00000390: ed66 103e 819c 2cbd a753 c33c 233a e6bd
000003a0: 8ead f73d bc7c bf3d aadd 313e ab48 bcbd
000003b0: 42af b5be bae4 ff3d 3f9d 2ebe b0ae cb3d
000003c0: 404c 263e a3af 32bd 83db 40be 6cd4 d7bc
000003d0: b426 3fbd 189c 5e3d 96c8 0d3d 3b5a 86be
000003e0: dc8a 0a3e 2396 ccbe da34 d33e ceae 053e
000003f0: 86a0 193e 4395 753e 9d5e 42be 64e0 3e3d
-0.1766074 -0.39152023 0.1308607 -0.27473608 -0.014471532 0.29859415 0.0012962691 0.3307096
-0.06632001 0.016031617 -0.31068456 -0.08005818 -0.30028495 0.07831914 0.060426284 0.15796185
-0.03240784 0.3247137 -0.005909835 0.13962762 0.20711648 0.11734031 0.2024441 0.2585886
-0.24481633 0.06972293 -0.20553356 0.113506466 0.32795876 -0.31521046 0.14264594 -0.31195214
-0.16095461 -0.069887444 0.051958773 0.06281286 -0.23969579 0.026285904 0.08755399 0.08989705
-0.29522145 -0.21330121 -0.39060354 0.3118642 0.23182857 0.16797271 -0.3640231 -0.18770221
0.1678278 -0.1548943 0.030601682 0.16747107 -0.07299917 -0.07506078 -0.07493901 0.13904381
0.35257372 0.1645313 0.06391976 0.06393017 -0.14168406 -0.299133 0.1537549 0.44119132
0.16404071 -0.18950975 0.103046454 0.16560714 -0.07091801 0.16987018 -0.018463964 -0.05243197
0.3258325 0.24302126 0.27690268 0.118605144 0.03407285 -0.0045923605 0.013524706 0.3172063
0.16143483 0.06660591 0.25427374 0.13690905 0.24673888 -0.1856193 0.11165755 -0.017642444
-0.40086824 0.48249185 -0.027211206 0.06077371 0.15281834 -0.13499679 0.0231646 0.25484315
0.07635909 -0.1250347 -0.18694058 0.2907388 0.25810415 -0.024836348 -0.33194324 0.088320844
0.23498528 -0.010434911 -0.06895651 0.30553868 0.29773375 -0.2710201 -0.23357956 -0.13186602
-0.5687719 0.08770143 0.21065989 -0.35416475 -0.0028948304 0.30195448 0.22922947 -0.1724742
-0.06830535 0.12501854 -0.022786444 -0.17501487 0.005594042 -0.13803734 -0.18407032 -0.09097345
0.024322368 -0.120651044 -0.0049936483 -0.016463699 0.20492156 0.21002263 -0.114396445 0.1585646
-0.17283002 0.3126371 0.40253878 0.36394736 0.41260138 0.038554214 -0.27950692 0.21034737
0.06356121 0.13031055 0.44476664 -0.10500234 0.11135845 -0.07320879 0.29817575 0.19188203
0.35490483 0.03517739 -0.318401 -0.19462425 0.18265581 -0.078800045 -0.025580766 -0.32584566
-0.08281648 -0.028443737 0.048334092 0.3249189 -0.21345955 0.33995077 0.06861897 -0.19431156
0.06761699 0.3329561 0.30932954 -0.055952698 0.094482206 -0.1569662 0.09176986 -0.17902951
-0.06713159 0.43929622 -0.1937187 0.12332263 -0.045767613 0.09274692 0.35002163 0.44523606
0.02648672 -0.2398252 -0.0085556405 -0.20152333 -0.006740746 -0.04284687 -0.056985643 -0.43110693
-0.22281282 -0.42149723 -0.03242927 -0.40152636 -0.034671843 -0.033251557 -0.19502425 0.13305952
-0.06840141 -0.019868711 -0.06414388 0.28242895 -0.24408004 -0.32081708 -0.14642617 0.30392486
0.34920558 -0.052299734 0.021279356 0.20058797 -0.19752267 -0.030331716 -0.09891355 -0.007167576
0.057963517 0.14255112 -0.085569926 0.0158822 0.035725098 0.15658449 0.096928045 0.3643624
-0.073077016 -0.14933726 0.34214628 0.09025473 0.14101763 -0.04214144 0.0238436 -0.112415574
0.1209365 0.09349963 0.17369714 -0.09193548 -0.35485274 0.12494798 -0.17052172 0.09945428
0.16240025 -0.04362453 -0.18833737 -0.026346408 -0.04666777 0.05434808 0.03461512 -0.26240715
0.13529533 -0.39958295 0.4125126 0.13054964 0.15002641 0.2398272 -0.18981405 0.046600714

network_body._body_endoder.seq_layers.0.bias f4 [128]
00000000: 41a3 133d 1587 c3ba 4365 4b3c bf99 563d
00000010: d541 ac3c d9df dc3c 114a 913a 0138 a13c
00000020: f64f f13c 654a 003d f01b 5c3c 077f e2bc
00000030: ff1f d1bb d6ec 553b e2d6 2e3d 9430 8b3c
00000040: f3fe 443d 1fb0 e33c d9be 2abc 2327 4abc
00000050: 81eb b03c 8bc8 793b 2d6e a23c 0807 0b3c
00000060: 5766 183b 3d44 1f3c 799c 3abc 001a 19bc
00000070: 0830 983c b052 e33c 557b ae3c 0078 f8bb
00000080: 15bd f63c e27b 2f3d 4f8d 1fbc 6598 4dba
00000090: 5997 a63c 418b 8bbc 7080 973c a611 de3c
000000a0: 9fe1 a03c cf2c 0f3d 063e 683c e9bf 813c
000000b0: e74f 4e3d 80eb 12bb 5632 5d3c 6d19 b63c
000000c0: 438f bdbc d07a 183d 3a09 45ba 26d6 0c3d
000000d0: d31b 223d ddc2 0b3d 0838 b03c a3e6 43bd
000000e0: a5d1 b93c 1016 113d 5904 893a e10f 5f3c
000000f0: af08 05bc a12f 8dbb 0618 d53c a4f9 f03c
00000100: 4130 093d bc3d 073d 35c8 e13c 6b09 c73c
00000110: 99f4 833c b438 a43c e2e2 18bd 09f8 00bd
00000120: da43 c43b 9348 1a3d 40f4 6abd 9a40 0b3d
00000130: 8027 183d bb67 303a 3a9b b93c 03ef 9a39
00000140: 1844 a63c 7d7a 6bbc 9129 c93c c8e8 883d
00000150: 037c a93c 9399 df3c c47e ee3c 6fb5 95bc
00000160: 333f 08bc 9f67 f5bb c715 a93c a391 743c
00000170: 059a bb3c 6a3a 143d 450a 94bc 47c7 043d
00000180: d292 973b 2722 8ebd 1486 b83c e24f 9c3a
00000190: 8d5f 243d 38ce 1b3d 9406 7cbb d03d 663c
000001a0: 0218 6ebc 081d a23c 63c4 393d 9884 0c3d
000001b0: fd87 cc3c cbb7 ba3c 8d30 cb3c 8e7b 093d
000001c0: 5af8 6e3c e2cf 863c c0f9 32ba f660 193d
000001d0: 7b85 f73c 183b f53c 0467 1abc 6d9a bc3c
000001e0: 94fa b53c 7622 0c3d 0288 de3c c0bc 443d
000001f0: 6068 fc3c 48de 9f3c 2f35 d43c e013 8a3c
0.036044363 -0.0014917577 0.012414279 0.052392717 0.021027485 0.026962208 0.0011084696 0.019680025
0.029457074 0.03132095 0.013434395 -0.027648462 -0.006381988 0.0032642386 0.042685397 0.016990937
0.0480947 0.027793942 -0.010421478 -0.0123384325 0.021596672 0.0038113918 0.019827927 0.008485563
0.0023254359 0.009720859 -0.011389845 -0.009344578 0.01857759 0.02774939 0.021299044 -0.0075826645
0.030119458 0.042842753 -0.00973828 -0.0007842838 0.02033584 -0.017034175 0.018493861 0.027108025
0.019638835 0.034954842 0.014174944 0.01583858 0.05036917 -0.00224182 0.013500771 0.02222892
-0.023139602 0.037226498 -0.00075163285 0.034383915 0.039577316 0.034121383 0.021511093 -0.047827374
0.022682974 0.03542143 0.0010453566 0.013614626 -0.008119746 -0.0043086563 0.026012432 0.029415913
0.033493284 0.03301786 0.027561286 0.024296483 0.016107844 0.02004657 -0.037325747 -0.031486545
0.005989534 0.03766687 -0.05736184 0.033997156 0.037147045 0.0006729324 0.022657026 0.00029551247
0.020296142 -0.014372465 0.024555953 0.066850245 0.020689016 0.02729491 0.029113181 -0.01827499
-0.008315849 -0.0074891592 0.020640267 0.014927301 0.02290059 0.03618852 -0.018071303 0.03241661
0.0046256566 -0.06940108 0.022524871 0.0011925662 0.040130187 0.038038462 -0.003845607 0.014052823
-0.014532091 0.019789234 0.045353305 0.03430614 0.024967188 0.022792717 0.024803424 0.033565097
0.014585579 0.016456548 -0.0006827377 0.037445985 0.030215016 0.029935405 -0.009423975 0.023022855
0.022214212 0.034212552 0.027164463 0.04803157 0.030811489 0.019515172 0.025904266 0.01685518

network_body._body_endoder.seq_layers.2.weight f4 [128, 128]
00000000: d967 2ebd 054f f7bd 32e8 cf3d eb1c 59bd
00000010: e665 c2bd b121 803d 58e9 f7bd 3db3 67bd
00000020: 3344 853d d728 a8bc 1d3f 033e ae09 c1bd
00000030: fd64 253e 645d 85bd 4cfe f6bd a58c 263d
00000040: f78e 1a3e a500 bb3d 6fdd 093e ae28 f03d
00000050: 265c 853c 740b 09bd 1b17 05bc d36e 373e
00000060: 1e93 ed3d 509f 7f3b 6e6b 9bbc 9963 58bd
00000070: 4fe0 a4bd eab0 43bd 5f8b 95bd e042 763d
00000080: 8bc9 e03d 74ce 113d d530 8b3d 0bc9 8abc
00000090: fdff 9d3b afed 603c 7d16 c23d d3de f43d
000000a0: 2e26 363e 16f0 103e 9f10 0c3d 4007 113c
000000b0: 04a2 f23d ac40 9ebc 9b12 e3bb 8b7d 8b3c
000000c0: ad57 113d 71d5 75be 215c d83c d1fc 15bd
000000d0: 9b29 a9bd ee86 043e d40a da3d 69c5 f8bd
000000e0: 02f9 083e fef5 dcbd be20 a03d b4cc 3dbe
000000f0: d871 c6bd 4748 c1bd 9658 cebb 3bf9 94bd
00000100: ccc6 e03d 6c1e 2f3e 6b71 703e 909c c63b
00000110: f9f5 b93d e66b 87bc 0fb6 c13c 35d2 ab3d
00000120: 5410 3e3e 756b 493c 118d 29be ba30 4f3d
00000130: 804d f23d ba2d 0d3e 3009 52bd f872 08be
00000140: 0235 29be 7d56 0bbe ce50 18be ce51 8fbd
00000150: f438 0dbd 193b 08be 0a32 04bb acb1 f33c
00000160: 59d2 e9bd 235a be3d 53f7 53bc 48ec afbe
00000170: 58a8 fbbd 0556 afbc 5711 d73c b780 c23b
00000180: fe37 6d3e c460 d4bc d3c5 f6bc 011d e1bc
00000190: a008 f73d c213 6e3e 86fc 2cbc b169 a13d
000001a0: 64e0 693c d159 3abd b833 273e a615 933d
000001b0: 1971 483d 3c7a 34be 014a 70bc b58c a2bc
000001c0: 55c3 8abc 8ae5 bd3d 1438 ecbb d88b 97bd
000001d0: 7ec5 483d 566c 1fbd a0a7 80bc 0f84 3abd
000001e0: 0e4b d0bd 56a3 723d 54e0 80be 96e5 e6bd
000001f0: 6da2 46bd 547f 8b3c ef55 6bbd faee cabd
00000200: f8f6 febd f765 203d 595e cd3d 5cb6 57bc
00000210: 4309 f0bc 4a5f 0f3e aa72 54bc 2f2e 973d
00000220: ff69 a13d 963e 463c efb8 b8bd 4aae 82bd
00000230: 7d36 993c dc1c f1bb c7e4 3c3e 3818 193e
00000240: 74e5 16bd db35 bcbd 22a5 383e dea4 13be
00000250: 06b9 ec3d d2b4 343d dd6e 703d e7e7 f2bb
00000260: 0e7d 873d d133 89bd 653c 15be 5b32 32bd
00000270: 1e2f ce3c db8a 853c fc60 973d 7cd0 36be
00000280: a431 f5ba a13c ccbd 8c09 0bbd 260a 87bd
00000290: a138 693d 8faf 493d a9e5 d73d 135c febd
000002a0: 7681 023e 3433 7ebc 2629 ef3c 3ce5 31bd
000002b0: aa45 823d 4700 82bd 4de3 213d 5797 563c
000002c0: dce3 de3d 7b49 1c3c 31dd 97bd ea00 9c3d
000002d0: 09ad 863d 038f 08bd ef73 afbb 6918 083d
000002e0: d5ab d1bd d12a 263e 99a4 8cbd 8ef6 033d
000002f0: c0de 953a b014 04bc 9d27 5d3d af94 66bd
00000300: 8578 acbd 54f4 003d 9ba7 47bd a94e 8abc
00000310: e9a9 89bd 3885 d93c bc7d 053d f110 213b
00000320: d89e d83d bb2c 84bd a061 4bbd 2f6b 3d3d
00000330: 6d17 9a3d 5cbc 263d 6de1 5d3e 188e e53d
00000340: 861f d63d bea4 cabd 9b63 bb3d b5ff f53d
00000350: f339 44be 0831 213e a174 23be 21aa 4e3b
00000360: 8942 09be 9ba0 35bd d222 0a3e 116d 2ebd
00000370: ebbc 3c3e 1ee9 0b3d b84a 863d c1bf aebc
00000380: a3a3 cbbd 16d0 e5bd 3814 913a d59a 5a3d
00000390: 1334 093e 45c1 133d 76dd ffbc 27ef 6bbc
000003a0: 35e8 e2bd 15b5 cfbd 16f5 1f3d af47 653e
000003b0: 3313 bc3d 2e65 a03d fd24 45ba a6ed 8b3c
000003c0: 1889 c4bd 3bd4 bcbd 52c2 44be 468a 863d
000003d0: b2fe 033e 011e e43d fe12 553b dea3 9fbd
000003e0: b614 80bd 3928 993d 16c5 9d3c f6ed 6ebd
000003f0: d9cf bc3d 1ca9 2b3d aeeb b53d c37e d73d
-0.042579506 -0.12075619 0.101517096 -0.053006094 -0.09492092 0.06256426 -0.12105054 -0.05656742
0.065071486 -0.020527286 0.12817045 -0.094256744 0.16151805 -0.065119535 -0.12060222 0.040661473
0.150936 0.09130982 0.13463376 0.11726509 0.016279291 -0.03345819 -0.008123185 0.1791337
0.11600326 0.003900487 -0.018972125 -0.05282936 -0.08050596 -0.04777614 -0.073019736 0.06012237
0.10975941 0.03559728 0.06796423 -0.016941568 0.004821776 0.013728543 0.094769455 0.11956563
0.17788002 0.14154086 0.03419554 0.008851826 0.11847308 -0.019317947 -0.006929708 0.017027637
0.035484005 -0.24007203 0.026411118 -0.036618058 -0.08259889 0.12942097 0.106465966 -0.12147028
0.13376239 -0.10789107 0.07818745 -0.1853512 -0.09689683 -0.09437614 -0.0062971814 -0.072740994
0.109754175 0.17101449 0.23480766 0.006061144 0.09080119 -0.016530942 0.023646383 0.08389703
0.18560916 0.012293686 -0.16557719 0.05058358 0.11831188 0.13786975 -0.051278293 -0.13325107
-0.16524127 -0.13607211 -0.14874575 -0.06998025 -0.034478143 -0.13303794 -0.0020171427 0.029747806
-0.11417074 0.09294536 -0.012937385 -0.34359956 -0.122879684 -0.021403322 0.026253385 0.005935754
0.2316589 -0.025925048 -0.030123627 -0.02747965 0.12062192 0.23249725 -0.010558253 0.07881487
0.01427469 -0.04549581 0.16328323 0.071818635 0.048935983 -0.17624754 -0.014666081 -0.019842485
-0.016938845 0.09272297 -0.0072088335 -0.0739972 0.04901647 -0.038921677 -0.01570493 -0.045536097
-0.101705655 0.0592378 -0.2517115 -0.11274259 -0.048494745 0.017028488 -0.057455 -0.099088624
-0.12449449 0.03915974 0.10027761 -0.013166036 -0.029301291 0.14001194 -0.012966791 0.07381856
0.07881545 0.012099883 -0.09019648 -0.06380899 0.01870274 -0.0073581766 0.18446647 0.14950645
-0.036839917 -0.091899596 0.18031743 -0.1441836 0.11558728 0.044117756 0.058699477 -0.007412899
0.06615649 -0.06699336 -0.1457382 -0.043505054 0.025168952 0.016301563 0.07391545 -0.17852968
-0.0018706811 -0.099725015 -0.03394465 -0.065937325 0.05693877 0.04923969 0.10541851 -0.124199055
0.12744698 -0.015515137 0.029194426 -0.043431506 0.063609436 -0.06347709 0.03952341 0.013097606
0.108833045 0.0095390035 -0.07415236 0.07617362 0.065759726 -0.03333951 -0.0053543965 0.033226404
-0.102378525 0.1622727 -0.06867332 0.032217555 0.0011434183 -0.008061573 0.053992856 -0.05629414
-0.08421425 0.03148301 -0.048743825 -0.016883211 -0.06721861 0.026552781 0.032590613 0.0024576748
0.10577172 -0.06453844 -0.04965365 0.046244796 0.07523999 0.040706977 0.21668024 0.11208743
0.10455231 -0.09894703 0.091498576 0.12011663 -0.19162731 0.1574136 -0.15962459 0.003153451
-0.13404287 -0.04434262 0.13489845 -0.042584483 0.18431441 0.034157865 0.0655722 -0.02133167
-0.099433206 -0.1122133 0.0011068648 0.053370316 0.13398771 0.036072988 -0.03123353 -0.01440028
-0.11079446 -0.101419605 0.03905209 0.22390626 0.091833495 0.078317985 -0.00075204653 0.017081093
-0.09596461 -0.09220167 -0.19214752 0.06569342 0.12890127 0.11138535 0.003251254 -0.07794927
-0.0625395 0.07478375 0.019259017 -0.058332406 0.09219331 0.041909322 0.08882843 0.10522225

network_body._body_endoder.seq_layers.2.bias f4 [128]
00000000: bdb0 803c 83a4 8d3c cf1e 723c 88c5 ca3c
00000010: 2b5a ac3c 1964 81bb 22af 5f3c f04b e3bb
00000020: 813c 19bd fbc5 31bd 04c1 1bbc 5346 d23c
00000030: 2a46 65bc 299a 9b3c 11e1 be3c f751 81bc
00000040: 9324 ca3c 0e54 d03c 7415 9e3c 3120 08bc
00000050: dd6a 8bbc 5030 cc3c 7536 9e3c 5e45 f33c
00000060: e235 b73c 5b25 c93c 68a4 c23c 588c db3c
00000070: 7b06 f83c 6659 863c 7ab5 6e3c 127c af3b
00000080: 259e 2fbc 8ded 3c3c a55a 143c 5db7 973c
00000090: 0928 da3a 80b2 8a3c 4476 0a3d 04f7 e23c
000000a0: 33c4 b63c c70b 983c 4c10 c73b c54f 863c
000000b0: 8d38 953b 8d59 a43c aca6 863c 1438 ce3c
000000c0: 4282 8b3c 4c3c 073d da77 1cbd 1e0f ef3c
000000d0: 2692 9bbc 32c0 903c f14d 803c 170c 3a3c
000000e0: 24a3 ee3c bd18 063c 2d51 933c 7176 fd3b
000000f0: 0af1 913c 3b52 74bd 95e3 fbbc 90bf a83c
00000100: b95b 113d e784 fc3c 02c9 b33c ea00 e6bc
00000110: 7d02 f73c 333c 2dbc d0a5 103c cd76 cebc
00000120: d5fc 8d3c 8b55 ab3c 1a82 853c f0f3 703c
00000130: 6f7a 673c 9846 f43c 155f d83c e9c4 c33c
00000140: fc35 0e3c 48b5 9e3b 34f6 af3c 4f40 053d
00000150: 6582 f73b cbf7 af3c 37b5 433c b1f8 833c
00000160: 5527 983c 9669 953b e9c0 8a3b 1875 a23c
00000170: f91a 963c 6359 253d c8e2 e2bb b28b c0bc
00000180: aca4 87bc c0dd aa3c 30d4 0fbc ccdb c73c
00000190: 3cfa ce3c f7ab ddba 8702 c73c 1c69 14bc
000001a0: 5ae8 373c 1ab7 933c 3395 c73c c599 a23c
000001b0: f8fc 953c 899c e03c a72b de3c fd17 f43c
000001c0: 52dd a63c 656c b33c 61e5 d2bb d47e dcbc
000001d0: 0684 b13c 3015 c93c 9d72 50bb 1fcf 83bc
000001e0: 56c8 ca3c c4a3 ab3c 4577 e33c 35c5 d63c
000001f0: 2da7 243c eb03 8e3c a70a b83c eed6 483c
0.015709275 0.01729036 0.014777853 0.024752393 0.02103909 -0.0039487 0.013652595 -0.0069365427
-0.037411217 -0.0434017 -0.009506468 0.025668299 -0.013993779 0.018994408 0.02330068 -0.015786154
0.024675643 0.025430705 0.019297339 -0.008308456 -0.01701873 0.024925381 0.019313077 0.029696163
0.02236456 0.024553945 0.023760036 0.02680032 0.030276528 0.01640005 0.014569635 0.0053553665
-0.010718857 0.011531246 0.009054814 0.018520052 0.0016644011 0.016930819 0.033804193 0.027705677
0.022310352 0.018560303 0.006074941 0.016395459 0.0045538605 0.020062232 0.016436897 0.025173225
0.017029885 0.033016488 -0.038200237 0.029182013 -0.018990587 0.01766977 0.015662165 0.0113554215
0.029130526 0.008184609 0.017983044 0.0077350666 0.017815132 -0.059648734 -0.030748168 0.020599157
0.035487864 0.030825092 0.021946434 -0.028076608 0.030152554 -0.010573435 0.008828595 -0.025203133
0.017332474 0.020914814 0.016297389 0.014706597 0.014128312 0.029818818 0.026412526 0.023897605
0.008679863 0.0048433878 0.021479703 0.032532033 0.007553386 0.021480462 0.01194506 0.016109796
0.018573442 0.004559706 0.0042344225 0.019831225 0.018323408 0.04036845 -0.006924007 -0.023504112
-0.016558014 0.020857692 -0.008778617 0.0243968 0.025265805 -0.0016912211 0.024293197 -0.009058263
0.0112248305 0.018031646 0.024363136 0.019848714 0.018309101 0.027418392 0.027120424 0.029796595
0.020369206 0.021902272 -0.0064360355 -0.026915945 0.021669399 0.024546236 -0.0031806596 -0.016089974
0.02475373 0.020952113 0.027766833 0.026217083 0.010049623 0.017335853 0.022466017 0.0122582745

action_model._discrete_distribution.branches.0.weight f4 [3, 128]
00000000: df67 9f3d eb16 3fbd ca38 9b3c 7b73 1ebd
00000010: 486a 2b3c 1a51 c93d d804 193d 9d4d f2bc
00000020: 1e71 9b3c 8ea8 6a3d b8b0 b83c 1786 9abd
00000030: dfa3 89bc dd97 74bc c8c7 cbbc 3722 993d
00000040: c9a0 ccbc 25f0 bfbd 6527 bcbc b54e 823d
00000050: feed afbc dd72 4abc 4f1a 40bb e544 b2bd
00000060: a871 3cbc af89 8b3b 0c59 48bd 0d80 d0bd
00000070: 3899 59bd f63c 50bc d1e6 9439 2666 a63d
00000080: 39cb 723d e5f2 3eba e45c 7c3b c7f1 5cbb
00000090: 2ba6 f5bc e8d0 55bb bb46 d8bb ff7e 0bbc
000000a0: 64f0 2d3d e558 50bd 22f5 c6bd 4b94 5dbc
000000b0: 4938 8cbc a5f4 a2bd ff38 a93d db81 8c3c
000000c0: b084 673c 1039 abbd eac2 003d 530a 52bd
000000d0: 4bbe 75bc 3873 33be f2a1 17bd d03a 0ebc
000000e0: d32e 90bd 1b3d fdbc 973e 083b 2586 bcbc
000000f0: c8fa 1fbc 5a63 ec3c ff14 043d eb8f 0abd
00000100: d411 9dbd 3723 dcbc 17a7 79bd 0f1b 5b3d
00000110: 6a44 8d3d 68d3 823d 4666 7a3d 7bfe 40bc
00000120: 1140 83bd b4b9 babb 38f7 9b3a d141 3fbd
00000130: fba0 db3b 1297 5dbd eb30 75bd 8edd 99bd
00000140: 8599 a93b a8f9 c93d 023d 47bc 4a90 43bd
00000150: d556 963d 5b43 0fbb e5bc 82bd 61cf ccbd
00000160: 7574 f3bc f50f 99bc c94b b33b bab2 6cbd
00000170: 63db f93c f020 b4bd 53f4 cb3c f3fe fe3c
00000180: 9e9f a43d 3ca5 9abc ff52 803d e153 febc
00000190: 6836 91bc 0a36 ddbc b9dc 3cbd c61a 1fbc
000001a0: ea87 48bc 9a0e e43c 3144 28bd 0fc7 a9bd
000001b0: ae97 71bc bef8 f4bc da50 13bd 129b 78bd
000001c0: 0f5f 06bd f18d 553d 9e43 d43b cc1a 453d
000001d0: 9ff2 0bbc 799d 99bc b104 3f3d c05f b53c
000001e0: 7c07 a3bb 974b a13d 8c7f 983b 1f0b 7cbc
000001f0: fe4e 58bd da80 b13d 3955 f2ba 62d8 423d
00000200: 96d1 7dbd c165 723d d239 a43c 845c 333d
00000210: f4f8 3abb f82a d6bd f707 dbbb 4894 d2bb
00000220: a71b a1bc 96ae 52bd b504 16bd 0ac7 953d
00000230: cd1c a3bc 6c07 803c c0d8 5d3d d4b1 9dbd
00000240: 6258 023d 4de4 b83d 5e8f 633c bbfc b6bd
00000250: 370d 05bd fdee c53c 57a2 a63c f33b cc3d
00000260: 4277 283c 70b1 203b 5492 0d3d 18a4 5a3d
00000270: ebb2 443d f9d2 c1ba 87ad 7d3c 71b4 b2bd
00000280: 51e9 6fbd 59ed a83b 6aa7 39bd 4661 87bb
00000290: 6379 9a3c 9b6d 8f3a c5ea 16bd 834c 9b3c
000002a0: d7de 83bd 514b 253d 2fbd 853d 2b41 913c
000002b0: fea5 d1bc 6780 7e3d 5bdc a9bd 047a c53b
000002c0: d97a ab3c a107 683d fc8f 46bd 3cd5 533d
000002d0: 176e 51bd 347b 173e ca12 203d e4ff bf3c
000002e0: 993b 843d 114e 333d 2ddf 2f3c d642 adbc
000002f0: 344f ff3c ca6d 8bbc fc8d c9bc 745b 0d3d
00000300: a197 303d 4caa 303d 786d 563d 5076 8fbd
00000310: 4c49 b2bd 1060 65bd d1fe 8dbd 543b 07bd
00000320: 0c36 843d a4e8 e13c 4537 043d cc81 4d3d
00000330: 52ed 153b 9e5a 883d 6f5e a33d 2725 3d3d
00000340: e668 44bc 7dde debd 5be0 0d3d 079e 8c3d
00000350: 794a 8ebd 4a0a 863c b5cb 4b3c fb65 953d
00000360: 39b1 b83c 73c4 2cbd 488e c23c 79b9 e93c
00000370: 8ed0 3abc c7fc b53d 3742 11bd 9c3b 7abd
00000380: 405b 90bd 3b9c 2b3d f6b2 b1bd 9239 143d
00000390: 2a65 353d eb5a 9f3c af14 393d 48de 1fbd
000003a0: 6c3b d03c 83ab d33b d467 7e3d 1115 633d
000003b0: 6bf0 243d b888 933c c337 453d 8cfb 733d
000003c0: 4c9c 973c 3558 f4bc e91d 163c 3ac5 b1bd
000003d0: e24b c53c fc7c cc3c a6fe 92bc eb21 4abd
000003e0: dae6 4ebc b256 2ebd b8a2 db3c 63f2 f83c
000003f0: 7a25 0e3d 58be 99bd 3efb bc3c 3a0a 34bd
0.07783484 -0.046652716 0.018947978 -0.03868435 0.010462351 0.09829922 0.037358135 -0.029578025
0.018974837 0.057289653 0.022545204 -0.07545107 -0.016801773 -0.014928785 -0.024875537 0.07477229
-0.024979012 -0.09371976 -0.022968004 0.063626684 -0.021475788 -0.012356487 -0.0029312556 -0.08704547
-0.011501707 0.0042583565 -0.048913047 -0.10180674 -0.053124636 -0.012709847 0.0002840073 0.08124952
0.05927584 -0.0007284119 0.0038507516 -0.0033713446 -0.029986462 -0.0032625739 -0.0066002286 -0.008514165
0.042465582 -0.050866026 -0.09714724 -0.013524125 -0.017116683 -0.079568185 0.08262824 0.017151764
0.014130756 -0.08360493 0.031435885 -0.051279377 -0.014998983 -0.17524421 -0.037019677 -0.008681014
-0.07040181 -0.030912926 0.002078926 -0.023013184 -0.009764381 0.028855968 0.032246586 -0.033828657
-0.07669416 -0.02687226 -0.060950365 0.053492602 0.068978146 0.06387979 0.06113269 -0.011779423
-0.06408704 -0.005698407 0.0011899238 -0.046693627 0.00670254 -0.05409915 -0.059861105 -0.07512961
0.0051757717 0.09862071 -0.0121605415 -0.047745027 0.07340781 -0.0021860215 -0.06383685 -0.10000492
-0.029718617 -0.018684367 0.005471681 -0.057787634 0.03050012 -0.08795345 0.024896776 0.031127429
0.08038257 -0.018877618 0.0626583 -0.031045856 -0.017726138 -0.027003307 -0.046108935 -0.009710973
-0.012239436 0.027838994 -0.041080657 -0.082899205 -0.014745636 -0.029903766 -0.035965778 -0.06069476
-0.0328055 0.05213732 0.006477787 0.04812126 -0.008541732 -0.018751847 0.046635333 0.022140384
-0.0049752574 0.07875746 0.0046538766 -0.015383511 -0.052809708 0.086671546 -0.0018488533 0.04756964
-0.061967455 0.05917907 0.020047102 0.0437894 -0.0028529735 -0.104574144 -0.006684299 -0.006426368
-0.019666506 -0.05143603 -0.036625583 0.07313354 -0.019911194 0.015628539 0.054161787 -0.07699934
0.03182257 0.0902792 0.013889162 -0.08934923 -0.032483306 0.02416181 0.020341082 0.09972372
0.0102823395 0.0024519823 0.034563377 0.05337915 0.048022192 -0.0014787606 0.015483267 -0.08725823
-0.058572117 0.005155247 -0.045325674 -0.004131469 0.01885671 0.0010942699 -0.036844987 0.018957382
-0.06438988 0.04035503 0.065302245 0.01773127 -0.025591847 0.062134173 -0.082939826 0.0060265083
0.020932602 0.0566479 -0.048477158 0.051717028 -0.05113038 0.14793092 0.03908042 0.023437448
0.0645668 0.04377562 0.010734362 -0.021150034 0.031165697 -0.017020125 -0.024603836 0.034511045
0.043113355 0.043131158 0.05235049 -0.07004988 -0.087053865 -0.055999815 -0.06933368 -0.033015564
0.06455621 0.027576752 0.03227927 0.050172612 0.002287705 0.06657909 0.07976996 0.04617801
-0.0119879 -0.1088228 0.03463779 0.06866079 -0.06947798 0.016362328 0.012438704 0.07294842
0.022545444 -0.042179536 0.023749486 0.028530823 -0.011402262 0.08886104 -0.035463538 -0.061092004
-0.070486546 0.04189704 -0.08676712 0.036187716 0.04428593 0.019452533 0.04518574 -0.039030343
0.02541896 0.006459655 0.062110737 0.055440012 0.040268343 0.018009529 0.04814888 0.059566066
0.018507145 -0.029827217 0.009162405 -0.08680196 0.024084035 0.024961941 -0.017943691 -0.049348753
-0.0126282815 -0.042563148 0.026810989 0.030389016 0.03470371 -0.07507008 0.02306902 -0.043955065

action_model._discrete_distribution.branches.0.bias f4 [3]
00000000: 72cd fcbc 1696 f33c 1d7e 6bbd
-0.030859683 0.029734652 -0.057493318

action_model._discrete_distribution.branches.1.weight f4 [3, 128]
00000000: 5975 d03c 0195 8abc 8322 62bc 4a19 b43c
00000010: 5e5b 973c b1e8 88b9 6b62 783c d0cd b13c
00000020: 3a62 2dbd 25aa a2bc 73fd 2f3a 803e b6b6
00000030: f0e2 8cbd 6c61 6d3c 9429 173c 1458 2d3c
00000040: 6083 0e3d 4656 81ba 3cd1 c03c 94b9 bebb
00000050: 619b 1bbd e9da 1d3d 7bc1 fabc 5613 60bb
00000060: 09d1 233d 52c3 f33b ac7a 053d de2f 6cbd
00000070: 878c 203d 6471 bb3c 70d2 f63b ac1d 893c
00000080: 4729 96bb 66be 55bd d743 d13c 397d d63c
00000090: adff d6bb cd90 a83c 7101 273d 2ff0 183d
000000a0: 9b70 b73d c8c0 43bc 3ccf debc 9079 fcbb
000000b0: 7ada c43c fe59 933b 5f20 ca3c ed28 c03b
000000c0: 50c6 903c 5763 d03c 5829 deba 8cca 063d
000000d0: 45d3 32bd 656f 0fbe 3ebf b43c 8bb1 db3b
000000e0: 64ff a53c a3b3 38bd 02fb 753c deec 5ebc
000000f0: f56f dfbb 26e9 83bc e12a 5dbc cdff f0bc
00000100: 1cea 9cbc dfcd b33b 4980 60bb 0dad cfb8
00000110: f7a0 c23d 7f64 9dbb 8806 8e3c 5690 7ebd
00000120: 021d 3fbd 6550 16bb 5b7d 8fba 315c 5fbc
00000130: 1914 f43c ec4e f23b 3341 b13c 395c bb3c
00000140: 42d7 f23b 42da 0e3d 3740 fe3c fbaa 5a3c
00000150: d063 d53a b731 923c 9d16 dcbc 9854 97bd
00000160: 2367 c73b 8eb7 f23b b3af a1bd 01c6 eb3c
00000170: 0322 063d 4dea 113c c11f 19bd ff48 05bd
00000180: cfce 5e3b afb4 d3bb 3d97 8f3b cc06 0e3d
00000190: cd38 203d eb07 b93c dc61 ad3c a708 b33b
000001a0: d182 5a3b 800f cf3b df38 543c 8ebe af3c
000001b0: a79f 1a3d 7aa5 aebc 0c1f 7c3a 2d75 b73c
000001c0: a938 113d 51b2 963c 5714 38bd 8e1f 17bc
000001d0: 838e b03c 2f37 743d c646 573c 08b2 14bd
000001e0: 512e fa3c f281 f93c af71 96bb 6136 5ebc
000001f0: 0471 113d 55b0 853c da7b 3d3d 48dc 523c
00000200: 66c1 89bd 2973 28bd 606f 21bd 89cd 22bd
00000210: 985e 8abd 79f4 a03b 4382 c7bd 8236 a63c
00000220: 0819 d6bb 8d12 9c3c 78ff 323d 1278 4ebc
00000230: 4794 d6bc 53d7 06bd fbab a7bc f55b d13c
00000240: d935 c93b c372 95bc e597 6abd 099d f0bb
00000250: edff 993c 100e afbd a90a 5dbd caca 4e3d
00000260: c7e1 0ebd 8288 e9bd d186 dabc 4307 20bc
00000270: 4a03 5ebc 2894 aebc 6494 62bd 3b13 a13b
00000280: 11c2 983c 15df 9a3d b91f 553d 60a7 18bd
00000290: d4b6 2fbd 9ddb e3bc bfff b43c 4790 9fbd
000002a0: 97f9 803c 1b79 aabd fa12 993c f8e3 a2bd
000002b0: 1a4d 0c3d 1a9c 66bd 8aad b73c b7ba b0bd
000002c0: 167b 47bd 345f 713d 3a5f bf3c e46a 55bd
000002d0: 13a9 3d3b 2458 9bbd b249 2abc ef87 78bd
000002e0: 79ee c3bc 45cf 61bd 3551 5fbd 665e 103d
000002f0: f6ea 3cbd c406 5b3c f066 b33c 7553 eabd
00000300: edb3 a83d c23c bfbd 14b1 5f3a a083 883c
00000310: e954 d63c 1c1d d0bb 42b0 ba3b af76 b8bc
00000320: 3890 8bbc 07e9 59bd 2e6e 75bd 8fed 03bd
00000330: 15ae 08bd 01f0 283c c00e e3ba 6c55 19bd
00000340: d607 8e3d b3cf f3bb 70b6 e5bc 1167 a23c
00000350: b958 2c3c 3b4c 48bc 2806 843d e533 eb3c
00000360: e6bd 9bbd 3120 593d f309 1a3d 160d 8b3d
00000370: f001 54bd 1102 c23b b072 813d 9006 013c
00000380: 0d78 92bc fd12 e3bc a600 923c 2745 87bd
00000390: 6e47 01bc 8838 0ebc e33e abbb d173 3d3d
000003a0: 5345 8bba 7e77 86bd 7abd 0bbd b37f 993c
000003b0: 54b0 1d3c eca2 d3bd 00b5 ccbd 2897 f2bb
000003c0: 8680 2ebc b4a5 cabd 84b8 9e3d 328b 8cbc
000003d0: 42c9 a8bc bc06 15bd c71e 62bd 4050 7eba
000003e0: a2bf b2bd c2b2 5e3b 0aa4 86bd 2b90 d5bd
000003f0: a7a5 f73b e21a 863b f7df d4bc 544e 923c
0.02544658 -0.016916754 -0.013802174 0.021984715 0.018476184 -0.0002611331 0.015160183 0.021704584
-0.042330004 -0.019856522 0.0006713487 -5.4312986e-06 -0.068792224 0.014488559 0.009226222 0.0105800815
0.034793258 -0.000986763 0.02353727 -0.0058204625 -0.037989978 0.038538847 -0.030609837 -0.0034191213
0.039994273 0.0074390555 0.032587692 -0.057662837 0.039196517 0.022881217 0.0075324103 0.016737781
-0.0045825574 -0.05218353 0.025545044 0.026182758 -0.0065612406 0.020576859 0.04077286 0.037338432
0.08957025 -0.011947818 -0.027198426 -0.007704921 0.024029959 0.004496812 0.024673639 0.0058642537
0.017672688 0.025437994 -0.0016949577 0.032908008 -0.043658514 -0.14007337 0.022063848 0.0067045144
0.020263381 -0.04509319 0.015013458 -0.013606278 -0.0068187662 -0.016102385 -0.013498993 -0.02941885
-0.0191546 0.005487188 -0.0034256151 -9.9027624e-05 0.09503358 -0.00480324 0.017337099 -0.06214937
-0.046658523 -0.0022936102 -0.0010947393 -0.01363282 0.02979474 0.007394662 0.021637535 0.022871124
0.0074109146 0.034876116 0.03103648 0.013346429 0.0016280357 0.017845972 -0.026866252 -0.07389182
0.006085293 0.0074071353 -0.0789484 0.028780939 0.03274728 0.008905959 -0.0373838 -0.032540318
0.003399778 -0.006460748 0.0043820427 0.03467445 0.03911667 0.022586783 0.021164827 0.005463678
0.0033342133 0.0063189864 0.012953012 0.021453168 0.037749913 -0.02131914 0.00096176635 0.022394741
0.035454426 0.018395575 -0.044941273 -0.009223832 0.02155233 0.05962294 0.013139432 -0.036302596
0.030539664 0.03045747 -0.004591189 -0.01356277 0.03550817 0.016319433 0.046260692 0.012869902
-0.06726341 -0.04112545 -0.039412856 -0.039746795 -0.067563236 0.004911956 -0.09741642 0.020289663
-0.0065337457 0.019051814 0.043700665 -0.012601869 -0.026193751 -0.032920193 -0.020467749 0.025556544
0.0061404523 -0.0182432 -0.057273764 -0.007342939 0.018798793 -0.08547604 -0.053965244 0.050486363
-0.034883287 -0.1140299 -0.026675614 -0.009767356 -0.013550589 -0.02131088 -0.055317298 0.0049156225
0.018647226 0.07562081 0.052032206 -0.037268996 -0.042898968 -0.02781468 0.022094605 -0.077911906
0.015744014 -0.0832388 0.018685807 -0.07953638 0.034253217 -0.056301214 0.022421617 -0.08629363
-0.04870137 0.058928683 0.023360837 -0.052103892 0.0028939887 -0.07585171 -0.010393547 -0.06067651
-0.023917424 -0.05512931 -0.054520804 0.035246275 -0.046122514 0.013368312 0.02189967 -0.114416994
0.08237443 -0.093377605 0.00085331616 0.016664326 0.026163535 -0.0063511264 0.005697281 -0.02251753
-0.017036542 -0.053200748 -0.05991953 -0.032208975 -0.033369143 0.010311128 -0.0017323121 -0.03743498
0.06935088 -0.007440531 -0.028041095 0.019824537 0.0105192 -0.012225206 0.06446487 0.028711269
-0.0760458 0.053009216 0.037607145 0.06789605 -0.05175966 0.0059206565 0.06320703 0.0078751
-0.01787951 -0.027719015 0.017822575 -0.06604987 -0.007890565 -0.00868047 -0.0052260025 0.04625303
-0.0010625519 -0.0656576 -0.034116246 0.01873765 0.009624559 -0.10333809 -0.099954605 -0.007403273
-0.01065076 -0.098948866 0.07750037 -0.017156217 -0.02060378 -0.036383376 -0.055205133 -0.0009701289
-0.08727957 0.003398106 -0.06574257 -0.104278885 0.007557589 0.00409256 -0.025985701 0.017859615

action_model._discrete_distribution.branches.1.bias f4 [3]
00000000: c169 b63c b226 b3bc a19f 483b
0.022267224 -0.021869037 0.0030612724
