results/ppo/Racing/Racing-576.onnx (onnx, 79739 bytes, 6 tensors)

network_body._body_endoder.seq_layers.0.weight f4 [128, 15]
00000000: 5fdf 96bd 695b c23e e0d3 f13c 3aad f43d
00000010: 4726 f33d 45ea 24bd 9f4a 473e 2742 03be
00000020: c12e 93be f52f 7c3d 3465 b3bd 9702 313d
00000030: 564c 003e d740 2ebd 3809 24bd 58d8 d93e
00000040: 9f0f 703d 98c8 d73e 17e3 e13d ebc8 db3d
00000050: 84bb 5a3e 7c35 aa3d ba85 a43e 03c0 10be
00000060: a8bc febb 3165 bfbb 5f8a f03c b673 96bb
00000070: 0230 ba3d c72e 363e 7ebb 3e3e 7e86 d43d
00000080: 30b9 d33c f1e5 21be 435d cc3d c07f a2bd
00000090: 7410 923e 5ba6 8ebe d4b9 103d 0242 263e
000000a0: 3d8f 903e 011d 89bc 4777 883e 1364 a43e
000000b0: 0a2f 9ebd 012b d7be 6a5f 7dbe 420f f0bd
000000c0: 3b69 a33e 3a2a a63e 24e8 8fbe d28f aebd
000000d0: be90 9f3d c4cb ae3d 69d2 ef3d 30b1 043e
000000e0: 50df c03e ccaa c3be 16a9 e8bd 7a59 6dbe
000000f0: 1a78 b0bd 3c64 0f3e 49f3 133d 94d5 c73c
00000100: 3f2f ba3d e76f 04be a868 803e f554 ecbd
00000110: cc95 22bf e001 003d 1ae9 803e 243c 4ebe
00000120: e8b2 6dbc 3fbf 553e 7738 d43d 1fda aabd
00000130: ea49 833e 060b ccbd 1bdb b0be d841 92bd
00000140: e01b a53e 37be 2e3f 24a4 1c3e 131a bd3e
00000150: 871b 06bf 29f6 cf3e 9cdc e6bb ad66 5ebe
00000160: 8447 e13d 0b8d 133d 93f1 bbbe 0fff 373e
00000170: 938b cdbe 7dc4 19bf 96e9 533d bab7 133e
00000180: a103 7a3e 4d1c 4ebe 05de 513e 014e e23d
00000190: c736 c9bd ca21 15bd acb3 3e3e 79ff 3bbc
000001a0: 33c4 2f3e 78d1 473e eee2 113f 5e43 db3e
000001b0: a16e 70be 18eb 523e 59b4 253d ac94 0e3e
000001c0: 183e 693e 2f18 e9be be1e 553e 21bf 283e
000001d0: 985b 03be 747c ad3d 0d61 3ebe b4e5 0cbf
000001e0: 2874 05be e98e af3d 22d8 aa3e bf9c 99be
000001f0: 681c d5be 8f90 333e b629 94be 9ee7 aa3d
00000200: 145c 1d3e cad9 ca3e 6fb8 7abe 58ee c2bd
00000210: 87f3 cdbd e3ef 37be 9ee3 70bc c873 89be
00000220: fd33 7bbe a3d1 07bd 70cc 193e 489e 81be
00000230: b505 16be 7138 823d ccbb 493e ce43 913d
00000240: 17c5 0b3b 045d 113f ffb3 c7bd 56f1 943e
00000250: 2c01 393d 7dec 893e 450f 913e 2dc6 9a3e
00000260: 0164 853e 1900 44be fe2a 2b3d c1c2 d6be
00000270: fc4c 42bd 1b08 ca3d de7a 54bc 3a60 9abd
00000280: 96c5 eb3d 0a88 28bd 3385 01be 4bbb 8dbe
00000290: 7b8b 67be 8ff0 acbc 91e0 33bd ea88 e8be
000002a0: 9051 0a3f d97a 58be 3fa8 ba3d c1c6 31be
000002b0: 9916 4e3e 1204 ddbd e7ca 1b3c 4b33 97be
000002c0: de66 bc3c 3b13 cd3e e037 1dbd 2f33 3ebe
000002d0: 4379 9dbe 7108 a53e 5e6f da3c 9988 33bd
000002e0: 0cda 7e3e 8125 713d d841 5abe ea7b c53d
000002f0: 00b8 953e 0967 633d 4673 ad3d b188 283f
00000300: 80ee 90bc 2f78 453e d559 003f 881a 49bc
00000310: 086e c53e dc5b 15bc 5e8e 243e 2796 143d
00000320: eb79 db3e e5d8 b63e 44fb 183e 960b a5bd
00000330: f2fd 9b3e 6c49 b13c 475a 06bc 5d36 c33d
00000340: 653a 18be 8641 803e c88a 283e 4007 673e
00000350: 4a10 2f3e 9661 aebd 8cdb 0c3b 2fe7 d2bd
00000360: 66c6 7c3d 3919 49be 55f7 9dba 2ae0 bd3d
00000370: b852 6fbc 9538 e23e 4661 a3bd 4408 b13d
00000380: 893f 72be c2f5 e8bd 157d 23be 0949 453d
00000390: 8aad 95be 883a 543e 5cad fd3e 2b87 dcbe
000003a0: ac5f 16be 10f3 3cbe 05b4 823e 803c 1abe
000003b0: 6a9d 87be f056 f2bd bf0f b1bd bb7a 2c3e
000003c0: 34c3 f2bd f971 76be f170 a0be 8a9c c3be
000003d0: 2fb5 ffbd b6d1 ce3c 1558 373c 0630 07bf
000003e0: fe50 633e f8ab 933c 5eb5 25be 79b0 383d
000003f0: 6acc 1fbe a66b 0cbf 69eb 6abd 8a67 76be
-0.073668234 0.37960365 0.029519975 0.11947103 0.11872535 -0.04026248 0.1946206 -0.12818204
-0.28746608 0.061569173 -0.08759537 0.04321536 0.1252912 -0.042542305 -0.040047854 0.4254787
0.058608647 0.42145228 0.11029642 0.107316814 0.21360594 0.083109826 0.32133275 -0.14135747
-0.0077739544 -0.0058409204 0.029362855 -0.0045914305 0.09091188 0.17791282 0.1862621 0.10377215
0.02584514 -0.15810372 0.09978726 -0.07934523 0.28528178 -0.27861294 0.03533347 0.16236117
0.28234282 -0.016737463 0.266535 0.321076 -0.07723816 -0.42024997 -0.24743429 -0.1172166
0.31916222 0.3245409 -0.28106797 -0.08523525 0.07791279 0.08534959 0.117100544 0.12958217
0.37670374 -0.38216245 -0.113603756 -0.23178664 -0.086166576 0.1400308 0.036120687 0.024393834
0.09091043 -0.12933312 0.25079846 -0.11539642 -0.6350982 0.03125179 0.25177842 -0.2014013
-0.014507987 0.20873736 0.10362332 -0.083423845 0.2564233 -0.0996304 -0.34542164 -0.07141465
0.3224783 0.68258995 0.1529699 0.36933956 -0.52385753 0.40617493 -0.0070453417 -0.21718855
0.10999969 0.03602318 -0.36707744 0.17968391 -0.4014555 -0.6006544 0.051736437 0.14425555
0.24415447 -0.20127983 0.2049485 0.11050034 -0.09824901 -0.036409177 0.18623227 -0.011474484
0.17164688 0.195135 0.5698689 0.42824835 -0.23479702 0.20597494 0.040455196 0.13923901
0.22777593 -0.45526263 0.20812508 0.1647916 -0.12827909 0.08471003 -0.1859171 -0.55038
-0.13032591 0.0857218 0.3336802 -0.300024 -0.41623235 0.17535613 -0.28938073 0.08344959
0.15367156 0.39619285 -0.24484418 -0.09518117 -0.10056215 -0.17962603 -0.014702706 -0.26846147
-0.2453155 -0.03315891 0.15019393 -0.25316072 -0.14650615 0.063584216 0.19700545 0.07093011
0.0021327191 0.56782556 -0.097511284 0.29090375 0.045167133 0.2693824 0.28331962 0.3022932
0.2605286 -0.19140662 0.041789047 -0.4194546 -0.0474367 0.09864827 -0.012968747 -0.07537885
0.11512296 -0.041145362 -0.12648468 -0.27681956 -0.22611801 -0.021110801 -0.043915335 -0.45416957
0.54030704 -0.21140613 0.09114122 -0.17360975 0.20125808 -0.10791792 0.009508825 -0.2953132
0.02299827 0.40053734 -0.038383365 -0.18574212 -0.30756578 0.32233003 0.026664432 -0.04383144
0.24887866 0.058873657 -0.2131418 0.09642775 0.29241943 0.055518184 0.08469252 0.65833575
-0.01769185 0.19284128 0.5013707 -0.012274392 0.3856051 -0.009116139 0.16069934 0.03627601
0.42866454 0.35712352 0.149396 -0.080588505 0.30467182 0.021641456 -0.008200235 0.09531853
-0.14866026 0.2504999 0.16459191 0.2256136 0.17096058 -0.08514707 0.0021493165 -0.10298001
0.061712645 -0.19638528 -0.001205186 0.092712715 -0.014607124 0.44183794 -0.07977538 0.08644155
-0.23657049 -0.113749996 -0.15965684 0.048165355 -0.29233962 0.20725453 0.49546325 -0.43071875
-0.14684933 -0.18452096 0.2552797 -0.15062141 -0.26487285 -0.11832988 -0.086455815 0.16843693
-0.11853638 -0.24066915 -0.31336167 -0.38205367 -0.1248573 0.025246482 0.011190434 -0.5280765
0.22198865 0.018026337 -0.16182467 0.045090172 -0.15605322 -0.5485176 -0.05735341 -0.24062935

network_body._body_endoder.seq_layers.0.bias f4 [128]
00000000: 0000 0000 0000 0000 0000 0000 0000 0000
00000010: 0000 0000 0000 0000 0000 0000 0000 0000
00000020: 0000 0000 0000 0000 0000 0000 0000 0000
00000030: 0000 0000 0000 0000 0000 0000 0000 0000
00000040: 0000 0000 0000 0000 0000 0000 0000 0000
00000050: 0000 0000 0000 0000 0000 0000 0000 0000
00000060: 0000 0000 0000 0000 0000 0000 0000 0000
00000070: 0000 0000 0000 0000 0000 0000 0000 0000
00000080: 0000 0000 0000 0000 0000 0000 0000 0000
00000090: 0000 0000 0000 0000 0000 0000 0000 0000
000000a0: 0000 0000 0000 0000 0000 0000 0000 0000
000000b0: 0000 0000 0000 0000 0000 0000 0000 0000
000000c0: 0000 0000 0000 0000 0000 0000 0000 0000
000000d0: 0000 0000 0000 0000 0000 0000 0000 0000
000000e0: 0000 0000 0000 0000 0000 0000 0000 0000
000000f0: 0000 0000 0000 0000 0000 0000 0000 0000
00000100: 0000 0000 0000 0000 0000 0000 0000 0000
00000110: 0000 0000 0000 0000 0000 0000 0000 0000
00000120: 0000 0000 0000 0000 0000 0000 0000 0000
00000130: 0000 0000 0000 0000 0000 0000 0000 0000
00000140: 0000 0000 0000 0000 0000 0000 0000 0000
00000150: 0000 0000 0000 0000 0000 0000 0000 0000
00000160: 0000 0000 0000 0000 0000 0000 0000 0000
00000170: 0000 0000 0000 0000 0000 0000 0000 0000
00000180: 0000 0000 0000 0000 0000 0000 0000 0000
00000190: 0000 0000 0000 0000 0000 0000 0000 0000
000001a0: 0000 0000 0000 0000 0000 0000 0000 0000
000001b0: 0000 0000 0000 0000 0000 0000 0000 0000
000001c0: 0000 0000 0000 0000 0000 0000 0000 0000
000001d0: 0000 0000 0000 0000 0000 0000 0000 0000
000001e0: 0000 0000 0000 0000 0000 0000 0000 0000
000001f0: 0000 0000 0000 0000 0000 0000 0000 0000
0.0 0.0 0.0 0.0 0.0 0.0 0.0 0.0
0.0 0.0 0.0 0.0 0.0 0.0 0.0 0.0
0.0 0.0 0.0 0.0 0.0 0.0 0.0 0.0
0.0 0.0 0.0 0.0 0.0 0.0 0.0 0.0
0.0 0.0 0.0 0.0 0.0 0.0 0.0 0.0
0.0 0.0 0.0 0.0 0.0 0.0 0.0 0.0
0.0 0.0 0.0 0.0 0.0 0.0 0.0 0.0
0.0 0.0 0.0 0.0 0.0 0.0 0.0 0.0
0.0 0.0 0.0 0.0 0.0 0.0 0.0 0.0
0.0 0.0 0.0 0.0 0.0 0.0 0.0 0.0
0.0 0.0 0.0 0.0 0.0 0.0 0.0 0.0
0.0 0.0 0.0 0.0 0.0 0.0 0.0 0.0
0.0 0.0 0.0 0.0 0.0 0.0 0.0 0.0
0.0 0.0 0.0 0.0 0.0 0.0 0.0 0.0
0.0 0.0 0.0 0.0 0.0 0.0 0.0 0.0
0.0 0.0 0.0 0.0 0.0 0.0 0.0 0.0

network_body._body_endoder.seq_layers.2.weight f4 [128, 128]
00000000: a671 0a3d e712 82bd 26e9 17be c8fc 08be
00000010: f414 383d 3523 adbd 251b 9c3a d4b8 d43d
00000020: 03ae e33d e53f 8a3d fd29 5b3d 88b1 e5bc
00000030: 76dc 83be 0f33 8fbd 2477 4a3b 6ccb 663d
00000040: 22c3 c9bc 3212 92bd f3d3 b83d f6ef 07bc
00000050: 0e37 983d 681c 2abe 147d 0a3d 0856 56be
00000060: dc95 213e dcc5 8b3d 0e52 d2bd d84d a23d
00000070: d3eb 35bc 9b49 643d 981e a73d e43d 503d
00000080: 0cc2 1e3d 6552 1cbc 0b67 473d 4de2 ecbd
00000090: 3175 b9bd 1c78 1f3e 31eb 3bbd 7f6f f93d
000000a0: 8703 7fbe 0693 b9bd 54fd 62bc 5f99 8cbe
000000b0: ea43 17bb 0a48 d13c 2e93 23bd 0949 8bbd
000000c0: 1f08 a9bb fb91 8fbd e0fd 9abd 0e1c 9f3d
000000d0: 0e5b a1bd a79b 323c ad93 2cbd 7182 413c
000000e0: fcb0 adbc 8905 15bd 0d48 2dbd 0d01 9d3c
000000f0: 88e9 32bb 11b6 703d ecf1 a03e c082 91bd
00000100: 44e7 8a3d cac6 be3d 2ef7 acbd f5ea 973d
00000110: 78f4 5c3e 3acf 0abd ee73 973c 5a3c 4dbd
00000120: d9cb b83d e6e6 683d 2262 17bd 8e1b b5bc
00000130: 31f8 1d3e ad9d 143e 7948 013d cf62 a2bd
00000140: 8fe0 88bd ea63 ebbd 5c79 a13d 2e82 49bc
00000150: bc52 893b ea86 03be 8342 873c 86b2 01be
00000160: 52d4 38bd ac9a 153d c62a 813d b57c 87bd
00000170: 5c41 a8bd 3477 c9bd fee7 b9bd d0dd eb3d
00000180: 25ed 863d 9089 da3d 8894 f23c f18d 80bd
00000190: 414d 39bd 26d7 d9bc 12a5 6dbd e5d8 183d
000001a0: 2645 c9bd 7ede 3d3c 7eec ecbc 8ff8 b03d
000001b0: 16fa d7ba d32c 12bd 7d65 2ebe ac2d a23d
000001c0: e10c 8f3d 5a6d 9a3c c22e 7abd b24f 83bb
000001d0: 8c6e 49bd 8fd0 0dbd 3722 3c3e bc0c 26bd
000001e0: 3dc9 ce3d a4d1 b23c a4c2 af3c b86d 91bd
000001f0: 0420 933d b8d2 71bc cfe3 9dbd 286f 16be
00000200: 6a5f 93bc cb15 f53d d381 b43c 1fae 2ebd
00000210: e76d 7dbe 6e3a 863d 5f69 e7bd a731 2abd
00000220: db14 5fbd 91de 55be de31 cabd 7af9 17bd
00000230: 62db 0d3e 9d07 bf3c 2cf2 f13d bbc8 e13c
00000240: 403a 3d3d c089 9cbd 6e4f 63bd fdd6 84bd
00000250: 354f 283d de7c a63b 37de 50bd e0d1 d93b
00000260: 9494 f0bc 0b02 a33d 6ad3 463e bb2b dd3d
00000270: 648b 57bc 22dd 78bd 115d 4c3c e2f5 8bbd
00000280: 534f bc3c 8035 713c 3b89 2e3c 7959 363d
00000290: 23cf 17bd 7743 11be bf05 ca3d 835f a0bd
000002a0: 535c cfbd 687b ce3c 4fa8 f1ba 58db f0bc
000002b0: dbc9 b4bd b75e f53d fbf3 ca3b afd5 a0bd
000002c0: 8638 ca3d 4768 ac3c b775 c4bd ef76 533c
000002d0: 6351 053d 60fe b63c e026 e63d ccec 103d
000002e0: 7697 e23d b3db 8a3d 28e9 2ebd e4d0 89bd
000002f0: dc3c d53d e8b9 d8bd 3c87 1dbd d8ac d3bd
00000300: 6967 ad3d 4340 0b3d 4c6e a03d aeda a0bd
00000310: 86fc 92bc b333 c8bd a1b9 00bd c4dc 223d
00000320: d816 fabd fa5e 6f3d d4d4 2b3e 5940 cd3c
00000330: 9aa8 b9bd ce48 6ebd bba0 fbbc 3c82 dfbb
00000340: 22c0 abbd b334 15bd 29db 17bd 1f9d 0cbc
00000350: 35ad 713d ffd8 31bc d9c4 e5bb 5c6b 90bd
00000360: e3ed 5e3e 6456 3d3d bbff 61bd d6ed 893b
00000370: 8350 83bd fe00 54bd 932f 123e b52c b9bd
00000380: 8121 0ebe 31ea 813c b1fd f03d 0a2c c73d
00000390: ca0b 79bd 0ac3 47bd 7700 4c3b 887c 28be
000003a0: 34a1 9c3b 3350 0c3d bb55 f1bc 01a1 af3d
000003b0: 0b54 3abe 302f 88bc d484 0b3e 50af 9e3d
000003c0: 68a3 dd3d 1701 8d3d 8a08 133e 27b4 113d
000003d0: 38d0 90bc 6ff9 443b a55e 903c 1565 483d
000003e0: c7d3 cbbd d8d6 abbd 731f 203e 209b 7a3e
000003f0: ffd7 babd c6f3 6abd df55 fb3d 5d75 49bc
0.03379979 -0.063512616 -0.14835033 -0.13377678 0.044941857 -0.08453981 0.0011909945 0.10386816
0.111171745 0.06750468 0.05350684 -0.028038755 -0.25754136 -0.069921605 0.0030893767 0.056346342
-0.02462918 -0.07132377 0.09024801 -0.008296957 0.07432376 -0.16612399 0.03381069 -0.20931256
0.15779823 0.06824848 -0.10269557 0.07925004 -0.011103588 0.05573426 0.08160132 0.050840273
0.038759276 -0.009541129 0.048682254 -0.11566601 -0.090555556 0.15573162 -0.045878593 0.12179469
-0.2490369 -0.090612456 -0.013854343 -0.27460763 -0.0023081251 0.025547046 -0.039935283 -0.0680104
-0.005158439 -0.070102654 -0.07567954 0.07769023 -0.078786954 0.010901368 -0.042133022 0.011810885
-0.021202557 -0.03638223 -0.04230504 0.01916554 -0.002729984 0.058767382 0.31434572 -0.07105017
0.06782392 0.0931526 -0.08445583 0.07417861 0.21577632 -0.033889033 0.018487897 -0.050106384
0.09023256 0.056860827 -0.03695882 -0.022107866 0.15426709 0.14513274 0.031563256 -0.079290025
-0.06683456 -0.114936665 0.078844756 -0.012299104 0.004190771 -0.12844434 0.016511207 -0.12665758
-0.04512436 0.03652446 0.063069865 -0.06615583 -0.08215591 -0.09837189 -0.09077452 0.11516917
0.065882005 0.10670769 0.02961184 -0.06277073 -0.04523969 -0.026591849 -0.05801875 0.03731622
-0.09827642 0.011588691 -0.028921362 0.08641159 -0.001647773 -0.03568728 -0.17030902 0.079188675
0.06984878 0.018850971 -0.061079748 -0.004007303 -0.04917769 -0.034622725 0.18372427 -0.04053949
0.10096977 0.02182848 0.021455117 -0.07101005 0.07183841 -0.014759712 -0.07709467 -0.1469084
-0.017989833 0.11967047 0.022034561 -0.042646524 -0.24748956 0.06554113 -0.11299395 -0.04155126
-0.05446325 -0.20885684 -0.09872793 -0.037103154 0.13853219 0.02331906 0.11813769 0.027561536
0.04619813 -0.07643461 -0.055495672 -0.06486318 0.041091163 0.0050808033 -0.05099317 0.0066473335
-0.029367723 0.07959374 0.19416586 0.107993565 -0.013155792 -0.060757764 0.012473361 -0.06834008
0.022987043 0.014722228 0.0106528355 0.04451892 -0.037062775 -0.14185892 0.09864377 -0.078307174
-0.10125031 0.025205329 -0.0018437001 -0.029401466 -0.088275634 0.11980956 0.0061936355 -0.07853257
0.09874062 0.021045817 -0.09592765 0.012906774 0.03254832 0.022338092 0.112378836 0.035382077
0.11064045 0.067801856 -0.042702824 -0.06729296 0.10411999 -0.10582334 -0.038459048 -0.10335702
0.084669895 0.03399683 0.078335375 -0.0785421 -0.017942678 -0.09775486 -0.03142703 0.03976132
-0.12211388 0.058440186 0.16780406 0.025055097 -0.09065361 -0.0581749 -0.03071629 -0.006820945
-0.08386256 -0.03642721 -0.03707424 -0.008582382 0.059003074 -0.010854959 -0.0070119915 -0.07051727
0.21770434 0.046224967 -0.055175524 0.0042092605 -0.06411841 -0.05175876 0.1427596 -0.0904173
-0.13879968 0.015858741 0.11767138 0.09725197 -0.06080226 -0.048769988 0.0031128207 -0.16453755
0.004779959 0.03425617 -0.029459825 0.08575631 -0.18196122 -0.016624063 0.13624889 0.07748282
0.10822183 0.068849735 0.14358726 0.035572197 -0.017677411 0.00300559 0.017623255 0.048924524
-0.09952503 -0.083905876 0.15636997 0.24473238 -0.09123229 -0.057361387 0.12272238 -0.012296048

network_body._body_endoder.seq_layers.2.bias f4 [128]
00000000: 0000 0000 0000 0000 0000 0000 0000 0000
00000010: 0000 0000 0000 0000 0000 0000 0000 0000
00000020: 0000 0000 0000 0000 0000 0000 0000 0000
00000030: 0000 0000 0000 0000 0000 0000 0000 0000
00000040: 0000 0000 0000 0000 0000 0000 0000 0000
00000050: 0000 0000 0000 0000 0000 0000 0000 0000
00000060: 0000 0000 0000 0000 0000 0000 0000 0000
00000070: 0000 0000 0000 0000 0000 0000 0000 0000
00000080: 0000 0000 0000 0000 0000 0000 0000 0000
00000090: 0000 0000 0000 0000 0000 0000 0000 0000
000000a0: 0000 0000 0000 0000 0000 0000 0000 0000
000000b0: 0000 0000 0000 0000 0000 0000 0000 0000
000000c0: 0000 0000 0000 0000 0000 0000 0000 0000
000000d0: 0000 0000 0000 0000 0000 0000 0000 0000
000000e0: 0000 0000 0000 0000 0000 0000 0000 0000
000000f0: 0000 0000 0000 0000 0000 0000 0000 0000
00000100: 0000 0000 0000 0000 0000 0000 0000 0000
00000110: 0000 0000 0000 0000 0000 0000 0000 0000
00000120: 0000 0000 0000 0000 0000 0000 0000 0000
00000130: 0000 0000 0000 0000 0000 0000 0000 0000
00000140: 0000 0000 0000 0000 0000 0000 0000 0000
00000150: 0000 0000 0000 0000 0000 0000 0000 0000
00000160: 0000 0000 0000 0000 0000 0000 0000 0000
00000170: 0000 0000 0000 0000 0000 0000 0000 0000
00000180: 0000 0000 0000 0000 0000 0000 0000 0000
00000190: 0000 0000 0000 0000 0000 0000 0000 0000
000001a0: 0000 0000 0000 0000 0000 0000 0000 0000
000001b0: 0000 0000 0000 0000 0000 0000 0000 0000
000001c0: 0000 0000 0000 0000 0000 0000 0000 0000
000001d0: 0000 0000 0000 0000 0000 0000 0000 0000
000001e0: 0000 0000 0000 0000 0000 0000 0000 0000
000001f0: 0000 0000 0000 0000 0000 0000 0000 0000
0.0 0.0 0.0 0.0 0.0 0.0 0.0 0.0
0.0 0.0 0.0 0.0 0.0 0.0 0.0 0.0
0.0 0.0 0.0 0.0 0.0 0.0 0.0 0.0
0.0 0.0 0.0 0.0 0.0 0.0 0.0 0.0
0.0 0.0 0.0 0.0 0.0 0.0 0.0 0.0
0.0 0.0 0.0 0.0 0.0 0.0 0.0 0.0
0.0 0.0 0.0 0.0 0.0 0.0 0.0 0.0
0.0 0.0 0.0 0.0 0.0 0.0 0.0 0.0
0.0 0.0 0.0 0.0 0.0 0.0 0.0 0.0
0.0 0.0 0.0 0.0 0.0 0.0 0.0 0.0
0.0 0.0 0.0 0.0 0.0 0.0 0.0 0.0
0.0 0.0 0.0 0.0 0.0 0.0 0.0 0.0
0.0 0.0 0.0 0.0 0.0 0.0 0.0 0.0
0.0 0.0 0.0 0.0 0.0 0.0 0.0 0.0
0.0 0.0 0.0 0.0 0.0 0.0 0.0 0.0
0.0 0.0 0.0 0.0 0.0 0.0 0.0 0.0

action_model._discrete_distribution.branches.0.weight f4 [5, 128]
00000000: e865 7d3b 071d 313c a51b e1bb 9ae5 acbb
00000010: 3155 36bb 1062 7dbc bae8 b1bb 691f 00bc
00000020: 7331 8d3c a26a 0d3c 3aa2 d83b 720d 9b3a
00000030: 9082 75bb 5e2a 2e3c 2cc0 c23b c3fb 3dbb
00000040: b349 8abb 67e6 c1bb 77ee 7dbb b905 16bb
00000050: 26c1 0f3c e280 70ba d345 6fbb 3563 833b
00000060: 4dd0 d7bb cdb4 073b c372 233b 738d 7fbb
00000070: b8fc eebb 1bdb d0bb 7bb9 f63b fdaf 7abb
00000080: 6f6c 3ebb 9f92 e13b 3758 f03b 030d d03b
00000090: b628 28bb baa7 dc3b 35b8 54bb 93cc 8b3b
000000a0: 5874 f13b 0f8b 32ba a905 31bb 3b15 02bc
000000b0: f3eb c73c ebf3 f33b 4595 e03a 9a72 20bb
000000c0: 3d31 60bc e4c3 8bba db1c 713c 8be1 713a
000000d0: 2754 b13b af34 ab3c d0a6 c63c 0f8f a0bb
000000e0: da14 6a3a 5ad8 0b3c 435d b83b 0290 193c
000000f0: 3715 273a eb81 bdba 3b88 c6b9 976e 8ebb
00000100: 4098 cf39 8abe ed39 368b 223c 06ce 91bc
00000110: 7ba5 2f3c 47f3 67bb 849d 4a3c bb58 6f3c
00000120: dab3 0c3c 3865 0c3c ed25 bbbb b9a9 3dbc
00000130: ecb9 ad3c bc8e 3ebb e3d8 853c d5a2 8fbc
00000140: 3887 b6b9 7304 f8bb 0596 d43b 431b d23a
00000150: 38ee f3ba 58dd a3bb b105 323c 1712 b0bc
00000160: 049c ae3b a819 d03b c0cd e3bb 8461 c8bb
00000170: d52d 08b9 cace 1c3c 29db 1bbc cb0f fbbb
00000180: 4acb 1c3a c75f 21bc 9bc0 4a3c cf6f 1b3c
00000190: 27eb 983b e8c9 1a3b d9c1 06bc 75b0 5ebb
000001a0: 6250 4ebc 5027 013a 8700 a7bc 62df e9ba
000001b0: 3f23 22bc 7890 4e3c 6f22 4abc 85ea 5f3c
000001c0: 1b98 6dbc 67c7 84ba cf7d bfba fa3e 853c
000001d0: 2b84 47bb 7daa 0ebb e130 073b 3ff7 46bc
000001e0: 54d6 29bc 9db8 8b3c 5101 1b3b 1f21 a8ba
000001f0: d65d 473c e5b4 133a 14e6 a63b 83b1 973b
00000200: 2ac2 c3bb f859 d4bb a74f 3bbc b988 053c
00000210: 1733 eabc c233 6cbc 9212 e4bb 1704 173c
00000220: db0f b4bb 9466 9c3c 165a 0bbc 4824 bebc
00000230: b7a3 0bbb 5749 733c bc8e a9bc 04f6 94bc
00000240: 21a1 803c 63cc 58bb 3474 c23b fbb9 59bc
00000250: c0bf 67bc c3d0 e43b 9b5f 6639 e814 64bc
00000260: 17c7 043b 3341 05bc b1ca 923a c2c1 94bb
00000270: f4ca 203c 7d59 fd3b 4615 a73b 8810 8c3b
00000280: 2826 97ba 558b 333b ef40 baba f342 c73c
00000290: ce1e 363c c35e 3bbb 6d7d 5d3b f125 a9bb
000002a0: df1c 07bc c7e1 0bbc e798 83ba f813 f4bb
000002b0: 49c5 193b 698f 41bb 2244 5fbc 9617 8abb
000002c0: 64d7 a1bb 3f91 e13b 7bfe 4bbb 94df 0cba
000002d0: 403e a0b9 9c69 2dbc 02c2 97b9 9521 1cbc
000002e0: e10b bf3a 1215 393a efca b93a 65e9 30ba
000002f0: cbd3 9839 6fdf a1bb c10e c8bb 3747 5a3b
00000300: 0a83 eabb b914 033c 7116 b03b bb65 823c
00000310: fa4d 57bb f770 873a 11b9 23bb 9bc4 393a
00000320: 1a75 51bc ef87 1cba 9fba f5bb e3f8 8f3c
00000330: a7c8 4d3b db4e 43bb 64f6 c6bc 73fe e93c
00000340: a92e b6ba 352a 48bb b0a3 cdbb 9fd7 853b
00000350: 23ed f7bb eff6 70bc cc0e a339 aee1 9a3b
00000360: b532 9cba df8a 52bc 3274 0e3a 8aa0 423c
00000370: d4fe 0a39 5d3d d2bb 6364 dd3b 1dd7 713b
00000380: 05c2 7fbc ea65 293c 9331 27bc 7f14 8c3c
00000390: 4aea a4ba c737 a93c a0b0 96bb fb47 18ba
000003a0: 5fac 9dbb d150 b03b 6860 943a a259 10bb
000003b0: a50d efbb 5b11 d5ba c8b8 10bc ec5f 0dbc
000003c0: 83fc bd3b 588a 4d3a 8d7d 4b3c af77 28bc
000003d0: f5b5 9439 70cd 953a 8a42 593c e57f bfbb
000003e0: 91c4 34bb 5896 193c db32 89bc 9f98 ae3b
000003f0: 0077 42bc 7da4 da3b 5701 9b39 d8f9 a9bb
0.0038665477 0.010810143 -0.0068697506 -0.005276394 -0.0027821774 -0.015465274 -0.0054293545 -0.007819989
0.017235493 0.00863138 0.006611136 0.0011829569 -0.0037461855 0.010630218 0.005943319 -0.0028989173
-0.0042202114 -0.0059173587 -0.0038746872 -0.0022891595 0.0087740775 -0.00091744785 -0.0036510124 0.004009629
-0.0065861107 0.002070713 0.002494023 -0.0038994222 -0.00729331 -0.0063737757 0.007529435 -0.003825187
-0.002905633 0.0068839337 0.007334735 0.0063492074 -0.0025659031 0.0067338618 -0.0032458429 0.0042663305
0.0073686056 -0.00068108825 -0.002701143 -0.007939632 0.024404502 0.007444849 0.001713433 -0.002448237
-0.013683614 -0.0010663238 0.014716352 0.0009227029 0.005411643 0.020899145 0.024249464 -0.0048998664
0.0008929499 0.008535469 0.005626352 0.009372713 0.00063737057 -0.0014458274 -0.00037867003 -0.0043466794
0.00039595552 0.00045346125 0.009920886 -0.017798435 0.010720606 -0.0035392807 0.012366656 0.014608557
0.008587802 0.008569054 -0.005711308 -0.01157611 0.021206819 -0.0029076776 0.016338771 -0.017533699
-0.0003481449 -0.0075688898 0.0064876103 0.0016029853 -0.0018610423 -0.0050007515 0.010865615 -0.021493
0.005328657 0.0063507147 -0.0069520175 -0.0061151404 -0.00012987044 0.009570787 -0.009512701 -0.007661795
0.000598122 -0.009849495 0.012375022 0.009487106 0.004666704 0.002361888 -0.008224928 -0.0033979688
-0.012592407 0.00049268175 -0.020385994 -0.0017843063 -0.009896099 0.012607686 -0.012337311 0.013666754
-0.014501597 -0.0010130227 -0.0014609637 0.016265381 -0.0030443768 -0.00217691 0.00206285 -0.012143909
-0.010366041 0.017055804 0.0023651908 -0.0012827254 0.012168368 0.00056345604 0.0050933454 0.0046293153
-0.005974074 -0.0064804517 -0.011432565 0.008150273 -0.028588815 -0.014416637 -0.0069602216 0.009217284
-0.005495054 0.019091882 -0.008505365 -0.02321066 -0.0021307298 0.014849029 -0.020697944 -0.018183716
0.015701832 -0.0033080808 0.0059342626 -0.01328897 -0.014144838 0.006982894 0.00021970125 -0.013921
0.0020260268 -0.0081332205 0.0011199323 -0.0045396993 0.009814013 0.007731615 0.0050989715 0.0042744316
-0.0011531757 0.002739628 -0.0014210026 0.024323916 0.011115743 -0.0028590418 0.0033796683 -0.0051619937
-0.0082466295 -0.008537716 -0.0010040075 -0.0074486695 0.0023463538 -0.0029534942 -0.013627084 -0.0042142374
-0.0049390066 0.0068837698 -0.0031127024 -0.0005373892 -0.00030563958 -0.010584261 -0.0002894551 -0.009529491
0.0014575684 0.00070603297 0.0014174859 -0.00067486457 0.00029149497 -0.0049399654 -0.0061052744 0.0033306608
-0.0071567344 0.008000546 0.005373769 0.01591765 -0.0032852874 0.0010333349 -0.0024982134 0.00070864864
-0.012784267 -0.00059711834 -0.0074990536 0.017574733 0.0031400116 -0.002980164 -0.02428741 0.028563714
-0.0013899404 -0.0030542735 -0.0062756166 0.004084542 -0.0075661107 -0.014707311 0.00031100807 0.00472661
-0.0011916967 -0.012850492 0.00054341846 0.011879096 0.00013255636 -0.0064160065 0.006756352 0.00369019
-0.015610223 0.01033924 -0.0102046905 0.017099617 -0.0012582031 0.02065648 -0.004598692 -0.0005809066
-0.004811808 0.005380728 0.0011320235 -0.0022026082 -0.0072953277 -0.0016255783 -0.008833118 -0.008628827
0.005797924 0.0007840744 0.01242007 -0.010282441 0.00028364328 0.0011429023 0.013260493 -0.0058441036
-0.0027582983 0.009374224 -0.016747883 0.0053282524 -0.011869192 0.0066724406 0.00029564902 -0.0051872544

action_model._discrete_distribution.branches.0.bias f4 [5]
00000000: 0000 0000 0000 0000 0000 0000 0000 0000
00000010: 0000 0000
0.0 0.0 0.0 0.0 0.0
