results/ppo/Racing/Racing-2416.pt (torch, 603118 bytes, 48 tensors)

discrete_act_size_vector f4 [1, 2]
00000000: 0000 4040 0000 4040
3.0 3.0

network_body._body_endoder.seq_layers.0.weight f4 [128, 29]
00000000: 2a2a dc3d 7d99 02bd d54a 49bd 1b9d ea3c
00000010: e7ee 30be d813 4ebe 9b49 43bd edf4 733e
00000020: c9af 0d3e c0d4 36be 19d5 b5bd dab5 2abe
00000030: c96c a63d 9f48 4a3e f07d 053e 10a0 adbc
00000040: 4f47 ba3d a741 053e 6ae9 b6bd 5a07 3fbe
00000050: 4c4a 643e e9be 803e 43ab 2abe 2ddc adbe
00000060: 673c 64be 684f db3e d3b4 213e 3249 873e
00000070: ebb6 8c3c 7e51 b4bd 8ad7 7cbe b746 1bbe
00000080: 8ea6 b93d 5567 10be c7ed 06be 77c7 ba3d
00000090: 3055 e33d 294a 5c3e ac22 10be 409c 653e
000000a0: 326c ccbd b8e2 85be 53e2 c63e 9018 813e
000000b0: 7f84 26be 37e6 cd3d 1c12 033e 622f 47be
000000c0: 3efb aebc 006c 8ebc 1892 e93d 7fc0 e33c
000000d0: 2aaa 953e fbf0 323e c902 963d 98ce 5d3e
000000e0: 9f5d 113e 9bea 3fbe 22d4 b8bc 46da 853e
000000f0: 8301 35bd b88b 76be ee40 88be 7a7f 513c
00000100: 98eb 5e3e cb15 15be ccaf 8abe efb0 b7bd
00000110: 801c 03bc 615e 353e 4cba 62bb 4c92 adbb
00000120: d73e dd3d ee28 87be 3d9b 933d 4f41 03bf
00000130: 6229 9cbc 7035 6d3c 036d 4d3e 2ef5 bcbe
00000140: 4f7f 99be 4c54 433e e1eb fcbd 06b4 d83d
00000150: 9d84 753d 3451 143e 01f0 b63d 1412 acbe
00000160: 405f 52bd 144f 823c 6511 abbd 317b d1ba
00000170: 125e ba3d 8fb4 953e 5b85 083e 8f50 f93d
00000180: a34f 213e c4ce 60be 4397 ac3e f851 8ebe
00000190: e1a1 993d 3d2d d3bd 5fb2 043e 2fe4 87bd
000001a0: bda3 373d 4769 863d 8d47 e0bd 2983 4a3d
000001b0: 5cdc 443e f20b 483c ae22 283e dc96 bdbe
000001c0: 5a6e 1a3e 6dd8 d53e 0654 8d3b 8485 bfbc
000001d0: ad2a 47bc 0426 be3e 7e4b be3e 3857 b2bd
000001e0: 4175 6fbe 0529 b23d 2b1c 26be 41a2 8cbe
000001f0: 19d1 c53d 2abe 6fbe e386 cebc e7b6 b5bd
00000200: 3292 abbd f9f8 823d 651e d23d 6813 1c3e
00000210: 29c7 70bd 29d7 79be c14f 5fbd 87dd f63c
00000220: 416a a3bd 6505 17be a323 c33b 7174 b4be
00000230: efd2 e6bd 31f0 82be 9973 edbd 3684 22be
00000240: 91ed 2fbe 0a8d 153e 98f3 4bbe c4b7 5c3e
00000250: 920f 9cbe 3b58 c4bc 3d06 65be 7ebe 86bd
00000260: d598 8fbd d6f5 b83c 5c5a a4be 008f 2f3e
00000270: 4431 d2bd 57ba 84be feb6 87be 509e 16be
00000280: f845 77be 688c 4d3d da8d 06be 037f 713e
00000290: bcc1 683e 3168 9ebe fc55 84be 1945 f73d
000002a0: 10ed 823d c945 803d ea46 b9bd 18f7 babe
000002b0: 50b8 dbbe 30e6 103d 3152 4ebd 985c 0b3c
000002c0: 7aa5 b23a d9b5 213d e331 d6bd 71c8 b63e
000002d0: ffe6 27bd 06f6 a03d d8a6 12be 6a36 7abe
000002e0: 6963 0e3e 3196 bbbd 6c06 e9bd da48 a93e
000002f0: 1d1c ea3e 399d c73e e583 6fbe 497e babc
00000300: 29fc 003d b3e8 6c3d a9af 1ebe 4b34 5dbd
00000310: c66d dc3c e299 d33e d241 ccbd 2380 69be
00000320: 944d c4bc 6405 1d3e 80be 9f3c 93a6 be3d
00000330: 3ca4 a7bd 64ad d13c 087b 6b3d 7c73 413e
00000340: a654 f1bd 495b 073e d290 8d3e 5e12 903e
00000350: 43f7 2c3e 90db 0ebe ce20 833d 2590 423e
00000360: fb7f 1f3e f000 a43c d7a9 debd ab98 39bb
00000370: dc6c 5a3e 8053 7bbe 6430 8fbe e2fa 1a3e
00000380: 3a0a fe3d 6266 bc3d 1a17 babc ad89 933d
00000390: 7d0c b83d 8fec 73bc eac7 7bba ba0e 00be
000003a0: 0bdc c5be c383 7c3e fb50 5ebd 1869 4c3b
000003b0: ba78 82bd 5e61 73bd d348 72bd 59ca e9bd
000003c0: f7df 89be f8e7 01bf b501 8d3d 96a1 07bd
000003d0: c4cf c2bd ca7a 793e e127 353e b5d3 0cbf
000003e0: 07bb 2abe d49c 6d3d 4668 43be 93cc f03d
000003f0: c794 b7bd 2b10 f03d 2439 a4be 0a1a bf3d
0.1075023 -0.03188466 -0.04914363 0.028639367 -0.17278634 -0.20124757 -0.047677618 0.238239
0.13836588 -0.17854595 -0.08878536 -0.16670933 0.08126218 0.19754265 0.13036323 -0.021194488
0.09095632 0.13013326 -0.08931239 -0.18655148 0.22293967 0.25145653 -0.16666894 -0.33957043
-0.22288667 0.4283402 0.15791635 0.2642303 0.017177066 -0.08804606 -0.24691597 -0.15163694
0.09064971 -0.14101918 -0.13176642 0.09120076 0.111002326 0.21512665 -0.14075726 0.22422886
-0.09981574 -0.26149535 0.38844547 0.25214052 -0.16261481 0.100536756 0.12799877 -0.19451669
-0.021360036 -0.017385483 0.11404818 0.02780175 0.29231387 0.17474739 0.0732475 0.2166084
0.1419587 -0.18741839 -0.02256209 0.26143092 -0.044190895 -0.24076736 -0.26612037 0.01278674
0.2176956 -0.14559095 -0.27087247 -0.08969294 -0.0080024 0.17711784 -0.0034595905 -0.005296981
0.108030014 -0.26398414 0.07207344 -0.5127153 -0.019062702 0.0144780725 0.20061116 -0.36905807
-0.2997994 0.19075125 -0.12349678 0.10581212 0.059940923 0.14484102 0.08932496 -0.33607543
-0.05136037 0.015906848 -0.08352927 -0.0015982148 0.09099974 0.29239318 0.13332121 0.121735685
0.15753035 -0.21953875 0.33709154 -0.27796912 0.07501579 -0.10311363 0.12958668 -0.066353194
0.044833887 0.06563049 -0.10951147 0.04944149 0.19224685 0.012209879 0.16419479 -0.3702916
0.15081158 0.41766682 0.004312995 -0.023379095 -0.012156171 0.3713838 0.3716697 -0.08708042
-0.23384573 0.0869923 -0.16221683 -0.2746754 0.09659023 -0.23412386 -0.025210803 -0.088727765
-0.08377494 0.06395144 0.102597035 0.15241778 -0.058783684 -0.24398483 -0.05451942 0.03013493
-0.07979251 -0.14748152 0.005955176 -0.35245088 -0.11270701 -0.25573877 -0.11594314 -0.15870747
-0.17180468 0.14604583 -0.19917142 0.21554476 -0.3048063 -0.023967853 -0.22365661 -0.06579302
-0.07011572 0.022578161 -0.3210019 0.17144394 -0.10263303 -0.25923416 -0.265068 -0.14708829
-0.24147785 0.05018273 -0.1314005 0.23583607 0.22730154 -0.30938867 -0.2584685 0.12073726
0.06392872 0.062633105 -0.09046729 -0.36516643 -0.42914057 0.035375774 -0.050371353 0.008505963
0.0013629638 0.039480064 -0.10458734 0.356998 -0.04099178 0.07859425 -0.14321458 -0.2443482
0.1390511 -0.09159506 -0.11378178 0.33063394 0.45724574 0.3898714 -0.23390158 -0.022765296
0.03149048 0.057839107 -0.15496697 -0.05400495 0.026907813 0.4132834 -0.09973492 -0.22802787
-0.023962773 0.15334088 0.019500017 0.09309115 -0.08185622 0.025595374 0.05749038 0.1889171
-0.117837235 0.13218416 0.27649552 0.28139013 0.16891198 -0.13950944 0.064027414 0.190003
0.15576164 0.020019978 -0.10872238 -0.0028319757 0.21330589 -0.24543571 -0.27966607 0.15134767
0.12404294 0.091992155 -0.022716094 0.07203994 0.08986757 -0.014887943 -0.00096046797 -0.12505618
-0.38644442 0.24659638 -0.054276448 0.003119057 -0.06370683 -0.05941903 -0.05915148 -0.11415548
-0.26928684 -0.5074458 0.06885091 -0.033113085 -0.095122844 0.24363247 0.17690994 -0.5501054
-0.16672908 0.05801089 -0.19082746 0.117577694 -0.08963924 0.11721834 -0.32074845 0.093311384

network_body._body_endoder.seq_layers.0.bias f4 [128]
00000000: 149a 263d b17f 183d 128c b9bb f868 ac3c
00000010: aec7 bfbc 959a 85bd 0fab 173d 4895 083d
00000020: 5fdc 91bd c786 eeba d3fb 2d3d 0db7 523c
00000030: b12a 2ebc eeb1 b23c 08ec e03c e904 c9bd
00000040: 4ac5 1b3d fc63 2f3d 06b2 503c b752 5c3d
00000050: 4e87 0c3d f1db df3c 919f 683d c413 9dbc
00000060: 0f9f 353d edb6 133d 1bfb 8e3b d9b5 02bb
00000070: fc20 763c 8216 ad3c 3244 f33c cc76 ac3c
00000080: 170d 83bc 633a 583c d7a6 c13c 2b89 63bd
00000090: 8b77 123d 8786 013d 70c2 463d 39fb 0ebc
000000a0: d869 cb3b 5f03 493c 992e 93bc 206b 48bd
000000b0: 6831 513d 8a0b 2f3b 14f2 883d f55b 1d3d
000000c0: 5b53 9d3c eb5d 173d e365 493b 9826 f83c
000000d0: 28ac 5abc 4cfa 913b fd73 5d3c 41e0 033d
000000e0: 0063 fe3a e0f7 71bd 1760 0e3d 8acc 503d
000000f0: 7014 963b dffd b9bc 7502 773c 9a85 2abc
00000100: 1620 bcbc 5c93 bb3b cea2 46bd 0d66 e83c
00000110: bd69 243c d78c 2f3c 8c58 18bd 4313 08bc
00000120: 87e6 043d 87fd 053d 3b88 9ebc f08d 353c
00000130: 7563 f03b d021 dcbc a4e9 813c 794e 063d
00000140: 0d4d 213b 7f68 84bc b613 d9bc a717 243d
00000150: 9b12 dc3c 7507 283d 5276 08bd 05a8 853d
00000160: 1261 3d3d 6171 4ebc c3a3 0e3c 25a7 a23b
00000170: bb3b 413d a916 283d ae8e 28bc 2c4c ccbc
00000180: 3bff dd3c c1c1 0c3d 6d82 f63b e970 31bc
00000190: 1985 30bd 6b69 19bd 9416 a93c 9c45 7dbc
000001a0: c2cd b53c 09d1 1f3d 00d1 123d fbcc df3c
000001b0: a809 8ebc 21d9 973c f72b fe3c 10c3 263c
000001c0: 2799 cd3c 14c8 4abd 69eb b13c 6389 ebbc
000001d0: 8404 203d 941b 073d 27a6 033d 1ee3 ba3c
000001e0: 24f6 a13c 332c 0f3d 66de 1b3d 3e40 233d
000001f0: d8f8 dbbc d379 583c 530b 273d 6309 d53c
0.040674284 0.03723115 -0.0056624496 0.021046147 -0.023410644 -0.06523625 0.03702837 0.03334549
-0.071221106 -0.0018198126 0.042476486 0.0128610255 -0.010630296 0.02181336 0.027456298 -0.0981539
0.038029946 0.042819962 0.012737757 0.05378982 0.034308724 0.027326556 0.0567928 -0.019174464
0.044341143 0.036063123 0.00436343 -0.0019944815 0.0150225125 0.021128897 0.029695604 0.02105274
-0.015997453 0.013197514 0.023639126 -0.055550735 0.035758536 0.031622436 0.048525274 -0.008726888
0.006207686 0.01226887 -0.017966555 -0.048930287 0.051072508 0.0026709759 0.06686798 0.038417775
0.019204786 0.0369548 0.0030730895 0.03029184 -0.013346709 0.0044548865 0.013516423 0.032196287
0.0019408166 -0.059074283 0.034759607 0.050976314 0.004580073 -0.022704063 0.015076269 -0.01040783
-0.022964519 0.0057243537 -0.048495106 0.028368974 0.010034976 0.010714731 -0.03719382 -0.008305374
0.03244641 0.032712486 -0.01935207 0.011081204 0.007336075 -0.026871592 0.015858479 0.03278968
0.0024612576 -0.016163109 -0.026498657 0.04006162 0.02686434 0.041022737 -0.033315964 0.06526188
0.04623515 -0.012600274 0.008706036 0.004963773 0.047176104 0.041037235 -0.010287924 -0.024938665
0.027099242 0.034364466 0.007522872 -0.010830143 -0.04309568 -0.03745405 0.020640649 -0.015458491
0.02219284 0.03901771 0.03584385 0.027319422 -0.017338589 0.018536152 0.031026823 0.010178342
0.025097443 -0.049507216 0.021718698 -0.028752035 0.039066806 0.032985285 0.032140877 0.022813376
0.01977069 0.03495426 0.038053893 0.039856188 -0.026852056 0.013212639 0.040782284 0.026005452

network_body._body_endoder.seq_layers.2.weight f4 [128, 128]
00000000: 71a7 973d 71a4 a73d 8eb8 c0bd 9d9b 5abb
00000010: 2610 b23c 0a80 b4bd 2293 2b3e b001 f83c
00000020: 29e2 17be 59a6 8c3c b6a2 85bd 96c2 c5bd
00000030: 6b20 e2bd 5872 a1bc 0d97 053b 7067 073c
00000040: 1735 dabc c38a b4bd 0784 1ebe f192 e1bd
00000050: c895 fe3c 6cfb 163e 56da 2b3e 7da2 913c
00000060: 9a89 a9bc 8aff 8c3d c20d 6a3e aa49 d1bb
00000070: 6a70 8d3d 35c4 143e 255d 633d 3a53 eebc
00000080: 33b3 41bd 34db 363d 188b b83c edc2 15be
00000090: 2544 7abd 9808 0a3d 7525 8fbd e438 78bd
000000a0: 44f7 f43d 511f 873d 7c3f 883d 996c 43bd
000000b0: 7975 e1bb fa0f a3ba 17a2 dcbd ff16 cd3d
000000c0: 388b 02be bae8 d33d 5c9c 12be 86c3 febd
000000d0: 4055 07be c583 1abe 4a17 3b3d f761 51bc
000000e0: 9718 45be bae3 02be 2623 0d3c 8ca5 3cbb
000000f0: 71dc f9bb 0a81 a53c 93ba 353d 1384 883c
00000100: ad10 143c c82f 07be cb3b b4bd a5c3 cfbd
00000110: d2ae 513d bdc0 3abd 9f4f dfba 1ab4 7d3d
00000120: 7b4a 3a3e bdfe ad3d 2cfb cebd ffb4 46bd
00000130: 709b c9bd 2f64 a03d 26b5 1e3d 383c 5c3e
00000140: df32 1ebd 081e e7bc a198 c6bd 70f3 bf3d
00000150: 486e 4c3d 07df fc3c 2929 50bc d15a 5bbc
00000160: e9cb 483c 5585 e53d 5c7d 12be 5faa 98bd
00000170: 6011 f33c 9b91 8b3c 5985 70bd 5d52 9dbd
00000180: 7109 093e d84c 1a3c d855 833a ea03 8f3e
00000190: 7c6c 563d 0268 87bd 6cdb df3d b554 d73c
000001a0: eee1 af3d b583 8dbd 0424 1b3e 6b43 b4bc
000001b0: c025 35bd 5d5c 03bd d418 07bd e9d5 c03d
000001c0: d733 993d 7e04 ec3c 08a5 dfbd 4219 fbbc
000001d0: 018a a4bc 4c96 7dbb 86ff 39be c391 8d3d
000001e0: e0dd 863b 222e 16be f9f3 edbc 8639 503c
000001f0: ea1a 8a3d 00b8 49bc 596e 62bd b3b0 503d
00000200: 42e6 d03a 4318 6c3d 586c ed3d 2472 b7bc
00000210: dbd1 ccbd 77ab 65bb 2e5c a93c 80a0 2f3e
00000220: e5e4 2fbe 040f 3d3c 264a e83c a724 e63d
00000230: 5142 0bbe d597 5d3d eb8d 043e 0718 733d
00000240: 8637 a53d 09f6 443d 1581 ef3d b43f d53d
00000250: 1f35 e73b c980 efbd c4a0 6e3c 568d eebd
00000260: 669d 4dbd 027c 71bd 41b4 6bbd 1b67 a2bd
00000270: 7302 42bc 28fc c63c 8afa 4dbc 82f7 b6bd
00000280: b9ee 3ebd 2abd 153e 4ddf 72bd 988a e8bd
00000290: a28c 80bd fb2e f73d f34c 0bbd f9de 07be
000002a0: 8ae1 873d c5f3 0cbc 93ff 74bd 7154 5bbd
000002b0: 7bd0 07bc dfef a9bd dfe8 97bd e146 0e3e
000002c0: a434 76be d000 d63d d962 bf3d f6e0 e2ba
000002d0: 80f1 a7bc a3be bdbd e33d db3c a623 84bd
000002e0: b16d 71bd c23b 81be 1e3a dfbb 4021 46bd
000002f0: 280a 9cbc 1f16 63bd b2d6 053d b89b 3ebe
00000300: befe a6be b037 bc3d ad72 23bc cc38 f4bc
00000310: e80e f33d 58aa 15be dd03 90bb b7ed 15be
00000320: 76d9 4b3d 9b99 883d 3489 283d 2bde 913c
00000330: 05b2 0bbe 1113 12be 3c16 a03e 6191 883d
00000340: 01b4 94ba 1c61 373c 8d45 93bd 7aa6 01bd
00000350: a713 1bbd 4308 a43c cf4a 07be e849 eebc
00000360: 64d9 103e 82a8 28be e780 c1bc 1d9f 24ba
00000370: 9c8a ddbc 8390 04be f3cb b9bc 4a64 113e
00000380: 2023 773d d3dd aebd 7ce1 5bbc f91b 963d
00000390: 152d c7bd c751 45bc 6188 58bd 72c5 09be
000003a0: 9bfd d23d 7118 a93e c2f3 45bc 6ddb 623d
000003b0: 624b 153d e17b 4b3e 6a1b 0dbe 645b 9f3d
000003c0: 70f9 50bd 2216 f13d 8f5f 5cbd 7773 293d
000003d0: 4e47 cebd 5931 18bd 97f5 a23d 9da4 86bd
000003e0: 44af 323c 8e97 43bd 54f0 053e cc80 223d
000003f0: 1f7a 6cbc 4748 933e a938 d83d b1f1 2a3d
0.07404984 0.081856616 -0.09410201 -0.0033356913 0.021736216 -0.08813484 0.16755345 0.030274242
-0.14832367 0.017169164 -0.06525175 -0.09656255 -0.110413395 -0.019707844 0.0020384223 0.0082644075
-0.026636643 -0.08815529 -0.15480052 -0.11014355 0.03107728 0.14744347 0.16782507 0.017777676
-0.020695496 0.06884678 0.2285681 -0.0063869553 0.06906207 0.14527972 0.05550875 -0.02909242
-0.04729004 0.044642642 0.022527263 -0.1462514 -0.061100144 0.033699602 -0.06989566 -0.06060113
0.11961225 0.0659777 0.06652734 -0.04771099 -0.006880459 -0.0012440674 -0.10773104 0.10014152
-0.1274842 0.103471234 -0.14317459 -0.12439637 -0.13216114 -0.15089329 0.045676507 -0.012779704
-0.19247662 -0.12782183 0.008614337 -0.0028785197 -0.0076251556 0.020203132 0.044367384 0.01666454
0.009037179 -0.13201821 -0.08800467 -0.10144738 0.051192112 -0.045593966 -0.0017037279 0.061939336
0.18192475 0.08495853 -0.10106501 -0.048512455 -0.098441005 0.078316085 0.038746975 0.21507347
-0.038622733 -0.028212562 -0.096970804 0.09372604 0.04990986 0.030868066 -0.012705126 -0.013388352
0.012255647 0.11207072 -0.14305633 -0.07454371 0.029671371 0.017037204 -0.05872092 -0.07681725
0.13382508 0.009417735 0.001002009 0.27932674 0.052349553 -0.06611635 0.10930523 0.026285509
0.085880145 -0.06909887 0.15150458 -0.022004804 -0.044225454 -0.032070506 -0.032982662 0.094158
0.07480591 0.028810736 -0.10920149 -0.030651692 -0.020085337 -0.003869432 -0.1816388 0.069125675
0.004115805 -0.14666036 -0.029047 0.012709027 0.06743415 -0.012311935 -0.055281017 0.050949764
0.0015937763 0.057640325 0.115929306 -0.022393294 -0.10000964 -0.0035044828 0.020673838 0.1715107
-0.1717716 0.011539225 0.02835567 0.1123746 -0.13599516 0.054099876 0.12944762 0.059349086
0.08067231 0.0480862 0.11694542 0.10412541 0.007055893 -0.11694486 0.014564697 -0.116480514
-0.050198935 -0.058956154 -0.05754495 -0.07929822 -0.011841404 0.02429016 -0.01257194 -0.08933927
-0.046614382 0.14622942 -0.059294987 -0.1135456 -0.062768236 0.12069508 -0.03400893 -0.13268651
0.06634815 -0.008603041 -0.059814047 -0.053547326 -0.008289452 -0.08297705 -0.074174635 0.13894226
-0.24043518 0.10449374 0.093450256 -0.0017309475 -0.020500898 -0.09264877 0.026762908 -0.06452112
-0.0589425 -0.25240904 -0.006812348 -0.048371553 -0.019047812 -0.05544102 0.032675453 -0.1861409
-0.32616228 0.09190309 -0.009976071 -0.02981224 0.118680775 -0.14615762 -0.004394992 -0.14641462
0.049767934 0.06669923 0.041146472 0.017806133 -0.13642128 -0.14265086 0.31266963 0.06668354
-0.0011345149 0.011192586 -0.07191 -0.031652905 -0.03786054 0.02002347 -0.13212131 -0.029087976
0.14145428 -0.1647053 -0.023621036 -0.0006279813 -0.027043633 -0.12945752 -0.022680258 0.14198413
0.060336232 -0.08538403 -0.013420459 0.07329554 -0.097253956 -0.012043423 -0.052864436 -0.13454226
0.10302278 0.3302646 -0.012082042 0.055385042 0.036448844 0.19871475 -0.13779989 0.07781103
-0.051019132 0.117717996 -0.05380207 0.04136988 -0.10072194 -0.037156437 0.07956999 -0.06574366
0.010906044 -0.047751956 0.13079959 0.03967361 -0.014433413 0.2876608 0.10557682 0.0417344

network_body._body_endoder.seq_layers.2.bias f4 [128]
00000000: d7b3 8d3c 4764 cb3c 2495 5ebd dc9f f33c
00000010: e61b 70bd d8d1 b13b 4675 91bc 1c45 69bc
00000020: ec12 d1bc fc48 ae3b 887c 413b 2f94 9b3c
00000030: e3a3 e73c 2f85 a23c 6028 d23c f26c fabc
00000040: 7a56 af3c 73b4 1fbc 1412 df3c 3012 8cbc
00000050: d307 d8bc 785d 03bb 905e b53c e8dc cd3c
00000060: 7f33 0b3c 8f4f a1bb 7315 ca3c 8477 c53c
00000070: fcf5 70bc 3f1b 30bd 77eb d23c 10b9 f83c
00000080: 7b57 063d cbc5 c7bb 34f4 c53c efd7 f9ba
00000090: f05d 9c3c e1ec 7dbb be9d d53c a438 e13c
000000a0: 3e38 ae3c e7db b83a d48e b5bc a697 91bd
000000b0: fe4a c7bc f7c7 f03c fead fd3b 3c9c 113d
000000c0: c03c ce3c 496d eabc 68c2 b33c 6fdf 32bc
000000d0: ea1a be3c 9990 053d 1a23 8c3c de1e c6bc
000000e0: 8088 b9bb e7dc bc3c 20d6 c13c 12c0 ae3c
000000f0: 3c27 f0bc f84e a93c 1cff 233c ed11 35bb
00000100: 9959 64bc 366a a43c 1329 0a3d b329 7f3c
00000110: 641b de3c 5ba8 aa3b 9559 b73c 99bf 90bb
00000120: e7c8 d03c 0e74 86bc f905 d23c bcf1 abbc
00000130: 5738 2f3d 9461 16bd eae7 bcbc 7f54 b93a
00000140: 3d79 d839 d0ef c93c 2eb3 133d c779 24bd
00000150: 9713 0cbd d60a b73c 4f2a be3c 416f e3bb
00000160: fa02 4ebb ca80 e93c e1b8 083d 350d e53c
00000170: d9b2 be3c 128e d43c a1d5 bc3c f0b2 10bd
00000180: 52a6 553c 1067 c13c 302f 4fbd 9d01 cf3c
00000190: 05fa c53c 8a99 d53c 6940 82bc 5f63 a23c
000001a0: 6879 e43c e9b8 bc3c 81ee cc3c ec55 053d
000001b0: 9c39 2e3d cb5b 15bd 86c7 b53b 284e 0dbb
000001c0: c77e a43c 33e6 a5bc 4cde f43c 7754 143d
000001d0: c800 d23c 40ed d83c 6596 0dbd 32a9 c13c
000001e0: 7bcf ba3c f648 c33c 91d2 b03c 43c1 cdba
000001f0: 601d 3abd a203 193d f517 d53c b06d 0ebc
0.017297668 0.02482809 -0.05434145 0.029739313 -0.058620356 0.0054266267 -0.017756116 -0.014237668
-0.025521718 0.005318759 0.002952369 0.018991558 0.02827639 0.019838898 0.025654018 -0.030569527
0.02140354 -0.009747612 0.0272303 -0.017098516 -0.026370918 -0.0020044725 0.022139817 0.02512975
0.008496164 -0.004922814 0.02466843 0.024104841 -0.014707085 -0.042994734 0.025747044 0.030361682
0.03279827 -0.006096577 0.024164297 -0.0019061546 0.019087762 -0.0038745927 0.026076194 0.027492829
0.021267053 0.0014103622 -0.022162832 -0.07109003 -0.024327751 0.029392226 0.0077416888 0.035549387
0.025175452 -0.028616564 0.021943286 -0.0109175285 0.023206193 0.032608602 0.017106581 -0.02418464
-0.005662024 0.023054553 0.023661673 0.02133182 -0.029315583 0.020667538 0.010009553 -0.0027629093
-0.013937377 0.020070177 0.033730578 0.015573907 0.02711267 0.005208058 0.022381583 -0.0044173715
0.025486423 -0.016412761 0.025637614 -0.020989291 0.04277834 -0.03671415 -0.023059804 0.0014139562
0.0004128906 0.024650484 0.03605955 -0.0401552 -0.03419837 0.022344034 0.023213534 -0.0069407527
-0.003143488 0.028503794 0.03337944 0.0279604 0.02327864 0.02594665 0.023051085 -0.035326898
0.013040142 0.023608714 -0.05058211 0.025269324 0.02416707 0.02607419 -0.015899854 0.019822774
0.027889922 0.02303739 0.025016071 0.032552645 0.04253541 -0.036464494 0.0055474667 -0.0021561477
0.020079983 -0.02025137 0.029891156 0.036213364 0.025635138 0.026480317 -0.034567256 0.023640249
0.022804013 0.023838501 0.02158478 -0.0015697855 -0.04543817 0.03735698 0.0260124 -0.008693144

action_model._discrete_distribution.branches.0.weight f4 [3, 128]
00000000: 4e90 263a c996 14bd a2c8 663c 44d3 823c
00000010: 1647 7b3c 0266 a93d bc4c 733d aaa4 2f3d
00000020: 569b cdbc 98ff ebbc b6d3 8a3c 2e9b a8bb
00000030: 9e33 d0bc f428 a7bc 460c 58bc c80a f03c
00000040: aa46 183d 845e ba3c cdf3 59bd 9d88 8f3c
00000050: b102 143c ae23 193d 30b9 ddbc efc8 a4bc
00000060: abb3 753d f7da 9cbc 3a99 2dbc 5f8a 0dbd
00000070: 9eb2 3d3d 9514 e83c 7a72 aabc 8a67 67bd
00000080: d2e1 c5bc bf60 c93d a78f 33bd 8063 ba3c
00000090: 2c60 adbc 34f5 bb3d 3c5b f3bc efe9 6bbd
000000a0: 1f1b f0bc 2218 c539 e72b 7b3d c73c c03c
000000b0: 34bb cfbb 5e17 d9bc 9a6f 02bd 3259 e8bb
000000c0: bd0b f6bb d890 593d 6f93 d2bc b5ee dabc
000000d0: 0e14 8abc 6764 adbd c76c e4bc 2bb8 dc3c
000000e0: 52fd 463c e460 953c 7684 223b 12f2 dbbc
000000f0: 9d5d 24bc a153 75bd c3ed c83c 0104 b13d
00000100: b77b 34bc ec78 143d 9124 87bd a40c a03d
00000110: acfc f4bc 4249 a93c fe8b 1dbd 9acf fe3b
00000120: 7a5f 50bc eb00 8f3a f929 1abd effc c1bb
00000130: 6d23 4c3d e4a9 e53b 1e82 bf3c d086 39bd
00000140: d17e 0bbd 6121 f0bb b051 9bbd 3094 173d
00000150: 0c78 c63c 3093 16bd 725d 62bc 4778 b03d
00000160: cd1f 7c3d 0d31 72bd 32ab 21bd b211 493d
00000170: 13c7 833c 89d7 3dbc 33bf 87bc 2aa2 593c
00000180: 222b 803d 4c48 793c 435d 6b3c 96fb 43bd
00000190: 82d0 81bd 5464 1b3c 1d7a 0ebd 7f7a d5ba
000001a0: 7989 50bc a91f b83d 1bad a5bc 311a 9ebd
000001b0: 5239 023d d79e 603c 5d67 c53d f783 b03c
000001c0: 9084 03bd 9ca5 6fbc b80a 323c cf0b ffbc
000001d0: 6639 b6bc 9573 74bd 55a2 fb3a 6dd4 8ebc
000001e0: 0ec0 c4bc 31be 74bd 5d6c 9f3a c9c2 013d
000001f0: 60a4 983c 7509 a4bd faac 87bc baef 493d
00000200: f9e3 193c 87d9 1e3d 9330 a2bc 8d58 f43b
00000210: ec3e 04bd 7452 68bd e919 45bd 181d 01bd
00000220: cbe7 f9bc 32fe 3ebc f6a3 37bd a28e f63c
00000230: 2cd5 413d ede4 0e3d 9b19 713c 9d6d 55bd
00000240: f949 72bd 5abb b63b 7714 6f3d 02ee c0bc
00000250: d665 acbc a55b 83bc dca8 193d e016 bc3c
00000260: ae55 9bbd 93c6 cbbc 8c88 c73c 46a5 ca3c
00000270: a0c0 25bd 358e 46bd c95c f43c 9601 aa3d
00000280: a9bf eb3c 7b2c babd 08d2 3c3d a80a 2ebd
00000290: acab e43c 4a4f acbd beaf 393d cca0 6b3d
000002a0: 9a90 963c 1102 febc ef25 39bd dbcb adbc
000002b0: 3326 e2bc 5535 eb3c d4f1 e63c 32ee c23c
000002c0: bed4 c73c 7ce3 58bd d7a0 a93c 7d42 18bc
000002d0: 1a68 743c 5739 aa3d dac0 e43c dc80 01bd
000002e0: dc92 70bd a122 003c 3293 0c3d 6e3d b13c
000002f0: 75dd 85bc 2561 423d 3cea 81bd 2148 a6bd
00000300: d57c 5ebc 2225 973c 9eed 8e3d 3d73 92bd
00000310: bab8 2b3d a6f2 633c ce7d f53c 84ad 473c
00000320: 3759 683c 0991 25bc 00b0 823d 018b dfbc
00000330: c0ae 93bc fd02 0ebd fd5e 6bbc 53cf 053c
00000340: 2d62 d53c 90a6 823c 5eaa 973d 1578 c3bc
00000350: bae6 60bc 9675 5b3d 4830 1d3d f710 3abd
00000360: 9183 51bd c2d7 5a3d 9239 9a3c e3f0 9ebd
00000370: 09a9 2fbb b32a 093d fcea 0d3d d933 14bd
00000380: d45a 87bd 7eaa 493c 62e1 3abd 2633 363d
00000390: cfc5 613d 8f79 6c3c 91aa 193d 0335 423d
000003a0: 8357 ff3c 0260 d2bd 5192 073d 2dfe 8f3d
000003b0: 2598 ba3c 9ede 80bc 9ac7 9abd 8b65 863c
000003c0: 840c 6b3c ba38 0cbd fd34 ce3b f672 543a
000003d0: 051a 393d b730 503d e6dd 03bb 35f7 e33c
000003e0: 3d28 2cbd 50f3 273d b0d8 4f3c c8fa 47bd
000003f0: 06b4 02bd 42df 1b3d cecb 493d b0b0 38bd
0.00063539005 -0.036276612 0.0140859205 0.01596988 0.015336772 0.082714096 0.05939935 0.042881645
-0.025098484 -0.0288084 0.016946655 -0.005145452 -0.025415238 -0.02040527 -0.01318652 0.029302016
0.037176766 0.022750147 -0.053211022 0.017521197 0.009033845 0.037387542 -0.027065843 -0.020115344
0.059985798 -0.01914738 -0.010595614 -0.03455579 0.04631292 0.028330127 -0.02080654 -0.056495227
-0.024155531 0.09832906 -0.04383817 0.022752523 -0.021164022 0.09177628 -0.02970659 -0.057596143
-0.029309807 0.00037592748 0.061321165 0.02346648 -0.006339455 -0.0265004 -0.031844713 -0.007090711
-0.0075087235 0.05311665 -0.025705067 -0.026725153 -0.016855266 -0.08466416 -0.0278839 0.026943287
0.012145357 0.018234678 0.002479819 -0.026848827 -0.010032085 -0.059894208 0.024527436 0.08643342
-0.011015824 0.036248133 -0.06598771 0.07814911 -0.02990564 0.020664815 -0.038463585 0.007776213
-0.012718076 0.0010910308 -0.037637684 -0.0059200446 0.049838472 0.007008778 0.023377474 -0.045294583
-0.03405649 -0.007328198 -0.0758394 0.037006557 0.024227165 -0.036761463 -0.013816224 0.08616691
0.061553765 -0.05912881 -0.039469905 0.04908914 0.016086137 -0.011587032 -0.016570663 0.013283292
0.06258227 0.015214991 0.014365497 -0.047847353 -0.06338598 0.009484369 -0.034784425 -0.0016287117
-0.012728089 0.08990414 -0.020224145 -0.07719839 0.031792946 0.013709745 0.096388556 0.0215473
-0.032108843 -0.014626887 0.010866813 -0.03113356 -0.022244167 -0.05968054 0.0019198159 -0.017435277
-0.02401736 -0.059751693 0.0012163032 0.031679902 0.018633068 -0.08009616 -0.016561974 0.049300887
0.009392732 0.03878167 -0.019798553 0.007456845 -0.03228657 -0.05671926 -0.048120413 -0.031521887
-0.030506035 -0.011657285 -0.0448341 0.03009731 0.047322437 0.03488629 0.0147155775 -0.05210649
-0.059152577 0.0055765333 0.058369126 -0.023550991 -0.021044653 -0.01603491 0.037514552 0.022960126
-0.075847015 -0.024874961 0.024357103 0.024737012 -0.040466905 -0.048475463 0.0298294 0.08301084
0.028777914 -0.09090515 0.04609874 -0.04249063 0.02791389 -0.08413561 0.045333616 0.057526395
0.018379498 -0.031006845 -0.045202192 -0.02121537 -0.027606105 0.028711954 0.028191485 0.023795221
0.024393436 -0.05295132 0.020706577 -0.009293196 0.014917398 0.08311718 0.02792399 -0.03161703
-0.058733806 0.007820756 0.034320064 0.021635737 -0.01634095 0.047455925 -0.06343505 -0.08119226
-0.013579567 0.018450323 0.06978916 -0.07150886 0.041924216 0.013912832 0.029967215 0.012187365
0.014181427 -0.01010538 0.063812256 -0.027287962 -0.018027663 -0.03467082 -0.014365909 0.008167106
0.02604779 0.015948564 0.07405542 -0.02386097 -0.0137268845 0.053578936 0.038376123 -0.045426335
-0.051150862 0.05342842 0.01882628 -0.07760789 -0.0026803634 0.033487987 0.034647927 -0.03618226
-0.06609121 0.012308715 -0.045625098 0.044482373 0.055120286 0.014433279 0.03751618 0.047413837
0.031169659 -0.10272218 0.033098523 0.07030902 0.022777626 -0.015731152 -0.07557602 0.016405841
0.014346246 -0.034233786 0.006292938 0.0008104289 0.04519083 0.050827708 -0.0020121275 0.027827838
-0.04203056 0.041003525 0.01268594 -0.048823148 -0.031909965 0.038054712 0.04926663 -0.045090377

action_model._discrete_distribution.branches.0.bias f4 [3]
00000000: a33d adbc 58f0 af3c d60c 01bd
-0.021147555 0.02147691 -0.031506382

action_model._discrete_distribution.branches.1.weight f4 [3, 128]
00000000: 9c9f 5e3c 03fb a73c b484 16bd 97e5 1ebb
00000010: e1cf c8bc b8c0 bc3c 6a72 a73b c618 81bd
00000020: 6505 bfbb bb05 e7bc 2a5d 363c 92ca a73b
00000030: 5873 6e3b 895f 3c3c 3b8b c93c 60ef ccbc
00000040: 8b10 423d 4934 cdbb 6b68 51bc edd0 c3bb
00000050: 11b8 b5bc 747d 383c a9be b1bb 0c03 2b3d
00000060: 9e98 f93c 127b 2dbc bee5 143d 7eab 953c
00000070: 96cf 11ba 24c4 afbc 2c99 07bb 70d7 bc3c
00000080: bbb3 1a3d 63d0 e73c 5ba3 9f3c a922 853c
00000090: 4808 6bbb f24f a7b8 8ddd c33c 3cc5 1e3d
000000a0: 41c6 063d f7fe c9bb 7d48 6ebc 2598 edbc
000000b0: 6662 0fbb b16e f33c 34ae 4fbc ef6a ac3c
000000c0: 33f6 323d c7c9 dbbb 52e0 ad3c 4b5e 2bbd
000000d0: 22da f33c fde7 91bc 7e2f 2abb 8d5b f1bc
000000e0: 93b3 673c 71f4 873c 73e1 2a3d 691b 9a3c
000000f0: d903 043c f1a8 5d3d 1fc2 0e3d dbe8 1b3d
00000100: 38d8 14bd d2d1 c9bc 1f6f 033d 2ee1 033d
00000110: 3741 14bc f791 8abd e4fc 5339 1a92 b03c
00000120: c7c4 e63c 19d9 06bd 094c 1e3c cb0b 4fbc
00000130: ef17 823d 8370 dcbb 66a2 f1bc 6606 9abd
00000140: 31ed 8fbd eb78 cf3c b002 2fbc c951 0dbd
00000150: 411b 23bc 19db e43b b392 ab3c fa30 54bc
00000160: 4ad4 813b 8fbe 5f3b bd7b 453d 7e33 4e3d
00000170: 63ad 6c3d ea0f 083c 22d7 abbb 4f6c b9bc
00000180: 5cba b03c f4f0 fdbb 6f66 9dbc 2c57 cd3b
00000190: 108b f33c 7ec8 8c3c 38e2 a4bd 81a9 95bc
000001a0: 8871 c73c 36fa af3d 30de a93c f9f3 363c
000001b0: ea6b 033d 084f 80bc e850 dd3c 5004 9fbc
000001c0: 035f aa3c ca30 23bc 1e21 493d 3307 b13d
000001d0: e783 94bb 3aa8 543d b2fb d4bc ae52 1a3d
000001e0: 5c69 013d 5a3d fbbc f774 2f3d e266 113c
000001f0: 1a22 1abc 15a2 c13c d77c 27ba 5c94 a439
00000200: ee39 aabd 1bb3 10bc 49d7 063d 97ba a8bd
00000210: 382e de3c d606 ce3a 66cc b83c e9a1 dd3b
00000220: 6b47 783c 07a1 6f3d de02 f53c 0033 9bbd
00000230: b26c 35bd 3db0 3ebd c063 34bb f405 ef3c
00000240: 5322 293d 0828 6abd 3de0 c63b d324 d33c
00000250: 18d9 123d bbab 08be 0df8 a3bc 435b 48bd
00000260: c427 213a 513b 8d3d 0449 36bd 0ba4 14bd
00000270: 9663 1a3c 6241 7a3c 25ba b9bd ebb4 193c
00000280: 2b03 37bd 45ee 0fbd c391 243c 124a ba3c
00000290: 5fc5 4cbd 6fc9 1f3c 30ab 0fbc dbf1 d9bb
000002a0: 86c3 58bd a7ca 103d 4667 af3c 9cd4 b93c
000002b0: 736b 413d 3252 6f3c 8787 4ebd 13a4 a0bd
000002c0: 3f5a 873c 0c95 c63b b0be a8bd 0492 883d
000002d0: 8cc3 28bd 6e39 813c 9930 6cbc 7a67 953c
000002e0: cdef 0d3d c0c3 99bd 5882 c7bc f956 83bc
000002f0: 9f5e 1f3d a44d 693c e62f 313d ca71 f8bb
00000300: 6158 453d 6fcc 5dbd 1499 843d ee91 3b3c
00000310: e9d9 3dbd b160 2dbc 3f8f 18bd ad6b 82bd
00000320: 1bc7 5abd eb93 483d 5fac d83b 9e5f 7a3c
00000330: 44d5 84bd 394f 943c f0c3 ea3b 50f6 3e3d
00000340: 8c56 a23d 62c2 14bd 3361 96ba c32f bd3c
00000350: 1453 783c 93b9 e0bb e784 eebc 4df0 193d
00000360: 41f4 45bb 76e9 b5bb 2f11 5b3d 761f 383c
00000370: f602 f5bc 74f7 2dbd 772b 62bd d541 d73c
00000380: bbf8 133c 0555 c8bd b0a1 323c 93c1 84bc
00000390: 9135 a73c 5cab 27bd 07d4 fbbb e39f d0bc
000003a0: ce31 08bd e970 e0bc 93fb 9bbd b155 263b
000003b0: c403 57bd 77e0 f13c b53f 9dbc 5bfe 05bd
000003c0: ef9f 49bd 5f3a 263d 8960 69bd 23a7 423d
000003d0: 61c4 0dbd d49d 263d cdbc e93c b0f2 bbbc
000003e0: 830c 033d ee05 7f3d d356 24bd 3bbd b73b
000003f0: b683 843c bd8a 223d 0e9e 1f3c b184 a33c
0.0135878585 0.020505434 -0.03674765 -0.0024245733 -0.024513187 0.023041114 0.0051100748 -0.06303553
-0.0058295005 -0.028200975 0.0111306105 0.005120584 0.0036384668 0.011497387 0.024602523 -0.025016487
0.047379058 -0.0062623364 -0.012781243 -0.0059758336 -0.022182496 0.011260379 -0.00542434 0.041750953
0.030468281 -0.010588424 0.03635191 0.01827025 -0.0005562244 -0.021455832 -0.0020690663 0.023051947
0.03776906 0.028297609 0.019487074 0.016251879 -0.003586309 -7.9780715e-05 0.023909355 0.038762316
0.032903913 -0.0061644274 -0.01454365 -0.029003212 -0.0021878718 0.029715868 -0.012675811 0.021047084
0.043691825 -0.0067074033 0.021225128 -0.04183797 0.0297671 -0.017810816 -0.002596825 -0.0294626
0.014141935 0.016596051 0.04171891 0.018811898 0.008057558 0.054116193 0.034853097 0.038063865
-0.036339015 -0.024636183 0.032088395 0.03219717 -0.009048752 -0.06766122 0.00020216737 0.021554042
0.028170003 -0.032921884 0.009661683 -0.012637089 0.06352221 -0.0067272796 -0.029496383 -0.07520752
-0.070276625 0.025326213 -0.010681793 -0.034501825 -0.009955228 0.0069841263 0.020943975 -0.01295113
0.0039620744 0.0034140681 0.04821371 0.050342076 0.057782542 0.008304575 -0.0052441517 -0.022634653
0.021573238 -0.007749671 -0.019213883 0.006266495 0.029729396 0.017185446 -0.0805096 -0.018269302
0.024346128 0.08592646 0.02073583 0.011166566 0.032085337 -0.015662685 0.027016118 -0.019411236
0.020797258 -0.009960363 0.04910385 0.08643951 -0.0045323255 0.051918246 -0.025998924 0.037676506
0.03159462 -0.030668903 0.042836156 0.008874627 -0.0094075445 0.023636857 -0.0006389147 0.00031391054
-0.083118305 -0.008831765 0.032920156 -0.08238714 0.027121648 0.001571859 0.022558402 0.006763686
0.015153746 0.058503177 0.029908594 -0.07578087 -0.044293113 -0.046554793 -0.0027525276 0.029177643
0.0412925 -0.057167083 0.0060692118 0.025774395 0.035851568 -0.1334676 -0.02001574 -0.04891516
0.0006147588 0.06896079 -0.044503227 -0.036289256 0.009423157 0.015274378 -0.090687074 0.009381513
-0.044680756 -0.03513934 0.010044518 0.022740398 -0.049992915 0.009752615 -0.008768842 -0.006651146
-0.05292084 0.035349514 0.02141155 0.022684388 0.047221612 0.014606999 -0.050422218 -0.07843795
0.016522525 0.0060602482 -0.08239496 0.06668475 -0.041202113 0.015774455 -0.014415883 0.018237818
0.03465252 -0.075080395 -0.024354145 -0.016032683 0.038908597 0.014239702 0.04325857 -0.007581924
0.048179988 -0.05415004 0.0647451 0.011448367 -0.046350393 -0.010582135 -0.037245985 -0.06368194
-0.053412538 0.04896919 0.006612345 0.015281586 -0.0648599 0.018104183 0.007164471 0.04662162
0.07926664 -0.03631819 -0.001147306 0.023094064 0.015156526 -0.0068580597 -0.029116107 0.037582684
-0.00302054 -0.0055515124 0.053483184 0.01123797 -0.029908638 -0.042472318 -0.055217233 0.026276508
0.00903147 -0.09781841 0.010902807 -0.016205585 0.020411285 -0.040934905 -0.0076851877 -0.025466865
-0.033250622 -0.02739759 -0.07616343 0.0025380666 -0.052493826 0.029525978 -0.019195417 -0.032713275
-0.04922479 0.04058301 -0.05697683 0.047522675 -0.03461111 0.04067786 0.02853241 -0.02294287
0.031994354 0.062261514 -0.040121865 0.005607275 0.016176086 0.039683092 0.009742273 0.019960733

action_model._discrete_distribution.branches.1.bias f4 [3]
00000000: 438c bb3c 8943 a3bc 895b 22ba
0.02289403 -0.019929664 -0.00061934494

exp_avg f4 [128, 29]
00000000: b76d d28a d65f 393a cee2 e008 20f0 4838
00000010: 855b 260d d65f 393a 4d9f a50a e852 5738
00000020: cac0 378a d65f 393a e9f4 500c 4c31 5e38
00000030: 095c 6224 d65f 393a 95a8 5f0c 2c75 8c38
00000040: 7883 478a d65f 393a cfbb 670d d8e2 9738
00000050: 861c 0e3b 2289 bfba a915 2d0a 95ff 28b9
00000060: e019 090b d65f 393a efc7 e58e 92bd 2039
00000070: 0000 0000 7165 8b8a 7338 663a d621 5c0a
00000080: b91d 9d38 59f7 440b 7338 663a 6afd e60a
00000090: 7a2a aa38 d36b 8a8a 7338 663a f063 000b
000000a0: 6908 ac38 4ab0 2323 7338 663a f6f6 f00a
000000b0: 41c0 e138 b917 e48a 7338 663a 99e2 de0b
000000c0: c0ed e738 e6e3 f83a aec7 85ba c56a c308
000000d0: 906a 3eb8 a758 f70a 7338 663a a6ab d78f
000000e0: cf38 6d39 0000 0000 8147 b909 3602 26ba
000000f0: c2b6 4388 589d 72b8 6c95 a28c 3602 26ba
00000100: 55eb d589 cfbf 83b8 5281 1509 3602 26ba
00000110: e871 9e8b da73 84b8 47c0 96a3 3602 26ba
00000120: f39d a38b 938c afb8 7742 1c09 3602 26ba
00000130: 944e cf8c 4be2 b1b8 d40f 7cba 3c1b ac39
00000140: 8318 1a89 9ab6 22b8 4416 f189 3602 26ba
00000150: c60b e00e ec26 34b9 0000 0000 aa06 8a8a
00000160: 86e3 403a 4e6d 970a 80a0 8638 148b 3e0d
00000170: 86e3 403a 079a 330b d4d0 9138 685a fd89
00000180: 86e3 403a bfda 4f0c d069 9338 2fa7 cf23
00000190: 86e3 403a d74d 610c f568 c138 ab2a 438a
000001a0: 86e3 403a 1ea9 7e0d abbd c638 0445 9a3a
000001b0: 104d e7b9 a5fb ce0a f0ba cb37 aee7 6a0b
000001c0: 86e3 403a 1d64 f88f 7d47 4b39 0000 0000
000001d0: cbb9 2788 3264 8d39 774a 158a 8b71 0238
000001e0: b4ca 038c 3264 8d39 5002 5a8a b28f 0e38
000001f0: fc12 2188 3264 8d39 4758 b28b 56a1 0d38
00000200: a14d 55a3 3264 8d39 bc42 bd8b 1db1 3f38
00000210: 0f59 8788 3264 8d39 90da 5a8c 449e 3c38
00000220: 586f aeb8 0700 b939 387c 0489 2ce4 d538
00000230: be1b 8e8a 3264 8d39 ac16 0c0e 2af6 ba38
00000240: 0000 0000 563f 2e87 deb3 2238 6c52 9f8a
00000250: feab 3036 6fc2 730b deb3 2238 b985 b18a
00000260: 744e 3d36 92ea b088 deb3 2238 2a36 348a
00000270: 1460 4336 2706 2b22 deb3 2238 e819 608a
00000280: b0f2 7636 2b00 a388 deb3 2238 1dbc 400b
00000290: 6e91 8536 6ef1 f538 7f97 a4b8 d6f0 8909
000002a0: 366e 10b7 3132 f18a deb3 2238 ee75 268e
000002b0: 5063 0d37 0000 0000 3961 678a 802c 9937
000002c0: 89ab 4e0b 90bf 97b7 c380 010d 802c 9937
000002d0: 0954 9e0b b8ea aab7 93d8 c989 802c 9937
000002e0: ef3a c60c 18e9 9fb7 e26f fe23 802c 9937
000002f0: 02d5 d40c d008 f0b7 34fe 8289 802c 9937
00000300: fb8d 6c0d c896 cbb7 750c c93a c6a7 c6ba
00000310: ea91 ee0a 55ca 8bb9 d92e d30b 802c 9937
00000320: 9049 b28f e05f 31b8 0000 0000 06c8 9e8a
00000330: f2d2 a739 6231 ee0a acd4 9637 ccc3 500d
00000340: f2d2 a739 8886 430b c8a7 9f37 48a3 8309
00000350: f2d2 a739 44bd 0d0c 48aa a837 6901 3924
00000360: f2d2 a739 3ca4 220c 501a cc37 3448 b709
00000370: f2d2 a739 235b 810d 5832 ea37 ae5a 853a
00000380: e2cb 36ba ace2 fc0a c854 b9b8 c2c1 a40b
00000390: f2d2 a739 51f3 658f 7072 8038 0000 0000
000003a0: 9203 a208 5920 9d39 ae22 1787 3682 2338
000003b0: 1004 4d8c 5920 9d39 e190 018a 1b1e 3338
000003c0: 1d96 6108 5920 9d39 c793 ab8b 6c22 3138
000003d0: ab15 9ca3 5920 9d39 0a57 ab8b e0a1 7138
000003e0: 60b7 1709 5920 9d39 4ca9 958c 0823 6b38
000003f0: 510e 30ba 7f9e 7e3a c130 4d89 ee21 5a39
-2.0263535e-32 0.00070714706 1.3534831e-33 4.790735e-05 5.126286e-31 0.00070714706 1.5948844e-32 5.1337207e-05
-8.847389e-33 0.00070714706 1.6097437e-31 5.2974836e-05 4.9083895e-17 0.00070714706 1.7230026e-31 6.697545e-05
-9.606228e-33 0.00070714706 7.1408437e-31 7.242494e-05 0.0021684482 -0.0014613012 8.333721e-33 -0.0001611694
2.6404706e-32 0.00070714706 -5.6645388e-30 0.0001532941 0.0 -1.3423371e-32 0.00087822153 1.05989785e-32
7.49188e-05 3.793431e-32 0.00087822153 2.2243518e-32 8.1141436e-05 -1.3329476e-32 0.00087822153 2.4727088e-32
8.2031656e-05 8.873578e-18 0.00087822153 2.3204056e-32 0.00010764646 -2.1964525e-32 0.00087822153 8.5852236e-32
0.00011059223 0.0018988817 -0.0010206604 1.1761237e-33 -4.5398774e-05 2.3818582e-32 0.00087822153 -2.1266753e-29
0.00022623244 0.0 4.4604372e-33 -0.0006332727 -5.889551e-34 -5.7843834e-05 -2.5049982e-31 -0.0006332727
-5.149919e-33 -6.282294e-05 1.7996029e-33 -0.0006332727 -6.1030773e-32 -6.3158295e-05 -1.6344465e-17 -0.0006332727
-6.302297e-32 -8.370834e-05 1.8809069e-33 -0.0006332727 -3.1940692e-31 -8.482168e-05 -0.00096153957 0.00032826688
-1.8548601e-33 -3.879387e-05 -5.8039578e-33 -0.0006332727 5.52316e-30 -0.00017180637 0.0 -1.3291423e-32
0.00073581224 1.4581887e-32 6.4195134e-05 5.871568e-31 0.00073581224 3.4590023e-32 6.953036e-05 -6.0992552e-33
0.00073581224 1.6012526e-31 7.029215e-05 2.251379e-17 0.00073581224 1.7356794e-31 9.222507e-05 -9.3969334e-33
0.00073581224 7.847336e-31 9.476704e-05 0.0011769836 -0.0004411717 1.9931737e-32 2.4286535e-05 4.5241057e-32
0.00073581224 -2.449325e-29 0.0001938622 0.0 -5.0473133e-34 0.00026968267 -7.188094e-33 3.110016e-05
-1.0152872e-31 0.00026968267 -1.0496753e-32 3.3989265e-05 -4.847149e-34 0.00026968267 -6.869593e-32 3.3767275e-05
-1.1563192e-17 0.00026968267 -7.290056e-32 4.57029e-05 -8.1459545e-34 0.00026968267 -1.685988e-31 4.497009e-05
-8.317706e-05 0.0003528597 -1.594733e-33 0.00010199132 -1.3684538e-32 0.00026968267 1.7267248e-30 8.915023e-05
0.0 -1.3108918e-34 3.8791324e-05 -1.5342147e-32 2.6326156e-06 4.6946373e-32 3.8791324e-05 -1.7094781e-32
2.820886e-06 -1.0647762e-33 3.8791324e-05 -8.676872e-33 2.911319e-06 2.3178078e-18 3.8791324e-05 -1.079008e-32
3.679812e-06 -9.810245e-34 3.8791324e-05 3.7119376e-32 3.980639e-06 0.0001172748 -7.848348e-05 3.320803e-33
-8.608729e-06 -2.3226336e-32 3.8791324e-05 -2.051786e-30 8.427378e-06 0.0 -1.1140531e-32 1.8259743e-05
3.9803206e-32 -1.8089806e-05 3.9906185e-31 1.8259743e-05 6.098583e-32 -2.0374879e-05 -4.8592655e-33 1.8259743e-05
3.05422e-31 -1.906282e-05 2.758612e-17 1.8259743e-05 3.2791971e-31 -2.8614333e-05 -3.1535413e-33 1.8259743e-05
7.2894017e-31 -2.4269699e-05 0.0015338795 -0.0015156202 2.2973453e-32 -0.00026662895 8.134473e-32 1.8259743e-05
-1.758049e-29 -4.228938e-05 0.0 -1.5290087e-32 0.0003200989 2.2937142e-32 1.7980426e-05 6.433063e-31
0.0003200989 3.7656844e-32 1.9032406e-05 3.169065e-33 0.0003200989 1.09192e-31 2.0106454e-05 4.0116675e-17
0.0003200989 1.2529449e-31 2.4330948e-05 4.4123547e-33 0.0003200989 7.972179e-31 2.7918417e-05 0.0010174119
-0.000697313 2.4351982e-32 -8.837279e-05 6.3462037e-32 0.0003200989 -1.1337433e-29 6.124831e-05 0.0
9.75086e-34 0.00029969474 -1.1370169e-34 3.8983497e-05 -1.5793848e-31 0.00029969474 -6.238373e-33 4.2704964e-05
6.788493e-34 0.00029969474 -6.6089155e-32 4.2232146e-05 -1.692273e-17 0.00029969474 -6.5997766e-32 5.7609635e-05
1.8262186e-33 0.00029969474 -2.3058977e-31 5.606099e-05 -0.00067160005 0.0009712949 -2.4698901e-33 0.0002080274

exp_avg_sq f4 [128, 29]
00000000: 2f2f 6632 bdc1 0d38 82e5 5b32 5169 d934
00000010: 9e79 ed32 18b5 0d38 3682 4532 f208 0135
00000020: 287a 3b32 8cb5 0d38 2690 5a32 3881 fd34
00000030: e894 2735 9500 0b38 cb15 6b32 b6c3 7135
00000040: 4d9d 3132 6fbc 0d38 7b0f 9e32 38fb 5d35
00000050: 5a7b 9537 2a98 8d37 3279 8531 de94 2736
00000060: bf18 7c32 70a3 0d38 f845 e232 f80b 5f36
00000070: 0000 0000 f526 6a32 2357 4837 20ca 9632
00000080: 5778 2734 06de 1932 4a76 4837 7bdd be32
00000090: bf9d 4634 0aea 5e32 a354 4837 1c38 a332
000000a0: 82b4 4334 f379 3a33 ba19 4837 6886 af32
000000b0: e110 ac34 5b7c 7a32 5450 4837 5760 a832
000000c0: 0bd5 a634 19d7 c636 0948 d136 8c74 9231
000000d0: c8fb 6b35 df67 cb32 eb41 4837 8ccc 9632
000000e0: c887 a135 0000 0000 fcf5 8830 8719 4036
000000f0: 7747 0431 92a8 1433 3fa9 1831 c100 4036
00000100: 5df1 0231 7834 3033 c254 8430 d70b 4036
00000110: a0fa 0631 586d 2c33 3bb4 8233 e2bb 3b36
00000120: 4723 f630 bf73 ae33 1bef 6430 2312 4036
00000130: c4db 4131 d0ec 9333 10ed 1f36 2b47 1a35
00000140: 76a6 7b30 1a95 3534 74d5 8330 834b 4036
00000150: ac6b 4d31 2687 8f34 0000 0000 28e9 da31
00000160: e030 5737 5246 fb32 90e3 4c34 770e b932
00000170: 11b1 5637 4283 2133 2a15 7834 cc33 a131
00000180: b707 5737 b33f 0833 61ee 6734 07f7 9934
00000190: 85b0 5237 4525 2933 36ae f434 a0e3 8331
000001a0: b5eb 5637 279c 2733 c76a bd34 4c38 e936
000001b0: 03e2 c836 c5e1 6532 1db5 9b35 8a1d 2033
000001c0: f708 5737 4654 0a33 9703 b235 0000 0000
000001d0: 540c bb30 ee52 0036 e49c 6831 952b db32
000001e0: 5fcd 7e30 0074 0036 0116 6c31 b1f6 fe32
000001f0: ef22 b230 623e 0036 7321 7231 6f3e fc32
00000200: 6c28 8732 e397 fe35 906a 8531 5ba1 6033
00000210: fd0d 9430 e943 0036 bb8f 8a31 331a 5433
00000220: 7a73 9235 be16 6235 3e97 1130 61c4 1034
00000230: 05c8 8731 4c46 0036 801f 3c31 111b 4934
00000240: 0000 0000 88e8 fe30 8663 ca33 fd49 1032
00000250: 1bf9 2532 9df3 fd30 e967 ca33 a1a8 2132
00000260: 92d1 3732 2168 ff30 6fbc ca33 c4f2 1532
00000270: 7779 2a32 f073 5e31 a0c6 c733 61e0 2132
00000280: 0550 5132 b256 0031 b5d6 ca33 ac4d 1532
00000290: 8258 3a32 bce4 4f33 31a0 8233 de94 8030
000002a0: 9956 4832 a5a2 5732 ef85 cb33 77ba 9f2f
000002b0: fdb5 3c32 0000 0000 266a 1732 c657 a037
000002c0: 6214 db33 68d2 ba34 4de5 3732 bb5d a037
000002d0: 0e66 1134 5ab9 e134 db68 0f32 d539 a037
000002e0: 6b01 f533 0800 cf34 ff55 7434 db86 9e37
000002f0: de06 1d34 90f4 4135 5168 bf31 e444 a037
00000300: 2587 fb33 3156 1d35 d2eb 1c37 64bc 2537
00000310: 188e 0833 f5e6 e235 949f 0d34 764e a037
00000320: 1711 1e33 eec0 0036 0000 0000 f0f1 0433
00000330: c92b 9c37 b8d3 0233 01f9 8c34 2e53 8333
00000340: 2aa1 9b37 57c0 3233 b4ea ab34 633b e132
00000350: 7e08 9c37 7651 0733 1083 9e34 3442 fa34
00000360: 3bfa 9737 5809 3a33 8ca0 2a35 6175 df32
00000370: 2a0f 9c37 a557 2433 e6f9 0235 cbb7 2737
00000380: 90e0 1837 63c5 ab32 64c6 d835 846d 9933
00000390: 8e06 9c37 cca0 be32 43d7 f635 0000 0000
000003a0: 05e6 ef30 bc69 0f37 4fc4 5431 4408 db33
000003b0: 03f9 e430 1e63 0f37 c6a0 0231 056d 0034
000003c0: 47b7 d730 ab61 0f37 c0db 6231 fdd8 0034
000003d0: a09e 6533 4fdc 0e37 8786 0c31 2ed6 6e34
000003e0: b808 3f30 0763 0f37 71df a131 f32c 6334
000003f0: 6314 6936 9841 a536 f200 0630 5aad 4035
1.339849e-08 3.3797452e-05 1.2799662e-08 4.0496028e-07 2.7645736e-08 3.3785676e-05 1.1496516e-08 4.806926e-07
1.0912608e-08 3.37861e-05 1.2722046e-08 4.721894e-07 6.2429035e-07 3.3140725e-05 1.36837555e-08 9.0064293e-07
1.0338522e-08 3.3792512e-05 1.840066e-08 8.2694487e-07 1.7819624e-05 1.6879367e-05 3.8845878e-09 2.4971591e-06
1.4673957e-08 3.3769233e-05 2.634168e-08 3.3236556e-06 0.0 1.36294505e-08 1.1941217e-05 1.7554214e-08
1.5596866e-07 8.956254e-09 1.194847e-05 2.2219629e-08 1.8497575e-07 1.2975315e-08 1.1940635e-05 1.9001213e-08
1.8226459e-07 4.3417412e-08 1.1926919e-05 2.0433802e-08 3.2049778e-07 1.458019e-08 1.1939632e-05 1.9601584e-08
3.107492e-07 5.9259005e-06 6.2370714e-06 4.262409e-09 8.791071e-07 2.3679545e-08 1.1936277e-05 1.7555315e-08
1.2034952e-06 0.0 9.965215e-10 2.8625088e-06 1.9249151e-09 3.461225e-08 2.2215116e-09 2.8610668e-06
1.905469e-09 4.1025913e-08 9.628354e-10 2.8617121e-06 1.964203e-09 4.014632e-08 6.0863805e-08 2.7974534e-06
1.7908882e-09 8.1235605e-08 8.3285706e-10 2.8620786e-06 2.8210119e-09 6.888297e-08 2.3830835e-06 5.7473034e-07
9.1549823e-10 1.6911181e-07 9.592172e-10 2.8654183e-06 2.989263e-09 2.673416e-07 0.0 6.371142e-09
1.2826378e-05 2.9252224e-08 1.9081767e-07 2.1543412e-08 1.27966205e-05 3.7605112e-08 2.31045e-07 4.6916053e-09
1.2816795e-05 3.17229e-08 2.1600273e-07 2.8678207e-07 1.2558075e-05 3.9382275e-08 4.5575297e-07 3.8384798e-09
1.2810274e-05 3.9024737e-08 3.5281684e-07 6.950495e-06 5.9867757e-06 1.3380888e-08 1.1601111e-06 3.727977e-08
1.2817086e-05 3.2207275e-08 1.3263078e-06 0.0 1.3609545e-09 1.9121758e-06 3.3849625e-09 2.5514774e-08
9.269651e-10 1.9141007e-06 3.4355028e-09 2.9681674e-08 1.2961133e-09 1.9109798e-06 3.5234649e-09 2.9365053e-08
1.573445e-08 1.896868e-06 3.882924e-09 5.2300816e-08 1.0772393e-09 1.9113015e-06 4.032669e-09 4.9383925e-08
1.0911456e-06 8.4224655e-07 5.296562e-10 1.3482487e-07 3.9517567e-09 1.9114404e-06 2.7375506e-09 1.872943e-07
0.0 1.8547022e-09 9.424461e-08 8.398726e-09 9.660904e-09 1.8477412e-09 9.425259e-08 9.409775e-09
1.0699653e-08 1.8583287e-09 9.440634e-08 8.72814e-09 9.92292e-09 3.2371155e-09 9.302789e-08 9.422451e-09
1.21835955e-08 1.8675732e-09 9.445413e-08 8.690602e-09 1.0846749e-08 4.8403976e-08 6.0827354e-08 9.355536e-10
1.1661222e-08 1.2551628e-08 9.4772865e-08 2.9054423e-10 1.098442e-08 0.0 8.813492e-09 1.9114359e-05
1.020169e-07 3.479829e-07 1.0704139e-08 1.9117133e-05 1.3541305e-07 4.2044377e-07 8.347537e-09 1.9100416e-05
1.14089595e-07 3.8556777e-07 2.2755556e-07 1.8897865e-05 1.4624263e-07 7.225399e-07 5.570691e-09 1.9105566e-05
1.1712681e-07 5.861248e-07 9.353231e-06 9.8786295e-06 3.17942e-08 1.690553e-06 1.3189702e-07 1.9110023e-05
3.6802785e-08 1.9185786e-06 0.0 3.0953686e-08 1.8617038e-05 3.046054e-08 2.6258206e-07 6.115293e-08
1.8552488e-05 4.1618787e-08 3.2022e-07 2.6220453e-08 1.8600604e-05 3.1506225e-08 2.9525154e-07 4.6614298e-07
1.8117125e-05 4.3314998e-08 6.356356e-07 2.6013995e-08 1.860371e-05 3.8263938e-08 4.8792424e-07 9.996768e-06
9.112191e-06 1.9996781e-08 1.6150993e-06 7.1445385e-08 1.8599701e-05 2.2192033e-08 1.8391078e-06 0.0
1.7454914e-09 8.548082e-06 3.0961649e-09 1.0199486e-07 1.6659957e-09 8.546542e-06 1.900888e-09 1.196059e-07
1.5695399e-09 8.546204e-06 3.3012242e-09 1.1999869e-07 5.3462486e-08 8.515154e-06 2.0449151e-09 2.2243395e-07
6.9497785e-10 8.546521e-06 4.711119e-09 2.1157375e-07 3.4731572e-06 4.9250193e-06 4.875026e-10 7.1777833e-07

exp_avg f4 [128]
00000000: d65f 393a 7338 663a 3602 26ba 86e3 403a
00000010: 3264 8d39 deb3 2238 802c 9937 f2d2 a739
00000020: 5920 9d39 0095 12b7 4c49 9d3a 3846 9f36
00000030: 60bd e337 cfc5 363a 26bd 10ba d092 3239
00000040: 5042 9ab8 d41a c3ba cfbc a0ba fc01 e0ba
00000050: 5079 3a38 147e 4139 ec6d f3ba 9e20 9e3a
00000060: 2c7d beb9 3e77 eeb9 6cf9 543a 1099 9cb8
00000070: 3ae8 b839 bef2 793a 7096 05b9 f820 80b8
00000080: 3438 7339 b554 11ba 7adc 043a 987d 3db8
00000090: 857a 83ba 168b 4dba c6d2 9c3a 0c7b c0b9
000000a0: a05b 0f3a 5058 2239 a896 d5b7 56ed cc39
000000b0: 336e 8939 78fe 16ba 2800 c7ba a203 a73a
000000c0: 19af b6ba 0be5 6eba 4b42 feb9 2c97 4bba
000000d0: f25a 9cb9 6984 dfba 6c48 d43a e207 4eba
000000e0: 9232 1639 10cc afb8 d7d4 083a 5c48 88b9
000000f0: 9431 173a 40a6 2cb6 d7f8 a13a 4bff 1739
00000100: 3344 f8b8 4fa9 c1b9 ecee c5b8 be02 6fba
00000110: 2583 273a 04fe 1d3a 4064 9cb7 fcb5 3b39
00000120: 4142 ee3a c445 2aba f3bf ddba 565e 8bba
00000130: 2a21 c4ba 098f 87b9 c02d 1fb8 4858 de38
00000140: 602e e0ba 3271 0cba 4c27 c3b9 8ea9 9bb9
00000150: 81b6 813a 4ed5 453a e86a d138 b04f 17bb
00000160: 2ccc 9dba 90d6 6cba eac5 3abb 0bd2 dcb9
00000170: f3a4 a5ba c5f1 d73a 8a4c 4c39 3e99 80ba
00000180: 86e4 853a 0f07 2d3a 5af8 f7b8 20d7 d2b8
00000190: 286d f6b9 67c0 a0ba fc27 fbb9 46fd a0b9
000001a0: 82a0 bc3a 5e9a b43a 14f3 0c39 a131 55ba
000001b0: 62c3 6338 e106 40ba f0d8 69ba d0fb 0e3b
000001c0: 1fef 233a 6044 1bb8 60c8 3db9 7ada cdb8
000001d0: c20f 80ba 9bb7 8c3a 54c3 26bb 28f7 9e39
000001e0: 8a53 ecb9 bc98 eb39 8acf 13bb d4db 9ab9
000001f0: 2414 9838 58d0 a6b8 a4c4 52b9 9454 6f3a
0.00070714706 0.00087822153 -0.0006332727 0.00073581224 0.00026968267 3.8791324e-05 1.8259743e-05 0.0003200989
0.00029969474 -8.73697e-06 0.0011999994 4.746744e-06 2.7148693e-05 0.0006972225 -0.00055213494 0.00017030095
-7.355644e-05 -0.0014885315 -0.0012263301 -0.0017090435 4.4458837e-05 0.00018452882 -0.0018572188 0.0012064164
-0.00036332884 -0.0004548374 0.0008124325 -7.46717e-05 0.00035268237 0.00095347676 -0.00012739911 -6.1096565e-05
0.00023195223 -0.00055439334 0.0005068254 -4.517808e-05 -0.001003102 -0.0007840855 0.0011964671 -0.0003671277
0.000546867 0.00015482423 -2.5461733e-05 0.0003908674 0.0002621278 -0.00057599647 -0.0015182542 0.0012742172
-0.0013937681 -0.00091131096 -0.00048496047 -0.0007766362 -0.00029822398 -0.0017053011 0.00161959 -0.0007859451
0.00014323954 -8.38266e-05 0.0005219704 -0.00025993853 0.00057675806 -2.5726767e-06 0.0012357485 0.00014495586
-0.000118382646 -0.00036937973 -9.438195e-05 -0.0009117535 0.00063900865 0.0006026926 -1.8643332e-05 0.00017901504
0.0018177704 -0.0006495381 -0.0016918167 -0.0010632973 -0.0014963497 -0.00025855776 -3.7951162e-05 0.000106022286
-0.0017103665 -0.00053574436 -0.00037222577 -0.00029690232 0.0009896309 0.00075467385 9.9858094e-05 -0.002308827
-0.0012038997 -0.0009034658 -0.0028499314 -0.00042118164 -0.001263766 0.0016475251 0.00019483469 -0.0009811295
0.00102152 0.0006600478 -0.00011824137 -0.000100536505 -0.00047002104 -0.0012264372 -0.0004790424 -0.00030706282
0.0014391097 0.0013778915 0.00013441994 -0.00081327005 5.4302982e-05 -0.0007325244 -0.0008920571 0.0021817572
0.00062535884 -3.701856e-05 -0.0001809909 -9.815856e-05 -0.0009770321 0.0010735871 -0.0025446014 0.00030320254
-0.0004507567 0.0004493649 -0.0022554123 -0.00029536954 7.251676e-05 -7.954304e-05 -0.00020100415 0.00091297296
