results/ppo/Racing/Racing-2464.pt (torch, 174886 bytes, 14 tensors)

discrete_act_size_vector f4 [1, 2]
3.0 3.0
00000000: 0000 4040 0000 4040

network_body._body_endoder.seq_layers.0.weight f4 [128, 29]
-0.22900084 -0.018889042 0.00981581 -0.3866292 0.2508472 -0.17061599 -0.062502965 0.20643313
-0.395225 -0.1951947 -0.10015479 -0.00269209 -0.14443518 0.26654676 -0.07603357 -0.035623435
-0.022842474 0.26756343 -0.03599723 -0.20791735 -0.055542152 -0.042005543 0.016850268 -0.16791196
-0.057740286 0.0647842 0.02125917 -0.031348888 -0.17725016 0.16146332 0.10383596 -0.14090227
0.10013575 -0.11969238 -0.08356398 0.18706219 -0.012445643 0.3040028 -0.09877928 0.11308004
0.035415966 0.1382367 0.09821086 -0.030550282 -0.10575445 -0.13071196 0.13229898 0.07320511
-0.0452547 0.12959023 -0.007932894 -0.243087 -0.016485358 0.05492642 0.27947047 -0.0035985787
0.14374429 -0.054198135 0.1654123 -0.29395366 -0.040964436 0.1207555 0.061416954 0.043077815
0.13604385 -0.16075249 -0.5331354 -0.09417849 -0.01822347 0.49409255 -0.0595596 0.16896237
0.27814662 0.10414887 -0.121800855 0.24341415 -0.33486882 0.05776705 0.08182762 0.059012037
-0.25416255 -0.014369891 0.13019882 -0.35408205 0.2559889 0.11182062 -0.06120489 -0.022041043
0.17654066 -0.07451732 0.1642925 0.099928096 -0.29482505 -0.066913225 -0.14465736 -0.059328917
-0.004291172 -0.049610738 0.0044997856 0.01404038 0.032675944 0.043586332 -0.058742624 -0.25131315
-0.17468713 0.18144631 -0.1439484 -0.010669427 -0.05011749 0.115572825 0.17853539 0.06547184
0.34108788 0.12412957 -0.17135078 0.23587188 -0.048232123 -0.059090197 0.16593648 -0.065027945
-0.16246769 -0.16681364 0.17495349 0.27746597 -0.22552404 -0.18438426 -0.036830988 0.2198679
0.03562869 -0.14770731 0.18052344 0.063396156 0.15136242 -0.124551386 0.1216033 -0.13557632
0.23719974 -0.010462645 0.34461898 0.0024300984 0.104332305 0.17696647 -0.19279437 -0.32134882
-0.024700355 0.048154335 -0.008747273 0.26693478 0.27971604 0.2567469 -0.21816467 -0.13225065
-0.30227247 -0.13229474 -0.13126719 0.39061216 -0.19398841 -0.029452085 -0.20180815 -0.52371246
0.014630845 -0.27653733 0.16027366 -0.07059512 -0.22596325 -0.26110035 -0.1679207 0.22018054
0.2218927 -0.22234614 0.45703053 0.19337161 -0.014642198 0.11175734 0.08329988 -0.07837063
0.073525056 0.22921458 -0.22655515 -0.079117715 -0.24479702 0.20673043 0.04976735 -0.30600488
0.19161823 0.059222236 -0.17595355 0.055414014 0.091557465 -0.133169 0.121159226 -0.00013711343
0.07349897 0.2242838 0.1274291 -0.03832501 -0.10127202 -0.29771927 0.22983655 -0.05391278
0.18320271 0.028419117 0.1934841 -0.087612584 0.19187112 -0.49336773 -0.17770064 -0.012856854
0.5412467 0.3499072 -0.32547677 0.10143768 0.07440941 -0.20087421 -0.029797073 0.114402115
-0.05789328 -0.051961035 0.06557145 0.012968262 0.29932088 0.13268068 0.0671632 0.15038186
-0.5163262 -0.109369904 -0.1413759 0.2792001 -0.10127304 -0.19295092 -0.1919321 -0.28943235
-0.0986117 -0.22867668 -0.24395174 -0.23056886 -0.19380905 0.052264202 0.1612641 -0.3781164
-0.025078371 -0.41582128 0.14903572 0.1930174 -0.19285376 -0.06340864 -0.16236416 0.1859273
-0.12904046 -0.3310019 -0.22339101 0.2303619 -0.058075715 -0.012414698 -0.31612632 -0.0042115427
00000000: 327f 6abe 31bd 9abc 7ed2 203c 43f4 c5be
00000010: 0b6f 803e f5b5 2ebe 8e01 80bd 3563 533e
00000020: ee5a cabe 1fe1 47be f41d cdbd c76d 30bb
00000030: d1e6 13be d178 883e 7db7 9bbd e1e9 11bd
00000040: 2420 bbbc 13fe 883e d571 13bd 49e8 54be
00000050: 2b80 63bd 010e 2cbd 9309 8a3c 1df1 2bbe
00000060: 1481 6cbd 94ad 843d b627 ae3c b167 00bd
00000070: 1181 35be a456 253e f3a7 d43d af48 10be
00000080: f913 cd3d 4721 f5bd 9823 abbd 3b8d 3f3e
00000090: cfe8 4bbc 41a6 9b3e cb4c cabd 8296 e73d
000000a0: 5510 113d ec8d 0d3e c622 c93d 9644 fabc
000000b0: ca95 d8bd 5bd9 05be 6279 073e 90ec 953d
000000c0: fe5c 39bd 4db3 043e f8f8 01bc cceb 78be
000000d0: 4d0c 87bc 87fa 603d c116 8f3e 22d6 6bbb
000000e0: b431 133e ddfe 5dbd d861 293e 1881 96be
000000f0: 53ca 27bd a94e f73d 5890 7b3d 5d72 303d
00000100: 144f 0b3e 4d9c 24be 907b 08bf a7e0 c0bd
00000110: 6349 95bc b3f9 fc3e c4f4 73bd 7904 2d3e
00000120: 3c69 8e3e 014c d53d ba72 f9bd 8f41 793e
00000130: ed73 abbe 249d 6c3d 3d95 a73d 9bb6 713d
00000140: 9821 82be b16f 6bbc d752 053e 3e4a b5be
00000150: fa10 833e 3602 e53d fbb1 7abd 6b8f b4bc
00000160: 13c7 343e 899c 98bd 4b3c 283e 1aa7 cc3d
00000170: 4ff3 96be cd09 89bd 0f21 14be e102 73bd
00000180: f69c 8cbb a134 4bbd f072 933b 9f09 663c
00000190: 36d7 053d 9587 323d 1b9c 70bd 1eac 80be
000001a0: 2fe1 32be 10cd 393e 3667 13be d2ce 2ebc
000001b0: ff47 4dbd 72b1 ec3d fbd1 363e 1a16 863d
000001c0: 12a3 ae3e a537 fe3d 9476 2fbe 6688 713e
000001d0: 0c8f 45bd 9008 72bd 41eb 293e 5f2d 85bd
000001e0: ee5d 26be 32d1 2abe 0227 333e 0510 8e3e
000001f0: c6ef 66be 3acf 3cbe 17dc 16bd 0d25 613e
00000200: 64ef 113d 9640 17be 23db 383e d8d5 813d
00000210: c0fe 1a3e cc14 ffbd 270b f93d 85d4 0abe
00000220: 7de4 723e 846b 2bbc e671 b03e 4942 1f3b
00000230: 2dac d53d b336 353e e36b 45be d587 a4be
00000240: 6658 cabc 7b3d 453d b950 0fbc adab 883e
00000250: f136 8f3e 5474 833e 8f66 5fbe b76c 07be
00000260: 75c3 9abe 4678 07be e86a 06be 51fe c73e
00000270: e6a4 46be 8045 f1bc cca6 4ebe 0512 06bf
00000280: 36b6 6f3c 4d96 8dbe c71e 243e 2d94 90bd
00000290: e962 67be f2ae 85be 67f3 2bbe 0277 613e
000002a0: d737 633e b5ae 63be e8ff e93e 3503 463e
000002b0: d4e5 6fbc 08e1 e43d 2199 aa3d c880 a0bd
000002c0: 4e94 963d 3ab7 6a3e 13fe 67be 7808 a2bd
000002d0: 12ac 7abe 24b1 533e d9d8 4b3d acac 9cbe
000002e0: 9237 443e 0493 723d 2b2d 34be cef9 623d
000002f0: 7b82 bb3d 745d 08be 5422 f83d 1bc6 0fb9
00000300: a186 963d a7aa 653e c67c 023e b0fa 1cbd
00000310: b467 cfbd a96e 98be 465a 6b3e a6d3 5cbd
00000320: 7e99 3b3e 35cf e83c b220 463e 3a6e b3bd
00000330: dd79 443e b29a fcbe 28f7 35be 8ea5 52bc
00000340: 258f 0a3f 0927 b33e e4a4 a6be 8fbe cf3d
00000350: f663 983d f8b1 4dbe fe18 f4bc a84b ea3d
00000360: 8121 6dbd 18d5 54bd 534a 863d d578 543c
00000370: 9640 993e 72dd 073e dc8c 893d b4fd 193e
00000380: f42d 04bf 54fd dfbd d8c4 10be 51f3 8e3e
00000390: 3d68 cfbd ed94 45be d989 44be 7a30 94be
000003a0: eef4 c9bd 382a 6abe 7cce 79be 3e1a 6cbe
000003b0: e175 46be fd12 563d 6b22 253e 7998 c1be
000003c0: 2871 cdbc 87e6 d4be d29c 183e 5aa6 453e
000003d0: 757b 45be 64dc 81bd ca42 26be ba63 3e3e
000003e0: 2f23 04be 1579 a9be 9dc0 64be fde3 6b3e
000003f0: cde0 6dbd 0467 4bbc 4fdb a1be fb00 8abb

network_body._body_endoder.seq_layers.0.bias f4 [128]
0.0 0.0 0.0 0.0 0.0 0.0 0.0 0.0
0.0 0.0 0.0 0.0 0.0 0.0 0.0 0.0
0.0 0.0 0.0 0.0 0.0 0.0 0.0 0.0
0.0 0.0 0.0 0.0 0.0 0.0 0.0 0.0
0.0 0.0 0.0 0.0 0.0 0.0 0.0 0.0
0.0 0.0 0.0 0.0 0.0 0.0 0.0 0.0
0.0 0.0 0.0 0.0 0.0 0.0 0.0 0.0
0.0 0.0 0.0 0.0 0.0 0.0 0.0 0.0
0.0 0.0 0.0 0.0 0.0 0.0 0.0 0.0
0.0 0.0 0.0 0.0 0.0 0.0 0.0 0.0
0.0 0.0 0.0 0.0 0.0 0.0 0.0 0.0
0.0 0.0 0.0 0.0 0.0 0.0 0.0 0.0
0.0 0.0 0.0 0.0 0.0 0.0 0.0 0.0
0.0 0.0 0.0 0.0 0.0 0.0 0.0 0.0
0.0 0.0 0.0 0.0 0.0 0.0 0.0 0.0
0.0 0.0 0.0 0.0 0.0 0.0 0.0 0.0
00000000: 0000 0000 0000 0000 0000 0000 0000 0000
00000010: 0000 0000 0000 0000 0000 0000 0000 0000
00000020: 0000 0000 0000 0000 0000 0000 0000 0000
00000030: 0000 0000 0000 0000 0000 0000 0000 0000
00000040: 0000 0000 0000 0000 0000 0000 0000 0000
00000050: 0000 0000 0000 0000 0000 0000 0000 0000
00000060: 0000 0000 0000 0000 0000 0000 0000 0000
00000070: 0000 0000 0000 0000 0000 0000 0000 0000
00000080: 0000 0000 0000 0000 0000 0000 0000 0000
00000090: 0000 0000 0000 0000 0000 0000 0000 0000
000000a0: 0000 0000 0000 0000 0000 0000 0000 0000
000000b0: 0000 0000 0000 0000 0000 0000 0000 0000
000000c0: 0000 0000 0000 0000 0000 0000 0000 0000
000000d0: 0000 0000 0000 0000 0000 0000 0000 0000
000000e0: 0000 0000 0000 0000 0000 0000 0000 0000
000000f0: 0000 0000 0000 0000 0000 0000 0000 0000
00000100: 0000 0000 0000 0000 0000 0000 0000 0000
00000110: 0000 0000 0000 0000 0000 0000 0000 0000
00000120: 0000 0000 0000 0000 0000 0000 0000 0000
00000130: 0000 0000 0000 0000 0000 0000 0000 0000
00000140: 0000 0000 0000 0000 0000 0000 0000 0000
00000150: 0000 0000 0000 0000 0000 0000 0000 0000
00000160: 0000 0000 0000 0000 0000 0000 0000 0000
00000170: 0000 0000 0000 0000 0000 0000 0000 0000
00000180: 0000 0000 0000 0000 0000 0000 0000 0000
00000190: 0000 0000 0000 0000 0000 0000 0000 0000
000001a0: 0000 0000 0000 0000 0000 0000 0000 0000
000001b0: 0000 0000 0000 0000 0000 0000 0000 0000
000001c0: 0000 0000 0000 0000 0000 0000 0000 0000
000001d0: 0000 0000 0000 0000 0000 0000 0000 0000
000001e0: 0000 0000 0000 0000 0000 0000 0000 0000
000001f0: 0000 0000 0000 0000 0000 0000 0000 0000

network_body._body_endoder.seq_layers.2.weight f4 [128, 128]
0.17761798 -0.048539657 -0.06650615 -0.083141744 -0.17190759 -0.054220192 0.07760625 -0.032029696
-0.03252325 -0.1291269 0.08624995 -0.0026379235 0.015306736 -0.013843893 0.05509712 -0.124152675
0.11465404 0.06882523 -0.025343187 0.13025497 -0.038815167 -0.13701183 -0.04658677 0.11110999
0.056012187 -0.05737893 0.08454424 -0.09708893 -0.018609155 -0.12460274 0.079168424 0.022267614
0.07778571 0.02235537 0.12659527 -0.030992668 -0.061947122 0.077847816 0.085411556 -0.12539577
0.037866537 -0.04993218 0.0010714154 0.041804872 -0.24647118 -0.018821644 0.049088802 0.14425726
0.07575363 -0.026791848 0.022853741 -0.059532724 -0.078060135 -0.10608864 0.036775813 -0.05308537
0.16708782 -0.102264784 -0.036257725 0.108160846 -0.01088039 0.05049179 0.099720664 -0.19288689
-0.033315416 -0.08313148 0.020832887 0.057541467 0.021507315 0.093502216 -0.055990882 0.064445555
0.12153838 -0.09475267 0.02803597 -0.08326139 0.083381444 -0.003699016 -0.006023052 0.12752822
0.037618313 0.004404755 0.011757909 0.044786777 0.18053463 -0.049790706 0.012045308 -0.07909961
0.012032632 0.06302879 0.008770358 -0.076625764 0.020301305 -0.05380575 -0.055768 -0.043965675
0.005837782 -0.22919708 -0.034565113 0.04573915 -0.03451766 -0.024708927 0.13696124 -0.011095066
-0.056015827 -0.044585697 -0.06381615 -0.02635009 -0.037233315 0.05534034 0.0683138 0.006286276
-0.12402386 0.050960682 0.0083018895 0.11994741 0.14050752 -0.09636347 0.03140473 -0.012663648
0.02139698 -0.09588433 -0.054534487 0.06995036 -0.023110345 -0.108143575 0.111469775 0.013658066
-0.08110283 -0.066456884 -0.022658488 0.029726269 -0.22350852 0.098405115 -0.0294413 0.011813191
-0.0045874477 -0.0011931498 0.16979441 0.018743696 0.011856069 0.029286442 -0.005369913 -0.031382333
0.05319899 -0.14764488 -0.0052592875 0.06537313 -0.021464417 0.073561415 0.009854412 -0.06927023
0.047278233 -0.07997902 -0.073434226 -0.09307932 0.09837327 0.0075056483 -0.14241259 -0.10443082
0.04110372 -0.038319644 0.057302028 0.009277928 -0.05330569 -0.008171924 -0.1303114 -0.09931008
-0.07846707 -0.017433114 0.17615785 0.03963553 0.088121824 0.07947852 0.06928087 0.038329534
-0.026104232 -0.0018653482 -0.03764484 0.0051365155 -0.098146394 0.12579161 -0.0067125354 -0.037929054
-0.100365214 0.026281826 -0.027249781 -0.014648676 -0.04609368 0.1406625 -0.15133053 0.082092926
-0.10535714 -0.012155978 0.0071356418 -0.020656547 -0.021523463 -0.05578317 0.1409731 -0.026157409
-0.0035289035 0.14907967 -0.11520234 -0.12400234 0.116060205 0.034328382 -0.035354152 -0.009721665
0.035243098 -0.054012377 -0.013453561 0.023384579 -0.03990025 -0.080993086 -0.17309946 -0.101006776
-0.03937675 0.034622896 -0.010190752 0.13793513 0.06685859 -0.041479588 0.043216754 -0.12680957
-0.070129596 -0.024026258 0.030410204 -0.16215196 0.17345092 -0.09730444 -0.05619492 0.078869104
-0.18278094 0.06539955 0.043601993 -0.20471533 0.06142557 -0.07810522 0.12411521 -0.075056516
0.16836186 -0.03977495 0.026725128 -0.051616576 -0.012421546 0.07263046 0.016443083 -0.048119035
0.116336614 -0.021263499 -0.085077986 -0.087209426 -0.12472442 0.046936143 0.13998403 -0.07791103
00000000: 7de1 353e 85d1 46bd 6034 88bd 3846 aabd
00000010: 8b08 30be fe15 5ebd 07f0 9e3d 9231 03bd
00000020: 1937 05bd d839 04be d0a3 b03d 03e1 2cbb
00000030: 1bc9 7a3c 7fd1 62bc 85ad 613d c243 febd
00000040: bdcf ea3d 3ef4 8c3d 849c cfbc 8f61 053e
00000050: a7fc 1ebd d44c 0cbe c5d1 3ebd a28d e33d
00000060: 096d 653d 2b06 6bbd 8825 ad3d 90d6 c6bd
00000070: 3a72 98bc b92f ffbd 0e23 a23d 926a b63c
00000080: 1d4e 9f3d 9c22 b73c 31a2 013e 56e4 fdbc
00000090: 44bc 7dbd ad6e 9f3d 41ec ae3d c067 00be
000000a0: f119 1b3d b085 4cbd bc6e 8c3a 963b 2b3d
000000b0: f162 7cbe d92f 9abc 5711 493d 2db8 133e
000000c0: b824 9b3d 947a dbbc c537 bb3c 96d8 73bd
000000d0: fedd 9fbd 0045 d9bd 3ca2 163d 0c70 59bd
000000e0: 1219 2b3e 3370 d1bd fb82 14bd 6f83 dd3d
000000f0: aa43 32bc 7bd0 4e3d 593a cc3d 2484 45be
00000100: bf75 08bd d640 aabd bba9 aa3c 9ab0 6b3d
00000110: 1c30 b03c 177e bf3d b256 65bd 08fc 833d
00000120: 1de9 f83d b00d c2bd b1ab e53c f384 aabd
00000130: e4c3 aa3d 316b 72bb 065d c5bb c296 023e
00000140: a915 1a3d c355 903b 3fa4 403c 5772 373d
00000150: 12de 383e 57f1 4bbd af59 453c fafe a1bd
00000160: 8424 453c 3d15 813d 8cb1 0f3c f8ed 9cbd
00000170: ec4e a63c 6b63 5cbd fd6c 64bd 5a15 34bd
00000180: dd4a bf3b a4b2 6abe 2694 0dbd fa58 3b3d
00000190: 6462 0dbd 606a cabc 913f 0c3e 14c8 35bc
000001a0: da70 65bd 7e9f 36bd 0bb2 82bd 25dc d7bc
000001b0: f681 18bd 8dac 623d 1be8 8b3d 1bfd cd3b
000001c0: 3900 febd 26bc 503d a604 083c fda6 f53d
000001d0: 34e1 0f3e 365a c5bd 3fa2 003d 317b 4fbc
000001e0: b848 af3c 015f c4bd 8e5f 5fbd 2242 8f3d
000001f0: e851 bdbc 617a ddbd 444a e43d 15c6 5f3c
00000200: 3e19 a6bd 8c1a 88bd 4b9e b9bc 8184 f33c
00000210: 6bdf 64be 9f88 c93d e22e f1bc 1d8c 413c
00000220: 4d52 96bb 7763 9cba 96de 2d3e 618c 993c
00000230: f53f 423c 1fea ef3c 18f6 afbb c38a 00bd
00000240: 2fe7 593d 3830 17be 1a56 acbb 59e2 853d
00000250: 25d6 afbc 5ea7 963d 6674 213c 8ddd 8dbd
00000260: d2a6 413d 0acc a3bd af64 96bd 5fa0 bebd
00000270: ed77 c93d f1f1 f53b 9bd4 11be d3df d5bd
00000280: 605c 283d 0ff5 1cbd 88b5 6a3d 7302 183c
00000290: 1157 5abd 89e3 05bc 5a70 05be 1563 cbbd
000002a0: 58b3 a0bd e4cf 8ebc b962 343e de58 223d
000002b0: 3779 b43d a2c5 a23d 21e3 8d3d 6eff 1c3d
000002c0: 8bd8 d5bc b37e f4ba 7a31 1abd 3750 a83b
000002d0: fa00 c9bd 84cf 003e d4f4 dbbb 7f5b 1bbd
000002e0: 478c cdbd fc4c d73c ef3a dfbc 0001 70bc
000002f0: bacc 3cbd d509 103e 64f6 1abe 5620 a83d
00000300: 7cc5 d7bd de29 47bc 1ad2 e93b eb37 a9bc
00000310: f951 b0bc e57c 64bd 415b 103e 1048 d6bc
00000320: 2d45 67bb 57a8 183e 34ef ebbd f0f4 fdbd
00000330: f9b0 ed3d eb9b 0c3d 84cf 10bd 9e47 1fbc
00000340: 115b 103d 153c 5dbd 536c 5cbc 0491 bf3c
00000350: 726e 23bd b4df a5bd fc40 31be a4dc cebd
00000360: 8449 21bd bdd0 0d3d 1df7 26bc de3e 0d3e
00000370: 28ed 883d 80e6 29bd 0d04 313d 5eda 01be
00000380: 1ba0 8fbd b7d2 c4bc d21e f93c 2a0b 26be
00000390: 1e9d 313e 8d47 c7bd a52c 66bd 2086 a13d
000003a0: ed2a 3bbe 33f0 853d 0198 323d e5a0 51be
000003b0: 6199 7b3d a1f5 9fbd 1d30 fe3d 3bb7 99bd
000003c0: 0d67 2c3e 0feb 22bd a8ee da3c e76b 53bd
000003d0: bd83 4bbc 47bf 943d a5b3 863c 7718 45bd
000003e0: e441 ee3d ca30 aebc 5e3d aebd db9a b2bd
000003f0: 846f ffbd 1d40 403d f957 0f3e d18f 9fbd

network_body._body_endoder.seq_layers.2.bias f4 [128]
0.0 0.0 0.0 0.0 0.0 0.0 0.0 0.0
0.0 0.0 0.0 0.0 0.0 0.0 0.0 0.0
0.0 0.0 0.0 0.0 0.0 0.0 0.0 0.0
0.0 0.0 0.0 0.0 0.0 0.0 0.0 0.0
0.0 0.0 0.0 0.0 0.0 0.0 0.0 0.0
0.0 0.0 0.0 0.0 0.0 0.0 0.0 0.0
0.0 0.0 0.0 0.0 0.0 0.0 0.0 0.0
0.0 0.0 0.0 0.0 0.0 0.0 0.0 0.0
0.0 0.0 0.0 0.0 0.0 0.0 0.0 0.0
0.0 0.0 0.0 0.0 0.0 0.0 0.0 0.0
0.0 0.0 0.0 0.0 0.0 0.0 0.0 0.0
0.0 0.0 0.0 0.0 0.0 0.0 0.0 0.0
0.0 0.0 0.0 0.0 0.0 0.0 0.0 0.0
0.0 0.0 0.0 0.0 0.0 0.0 0.0 0.0
0.0 0.0 0.0 0.0 0.0 0.0 0.0 0.0
0.0 0.0 0.0 0.0 0.0 0.0 0.0 0.0
00000000: 0000 0000 0000 0000 0000 0000 0000 0000
00000010: 0000 0000 0000 0000 0000 0000 0000 0000
00000020: 0000 0000 0000 0000 0000 0000 0000 0000
00000030: 0000 0000 0000 0000 0000 0000 0000 0000
00000040: 0000 0000 0000 0000 0000 0000 0000 0000
00000050: 0000 0000 0000 0000 0000 0000 0000 0000
00000060: 0000 0000 0000 0000 0000 0000 0000 0000
00000070: 0000 0000 0000 0000 0000 0000 0000 0000
00000080: 0000 0000 0000 0000 0000 0000 0000 0000
00000090: 0000 0000 0000 0000 0000 0000 0000 0000
000000a0: 0000 0000 0000 0000 0000 0000 0000 0000
000000b0: 0000 0000 0000 0000 0000 0000 0000 0000
000000c0: 0000 0000 0000 0000 0000 0000 0000 0000
000000d0: 0000 0000 0000 0000 0000 0000 0000 0000
000000e0: 0000 0000 0000 0000 0000 0000 0000 0000
000000f0: 0000 0000 0000 0000 0000 0000 0000 0000
00000100: 0000 0000 0000 0000 0000 0000 0000 0000
00000110: 0000 0000 0000 0000 0000 0000 0000 0000
00000120: 0000 0000 0000 0000 0000 0000 0000 0000
00000130: 0000 0000 0000 0000 0000 0000 0000 0000
00000140: 0000 0000 0000 0000 0000 0000 0000 0000
00000150: 0000 0000 0000 0000 0000 0000 0000 0000
00000160: 0000 0000 0000 0000 0000 0000 0000 0000
00000170: 0000 0000 0000 0000 0000 0000 0000 0000
00000180: 0000 0000 0000 0000 0000 0000 0000 0000
00000190: 0000 0000 0000 0000 0000 0000 0000 0000
000001a0: 0000 0000 0000 0000 0000 0000 0000 0000
000001b0: 0000 0000 0000 0000 0000 0000 0000 0000
000001c0: 0000 0000 0000 0000 0000 0000 0000 0000
000001d0: 0000 0000 0000 0000 0000 0000 0000 0000
000001e0: 0000 0000 0000 0000 0000 0000 0000 0000
000001f0: 0000 0000 0000 0000 0000 0000 0000 0000

action_model._discrete_distribution.branches.0.weight f4 [3, 128]
0.0003209895 2.3377888e-05 0.008243487 -0.017997479 -0.002180518 -0.010132554 -0.0070864544 0.0007366377
-0.007855742 0.003635373 0.012920141 -0.0095329005 -0.004405473 0.007470403 -0.0056131827 -0.005341782
-0.0032524355 -0.011069464 -0.011496215 0.00039169332 -0.0008285961 -0.0032742142 0.011689346 -0.002111361
-0.0019042892 0.0056286836 -0.010266314 -0.003722977 0.0028185907 -0.0030808726 -0.0013965535 0.013011205
0.013363631 2.0425412e-05 0.007100714 -0.005899182 0.005659273 0.0042635696 0.012627228 -0.0125345215
-0.0049727447 0.0016784183 -0.012776702 0.0033382773 -0.012256748 0.010953424 0.010245602 -0.0032170338
0.0047040014 0.0016125046 0.004240006 -0.0036474005 0.0014523835 -0.00213616 3.163437e-05 -0.007681141
-0.0062410748 0.003183166 0.01189599 0.0021877212 0.023701526 -0.009517415 0.008001262 0.004440919
0.0007419422 0.0022598507 0.00012228594 -0.0065279864 0.017688185 -0.00037772988 0.009559558 0.0017054081
0.0032382165 0.0024109727 -0.007753478 -0.013994402 -0.0028266443 0.00017779728 0.012390853 -0.0065650265
-0.0047312886 -0.00819057 -0.0047363834 0.01190886 0.0045321803 0.022875458 -0.00044547787 -0.0006422502
0.0061861477 0.0027682728 0.0126227755 -0.013625323 -0.012615536 0.011558145 0.011184795 0.002230407
0.0005030113 0.006426112 -0.014478484 0.005342388 -0.017181834 -0.0017623146 -0.008948496 -0.013926188
-0.0016801975 0.0021054684 -0.007656234 -0.0032348693 -0.005774015 -0.01818311 0.01223868 -0.00281426
-0.010296649 -0.006732963 -0.0009599351 -0.0016639413 -0.0011076878 -0.0021147602 -0.023772508 0.013513853
0.009163293 -0.0013097214 0.010939451 -0.0025827794 -0.0013678406 0.011744568 -0.01623572 -0.003581994
-0.008361266 0.007215501 0.015687132 0.014928149 -0.0002556341 -0.0013513102 -0.00020925775 -0.009087875
-0.007954471 0.0019040558 -0.0075414353 0.00029878438 0.006284599 -0.021475514 0.006108697 0.0014045782
0.013641926 0.020454912 0.0010753212 -0.0014313782 -0.0048320475 -0.010417085 0.00076643925 -0.0075586513
-0.01555944 -0.0055568274 5.9381837e-05 -0.008255149 0.016146211 0.013803986 0.018060548 -0.002250793
0.01007595 -0.0020877607 -0.0050333627 -0.005932224 0.0016653296 0.0075444016 0.010003007 -0.011763486
0.009803909 0.0026447943 -0.002946417 -0.0019624408 -0.010303169 0.006154116 -0.00042295014 -0.014791799
0.0126107335 0.011296404 -0.016784728 -0.009234272 -0.010800127 -0.0049656886 0.015467961 -0.003186952
-0.008980925 -0.014360047 -0.005004225 -0.006703924 -0.0019738788 -0.003928305 0.0013705109 0.0007687553
-0.009175872 -0.001736015 -0.0059261285 0.011183718 0.012332917 0.00096266664 0.0021159633 -0.0076565454
-0.007484924 -0.026030982 0.0061606485 0.0035696928 0.0028221721 0.008376275 -0.011821713 -0.0054436824
-0.0031164289 -0.00021646677 -0.005935695 0.009870566 -0.002627812 -0.008503928 0.004669834 0.012300839
-0.01931308 -0.0014208293 -0.00992023 0.0030225767 -0.009983055 0.011867735 -0.012092947 0.013568259
0.011232448 -0.014194717 -0.00869672 -0.0015459443 -0.0042177234 0.0002374741 -0.008000311 0.009901895
-0.005236834 -0.01586506 0.0023059759 0.006297028 -0.0024345603 0.007195379 0.0073027685 -0.0061686435
0.015031727 -0.013203944 -0.018798143 0.004002865 0.0002817954 0.017757779 -0.018313875 -0.0014411699
0.0017614414 -0.0010929423 0.008658452 -0.020353219 0.009008477 -0.019485107 0.0017699673 6.5434935e-05
00000000: 7b4a a839 a21b c437 b10f 073c 736f 93bc
00000010: 05e7 0ebb 0303 26bc 7d35 e8bb eb1a 413a
00000020: 5fb5 00bc 703f 6e3b 00af 533c e22f 1cbc
00000030: c95b 90bb 48ca f43b caee b7bb 1d0a afbb
00000040: d026 55bb b25c 35bc 9f5a 3cbc 305c cd39
00000050: 2536 59ba 3394 56bb ac84 3f3c c25e 0abb
00000060: 5899 f9ba d270 b83b 0b34 28bc 30fd 73bb
00000070: 1bb8 383b 77e8 49bb 8f0c b7ba f32c 553c
00000080: 22f3 5a3c 3d57 ab37 1bad e83b ed4d c1bb
00000090: 6c71 b93b 6ab5 8b3b 6fe2 4e3c 985d 4dbc
000000a0: 68f2 a2bb 5ffe db3a 5f55 51bc 00c7 5a3b
000000b0: 87d0 48bc fd75 333c 2bdd 273c dfd4 52bb
000000c0: 0624 9a3b ad5a d33a c0ef 8a3b 3a09 6fbb
000000d0: e75d be3a d1fe 0bbb 25af 0438 15b2 fbbb
000000e0: ee81 ccbb aa9c 503b 66e7 423c df5f 0f3b
000000f0: b429 c23c efee 1bbc ba17 033c 2185 913b
00000100: e67e 423a 011a 143b e239 0039 b8e8 d5bb
00000110: d0e6 903c 0c0a c6b9 b19f 1c3c 0088 df3a
00000120: 4238 543b 6901 1e3b e310 febb c748 65bc
00000130: 393f 39bb 186f 3a39 0103 4b3c 6f1f d7bb
00000140: ed08 9bbb be31 06bc aa33 9bbb 611d 433c
00000150: af82 943b 5065 bb3c 078f e9b9 ae5c 28ba
00000160: 2bb5 ca3b e96b 353b c2cf 4e3c bf3c 5fbc
00000170: 65b1 4ebc 605e 3d3c 6e40 373c 052c 123b
00000180: 84dc 033a 2292 d23b 2a37 6dbc 330f af3b
00000190: ebc0 8cbc 77fd e6ba b69c 12bc ab2a 64bc
000001a0: 133a dcba e6fb 093b 25e1 fabb 1a00 54bb
000001b0: f333 bdbb bff4 94bc bf84 483c 736f 38bb
000001c0: 47b3 28bc 30a0 dcbb 27a4 7bba 9b18 daba
000001d0: d62f 91ba ca97 0abb 90be c2bc 3569 5d3c
000001e0: a321 163c f5aa abba 623b 333c d943 29bb
000001f0: 1d49 b3ba 4a6c 403c c600 85bc e3bf 6abb
00000200: b1fd 08bc 0270 ec3b 4d82 803c 3295 743c
00000210: a106 86b9 721e b1ba 336c 5bb9 4fe5 14bc
00000220: 7853 02bc 8391 f93a 251e f7bb 29a6 9c39
00000230: 0aef cd3b 6bed afbc 772b c83b d319 b83a
00000240: 6382 5f3c 0f91 a73c cbf1 8c3a 159d bbba
00000250: 2756 9ebb 6cac 2abc deea 483a 90ae f7bb
00000260: 05ed 7ebc 0c16 b6bb c310 7938 9b40 07bc
00000270: 0f45 843c 1d2a 623c b7f3 933c 0a82 13bb
00000280: 9915 253c d0d2 08bb e8ee a4bb 1a63 c2bb
00000290: 3047 da3a 0737 f73b a7e3 233c a3bb 40bc
000002a0: 93a0 203c 4954 2d3b ad18 41bb 4b9c 00bb
000002b0: 9fce 28bc 77a8 c93b 68bf ddb9 4d59 72bc
000002c0: 409d 4e3c 8d14 393c 2080 89bc 584b 17bc
000002d0: 04f3 30bc 37b7 a2bb 556d 7d3c 2fdc 50bb
000002e0: bb24 13bc 6746 6bbc 7bfa a3bb 97ac dbbb
000002f0: 315c 01bb 03b9 80bb b7a2 b33a 4b86 493a
00000300: 6656 16bc ff8a e3ba f82f c2bb ea3b 373c
00000310: 0110 4a3c 775b 7c3a f9ab 0a3b c2e3 fabb
00000320: 1844 f5bb ed3e d5bc 44df c93b 82f1 693b
00000330: 31f4 383b a53c 093c dcaf 41bc eb60 b2bb
00000340: 003d 4cbb 5bfb 62b9 3880 c2bb 28b8 213c
00000350: 5f37 2cbb 0f54 0bbc 6805 993b 7589 493c
00000360: 7736 9ebc 1f3b baba 7688 22bc 6c16 463b
00000370: f88f 23bc e370 423c 7f21 46bc 674d 5e3c
00000380: 4d08 383c f590 68bc b07c 0ebc 48a1 caba
00000390: d434 8abb 7802 7939 bd13 03bc 8f3b 223c
000003a0: bf99 abbb 71f7 81bc db1f 173b 4d57 ce3b
000003b0: 258d 1fbb 37c7 eb3b 104c ef3b 5522 cabb
000003c0: a247 763c 5b55 58bc 90fe 99bc 772a 833b
000003d0: f0bd 9339 c378 913c fb06 96bc a3e5 bcba
000003e0: 2ae0 e63a 0f41 8fba 2edc 0d3c cbbb a6bc
000003f0: 4b98 133c 3b9f 9fbc 3ffe e73a 1d3a 8938

action_model._discrete_distribution.branches.0.bias f4 [3]
0.0 0.0 0.0
00000000: 0000 0000 0000 0000 0000 0000

action_model._discrete_distribution.branches.1.weight f4 [3, 128]
-0.0037780595 0.0072491183 0.0036350605 -0.0029780036 -0.0033723179 -0.00535895 -0.00022283921 0.013812383
0.0051746415 -0.0019906077 0.017028866 0.010095833 0.0068077683 0.0023075598 -0.0043105287 -0.013090819
-0.0041501056 -0.007772921 0.0004097401 -0.003980014 0.008944313 0.0026594463 -0.0027424311 -0.00016154908
0.012276917 0.0071837977 -0.0011389127 0.017744133 0.015723675 0.0054789535 0.0016781249 0.00078054785
0.018391075 -0.014708093 -0.008478266 -0.00026376158 0.0023660462 0.006437953 -0.00614183 -0.0044992543
0.010966754 -0.004460973 0.0025621955 -0.0063061924 0.011550776 0.007358841 0.016593335 0.0041249413
-0.0035731036 -0.0052487417 0.009924058 0.013408705 0.011010024 -0.0022884961 -0.0038276792 -0.0018139627
0.0024134414 0.0039586066 -0.007107591 0.010180122 -0.0067217387 0.015337582 0.009459804 -0.0018880513
0.01935518 0.0055651567 -0.010201453 -0.022889879 0.003963228 -0.0043673557 0.0067847534 0.0016651734
0.00031831698 0.010422246 0.020781144 9.1491325e-05 0.005814364 -0.0001818091 0.0072866715 0.009997904
0.006828153 0.002619692 -0.0041798493 0.007567242 0.0009133811 0.005058123 -0.008315784 -0.015739113
-0.0013087087 -0.0031620816 -0.0106601855 -0.019337146 0.0019082997 0.005938373 0.006537369 0.001603934
0.007844112 -0.007931301 -0.009939051 -0.003964111 -0.0055551915 0.015943272 -0.006438032 -0.005860291
0.005743535 -0.01863349 0.009737978 0.0049828496 0.005111543 0.00488395 0.0022994096 0.008874318
-0.0044182856 0.011945038 -0.0037662757 -0.0027819604 -0.01326319 -0.005529906 -0.0050358353 0.0055203084
0.002793686 -0.013119998 -0.001778683 -0.009423685 -0.00016052181 0.0016750604 -0.000586234 -0.0075942404
0.0048860256 0.0005335327 -0.006381204 0.012550688 -0.01286324 0.011402044 -0.0003137494 -0.0027393203
0.008636096 0.0041995933 -0.0003507111 0.00014764389 -0.006142077 -0.0022871504 0.0065453574 0.0013199068
-0.011949462 0.00029349801 -0.0030587832 -0.014466897 0.0024347755 0.0033839166 -0.0009704997 0.0068313293
0.0048549776 0.01758215 -0.0041988376 -0.0051703225 0.003243823 0.0035931903 -0.0033484825 0.005473063
-0.00018634145 -0.009644366 -0.0037775573 -0.0038864163 -0.008748994 0.005470025 0.0015419958 0.0037960708
-0.013570485 0.0132595925 -0.0010901733 0.020326504 -0.0050769597 0.0019383911 0.0043927636 -0.0066911853
-0.010142261 -0.005038437 -0.0025468038 -0.0033581809 0.009663617 0.010047127 -0.001570848 -0.00055972947
-0.0063169054 0.0051079798 0.0021032402 -0.0051109954 0.0012959564 0.0037903932 -0.005651872 -0.004754923
0.0024578914 0.012427969 -0.008498666 -0.0021126044 0.008633922 0.0074901865 -0.003855381 0.0179629
-0.027176285 -0.0125210155 -0.009778391 -0.0047894483 -0.00083037774 0.005411155 -0.026217451 -0.0028939073
-0.015821366 0.0110969115 0.0032650547 0.0038346816 0.007238717 -0.00048250766 -0.0026640012 -0.006798493
-0.0022718979 0.012233644 0.0001597706 -0.0018095901 -0.0025530423 -0.0038970977 -0.011097619 -0.0045133107
0.010140171 0.009681624 0.0047457726 -0.010676883 0.0056058294 0.010779347 -0.0071509117 -0.003329968
0.004549897 -0.009329396 0.004475354 -0.008421639 -0.016113494 -0.0009464404 0.015661806 0.014364408
-0.0050999415 0.00024633875 -0.011929112 -0.0129872905 -0.005930037 -0.0072672213 -0.0037527278 -0.0040680873
0.00836005 -0.0028637543 -0.011774042 0.017978761 -0.0068749236 -0.006356224 0.0017266556 0.0019354409
00000000: 5299 77bb 038a ed3b 323a 6e3b 9c2a 43bb
00000010: 1b02 5dbb 219a afbb f2a9 69b9 554d 623c
00000020: 0a90 a93b db74 02bb 1f80 8b3c fe68 253c
00000030: b313 df3b 6e3a 173b 563f 8dbb e07a 56bc
00000040: 9cfd 87bb fdb3 febb 63d2 d639 c76a 82bb
00000050: 2b8b 123c 1b4a 2e3b 5cba 33bb 8065 29b9
00000060: 1f25 493c 1066 eb3b 9247 95ba 255c 913c
00000070: f0ce 803c cb88 b33b 87f4 db3a ae9d 4c3a
00000080: e1a8 963c 37fa 70bc 6de8 0abc 7b49 8ab9
00000090: ab0f 1b3b 77f5 d23b 6741 c9bb 7b6e 93bb
000000a0: e6ad 333c 5b2d 92bb 82ea 273b 2da4 cebb
000000b0: 773f 3d3c 6f22 f13b bfee 873c 842a 873b
000000c0: bb2a 6abb a3fd abbb 8498 223c 2fb0 5b3c
000000d0: 6363 343c 98fa 15bb cdd9 7abb 7dc2 edba
000000e0: d42a 1e3b 33b7 813b cbe6 e8bb 87ca 263c
000000f0: 0842 dcbb 7b4a 7b3c 4bfd 1a3c 7d78 f7ba
00000100: c18e 9e3c eb5b b63b ff23 27bc 8e83 bbbc
00000110: f7dd 813b 091c 8fbb a352 de3b f341 da3a
00000120: c8e3 a639 11c2 2a3c 383d aa3c 08df bf38
00000130: 6c86 be3b 02a4 3eb9 08c5 ee3b 40ce 233c
00000140: b3be df3b 23af 2b3b 1ef7 88bb a0f6 f73b
00000150: f86f 6f3a 9cbe a53b ed3e 08bc 50ef 80bc
00000160: fa88 abba ed3a 4fbb 0fa8 2ebc ef68 9ebc
00000170: ea1f fa3a af96 c23b 6d37 d63b 183b d23a
00000180: 9784 003c 4af2 01bc 67d7 22bc 60e5 81bb
00000190: 5308 b6bb 779b 823c 20f6 d2bb af07 c0bb
000001a0: 4334 bc3b 43a5 98bc 0a8c 1f3c 2c47 a33b
000001b0: bb7e a73b 8b09 a03b b1b1 163b 9665 113c
000001c0: 44c7 90bb 1fb5 433c 9fd3 76bb 8d51 36bb
000001d0: da4d 59bc 3734 b5bb a603 a5bb b4e3 b43b
000001e0: 4616 373b 43f5 56bc b322 e9ba cd65 1abc
000001f0: bf51 28b9 b38d db3a 7fad 19ba 1bd9 f8bb
00000200: f41a a03b c6dc 0b3a 6b19 d1bb 67a1 4d3c
00000210: 57c0 52bc a4cf 3a3c bb7e a4b9 2b86 33bb
00000220: 697e 0d3c be9c 893b a6df b7b9 dbd0 1a39
00000230: 7a43 c9bb 04e4 15bb 707a d63b b900 ad3a
00000240: adc7 43bc a3e0 9939 de75 48bb 9006 6dbc
00000250: c190 1f3b b3c4 5d3b 2269 7eba 58d9 df3b
00000260: 8116 9f3b 7108 903c 6796 89bb cf6b a9bb
00000270: 5296 543b bb7b 6b3b 3772 5bbb 6157 b33b
00000280: a764 43b9 6703 1ebc e590 77bb 3fb3 7ebb
00000290: f157 0fbc e53d b33b cb1c ca3a 80c7 783b
000002a0: bd56 5ebc c33e 593c 25e4 8eba c583 a63c
000002b0: a05c a6bb 9d11 fe3a 2cf1 8f3b bb41 dbbb
000002c0: ba2b 26bc 7919 a5bb 47e8 26bb ed14 5cbb
000002d0: 2654 1e3c b49c 243c eae4 cdba cfba 12ba
000002e0: 0bfe cebb d760 a73b 84d6 093b 237a a7bb
000002f0: 15dd a93a 3f68 783b 5733 b9bb 2fcf 9bbb
00000300: 9314 213b ae9e 4b3c fd3d 0bbc 9f73 0abb
00000310: 4b75 0d3c 3d70 f53b 8faa 7cbb ef26 933c
00000320: cda0 debc f224 4dbc 8b35 20bc cef0 9cbb
00000330: b5ad 59ba 0f50 b13b fbc5 d6bc b5a7 3dbb
00000340: cf9b 81bc d2cf 353c 87fa 553b 484f 7b3b
00000350: c232 ed3b 15f9 fcb9 8696 2ebb e5c5 debb
00000360: 1fe4 14bb 9f6f 483c 1888 2739 c52f edba
00000370: f150 27bb 7366 7fbb cad2 35bc 65e4 93bb
00000380: f622 263c ad9f 1e3c 6d82 9b3b 18ee 2ebc
00000390: 1bb1 b73b dc9b 303c 3252 eabb 983b 5abb
000003a0: 4d17 953b 53da 18bc fea5 923b eafa 09bc
000003b0: 7200 84bc 8a1a 78ba 304d 803c b258 6b3c
000003c0: 691d a7bb 0727 8139 5272 43bc a5c8 54bc
000003d0: c150 c2bb df21 eebb 53f0 75bb 974d 85bb
000003e0: 97f8 083c d3ad 3bbb e9e7 40bc 3248 933c
000003f0: 0a47 e1bb df47 d0bb f350 e23a 9fae fd3a

action_model._discrete_distribution.branches.1.bias f4 [3]
0.0 0.0 0.0
00000000: 0000 0000 0000 0000 0000 0000

network_body._body_endoder.seq_layers.0.weight f4 [128, 29]
0.017132284 0.06441045 -0.22799063 -0.06502922 0.10123777 -0.094562955 -0.08529424 0.11072495
0.55349153 -0.051478274 -0.113295384 -0.07528245 -0.01749679 0.13253728 0.31513208 -0.46830806
0.04169955 -0.236168 0.6193376 -0.056446444 0.06361603 0.19206 -0.09451899 0.023176188
-0.17709666 0.17049976 -0.3198882 -0.28260607 0.13716267 -0.076435015 0.19273794 -0.23294231
-0.077504344 0.30411798 0.11102554 0.07052187 0.14605874 0.17985876 -0.040279597 -0.002890464
-0.17100492 0.2350221 0.19939081 -0.07617406 0.21079277 0.035896655 -0.043780603 -0.23449425
0.015950179 0.26174754 0.06630321 0.1612807 -0.59375197 -0.23389386 0.18134815 0.019329237
-0.017487183 -0.13183406 -0.049444336 0.07482209 0.13413143 -0.37639898 0.074401595 0.28819856
0.2339485 -0.42966506 -0.18720053 0.2883425 0.22403547 0.36602396 0.22084267 -0.19438891
0.24412994 -0.11630723 0.039868597 0.055791836 -0.1164611 0.23852406 0.34303948 -0.18679002
0.02319691 0.20023002 0.24300744 0.4305039 0.14221987 0.04335666 0.20480742 0.10139162
-0.10606282 0.10933285 0.046985988 -0.15372415 -0.12521304 -0.043740757 -0.13065444 0.19987552
-0.040586833 0.23831321 -0.18399663 0.13723385 0.07199047 -0.27868924 -0.059152186 -0.096509084
-0.18473408 -0.23809452 0.12081883 -0.035688363 -0.1766422 0.2463695 0.049574647 -0.005158548
0.18009555 -0.17291363 -0.18698795 -0.102507755 -0.30090672 -0.20936733 0.35696226 -0.102457926
0.10827672 -0.045018565 0.4994708 0.05242608 0.11158355 -0.19494343 -0.10087921 -0.25560623
0.09962265 -0.18714334 0.10997569 -0.19182202 -0.07396995 -0.113355175 0.022735769 -0.03521306
-0.06264293 -0.39094815 0.06646404 -0.05632194 0.14230305 0.37113056 0.06550078 -0.080842964
0.03673297 0.022774288 0.12799627 0.060468018 0.00013480215 0.26691264 0.0183154 -0.012337783
-0.20938078 0.031550553 0.001133129 0.15457684 -0.34265694 -0.009757802 -0.050975747 0.09088888
-0.06832961 -0.24368426 -0.2767611 0.13636224 -0.09845054 -0.13415258 0.21138887 -0.033372264
-0.31852663 0.022601757 -0.14570129 -0.06548582 0.19405045 0.09816392 0.08408964 0.0067350427
-0.19445 0.18795416 -0.0773299 -0.050328393 0.024263754 0.2374254 -0.082355425 0.010696395
0.16904564 -0.02241996 -0.081600115 0.074816525 -0.24103579 0.015536709 -0.13311951 -0.09605679
0.026472783 0.055842485 -0.064002186 -0.10502994 0.25649723 0.17089395 -0.18693647 -0.2823584
-0.11429336 -0.20477156 -0.33761936 0.30119437 0.070640974 -0.03561449 0.017536469 0.27065188
-0.05352065 0.00087854505 0.2673711 -0.08097785 0.07833781 0.009648682 -0.07252685 -0.082494035
0.32863066 0.21364854 0.02694011 -0.23364186 0.30418825 0.14817269 -0.13909546 -0.083782785
-0.029825123 -0.16701414 0.056749865 0.15196224 -0.06593254 -0.025090596 -0.22529866 0.37626374
0.17324725 -0.22749771 -0.15740451 -0.15647961 0.4509673 0.37175345 -0.14210862 -0.1837974
-0.10961699 -0.11748298 0.28462356 -0.054073527 0.33657956 -0.27443054 0.2019189 -0.35541692
0.18667369 0.09060452 0.020684855 0.07649435 0.034804802 0.0059397933 -0.12518482 0.23703215
00000000: 0159 8c3c a0e9 833d 6076 69be 0a2e 85bd
00000010: bf55 cf3d 39aa c1bd bfae aebd c3c3 e23d
00000020: 9fb1 0d3f e2da 52bd 6907 e8bd af2d 9abd
00000030: 6e55 8fbc dab7 073e fe58 a13e 13c6 efbe
00000040: 26cd 2a3d 06d6 71be e98c 1e3f 6334 67bd
00000050: 1f49 823d 60ab 443e 2c93 c1bd fddb bd3c
00000060: d458 35be 7d97 2e3e 63c8 a3be beb1 90be
00000070: 5f74 0c3e f689 9cbd 185d 453e 6e88 6ebe
00000080: 99ba 9ebd 5ab5 9b3e 5c61 e33d c56d 903d
00000090: 6c90 153e e52c 383e 38fc 24bd f06d 3dbb
000000a0: ea1b 2fbe a2a9 703e 1b2d 4c3e 2501 9cbd
000000b0: 0fda 573e 5f08 133d 4a53 33bd 431f 70be
000000c0: f3a9 823c c603 863e fac9 873d c526 253e
000000d0: 2100 18bf df81 6fbe 54b3 393e 5958 9e3c
000000e0: 4841 8fbc 82ff 06be 2586 4abd 533c 993d
000000f0: c059 093e 5eb7 c0be dd5f 983d c38e 933e
00000100: 3290 6f3e 0ffd dbbe 7fb1 3fbe a1a1 933e
00000110: 8e69 653e 7e67 bb3e 9524 623e e30d 47be
00000120: 33fd 793e 7c32 eebd 414d 233d fb85 643d
00000130: 2883 eebd a73f 743e dfa2 af3e e245 3fbe
00000140: 7207 be3c 1909 4d3e f1d6 783e 026b dc3e
00000150: 16a2 113e c196 313d 09b9 513e 69a6 cf3d
00000160: 7737 d9bd e7e9 df3d 6174 403d dd69 1dbe
00000170: d937 00be 8229 33bd 47ca 05be 2bac 4c3e
00000180: 613e 26bd 6108 743e 9d69 3cbe 0887 0c3e
00000190: bd6f 933d 5bb0 8ebe 9049 72bd 8ea6 c5bd
000001a0: ee2a 3dbe 0dcf 73be dd6f f73d f62d 12bd
000001b0: b1e1 34be 4948 7c3e c90e 4b3d 0909 a9bb
000001c0: f86a 383e 4510 31be c579 3fbe 96ef d1bd
000001d0: 7210 9abe 6464 56be c2c3 b63e 76d5 d1bd
000001e0: 2fc0 dd3d 6365 38bd a3ba ff3e bbbc 563d
000001f0: eb85 e43d 409f 47be c299 cebd d2de 82be
00000200: f606 cc3d 81a2 3fbe ef3a e13d fe6c 44be
00000210: 8f7d 97bd c226 e8bd 5d40 ba3c 923b 10bd
00000220: f04a 80bd 5b2a c8be 4c1e 883d d6b1 66bd
00000230: e4b7 113e d304 be3e 4625 863d ff90 a5bd
00000240: 5075 163d 2591 ba3c 7411 033e 50ad 773d
00000250: ad59 0d39 c6a8 883e 2e0a 963c 6a24 4abc
00000260: ea67 56be 273b 013d 8085 943a 6449 1e3e
00000270: bb70 afbe 30df 1fbc f2cb 50bd f323 ba3d
00000280: 65f0 8bbd 5e88 79be a2b3 8dbe 8ba2 0b3e
00000290: 70a0 c9bd 4b5f 09be 5376 583e 5bb1 08bd
000002a0: ec15 a3be 5227 b93c b832 15be 6e1d 86bd
000002b0: 29b5 463e 2a0a c93d 3037 ac3d a2b1 dc3b
000002c0: e71d 47be 0e77 403e 235f 9ebd 2525 4ebd
000002d0: c8c4 c63c a51f 733e f6a9 a8bd ef3f 2f3c
000002e0: 4d1a 2d3e 10aa b7bc f61d a7bd 6839 993d
000002f0: 16d2 76be ae8d 7e3c 7b50 08be 6cb9 c4bd
00000300: 73dd d83c 17bb 643d 9413 83bd f019 d7bd
00000310: 9b53 833e d3fe 2e3e 466c 3fbe 4891 90be
00000320: a312 eabd a3af 51be 72dc acbe 2636 9a3e
00000330: 37ac 903d 80e0 11bd a4a8 8f3c e292 8a3e
00000340: 7838 5bbd 294e 663a dde4 883e b7d7 a5bd
00000350: 936f a03d 8115 1e3c f588 94bd a2f2 a8bd
00000360: 4742 a83e afc6 5a3e 81b1 dc3c d03f 6fbe
00000370: 90be 9b3e 95ba 173e 0a6f 0ebe 4f96 abbd
00000380: d153 f4bc c105 2bbe 8c72 683d fd9b 1b3e
00000390: a407 87bd cb8a cdbc b1b4 66be a4a5 c03e
000003a0: ba67 313e 29f5 68be a62e 21be 313c 20be
000003b0: 30e5 e63e 7856 be3e ec84 11be 6335 3cbe
000003c0: df7e e0bd eb9a f0bd 2eba 913e 347c 5dbd
000003d0: 2854 ac3e 2982 8cbe d4c3 4e3e 35f9 b5be
000003e0: 6327 3f3e dd8e b93d 4973 a93c 12a9 9c3d
000003f0: 7b8f 0e3d 99a2 c23b 7330 00be 8eb8 723e

network_body._body_endoder.seq_layers.0.bias f4 [128]
0.0 0.0 0.0 0.0 0.0 0.0 0.0 0.0
0.0 0.0 0.0 0.0 0.0 0.0 0.0 0.0
0.0 0.0 0.0 0.0 0.0 0.0 0.0 0.0
0.0 0.0 0.0 0.0 0.0 0.0 0.0 0.0
0.0 0.0 0.0 0.0 0.0 0.0 0.0 0.0
0.0 0.0 0.0 0.0 0.0 0.0 0.0 0.0
0.0 0.0 0.0 0.0 0.0 0.0 0.0 0.0
0.0 0.0 0.0 0.0 0.0 0.0 0.0 0.0
0.0 0.0 0.0 0.0 0.0 0.0 0.0 0.0
0.0 0.0 0.0 0.0 0.0 0.0 0.0 0.0
0.0 0.0 0.0 0.0 0.0 0.0 0.0 0.0
0.0 0.0 0.0 0.0 0.0 0.0 0.0 0.0
0.0 0.0 0.0 0.0 0.0 0.0 0.0 0.0
0.0 0.0 0.0 0.0 0.0 0.0 0.0 0.0
0.0 0.0 0.0 0.0 0.0 0.0 0.0 0.0
0.0 0.0 0.0 0.0 0.0 0.0 0.0 0.0
00000000: 0000 0000 0000 0000 0000 0000 0000 0000
00000010: 0000 0000 0000 0000 0000 0000 0000 0000
00000020: 0000 0000 0000 0000 0000 0000 0000 0000
00000030: 0000 0000 0000 0000 0000 0000 0000 0000
00000040: 0000 0000 0000 0000 0000 0000 0000 0000
00000050: 0000 0000 0000 0000 0000 0000 0000 0000
00000060: 0000 0000 0000 0000 0000 0000 0000 0000
00000070: 0000 0000 0000 0000 0000 0000 0000 0000
00000080: 0000 0000 0000 0000 0000 0000 0000 0000
00000090: 0000 0000 0000 0000 0000 0000 0000 0000
000000a0: 0000 0000 0000 0000 0000 0000 0000 0000
000000b0: 0000 0000 0000 0000 0000 0000 0000 0000
000000c0: 0000 0000 0000 0000 0000 0000 0000 0000
000000d0: 0000 0000 0000 0000 0000 0000 0000 0000
000000e0: 0000 0000 0000 0000 0000 0000 0000 0000
000000f0: 0000 0000 0000 0000 0000 0000 0000 0000
00000100: 0000 0000 0000 0000 0000 0000 0000 0000
00000110: 0000 0000 0000 0000 0000 0000 0000 0000
00000120: 0000 0000 0000 0000 0000 0000 0000 0000
00000130: 0000 0000 0000 0000 0000 0000 0000 0000
00000140: 0000 0000 0000 0000 0000 0000 0000 0000
00000150: 0000 0000 0000 0000 0000 0000 0000 0000
00000160: 0000 0000 0000 0000 0000 0000 0000 0000
00000170: 0000 0000 0000 0000 0000 0000 0000 0000
00000180: 0000 0000 0000 0000 0000 0000 0000 0000
00000190: 0000 0000 0000 0000 0000 0000 0000 0000
000001a0: 0000 0000 0000 0000 0000 0000 0000 0000
000001b0: 0000 0000 0000 0000 0000 0000 0000 0000
000001c0: 0000 0000 0000 0000 0000 0000 0000 0000
000001d0: 0000 0000 0000 0000 0000 0000 0000 0000
000001e0: 0000 0000 0000 0000 0000 0000 0000 0000
000001f0: 0000 0000 0000 0000 0000 0000 0000 0000

network_body._body_endoder.seq_layers.2.weight f4 [128, 128]
-0.04828545 0.045014046 -0.015002294 -0.034310665 0.11566247 0.05305548 -0.06411367 0.036819354
-0.036910743 -0.0065748906 0.08977077 0.060804583 0.12890331 0.085056104 -0.015092133 0.20517142
-0.09781206 -0.09615204 -0.24540813 0.10122415 0.08000061 0.009601936 0.19937469 -0.07735465
0.10017878 -0.040287524 0.05057828 0.020585213 -0.09746404 0.09291291 -0.053617418 0.0625377
-0.13095088 -0.009916192 -0.03228657 -0.09448278 -0.039531603 0.07810744 -0.08366662 -0.076801024
-0.123327166 -0.09134326 0.0167322 0.07604704 0.056779765 0.07706066 0.07076403 0.027019545
0.03702093 0.12354241 -0.056587595 0.03298565 -0.018113641 0.1572128 0.059394356 -0.07844248
-0.038195617 0.00873794 0.0076707215 -0.01785768 -0.016397389 0.11145974 0.013988268 -0.014848672
0.047912754 0.038583457 -0.011885895 0.08673442 0.06251212 0.007711967 0.08153188 0.09116921
-0.0364242 0.09180499 0.05056669 0.0017089386 -0.053584486 -0.066915415 -0.1271016 -0.08893111
-0.16771604 0.013846789 -0.062347673 -0.04901864 0.0079386635 0.20391569 -0.068874516 0.13704999
0.03273405 -0.07818564 0.022448175 -0.0008501634 -0.011861846 -0.03440669 0.046833597 0.01822543
0.07009218 -0.07022018 -0.14129904 0.20052303 0.090037785 0.055000726 0.06448621 0.034225352
0.071804106 0.057662066 -0.0073661227 0.12961861 -0.049950052 0.06446511 -0.04231421 0.005502987
-0.11919715 -0.004075375 0.098438576 -0.021523759 0.01965552 -0.05241828 -0.0008989768 -0.06549888
0.030072933 -0.021114757 0.07614193 -0.16680935 -0.113560416 -0.062131457 0.05659556 0.09810604
0.06357361 -0.08107571 0.021026766 -0.20944452 0.0752716 -0.020194605 0.044902653 0.0045333533
0.02552797 0.020823462 0.120694794 -0.051058814 -0.100669876 0.09504918 -0.1215684 -0.125404
0.087534554 0.13551605 0.041785013 0.0052529913 -0.13450046 -0.021004474 -0.09905643 0.110480376
0.029463857 -0.11036762 0.021181181 0.057266917 -0.01567924 0.15084724 -0.113716 -0.076676205
0.050588254 0.0046377145 -0.16062167 -0.06127072 0.037955217 0.013887029 -0.0013301151 0.06526735
0.05987407 0.06475451 -0.04631113 -0.12948796 -0.020785082 -0.068411596 0.025011957 -0.026060734
-0.05962494 -0.016306693 0.21622935 -0.044744406 -0.06927649 -0.021535864 0.082282715 -0.21998867
0.02127808 0.07178101 -0.021011956 -0.015818732 0.117431246 0.02070759 0.04324065 -0.07710367
0.10119027 0.031234957 0.045902353 0.15710807 -0.1061076 -0.16366579 0.10581523 0.0011788375
-0.051977873 0.061450366 0.014620963 -0.06339763 -0.105793126 -0.06094136 -0.01449439 -0.08030738
-0.026887838 0.064675786 -0.025365759 -0.05384372 -0.12321603 -0.09857089 -0.061939914 0.13245843
0.0026885963 -0.046999 -0.002760199 0.07476552 0.09263639 -0.070852555 0.08823694 -0.09124551
-0.013009901 -0.10030314 0.0314183 -0.011081686 -0.032333385 -0.0030221154 -0.2044772 -0.042236514
0.030951273 -0.13049789 -0.0004855658 -0.14575903 -0.124011755 0.009252066 -0.03942683 -0.0030896976
-0.083200715 -0.10184277 -0.050951097 0.16071382 0.089363635 0.001988623 0.1591721 -0.04552695
0.04002707 -0.023163183 0.059951168 -0.0672235 -0.12797295 0.046171702 -0.01139469 -0.1591279
00000000: f7c6 45bd a660 383d 2fcc 75bc 5789 0cbd
00000010: 72e0 ec3d b450 593d 074e 83bd e4cf 163d
00000020: b82f 17bd 2e72 d7bb bdd9 b73d 3a0e 793d
00000030: 3bff 033e e531 ae3d fe44 77bc 7518 523e
00000040: b051 c8bd 5ceb c4bd 454c 7bbe 9b4e cf3d
00000050: 5cd7 a33d 7051 1d3c e128 4c3e 1d6c 9ebd
00000060: 882a cd3d 8804 25bd 2c2b 4f3d 52a2 a83c
00000070: 3a9b c7bd 2049 be3d f09d 5bbd c413 803d
00000080: fd17 06be 8677 22bc ec3e 04bd 3080 c1bd
00000090: e4eb 21bd cbf6 9f3d 6859 abbd db49 9dbd
000000a0: f492 fcbd 2d12 bbbd f711 893c 8dbe 9b3d
000000b0: e691 683d fbd1 9d3d bbec 903d 1858 dd3c
000000c0: 42a3 173d ce03 fd3d 65c8 67bd f61b 073d
000000d0: 0f63 94bc 64fc 203e 7f47 733d 73a6 a0bd
000000e0: 0273 1cbd 9429 0f3c ad5a fb3b 454a 92bc
000000f0: d153 86bc 0145 e43d 0c2f 653c d847 73bc
00000100: 2a40 443d b009 1e3d 0fbd 42bc d1a1 b13d
00000110: 5b06 803d abb4 fc3b 30fa a63d ecb6 ba3d
00000120: 8b31 15bd 4104 bc3d 041f 4f3d 77fe df3a
00000130: 687b 5bbd f30a 89bd ec26 02be 8421 b6bd
00000140: c1bd 2bbe a4dd 623c 4660 7fbd c5c7 48bd
00000150: 2b11 023c 46cf 503e 150e 8dbd d556 0c3e
00000160: 2414 063d cb1f a0bd 3ce5 b73c 80dd 5eba
00000170: 3058 42bc 08ee 0cbd 96d4 3f3d 7f4d 953c
00000180: 7d8c 8f3d 99cf 8fbd b2b0 10be e955 4d3e
00000190: bb65 b83d 7148 613d 5911 843d e22f 0c3d
000001a0: 080e 933d 0f2f 6c3d 845f f1bb beba 043e
000001b0: 6d98 4cbd 4906 843d aa51 2dbd 6752 b43b
000001c0: a31d f4bd b98a 85bb 2a9a c93d 9852 b0bc
000001d0: 9d04 a13c 8db4 56bd 50a9 6bba 4724 86bd
000001e0: 835b f63c dbf8 acbc 4df0 9b3d 12d0 2abe
000001f0: 5d92 e8bd 8e7d 7ebd bfd0 673d d2eb c83d
00000200: e132 823d 060b a6bd 5340 ac3c a078 56be
00000210: ff27 9a3d 286f a5bc d8eb 373d 868c 943b
00000220: 0920 d13c f795 aa3c d52e f73d 0c23 51bd
00000230: 022c cebd 25a9 c23d daf8 f8bd e869 00be
00000240: 5145 b33d b8c4 0a3e c326 2b3d 4921 ac3b
00000250: 7dba 09be 9311 acbc 19de cabd 8943 e23d
00000260: 305e f13c 6b08 e2bd 2884 ad3c b790 6a3d
00000270: c071 80bc b377 1a3e efe3 e8bd 6a08 9dbd
00000280: a135 4f3d f8f7 973b 027a 24be 02f7 7abd
00000290: ee76 1b3d 6c86 633c 4257 aeba e3aa 853d
000002a0: 833e 753d 039e 843d bdb0 3dbd 7e98 04be
000002b0: 7a45 aabc 611b 8cbd e0e5 cc3c 527d d5bc
000002c0: 4839 74bd 9d95 85bc 3a6b 5d3e e945 37bd
000002d0: d5e0 8dbd fb6b b0bc d783 a83d b644 61be
000002e0: 5e4f ae3c ec01 933d 4421 acbc 4996 81bc
000002f0: cb7f f03d f7a2 a93c 1c1d 313d 87e8 9dbd
00000300: d83c cf3d 74e0 ff3c 1b04 3c3d f0e0 203e
00000310: f14e d9bd 0198 27be a8b5 d83d 3983 9a3a
00000320: c0e6 54bd 61b3 7b3d c38c 6f3c 9ed6 81bd
00000330: 11aa d8bd a69d 79bd e179 6dbc 3278 a4bd
00000340: e243 dcbc bd74 843d dacb cfbc 3c8b 5cbd
00000350: b058 fcbd 89df c9bd b5b4 7dbd 2fa3 073e
00000360: 2933 303b 0682 40bd 74e4 34bb aa1e 993d
00000370: 26b8 bd3d 251b 91bd 92b5 b43d edde babd
00000380: 7b27 55bc bc6b cdbd 7ab0 003d f68f 35bc
00000390: 0370 04bd af0e 46bb 7962 51be 3200 2dbd
000003a0: 868d fd3c 3da1 05be 8a93 feb9 db41 15be
000003b0: e0f9 fdbd fa95 173c 077e 21bd 867c 4abb
000003c0: 2365 aabd f192 d0bd 19b2 50bd 2a92 243e
000003d0: 4804 b73d 8f53 023b 03fe 223e 787a 3abd
000003e0: 6df3 233d b7c0 bdbc 5b8f 753d 79ac 89bd
000003f0: 570b 03be 8a1e 3d3d cbb0 3abc 6df2 22be

network_body._body_endoder.seq_layers.2.bias f4 [128]
0.0 0.0 0.0 0.0 0.0 0.0 0.0 0.0
0.0 0.0 0.0 0.0 0.0 0.0 0.0 0.0
0.0 0.0 0.0 0.0 0.0 0.0 0.0 0.0
0.0 0.0 0.0 0.0 0.0 0.0 0.0 0.0
0.0 0.0 0.0 0.0 0.0 0.0 0.0 0.0
0.0 0.0 0.0 0.0 0.0 0.0 0.0 0.0
0.0 0.0 0.0 0.0 0.0 0.0 0.0 0.0
0.0 0.0 0.0 0.0 0.0 0.0 0.0 0.0
0.0 0.0 0.0 0.0 0.0 0.0 0.0 0.0
0.0 0.0 0.0 0.0 0.0 0.0 0.0 0.0
0.0 0.0 0.0 0.0 0.0 0.0 0.0 0.0
0.0 0.0 0.0 0.0 0.0 0.0 0.0 0.0
0.0 0.0 0.0 0.0 0.0 0.0 0.0 0.0
0.0 0.0 0.0 0.0 0.0 0.0 0.0 0.0
0.0 0.0 0.0 0.0 0.0 0.0 0.0 0.0
0.0 0.0 0.0 0.0 0.0 0.0 0.0 0.0
00000000: 0000 0000 0000 0000 0000 0000 0000 0000
00000010: 0000 0000 0000 0000 0000 0000 0000 0000
00000020: 0000 0000 0000 0000 0000 0000 0000 0000
00000030: 0000 0000 0000 0000 0000 0000 0000 0000
00000040: 0000 0000 0000 0000 0000 0000 0000 0000
00000050: 0000 0000 0000 0000 0000 0000 0000 0000
00000060: 0000 0000 0000 0000 0000 0000 0000 0000
00000070: 0000 0000 0000 0000 0000 0000 0000 0000
00000080: 0000 0000 0000 0000 0000 0000 0000 0000
00000090: 0000 0000 0000 0000 0000 0000 0000 0000
000000a0: 0000 0000 0000 0000 0000 0000 0000 0000
000000b0: 0000 0000 0000 0000 0000 0000 0000 0000
000000c0: 0000 0000 0000 0000 0000 0000 0000 0000
000000d0: 0000 0000 0000 0000 0000 0000 0000 0000
000000e0: 0000 0000 0000 0000 0000 0000 0000 0000
000000f0: 0000 0000 0000 0000 0000 0000 0000 0000
00000100: 0000 0000 0000 0000 0000 0000 0000 0000
00000110: 0000 0000 0000 0000 0000 0000 0000 0000
00000120: 0000 0000 0000 0000 0000 0000 0000 0000
00000130: 0000 0000 0000 0000 0000 0000 0000 0000
00000140: 0000 0000 0000 0000 0000 0000 0000 0000
00000150: 0000 0000 0000 0000 0000 0000 0000 0000
00000160: 0000 0000 0000 0000 0000 0000 0000 0000
00000170: 0000 0000 0000 0000 0000 0000 0000 0000
00000180: 0000 0000 0000 0000 0000 0000 0000 0000
00000190: 0000 0000 0000 0000 0000 0000 0000 0000
000001a0: 0000 0000 0000 0000 0000 0000 0000 0000
000001b0: 0000 0000 0000 0000 0000 0000 0000 0000
000001c0: 0000 0000 0000 0000 0000 0000 0000 0000
000001d0: 0000 0000 0000 0000 0000 0000 0000 0000
000001e0: 0000 0000 0000 0000 0000 0000 0000 0000
000001f0: 0000 0000 0000 0000 0000 0000 0000 0000

value_heads.value_heads.extrinsic.weight f4 [1, 128]
0.14515018 -0.010442361 -0.13644683 -0.10155453 0.001375094 0.12003505 0.11482084 0.117782176
-0.15436004 -0.18881133 -0.21235141 -0.03159672 0.11721748 0.19369224 -0.13142091 -0.18625347
0.21313497 -0.06811167 0.12835488 -0.18456681 -0.040282547 -0.00088599324 -0.20845774 0.07759246
-0.21396546 -0.14520662 0.1453467 0.18412289 0.06284946 0.09693453 -0.044561014 -0.05473119
-0.20176926 -0.007906437 -0.0841991 -0.18979147 0.11979833 0.06859392 0.024205595 -0.00224258
0.06086859 0.119413584 -0.19115767 0.12033534 -0.20966062 0.1616748 -0.0055531114 0.05058828
0.07448742 -0.12570333 0.16549855 0.07743445 0.022782996 -0.004622251 0.16866773 -0.16330558
-0.040263414 -0.14642945 -0.0258421 0.09340435 0.15329209 -0.0741726 -0.16332859 -0.11937665
0.1347991 0.038541883 -0.14247614 -0.04242526 0.11333269 -0.15296562 0.08805552 -0.21440777
0.035042226 -0.17687365 0.06600681 -0.20999798 0.032248378 -0.21205361 0.20072055 0.026787147
0.10045257 0.00782536 -0.14802495 0.044703633 -0.000724107 -0.081470266 -0.181166 0.14219126
-0.06637886 0.2066068 0.100531906 -0.045337647 0.19664729 0.13467589 -0.08081108 0.060635
-0.034010515 -0.13684934 -0.17166476 -0.050755084 -0.06275305 -0.026704028 -0.15144122 -0.19695607
0.08089802 0.10396153 -0.19436707 -0.080289975 -0.14355147 -0.133409 -0.13229917 0.003907308
-0.030819789 -0.113764815 0.11952838 0.10762611 0.055947155 0.14916971 0.13561177 0.19420817
0.17851993 -0.09874542 -0.16005456 0.06780699 -0.14773333 -0.078545466 -0.10598857 0.19119796
00000000: 40a2 143e 7016 2bbc b8b8 0bbe d2fb cfbd
00000010: 803c b43a f0d4 f53d 3027 eb3d c837 f13d
00000020: 8f10 1ebe c257 41be a672 59be 906b 01bd
00000030: b80f f03d 4257 463e 3493 06be 3bb9 3ebe
00000040: 0e40 5a3e 227e 8bbd 766f 033e 15ff 3cbe
00000050: 50ff 24bd 0042 68ba f275 55be cce8 9e3d
00000060: c319 5bbe 0bb1 14be c4d5 143e b68a 3c3e
00000070: 38b7 803d 9c85 c63d 9c85 36bd d02d 60bd
00000080: 9a9c 4ebe 008a 01bc 9470 acbd b258 42be
00000090: d458 f53d f87a 8c3d d04a c63c 40f8 12bb
000000a0: 5851 793d 1c8f f43d d6be 43be 6072 f63d
000000b0: 46b1 56be 148e 253e e0f6 b5bb a835 4f3d
000000c0: dc8c 983d 60b8 00be 7478 293e f495 9e3d
000000d0: 68a3 ba3c 4076 97bb 3cb7 2c3e 9439 27be
000000e0: 40eb 24bd 9af1 15be d0b2 d3bc c84a bf3d
000000f0: 9af8 1c3e cee7 97bd 9c3f 27be bf7b f4bd
00000100: c608 0a3e 18de 1d3d 44e5 11be 1cc6 2dbd
00000110: f81a e83d 05a3 1cbe 7456 b43d b68d 5bbe
00000120: 7088 0f3d 5e1e 35be 942e 873d b609 57be
00000130: e016 043d 9524 59be b089 4d3e b870 db3c
00000140: 14ba cd3d f035 003c da93 17be 281b 373d
00000150: 00d2 3dba e2d9 a6bd 9483 39be 969a 113e
00000160: a4f1 87bd bc90 533e ace3 cd3d f8b3 39bd
00000170: e85d 493e 7ae8 093e 4880 a5bd 685c 783d
00000180: 9c4e 0bbd 3c22 0cbe e3c8 2fbe 90e4 4fbd
00000190: ac84 80bd 68c2 dabc 6813 1bbe daae 49be
000001a0: dcad a53d c8e9 d43d 2908 47be 126f a4bd
000001b0: 28ff 12be 5e9c 08be 6f79 07be e008 803b
000001c0: c879 fcbc 87fd e8bd 4ccb f43d 146b dc3d
000001d0: d828 653d f2bf 183e d0dd 0a3e 82de 463e
000001e0: eecd 363e 0a3b cabd 58e5 23be 64de 8a3d
000001f0: 6847 17be 72dc a0bd 8910 d9bd 66c9 433e
