results/ppo/Racing/Racing-721.onnx (onnx, 88644 bytes, 9 tensors)

discrete_act_size_vector f4 [1, 2]
000000 00 00 40 40 00 00 40 40
       3.0 3.0

network_body._body_endoder.seq_layers.0.weight f4 [128, 29]
000000 8d 42 0a 3e 6f 5b f8 bd 23 bd 1c be d3 6e a6 be
       0.1350195 -0.121268146 -0.15306525 -0.32506427
000010 7c a5 dd 3c 5f ed 64 3d 74 55 0a bd b5 35 2e be
       0.027056448 0.055890437 -0.0337729 -0.17012675
000020 75 2f 2c be 8c 89 ab 3e 37 d5 1c be 98 c5 8a bd
       -0.16814978 0.33503377 -0.1531571 -0.06775969
000030 7a d0 38 3d a4 07 8f 3d 47 3a 1b bd 71 74 a0 3d
       0.045120694 0.06983879 -0.037897374 0.078347094
000040 c6 6c 74 bd 72 f0 07 3f 8e 5f 02 bd 9e be 26 3e
       -0.059674047 0.53101265 -0.03182941 0.16283652
000050 44 13 12 be 87 f8 23 bd 3e 01 9d be de 11 90 3c
       -0.14265162 -0.040031936 -0.3066501 0.017586645
000060 ca b0 07 be e4 4a 9f 3b 30 e6 7f be c7 ca c1 be
       -0.13251033 0.0048612226 -0.24990153 -0.3785002
000070 18 20 f6 3c 7d bf b6 3d 84 6a 63 bc e0 45 b5 3d
       0.0300446 0.08923242 -0.013880376 0.08851218
000080 0f 8a 10 3e 29 a3 42 3e 79 71 6b be f5 12 35 3e
       0.14115165 0.19007553 -0.22992505 0.17683013
000090 08 c7 b0 bb df 32 28 3c f6 1b 84 be ff 58 63 3e
       -0.00539482 0.010266035 -0.25802583 0.22201918
0000a0 be d4 10 be 10 95 32 3b 9c a9 9f 3e 53 9d c5 3c
       -0.14143655 0.0027249493 0.3118409 0.02412287
0000b0 64 2f 6b bd 4c 86 02 be 68 d0 be bd e4 5d 0e 3e
       -0.057418242 -0.12746543 -0.09317094 0.13903004
0000c0 b6 fb d9 bd 5a 81 03 be 20 de 86 3e d8 44 a2 3e
       -0.10643713 -0.12842312 0.26341343 0.3169315
0000d0 4a 15 4e 3e 04 7a 86 3d 4f 52 87 3e 80 4a f4 bd
       0.20125309 0.065662414 0.26429984 -0.11928272
0000e0 7b 58 8d bd 47 fd c3 3e 37 4a 27 3b 89 f4 6b 3d
       -0.06901642 0.38279173 0.0025526413 0.057606254
0000f0 23 25 54 3d 44 34 e9 3c be 4d 27 3e a2 f4 14 bd
       0.05179323 0.028467305 0.1633825 -0.036366113
000100 53 fa 80 bd c6 a3 fd 3e 4e 4e a8 3e d5 19 aa 3e
       -0.062977456 0.49539012 0.32872242 0.33222833
000110 2c 02 0e 3e e1 90 d9 3d 98 5b 78 3c 7e 6e 00 bf
       0.13868016 0.106233366 0.015158556 -0.501686
000120 ee 4d 0c be be 85 57 3d 64 4f 86 3d be 86 8d bc
       -0.13701603 0.05261778 0.06558111 -0.017276164
000130 3e 1a 3e 3e 1a be 0e bd 5a 06 92 3e 3f cb 92 3d
       0.18564698 -0.034849264 0.2852047 0.07167672
000140 1a 6e 9e be 67 2e 1a be 5d a8 88 3c 5b 4e ec 3e
       -0.30943376 -0.15056764 0.016681844 0.4615353
000150 2c bf d1 3e 97 32 a6 3c d4 36 19 3e 76 bf aa be
       0.40966165 0.020287795 0.14962322 -0.33349198
000160 f6 d1 50 bb 3c 3d 10 3e 2c 5e ad 3c ef 3c f1 bd
       -0.0031863428 0.14085859 0.021163069 -0.117792
000170 dd 24 f0 be b2 5b 42 3e 71 32 8a 3e ce a3 15 3e
       -0.46903124 0.18980291 0.2699161 0.14613268
000180 22 80 59 be b8 38 f6 3d e2 2a 88 be 77 93 9b bd
       -0.21240285 0.12022537 -0.26595217 -0.07596486
000190 b1 bf 53 3e d4 da 8d be 64 5c 51 be 8d 46 7b bd
       0.20678593 -0.27706015 -0.204454 -0.06134658
0001a0 f3 54 ae be dd e9 60 3d d7 12 19 be 41 f1 10 bf
       -0.34049186 0.05491053 -0.14948593 -0.56618124
0001b0 37 a0 88 bd 98 99 ae 3d 73 af b3 3c 91 eb 10 3d
       -0.066711836 0.085253894 0.021934247 0.035380904
0001c0 8a eb f3 3c 70 47 51 be f5 8d b1 bd 47 7c 89 bd
       0.0297754 -0.20437407 -0.08669654 -0.06713157
0001d0 73 fa 0f 3b f2 f1 b1 3e 80 73 ed bc 61 fd c9 bd
       0.0021969348 0.34754902 -0.028985739 -0.09862781
0001e0 bc 4f 24 be cb ad 1a 3e 05 bc ad be 3f ba 33 3e
       -0.16046041 0.1510536 -0.3393251 0.17551516
0001f0 1b dc f7 3d 9b c9 4f 3e b1 91 01 be 3a 2a a6 3d
       0.12102529 0.2029175 -0.12653233 0.08113523
000200 b9 a6 f8 bd bb cf 5b be e9 c5 ed bd fa b6 7b be
       -0.12141175 -0.21465962 -0.11610014 -0.24581519
000210 94 80 cc bd b0 0c f6 3d bd 41 1c be d1 fe 80 be
       -0.09985462 0.12014139 -0.15259452 -0.2519441
000220 9d 9c c0 3d 56 43 9f be 17 76 a3 be 95 bd 5c 3e
       0.094048716 -0.3110606 -0.31926033 0.21556695
000230 74 c1 45 3d 9e be df bd c9 ee eb be da 61 f5 bd
       0.048280194 -0.10925029 -0.46080616 -0.11981554
000240 74 a2 e9 3d 5d 4f 45 3d fc 37 7d 3e 03 e0 19 be
       0.114079386 0.04817139 0.24728388 -0.1502686
000250 51 eb 23 3d 1f ad 55 be f5 78 d4 3b e5 05 d2 bd
       0.040019337 -0.20866822 0.0064841458 -0.102550305
000260 ee 12 80 be d8 9a 9d bd d0 0f 2c 3c 3e 6f 01 3e
       -0.25014442 -0.0769555 0.010501817 0.12640092
000270 dc 06 a5 be c4 ad 44 be ee e8 b8 3e f9 c7 f9 bc
       -0.32231796 -0.19206911 0.3611521 -0.030490862
000280 5b 2b 85 bd 81 2f 10 be 83 24 83 3d 80 76 89 bb
       -0.0650241 -0.14080621 0.064034484 -0.0041950345
000290 30 a8 97 bd 3f 10 21 3e 8c 74 ee 3c 7e 29 94 be
       -0.07405126 0.15728854 0.029108308 -0.28937906
0002a0 17 77 6d be 7c e6 99 bc 68 d3 2f 3e f7 9b 9e be
       -0.2318996 -0.018786661 0.17170489 -0.30978367
0002b0 f9 f1 2c be 88 c1 91 3d 1a a9 8f bb 63 50 53 bd
       -0.1688918 0.07116991 -0.004384172 -0.051590335
0002c0 99 f0 ae be 51 dd b5 bd 10 82 11 be 1f 2c a6 39
       -0.34167936 -0.088801034 -0.14209771 0.0003169486
0002d0 99 3a 2b bd d5 2e 85 3d 0b 0e 8a 3e 80 06 97 bd
       -0.04180393 0.06503073 0.2696384 -0.07374287
0002e0 46 22 18 3e fc 04 56 be 6f a4 00 bf 49 17 a1 bd
       0.14856824 -0.20900339 -0.50250906 -0.078657694
0002f0 a7 22 8f 3c e6 4f 4a 3d 21 1a 25 3d 73 9d d8 be
       0.017472578 0.049392603 0.04030812 -0.42307624
000300 47 2d 28 3e c7 76 4b 3e c6 91 8e be 74 62 2c be
       0.16423522 0.19869529 -0.2784559 -0.16834432
000310 e9 36 ce 3d a7 50 8b bd 3e 32 4b 3e 1f 10 34 bd
       0.10069067 -0.068024926 0.19843385 -0.043960687
000320 e6 33 13 bc c9 57 bd bd 3c 80 a7 3d 02 cc 58 be
       -0.0089845415 -0.09245259 0.08178756 -0.21171573
000330 7d ef 85 3d 0d cd c0 bd eb b3 8e bd af a1 63 3e
       0.065398194 -0.0941411 -0.069679104 0.22229646
000340 f7 98 0a bc 58 5b cb 3d a1 a0 99 3e 09 cf 25 be
       -0.008459321 0.09929532 0.30005363 -0.16192259
000350 d5 76 80 bd b4 24 13 be ee 30 13 be dd 19 db 3d
       -0.062726654 -0.1436947 -0.14374134 0.106982924
000360 cf 72 76 3e 89 b3 28 3d 55 4f c0 bd a7 16 4f 3e
       0.24067234 0.041186843 -0.093901314 0.20223485
000370 df 13 c2 bd 1f 8e 31 be f3 e1 82 3e 73 0c e4 bd
       -0.09476446 -0.17339371 0.2556301 -0.11135187
000380 26 a9 8d ba 5a 94 31 be 7a 46 1a 3e 4c 3e f6 bc
       -0.0010807856 -0.17341748 0.15065947 -0.030059002
000390 a5 dc f2 bd 61 3d f4 3c d8 51 7d 3e bb 7d b9 3d
       -0.11858491 0.029814424 0.24738252 0.09057184
0003a0 3f 38 61 bd 84 9f 74 be b8 d5 e1 bb 2f d5 2e 3e
       -0.05498528 -0.23888975 -0.0068919323 0.1707351
0003b0 86 16 ba be 97 5f 2a 3e 64 30 1f 3f eb 90 9e 3d
       -0.3634531 0.16638027 0.62183213 0.07742485
0003c0 52 36 ac ba a2 aa 48 3e 4e dc 83 3e a6 cf 3d 3e
       -0.0013138747 0.19596341 0.25754017 0.18536243
0003d0 c8 25 f2 bd 67 58 a7 3d b8 03 73 be 42 02 bb 3e
       -0.118236125 0.08171158 -0.23731887 0.3652516
0003e0 30 69 10 3d a9 f3 af 3d 29 aa e0 3d 5a 8e 1b be
       0.035256565 0.08591396 0.109699555 -0.15191022
0003f0 c1 4e 92 be af e2 01 3e 40 57 32 be 4d 84 85 3e
       -0.2857571 0.12684129 -0.17416096 0.260775

network_body._body_endoder.seq_layers.0.bias f4 [128]
000000 5a de 99 bc b8 92 19 3d 65 43 fa 3c e3 ac f6 bb
       -0.018782783 0.037493438 0.030549714 -0.007527934
000010 e6 52 20 3d a2 01 22 bd 2c c2 7e bb 3d 10 e8 3c
       0.039141558 -0.03955234 -0.003887306 0.028328056
000020 49 18 07 3d e4 10 cb 3c 06 7e 10 3d 7e 2e 9f 3b
       0.032982145 0.024788328 0.035276435 0.004857837
000030 18 bf 9b 3c 97 17 df 3c fe 3d 4a bd 33 a5 90 bc
       0.019012019 0.027232928 -0.049375527 -0.017656898
000040 1f 6d c0 3c de 94 3f 3d ad 23 3f bd 23 c9 5a 3c
       0.023489533 0.04677283 -0.046664882 0.013353619
000050 63 7e cd bb ef 70 c7 3c 48 f8 e1 3c 98 e9 15 3d
       -0.00627117 0.024345843 0.02758421 0.036599725
000060 3b e7 1c 3b a6 61 ad 3c a7 27 15 3d 83 06 dc 3c
       0.0023941535 0.021164726 0.03641477 0.026858574
000070 88 4b 00 3d cc 89 3e 3d 49 1f 06 bb 8c ce 9f 3c
       0.031322032 0.046518132 -0.0020465425 0.019507669
000080 9e 6c 2f 3c d0 a5 d8 3c 25 68 42 bb f1 00 c2 3c
       0.010707049 0.026446253 -0.0029664126 0.02368209
000090 89 6e f7 3c da 6a cc 3c bd f4 86 3b 91 8f 3e ba
       0.030204074 0.024953295 0.0041185305 -0.0007269318
0000a0 8a 0e c8 3c 96 ca c5 3c 8f 10 79 3c 82 6e ad 3c
       0.024420995 0.024144452 0.015201702 0.021170858
0000b0 71 b5 00 bb df 8e d7 3c fa f8 83 3c 7e cf fc 3c
       -0.0019639398 0.026313243 0.016109932 0.030860659
0000c0 cf 5a 31 3d 0f 47 dd 3c f4 20 a5 3c 04 a3 b2 3c
       0.043299492 0.027011422 0.020157315 0.021806248
0000d0 f0 d3 e0 ba c3 29 b6 3c 82 12 e3 3c a3 be 58 3d
       -0.0017153006 0.02223671 0.027718786 0.05291618
0000e0 2e 22 6d ba 15 6b d2 3c ed 7c 16 3d 08 18 4f 3d
       -0.00090459257 0.025685826 0.036740232 0.050560027
0000f0 23 28 ae bb c7 21 a5 3c 73 16 e2 3c 0f 70 30 3d
       -0.0053148433 0.020157708 0.027598595 0.043075617
000100 23 75 38 3c 4b 70 52 3c 75 37 02 3d d1 d5 a2 3c
       0.011258396 0.012844156 0.03179117 0.019877346
000110 87 c7 74 3c 94 07 0a bc 9d c6 99 3c 84 6d 64 3d
       0.014940149 -0.008424658 0.018771464 0.055768505
000120 85 66 17 3c 25 4d 00 3d 16 3f 11 3d a5 54 07 3d
       0.009240751 0.03132357 0.035460554 0.033039708
000130 46 f9 c8 3c a4 d5 04 bd ad 0b 15 3d 0e c5 f8 3c
       0.024532925 -0.032430306 0.036388088 0.0303674
000140 f7 6c 84 3c 7a 6c 57 3d 80 a4 c4 3c e9 cf 4d 3c
       0.01616524 0.052593686 0.024004221 0.012561777
000150 3d 9a 86 3c 3d 06 18 3d 33 6b 8f bc 5c 97 fd 3c
       0.016430968 0.037115324 -0.017507171 0.030955963
000160 29 69 8c bc 2e a5 4f 3c d5 b9 e9 3c 80 b9 07 3d
       -0.017139988 0.012673659 0.028530994 0.03313589
000170 f3 a0 f1 3c a3 fb 38 3d 1f be 08 3d 56 e4 b8 3b
       0.029495692 0.045161854 0.03338444 0.005642454
000180 d5 1a b0 3c 1d d1 64 3b cd ef 19 bc 19 a7 bb bb
       0.02149717 0.003491468 -0.009395552 -0.0057267067
000190 03 21 f9 3c bb 35 03 3d 1a d3 d8 ba aa 27 0d bc
       0.030411249 0.032033663 -0.0016542405 -0.008615414
0001a0 74 90 d7 3c 63 a0 88 bc 6b a5 11 3b 21 5f 9f 3c
       0.026313998 -0.01667804 0.002222384 0.01945454
0001b0 1b fc 0b 3d a9 d5 ec 3c 16 80 24 3d 79 9d 49 3c
       0.034175973 0.028910475 0.040161215 0.012305611
0001c0 5c 7c bb 3c 80 f4 d7 3c e8 28 1a 3b e1 84 e5 3c
       0.022886448 0.026361704 0.0023522917 0.028017463
0001d0 9b f6 33 3b 7a 52 05 3d 87 2e 7e 3c ab 18 b7 3c
       0.002746022 0.03254936 0.015514023 0.02235063
0001e0 46 80 d9 3c 80 94 e0 3c db d7 74 bb 2b 61 28 bd
       0.026550423 0.02741456 -0.0037360105 -0.04110829
0001f0 5e 7d fd bb 38 37 0e 3c e4 9c 74 bc db 0a a3 bc
       -0.007735892 0.008680157 -0.014929984 -0.019902637

network_body._body_endoder.seq_layers.2.weight f4 [128, 128]
000000 4f 7d 69 3e 0b dd 3f 3c 48 70 49 3d dd b8 44 bd
       0.22801708 0.011710416 0.049179345 -0.048027862
000010 cb e6 12 be 7d 65 c5 bc d4 f2 36 be 23 77 fb bc
       -0.14345853 -0.024096245 -0.17866069 -0.030696457
000020 b6 59 16 be e1 c5 3c be a5 9c 76 3d bc 1e d5 3d
       -0.1468266 -0.1843486 0.06020798 0.10406253
000030 5c da 0a be 39 4c c6 bd 38 08 2d bd d8 e6 c0 bc
       -0.1355986 -0.09682507 -0.042244166 -0.023547575
000040 9b f1 92 3d 29 01 b1 3d d2 18 8f bc 1b 8c 4b 3e
       0.07174989 0.086427994 -0.01746789 0.19877665
000050 35 3c 15 be 31 1d 2e 3e 3e c6 8a bd 40 17 04 be
       -0.14573748 0.17003323 -0.06776093 -0.12899494
000060 3f d7 26 3d bf 00 8f 3d 5d c0 51 bd 56 b8 a0 3d
       0.04073262 0.06982564 -0.051208843 0.07847659
000070 0f 6f ae bd 08 34 0c 3e 61 f2 28 3d 00 4f 20 3e
       -0.085172765 0.13691723 0.041246776 0.15655136
000080 24 ed a8 3d 6a e4 d8 bd 42 49 7b be ed b4 b1 bc
       0.08248356 -0.105904415 -0.24539664 -0.021692717
000090 3a 2e b4 3c 16 49 0c be 01 94 88 bc cb ae d7 3d
       0.021994699 -0.13699755 -0.016672136 0.10531386
0000a0 94 dc 1d be 89 05 05 be 42 87 4d 3e 69 ca e7 bd
       -0.15416175 -0.12990393 0.20071128 -0.113179035
0000b0 77 6d d2 3d c2 30 8e bd 4a cc 80 3d f4 6c 19 3e
       0.10274785 -0.069428936 0.06288965 0.14982969
0000c0 fb cf dd bc 81 cb ad bd d5 23 b9 bb a4 cb d7 3d
       -0.027076712 -0.08486081 -0.0056500235 0.10536888
0000d0 8f 5d 24 bd d9 a2 dc 3d 9e 0d 66 3d f0 c9 f9 bd
       -0.040128287 0.10773248 0.05616533 -0.1219672
0000e0 03 b6 ad 3d 3d 4e 19 be 00 3d d8 bb 33 e6 96 bc
       0.084819816 -0.14971252 -0.0065990686 -0.018420314
0000f0 ed fb 3e be 6f a6 42 be bb 37 0d 3e d6 34 90 bd
       -0.1865079 -0.19008802 0.1379079 -0.07041328
000100 8d 54 ba bd e5 40 9f 3c 13 62 e6 bd bd 9b 04 3e
       -0.09098158 0.019440124 -0.11249175 0.12950034
000110 f9 72 3b bd a6 a5 34 bd b2 58 fc 3c 14 8b 86 bd
       -0.045763943 -0.044103287 0.030804012 -0.06569496
000120 3a 80 29 3e 11 9a f4 3c b0 fc 21 3e 89 c3 40 3d
       0.16552821 0.02985862 0.15819049 0.047061477
000130 1a d2 ed 3c 51 4b 9d bd e7 e9 ad 3d 21 52 ef ba
       0.029030848 -0.07680381 0.08491879 -0.0018258729
000140 b4 c3 23 3d ef a0 46 3d 0f 0e 1f 3d af 0b 69 bd
       0.03998156 0.048493322 0.038831767 -0.056895908
000150 a8 ab 97 bc bd aa ab bd 46 a7 24 be 1a b4 0a 3d
       -0.01851447 -0.08382175 -0.16079435 0.033863164
000160 80 41 15 bd b5 04 70 bd fd e9 89 3e cb 51 e3 3b
       -0.03643942 -0.05859824 0.2693633 0.0069372407
000170 0b d7 b8 3c ca 45 11 be e2 7d 16 3e a1 60 dc 3d
       0.022563478 -0.14186779 0.14696458 0.10760618
000180 1d 68 7c bd 0b 35 19 3e 08 f1 c4 3d 0d 75 90 3d
       -0.061622728 0.1496164 0.096162856 0.07053576
000190 92 b4 d6 bd e4 69 97 3d 9c 39 53 3d b2 3b 48 bd
       -0.1048366 0.07393244 0.051568612 -0.048885055
0001a0 f6 f9 c9 3d 23 57 05 be 16 81 24 bd 04 df dc bd
       0.098621294 -0.13021521 -0.04016217 -0.10784724
0001b0 10 6a 4b 3d 8b 12 55 3e 4a e2 cf 3c f7 5a bf 3d
       0.049661696 0.20807855 0.025376458 0.09343522
0001c0 a6 d6 41 bd f1 dc 94 bb ea 21 c1 bd 24 15 8d bd
       -0.047323845 -0.00454294 -0.09430297 -0.06888798
0001d0 04 9e b0 bd 10 2c 25 bd c3 3e ac bd fd 6f dd 3d
       -0.08623889 -0.040325224 -0.08410408 0.10812376
0001e0 5e 77 f4 bb 7f bd 8b 3c d2 10 cc 3d 02 98 45 be
       -0.0074605187 0.017058132 0.09964146 -0.19296268
0001f0 36 df 91 3c c7 1c 1b bd 10 b7 4a 3d 3f 6f fd 3d
       0.01780663 -0.03786924 0.04949099 0.12374734
000200 01 ea e9 bd 08 68 67 be b8 3e d2 3b 7b 5e 11 be
       -0.11421586 -0.22598279 0.006416168 -0.14196198
000210 57 52 08 be e4 57 bc be 86 19 43 3d 26 37 ca bc
       -0.1331266 -0.36785805 0.047631763 -0.0246845
000220 bc ad e5 bd d8 a9 1e 3e a7 e0 cf 3d 3f 3f 1e be
       -0.11214778 0.15494478 0.10150271 -0.15453814
000230 c1 5f 4a 3d 48 4c f6 bd d5 27 a0 bd 3e d6 20 3d
       0.049407724 -0.12026268 -0.07820097 0.039266817
000240 8a f5 d8 3d dd a0 0a bd d3 6c c0 bd 55 ec bc 3b
       0.10593708 -0.033844817 -0.093957566 0.0057654777
000250 9b fa a8 3d 2b 74 f0 3c 53 b9 0b 3d 0b 36 4a 3e
       0.08250924 0.029352268 0.034112286 0.19747178
000260 0d b7 0a bd 19 7c 08 3e 42 6b 48 be 0d e3 8b bc
       -0.033865977 0.1332859 -0.19572166 -0.01707604
000270 6d f6 d9 3b f1 68 6c bd 98 9b 23 bb dd 43 05 bd
       0.0066516907 -0.057717267 -0.0024964567 -0.032535423
000280 be e8 88 bc 8e 36 b6 3c 30 be 39 be f2 1a 07 3d
       -0.016712543 0.02224281 -0.18138957 0.03298468
000290 e8 a1 a5 bd de d6 bb 3d d9 36 1d 3d cf f8 5a bd
       -0.08087522 0.09171842 0.038382385 -0.05345994
0002a0 a1 9b c0 3d 87 c9 21 bd cf 3e 66 be 20 2a 05 3e
       0.09404684 -0.039498832 -0.22484897 0.1300435
0002b0 4f 81 9b bd b8 e5 53 3e 11 fc 10 3d 16 0e 6a 3d
       -0.07593023 0.206931 0.03539664 0.05714234
0002c0 74 1c 0b 3e d9 81 1d be 5d 77 9a 3b 56 09 97 bd
       0.13585073 -0.15381564 0.0047139362 -0.073748276
0002d0 f2 b5 50 3d e0 34 2e 3d e3 2b f1 3d 2d b5 20 3d
       0.050954767 0.042530894 0.11775949 0.039235283
0002e0 b7 78 bf 3c 7f f4 0f 3d 07 7c 8a bc 6e 0d e0 bd
       0.023372991 0.03514528 -0.016904844 -0.109400615
0002f0 15 80 b4 bd 8c e2 94 3c 37 26 53 bd 5f 64 19 3e
       -0.08813492 0.018174432 -0.051550116 0.14979695
000300 0e c7 28 3e 53 c6 25 be ba 2e 0d 3e b8 26 47 3e
       0.16482183 -0.16188936 0.13787356 0.19448364
000310 5b 10 d6 bd 08 42 11 3e b6 09 d5 bd 0c 7a d4 3d
       -0.10452338 0.14185345 -0.10402243 0.10374841
000320 04 90 04 be a4 3c e7 3d 8d 54 c3 bd 70 37 21 3d
       -0.12945563 0.11290863 -0.09537611 0.03935951
000330 7b 41 10 3e 81 1b 43 3c 4d 88 51 3e 16 e2 ca bc
       0.14087479 0.011908413 0.20462151 -0.02476601
000340 4c 74 dc 3c e9 f1 6a bd f7 a8 43 bd e7 37 1b 3c
       0.026910923 -0.05735961 -0.04776856 0.009473777
000350 f2 8d 07 bc df f1 cb bb 48 1d ad 38 f4 33 97 3a
       -0.0082735885 -0.0062239016 8.254737e-05 0.0011535869
000360 96 d4 6c bd 16 90 84 3c a9 ed 84 bc d7 bb 97 bd
       -0.057819925 0.016181987 -0.016226606 -0.074088745
000370 6c 0e 10 3e 06 4b b5 3d 94 a5 15 3e 6f a2 99 3d
       0.14068002 0.088522 0.14613944 0.07501685
000380 c0 ab e8 bd d6 48 a5 3c f8 07 d5 bd 52 39 93 bd
       -0.11360884 0.020176332 -0.104019105 -0.07188667
000390 1c 6e 9e 3d 88 6a 21 3d 34 ba 31 be 4e a2 23 3c
       0.077358454 0.039408237 -0.17356187 0.009987427
0003a0 76 b1 59 bd b7 6f 6d 3d 1f db 03 3c f4 8e a8 bd
       -0.053147756 0.057967868 0.008047848 -0.08230391
0003b0 d3 63 44 3c a2 29 2a 3d a8 bd 75 3d 42 d0 a5 bd
       0.011986691 0.04154361 0.059995323 -0.08096363
0003c0 8d c4 c2 3d 09 21 36 3c ec b3 9a 3d 69 87 58 3e
       0.09510145 0.011116275 0.075538486 0.21145405
0003d0 29 af f3 bd 01 93 cf 3d 0e dc 14 3c 08 73 13 3e
       -0.118986435 0.10135461 0.009085668 0.1439935
0003e0 7e 67 97 3d 35 88 29 3d bc 75 c5 3c 80 2d 97 bd
       0.073927864 0.041389663 0.024103992 -0.07381725
0003f0 c4 02 ba bd 7c b9 97 bd d2 25 6c 3c 8f 67 2e bc
       -0.09082559 -0.07408425 0.014413314 -0.0106448075

network_body._body_endoder.seq_layers.2.bias f4 [128]
000000 0e ed 06 3c 05 67 a0 3c c8 52 03 3d 1f 1c b1 3c
       0.008235229 0.019580374 0.03206137 0.021619854
000010 75 1a 09 3c ed 31 f1 3c 62 0c 3a bb 80 5b c4 bb
       0.008368124 0.029442752 -0.0028388728 -0.005992353
000020 02 c7 80 3c 5b 98 20 3b d4 47 0c 3d af 17 88 bb
       0.015719894 0.0024504873 0.03424819 -0.004153214
000030 84 55 d6 3c ba 50 67 3b 61 47 18 3d 0c 94 c3 3c
       0.026163824 0.003529592 0.037177447 0.023874305
000040 46 0f e8 3c a2 ec 4c bb e4 67 8b 3c af 1a cb 3c
       0.028327595 -0.0031268974 0.017017312 0.024792997
000050 1e ab 15 3d 56 32 d8 b8 24 eb ce 3c 79 d5 02 bd
       0.036540143 -0.000103090584 0.025258608 -0.031941865
000060 fd f0 d5 3c b7 a2 f9 3c 24 c3 ef 3c b5 67 78 3a
       0.026115889 0.030473096 0.029267855 0.0009475903
000070 59 76 46 3c 6e 1d ca bc 50 33 a2 3c 44 63 02 3d
       0.012113177 -0.024672236 0.019799858 0.03183295
000080 21 c7 2d bc d7 4e bf 3b 83 0f 42 3c ce a2 a7 3c
       -0.010606558 0.005838256 0.011844519 0.020463374
000090 94 5a 6a 3c 04 11 8b 3c 09 e7 79 bb 4f 56 8b bb
       0.014303822 0.016975887 -0.0038132092 -0.004252232
0000a0 e8 77 bc bc bb ca 21 3c d1 96 5a bb 45 1f 22 bb
       -0.023006395 0.009874995 -0.0033354054 -0.0024737876
0000b0 b3 1c 8c ba 6a 3a d4 3b f5 3a 1a bc ac 23 87 3c
       -0.0010689705 0.00647669 -0.0094134705 0.016496502
0000c0 2a e9 1b 3b 2d 5c e4 3b cd b9 60 bc 0e 2e 89 bc
       0.00237901 0.006968996 -0.013716173 -0.016745593
0000d0 93 94 0a 3d 52 4a 93 3b d9 fa da 3c 68 e6 30 bc
       0.033833098 0.0044949437 0.026730942 -0.010797121
0000e0 d7 38 c0 3c a3 5b 02 bc 9a 8e a7 3c f5 46 04 3d
       0.023464603 -0.007956418 0.02045374 0.032294232
0000f0 0e df 05 3d d1 73 30 39 5f 88 2d bc 2d e5 a0 3c
       0.032683425 0.00016827813 -0.010591595 0.01964053
000100 09 09 29 3c c0 2d 63 3c 22 92 50 3d 18 03 f8 3c
       0.010317096 0.013865888 0.050920613 0.030274913
000110 8b bd cf 3c 53 6a dd 3c a8 23 1b 3d 24 10 e1 bc
       0.025358936 0.027028238 0.0378758 -0.027473517
000120 6d 94 32 3c 88 fb 5a 3c 83 1f 8d 3c b6 b6 88 3c
       0.010899645 0.013365634 0.01722694 0.016688686
000130 20 cf a1 3b 4b dc 82 3c 4d ea 6a 3c 3c 9a 60 bc
       0.0049380213 0.015974184 0.014338088 -0.013708647
000140 b6 da 38 3c 79 b5 c4 3c 19 d8 f6 3c 71 db ef 3c
       0.0112826135 0.024012314 0.03013234 0.029279443
000150 ad 8b 3c 3d dc 79 1c 3c 5c fd ec 3b 30 0b 1c b9
       0.046031643 0.009550538 0.007232351 -0.00014881487
000160 38 d9 f5 3c 9f e6 e7 3c df d0 ef 3c e7 2b cb bc
       0.030010805 0.02830821 0.029274402 -0.024801208
000170 f4 86 f8 3b 60 e3 10 3d c4 c9 b5 3c 8c 14 38 3d
       0.007584447 0.03537309 0.022190936 0.04494147
000180 1c 00 06 3d e2 ab be bc fb fd 91 3c 24 e5 cc 3c
       0.032714948 -0.02327532 0.017821303 0.025011607
000190 9e d4 58 bb 45 dc 1e 3d cf b8 af bc f4 74 02 3c
       -0.0033085714 0.038784284 -0.021450428 0.007962454
0001a0 bc e4 5d 3a a5 b1 1d bd 1b b4 d5 3c 93 e9 2b 3c
       0.0008464565 -0.038499493 0.026086858 0.0104927
0001b0 92 c8 14 3d f2 36 b0 bb 95 9a 0a bc 40 43 9e 3c
       0.03632409 -0.0053776437 -0.008459707 0.019319177
0001c0 c1 53 8f 3c 5f 55 0a 3d 20 a2 8d 3a 53 77 d3 3c
       0.017495992 0.033772822 0.0010805763 0.025813734
0001d0 44 ad ee bb 56 f2 e0 3c 8d 05 d8 3b 05 37 ae 3c
       -0.0072838385 0.027459305 0.0065924586 0.02126647
0001e0 09 22 f2 3a e6 02 43 3c bf 4f ae 3c fc eb a2 3c
       0.0018473278 0.0119025465 0.02127826 0.019887917
0001f0 a2 1f 38 3c b6 e8 d2 3c 98 49 e5 3c 51 9f 32 3d
       0.011238011 0.02574573 0.027989194 0.043608967

action_model._discrete_distribution.branches.0.weight f4 [3, 128]
000000 7f d0 11 3d 7b 97 ed bc a6 aa d1 3c 6a 3a 15 bc
       0.035599228 -0.029002896 0.025594067 -0.009108165
000010 0b b5 84 3d 09 71 e1 bb b2 5c a6 bc c1 26 e0 bc
       0.06479844 -0.00687993 -0.020307872 -0.02736223
000020 ff 4a de bc 02 7a da 3b bb 1e de bb 40 6f 9f 3c
       -0.02713537 0.0066673765 -0.0067785657 0.019462228
000030 46 e1 13 3c d0 cb c3 bc 7e 14 19 3c 7c f6 69 3c
       0.009025877 -0.023900896 0.009343265 0.014279958
000040 d8 f0 0a bd 73 fc 5f 3d 0e 5a f6 3b 07 9c cd bc
       -0.033921093 0.054684114 0.0075180596 -0.025098814
000050 78 4a 5c bc 87 81 4a 3d 8b a4 18 bd 0a 4d bf 3b
       -0.013445489 0.049439933 -0.037266295 0.005838041
000060 ec e5 d7 bc b9 17 bd bc 92 f1 e5 3b f9 a6 29 bc
       -0.026354752 -0.0230826 0.007017323 -0.010354751
000070 09 f5 3e 3d 18 44 24 3c c5 cb 18 3d 7b 92 d9 bb
       0.046620402 0.010026 0.037303705 -0.0066397763
000080 b4 d3 5d bc 1b ae 8b bc 1c 7f 4b 3d 3b 46 8c bb
       -0.0135392435 -0.017050793 0.049681768 -0.004280833
000090 fb c6 6b bc 1f 65 86 bc b3 86 4e 3d 66 3f 6b 3d
       -0.014390702 -0.01640564 0.050421428 0.05743351
0000a0 c6 cd c1 bc 68 6e 9a 3d f4 27 4e 3c 23 1d 61 3c
       -0.02365769 0.075405896 0.012582768 0.013739857
0000b0 82 9f 7a 3c 6b 4d 89 3d a7 b7 31 3b e7 4c 94 bc
       0.015296819 0.067042194 0.0027117522 -0.018103076
0000c0 fe b9 b3 3d 7d fd 4b 3d d3 fc af bc 3d 75 5b 3d
       0.087757096 0.049802292 -0.02148286 0.053578604
0000d0 19 c1 cf b9 0b 38 3b 3d f8 ac 9b bb 6e a8 7a bc
       -0.00039625986 0.045707744 -0.004750844 -0.015298946
0000e0 3e 64 2d bd 0e 4f be 3b 2f b3 a5 3c 7f 8d 03 3b
       -0.042331927 0.005807764 0.020227043 0.0020073352
0000f0 fd cd ce bc 55 73 d4 bb 5a 84 1e 3c 5f 81 24 bd
       -0.025244707 -0.006483475 0.00967511 -0.04016244
000100 8a ea 86 3a 88 13 b0 bc 52 b1 80 bc c4 6a 99 bc
       0.0010293287 -0.021493688 -0.015709553 -0.018727668
000110 46 03 e3 bc 33 6c 80 bd 63 30 ad bc 53 74 9c 3c
       -0.027711522 -0.06270637 -0.021141237 0.019098436
000120 6a 90 ab 3c d5 d4 22 3d e3 21 0f bd 65 2d 57 bd
       0.020942885 0.039753754 -0.034944426 -0.052533526
000130 95 4d 44 bc 7a 44 82 3d 36 12 a6 bc 73 63 bd 3c
       -0.011981388 0.06360717 -0.020272356 0.02311871
000140 a6 18 35 bc 42 4c ef 3b f7 69 cb bc 95 c7 c7 bc
       -0.01105324 0.007302792 -0.024830801 -0.02438716
000150 ea 0b f7 bc 4f 83 2a 3d 0f cd 4d 3d e2 ec 12 bc
       -0.030157048 0.041629132 0.050244387 -0.00896761
000160 a0 af e5 bc 7e 6e 27 bd a4 ef 8e bc 95 85 e7 3c
       -0.028037846 -0.040876858 -0.017448254 0.028261939
000170 05 cb ad 3d 2f 98 26 bd 6b df 6c 3c e2 1b 92 3d
       0.084859885 -0.040672477 0.014457564 0.071342245
000180 a0 4c aa ba ad c6 4c 3d 4a 90 ec bc 51 30 c5 bc
       -0.0012992807 0.04999416 -0.028877396 -0.02407089
000190 67 de 06 3d 81 05 18 bd 9b f3 e3 3c 92 6a e4 bc
       0.032926943 -0.037114624 0.027826121 -0.027882848
0001a0 58 26 c7 3b a0 7a bb 3c fb 95 1c bc a9 ca dd 3b
       0.006077569 0.02288562 -0.0095572425 0.0067685437
0001b0 0a 65 dc bc 9b 68 56 3d 8c 4d cc 3b 97 40 15 bc
       -0.026903648 0.052345853 0.0062348302 -0.009109638
0001c0 9d 4e b8 bc 7f 6f 9f bc 55 a3 f0 3c a4 50 00 3c
       -0.022498423 -0.019462345 0.029374758 0.007831726
0001d0 bd 45 4e 3c 17 fd ad bc 75 68 9c 3c d7 ce bf bc
       0.012589869 -0.021238847 0.019092778 -0.023414059
0001e0 aa 23 81 3c 56 22 2d bd 0b 7d 09 bd 82 68 3e bc
       0.015764076 -0.042269073 -0.033566516 -0.011621596
0001f0 a1 e1 9c 3b a6 e1 b6 bc b5 34 f8 bc 89 ab 57 3d
       0.0047876392 -0.022324394 -0.03029857 0.052653823
000200 1b af 1a bd 8c 07 3d 3d 87 4f fd bb f6 b2 af 3c
       -0.03776465 0.046149775 -0.0077304277 0.02144764
000210 cb 51 7a bd ab b7 2a 3d 2e 88 ce 3c 37 5a 06 bc
       -0.06111316 0.041679066 0.02521142 -0.00820022
000220 9f 62 4a 3d c2 09 20 bc 4d 16 34 3d ce 6c 61 bd
       0.04941046 -0.009767951 0.04396658 -0.055035405
000230 59 6c 09 3d d1 e2 93 3c a5 b5 16 3d 9e d3 c6 3b
       0.033550594 0.01805249 0.036794323 0.006067707
000240 19 a3 ef 3c 92 2e 86 bd 3c 79 5d 3b 42 e2 00 3d
       0.029252576 -0.06551851 0.0033794185 0.031465776
000250 32 7d 4c 3d 6c 19 0b bd 0d 81 4a 3d bb b1 13 bd
       0.049924083 -0.03395979 0.04943948 -0.03605817
000260 23 58 f2 3c 05 b1 1d 3d 29 cf 1e 3b 19 d4 ad 3c
       0.029583042 0.038498897 0.0024232364 0.0212193
000270 f5 6c c1 bd f3 c5 d5 bc c0 05 67 bd 32 0c 63 3d
       -0.0944461 -0.026095366 -0.056401968 0.055431552
000280 09 fb c3 bc cb a9 2a 3c 1a 52 32 bd a9 05 20 3d
       -0.023923414 0.010416458 -0.04353533 0.039067898
000290 38 fd c1 3c 53 22 4c 3d 47 dc 94 bd 38 0c 97 bd
       0.023680314 0.04983742 -0.07268577 -0.073753774
0002a0 50 15 c6 3b 2b 0f 9a bd ae c5 6e bd a5 4f b1 bb
       0.006045021 -0.07522424 -0.05829399 -0.0054111057
0002b0 b0 27 f2 bb d8 b1 c5 bd 93 f2 d0 ba bf 13 e9 3c
       -0.007389985 -0.09653062 -0.0015941433 0.028451798
0002c0 53 70 70 bd 20 1b 8a bd 4e be ef bc 19 52 92 bd
       -0.05870087 -0.06743455 -0.029265549 -0.07144565
0002d0 3a 8a 39 3d 5c 56 79 bd af 7c e9 3c bb 7d cf bc
       0.04529784 -0.060873374 0.028501837 -0.025328508
0002e0 93 4c 07 3d 18 55 1c bd 1a f4 bb bc f7 81 00 3d
       0.03303201 -0.03816709 -0.022943545 0.031373944
0002f0 d3 85 4d 3d 84 de 3d bd ba 32 0f bd 07 39 36 3d
       0.050176453 -0.046354786 -0.034960486 0.04448798
000300 e0 0a 05 bd 6e 1f 27 3d d2 ed e1 3c 59 ab 09 3d
       -0.032481074 0.040801458 0.027579222 0.033610675
000310 71 23 5a 3d 5a ba 57 3d 40 9e d5 3c 58 78 f2 bc
       0.053256456 0.052667953 0.026076436 -0.0295984
000320 c8 f0 43 bd 00 11 85 bd 7f 06 33 3d ab 3e 22 3d
       -0.04783705 -0.06497383 0.043707367 0.039610546
000330 c0 5c 29 3b f0 ba 9c bd db 68 45 3c 6a 53 d5 bc
       0.0025842637 -0.07652843 0.012048925 -0.026040751
000340 b1 21 9f 3c 88 18 16 3c 29 cf 3b 3d c0 84 16 3d
       0.019425245 0.009161122 0.04585186 0.036747694
000350 d4 8f 74 3d 47 c9 6d bd dd b0 38 bd b5 a5 80 bc
       0.059707478 -0.05805328 -0.045090545 -0.015704015
000360 f7 9f 67 3d c0 6e 6d 3d 62 8a 14 3d e4 2a 28 bd
       0.05654904 0.057966948 0.036264785 -0.04105653
000370 a6 3b a9 bd 08 3d 57 3d 85 6f 62 bd 41 6a 7a bd
       -0.0826333 0.05254844 -0.055282135 -0.061136488
000380 56 63 d4 3c 3c f0 57 bd 91 f7 1f 3d 8b 5b 41 3d
       0.025926273 -0.05271934 0.039054457 0.047206443
000390 ef b4 f5 bc df af 0e 3d e7 62 23 bd 43 98 20 3d
       -0.029993502 0.034835692 -0.039889243 0.039207708
0003a0 60 d3 fb bc e0 ed 1f bd 07 df fb 3c 36 50 06 3c
       -0.03074044 -0.039045215 0.030745996 0.008197835
0003b0 09 49 43 3d 56 e4 91 bd 8e 36 d5 bc 48 c7 e0 3c
       0.047677074 -0.0712363 -0.02602699 0.027438775
0003c0 fd b9 0d 3d ac f9 77 3c e2 bc da bc c7 d9 dd 3c
       0.0346012 0.01513521 -0.026701394 0.027081383
0003d0 34 bc 28 bd ae 4b 06 3c 1f 30 48 bd c7 0f 5a 3d
       -0.04119511 0.008196754 -0.048874017 0.053237703
0003e0 f1 05 5d bc d0 90 7b 3c 2c ca 5c 3d 11 86 78 3c
       -0.013490186 0.01535435 0.053903744 0.015168683
0003f0 ca 4c 03 3c a9 01 e3 3c 41 ca 2f 3d 6b 9e 63 bd
       0.008013913 0.027710753 0.042917494 -0.055571

action_model._discrete_distribution.branches.0.bias f4 [3]
000000 a6 14 95 ba 81 6d 87 3c 50 7a 0c bd
       -0.0011373952 0.016531708 -0.034296334

action_model._discrete_distribution.branches.1.weight f4 [3, 128]
000000 2f c1 de 3a a1 03 9a 3b 7b b4 31 3d 02 fc 11 3c
       0.0016994829 0.0047001396 0.04338501 0.008910181
000010 8f 0f fd bc d6 50 5f 3c d0 a6 23 bc 5f 77 f9 bb
       -0.030891208 0.013630113 -0.009988502 -0.007613107
000020 ff 71 d5 3b 6a 18 9b 3c 60 52 ff 3b 63 7a 5f bb
       0.0065138335 0.01893254 0.0077918023 -0.0034100048
000030 56 0e 51 3d cf e7 00 3d 4a df 2d 3c f0 74 d9 3b
       0.051039062 0.03147107 0.010612318 0.0066362545
000040 a0 91 92 3c 55 8d 88 3c c1 4e 92 ba 18 21 6d 3c
       0.017891705 0.016668955 -0.0011162387 0.014473222
000050 19 8f ef 3c 69 14 07 bd bc 9d 50 3c ce ef 15 bd
       0.029243039 -0.03297845 0.012732919 -0.03660565
000060 ee 8b 9d 3c 24 c6 96 3c c7 98 36 3d f5 5e 3b bc
       0.019231763 0.018405028 0.044579294 -0.011436214
000070 6f 52 06 bb 53 82 c4 bb 55 a5 aa bc bf 33 ca 3c
       -0.0020495912 -0.005996981 -0.02083079 0.024682878
000080 9d a2 44 bd c7 0a 4a bc c2 5e ce bc 69 04 65 3a
       -0.048006643 -0.012331671 -0.025191668 0.0008736314
000090 4c f7 69 3c 3a 84 52 bb 3a ce 59 bd 4a 8e a7 bc
       0.014280152 -0.003212227 -0.05317519 -0.02045359
0000a0 39 60 23 bd 17 8c 89 3c b2 af 58 bd 0f cc 46 bb
       -0.039886687 0.016790433 -0.05290193 -0.003033403
0000b0 c1 2e 8a bb 08 71 97 3c 2d e7 e1 bc fd c8 27 3d
       -0.0042169993 0.018486515 -0.027576054 0.04096316
0000c0 ef a3 fc bb c7 c1 2a 3c ea ec 01 bd 8c 11 32 bd
       -0.007709972 0.010422177 -0.03172008 -0.043473765
0000d0 bf be ba 3c 29 ef 53 3c fe 1e 97 3c 2d ed ea bc
       0.022796033 0.012935438 0.018447395 -0.028677547
0000e0 ac da 27 3c 33 79 5b bd be f7 3b 3d 2e e2 8a 3c
       0.0102450065 -0.05358238 0.045890562 0.016953554
0000f0 da 07 40 3c e8 8f 89 3c 30 ae 19 bd ae e6 f7 bb
       0.011720622 0.016792253 -0.037519634 -0.007565341
000100 d5 ae 16 bd a4 37 4a 3c 7c a7 01 3d 5a 99 f0 3c
       -0.036787827 0.012342367 0.031653866 0.029369999
000110 a0 07 bc 3c 96 9e ac 3c d3 62 8e 3c 78 59 f8 bc
       0.022952855 0.021071713 0.017381107 -0.0303161
000120 25 63 96 bb 39 93 06 3d 2b ea 12 3c 7d e9 d3 3b
       -0.0045894557 0.032855246 0.008966963 0.006467043
000130 00 0e 00 3d 33 1e bf 3c 36 6b f1 ba eb 85 b1 bc
       0.03126335 0.02332983 -0.0018418792 -0.021670302
000140 9b e9 b6 ba 47 63 73 3c 5a 85 c1 3c 00 86 2d 3d
       -0.0013955118 0.0148552125 0.023623157 0.04236412
000150 ef 16 5a 3c 4d d1 db 3c 68 a1 12 3c 8b e6 19 b9
       0.013311132 0.0268332 0.008949615 -0.00014677101
000160 d0 11 6b 3b 04 c6 c1 3c 5a ef d7 3c ab cd 1f bd
       0.0035868771 0.023653992 0.026359249 -0.0390145
000170 b9 2c 9a 3c 37 08 1e 3c 45 f7 3b 3c 3f 37 61 3d
       0.018820154 0.009645513 0.011472528 0.054984327
000180 98 1d 6f 3c 9f 66 ad bc d2 b6 95 3a fe a7 16 3b
       0.014594458 -0.021167098 0.0011422283 0.0022988315
000190 1f 4d 28 bd 45 78 4a 3c f4 a2 6f bc 92 7e d7 3c
       -0.041089173 0.012357776 -0.014626253 0.02630547
0001a0 38 00 84 bd 8a 7a 83 bc b3 b7 b2 3c e4 ae 90 bc
       -0.06445354 -0.016049642 0.02181611 -0.01766152
0001b0 17 57 3d 3c 9e 02 c2 bb 6a 9a 20 bd 89 b2 32 ba
       0.011556408 -0.005920722 -0.03920976 -0.0006816765
0001c0 99 19 d8 3c 76 95 0d 3d 55 09 04 3c 7f 21 69 3c
       0.026379393 0.034566365 0.008058866 0.0142291775
0001d0 19 b2 88 bd 63 0d 48 3c 85 4e e2 3c 03 d6 ee 3b
       -0.066745944 0.012210223 0.027625332 0.007288696
0001e0 0b 8b 59 3c 06 a0 bf bc cf 7c b3 3b 43 85 98 3c
       0.013277779 -0.023391735 0.005477525 0.018618232
0001f0 ee 00 f0 3c 17 95 6a 3c b2 23 55 3c fe a5 06 3d
       0.029297318 0.014317772 0.013008999 0.032873146
000200 d9 f3 5a 3d bb 26 33 bd d4 19 07 3d 0a 8d 95 bd
       0.053455207 -0.043738108 0.032983616 -0.07302292
000210 9e 0c bb 3c e8 f1 07 bd f1 b5 5e 3d a4 a4 2f bd
       0.022833165 -0.033189684 0.05437273 -0.042881623
000220 ef 66 d1 3c 5f 6a 5e 3d 9e 14 6b bd 78 77 8c 3b
       0.025561778 0.054300662 -0.05739271 0.0042867027
000230 f2 cb ab 3c b6 c4 80 3c 9a 72 51 bd d5 c2 9a bc
       0.020971272 0.0157188 -0.051134683 -0.018891731
000240 12 8f 2b bd 06 a9 ef bb 1f 40 09 3d 56 a0 6b bd
       -0.04188449 -0.0073138503 0.033508416 -0.057525955
000250 e2 8a 60 bb 9e 2f c9 3d 5d 51 e9 bc da 82 b6 3c
       -0.0034262468 0.098235354 -0.02848118 0.022279192
000260 e5 72 22 bd ff 37 15 3c ce 7b 35 bc e6 0d 00 bd
       -0.039660353 0.009107589 -0.011076881 -0.031263255
000270 7f 39 89 bb cd fe 40 3d b8 0a 1c be e8 56 98 bd
       -0.0041877623 0.047117997 -0.15238464 -0.07438451
000280 2d b1 a8 3d 76 5d 8a 3d cb 7e b2 bc 53 5b a6 bd
       0.082369186 0.067561075 -0.021788975 -0.081228875
000290 49 03 91 bd 3f 11 8d bc 17 98 12 3d f8 9b 8e 3d
       -0.07080705 -0.017220138 0.035789575 0.069633424
0002a0 af 3a 6e 3d 11 96 31 bd 33 90 12 3d 51 54 6f 3d
       0.058161434 -0.043356005 0.03578205 0.05843002
0002b0 1a ab ad bd 32 19 54 bc da bc aa 3d 30 7a 06 bd
       -0.08479901 -0.01294546 0.08336802 -0.03283137
0002c0 a9 5d 69 3c da 7f 0e bc 07 30 b9 3d ac 0c e9 bc
       0.014243522 -0.008697474 0.090423636 -0.028448425
0002d0 67 82 73 bd 4f b3 a1 bc f0 5e 5b bd 45 58 88 3d
       -0.059450533 -0.019738821 -0.053557336 0.06657461
0002e0 f8 87 3e bd 7c e6 ad 3d 25 64 80 3d 44 b7 ff bd
       -0.04651639 0.08491227 0.06269101 -0.12486127
0002f0 b2 4f b0 bc d8 c9 83 3d 2b d6 9e 3d 35 2d 24 bd
       -0.021522377 0.06434983 0.07755693 -0.040082175
000300 39 b4 de 3d fe 3f 3f bd c7 0a 6b bd 3a 58 ef bc
       0.108742185 -0.046691887 -0.057383325 -0.029216874
000310 5b 6e d7 bc 83 5d d6 bc 69 fc 49 bd 86 dd 07 3d
       -0.026297739 -0.026167637 -0.049312983 0.033170246
000320 89 45 e1 3d 8b 3c 2e 3c fc d2 25 bd 17 3c 75 bd
       0.10999591 0.010634552 -0.040484414 -0.05987176
000330 ce 67 e8 bc d7 e3 82 3b a2 d5 ce 3d 8b 8e 4d 3d
       -0.02836981 0.003994446 0.10099341 0.050184768
000340 89 02 0d bd bb cf 76 bd ed 85 bd bc 46 a8 d4 bb
       -0.034426246 -0.0602567 -0.02313515 -0.0064897863
000350 33 3a 09 3d 99 92 ba 3c 9f de 39 3d 6e 4e 73 3d
       0.03350277 0.022774981 0.045378324 0.05940097
000360 77 7c 9b bc 32 cf e9 bc cb 4b ec bc ff d6 38 3d
       -0.018980248 -0.028541181 -0.028844735 0.04512691
000370 5c ec e2 bc 2f b7 2b bd e2 9f 79 3c 85 ac 8e bd
       -0.027700596 -0.041922744 0.015235873 -0.06966499
000380 96 68 51 bd 34 07 f7 3c a5 04 17 bd e8 f6 b3 bc
       -0.05112513 0.030154802 -0.036869664 -0.02196832
000390 bc c6 dc 3d 70 11 77 bd f5 82 4c 3d 7c 9c 6d 3c
       0.10780093 -0.060319364 0.049929578 0.014502641
0003a0 a5 92 96 3d 69 74 48 3d 96 c3 22 bd ab 21 6f bd
       0.07352189 0.048939142 -0.039737307 -0.058381718
0003b0 0c 4c 52 3c 4e 2d 13 bc 48 0c 54 3d 0f 86 8e bd
       0.012835514 -0.008982969 0.051769525 -0.069591634
0003c0 ff b8 03 3c 5c af 62 bd 3d cd 50 3b 3f d2 8d bd
       0.008039712 -0.055343017 0.0031860613 -0.06924867
0003d0 b2 59 5c 3d bc 16 86 bd 66 cb a9 3c 05 4a 89 bc
       0.053796478 -0.06547305 0.02072687 -0.016758928
0003e0 42 af 85 3d c4 7b 18 bd f0 54 d1 ba 09 d9 39 bd
       0.065275684 -0.037227407 -0.0015970748 -0.045372996
0003f0 3c 4f 9e bb 8c 32 48 bd b9 10 f6 bc aa d4 b6 bd
       -0.004831223 -0.04887633 -0.03003727 -0.08927281

action_model._discrete_distribution.branches.1.bias f4 [3]
000000 33 b8 c5 3c 2d 39 f9 bc 7f 33 e6 ba
       0.024135685 -0.030422771 -0.0017562954
