results/ppo/Racing/Racing-11901.pt (torch, 603118 bytes, 48 tensors)

discrete_act_size_vector f4 [1, 2]
000000 00 00 40 40 00 00 40 40
       3.0 3.0

network_body._body_endoder.seq_layers.0.weight f4 [128, 29]
000000 71 98 25 3e 93 8d ce 3d 31 e4 d3 3d f6 e1 9a 3d
       0.16171433 0.10085597 0.103462584 0.0756263
000010 a8 9a 4b 3e 92 12 02 bc da 3e af 3d f5 d4 d3 3e
       0.19883215 -0.007938998 0.0855691 0.4137341
000020 c6 47 45 3d 47 dc 74 3e 15 3b 6e be b9 f6 47 3d
       0.04816415 0.23912154 -0.23264726 0.048819277
000030 75 8a 48 be e0 53 b1 3e 14 7c 51 be eb 56 f5 bd
       -0.19584067 0.34634304 -0.20457488 -0.11979469
000040 9f 6c 66 3e 2b e4 c0 3d c4 23 a0 3c 71 f6 ca be
       0.22502373 0.094185196 0.019548304 -0.39641145
000050 fe 75 70 bd be 09 02 3e 10 88 15 3e 33 d9 80 bd
       -0.058706276 0.12699029 0.14602685 -0.062914275
000060 e4 48 80 3c d7 6c e3 3c 4e 9d ef 3d 1c f6 3c be
       0.015659757 0.02776186 0.11699925 -0.18453258
000070 f4 ae 62 3e 68 cf 68 3e 8d ed 9e be 13 69 86 3e
       0.22137052 0.22735369 -0.31040612 0.2625204
000080 92 c6 86 bc 09 87 82 3a 73 3c bb bd 60 73 58 be
       -0.016452108 0.0009958457 -0.09142389 -0.21137762
000090 54 92 94 3d 22 99 06 be 48 fb 92 3e b2 27 51 be
       0.072544724 -0.13144353 0.28707337 -0.20425299
0000a0 0e f9 f0 3e 9b 45 03 3e 03 a5 a8 3d b7 14 d0 bd
       0.47065014 0.12819521 0.082345985 -0.10160201
0000b0 c9 34 36 3e 4f e5 9a be 87 cb 9c 3d 76 3a 88 bd
       0.17793573 -0.30253074 0.07656007 -0.066517755
0000c0 9f 7f e3 bb 28 c1 9b 3e f4 9f bc be f8 c7 06 bd
       -0.006942704 0.30420804 -0.36840785 -0.03290555
0000d0 b0 f2 d1 3e e1 e1 13 bf 2d 32 02 bf 2a 4a d0 3e
       0.41005468 -0.5776654 -0.5085781 0.40681583
0000e0 70 74 4d be 24 82 89 be a0 58 b7 3d b4 ab 1a be
       -0.20063949 -0.26857102 0.08952451 -0.15104562
0000f0 17 7f 0d 3e 02 d5 21 3e ab 85 d5 bc b9 01 3b 3e
       0.13818012 0.15803912 -0.026064714 0.18262376
000100 e8 bb d7 bd db a6 f3 3d 1d 28 79 3e 91 96 24 bc
       -0.10533887 0.118970595 0.24331708 -0.010045663
000110 14 7c 19 3e 19 79 89 be ff ac 28 be f4 db 29 3f
       0.14988738 -0.26850203 -0.16472243 0.66351247
000120 8f 76 41 be aa cc 4f 3e bd 26 a9 3d 75 b5 77 3e
       -0.18892883 0.20292917 0.08259342 0.24190314
000130 ec 53 b6 be 74 55 01 be 71 c8 32 bd eb 36 9c bd
       -0.35610902 -0.12630254 -0.043648187 -0.07627662
000140 15 49 cf 3e 85 e2 69 be 51 b8 49 3e df 75 b1 3d
       0.40485445 -0.22840317 0.19699217 0.0866506
000150 44 04 b1 3d 98 1a 0e be 76 4f a7 be 26 a8 f8 3d
       0.08643392 -0.13877332 -0.3267781 0.12141447
000160 f7 43 28 be 68 bf 36 be 87 c2 24 be f3 e5 e0 be
       -0.16432177 -0.17846453 -0.16089831 -0.43925437
000170 99 51 6e 3d f8 6a 2c 3e e3 e3 2a 3e e8 2e 48 3e
       0.058183286 0.1683768 0.16688494 0.19549143
000180 77 04 6a 3c 48 65 c0 3d 6c 08 23 3d ac 48 a6 bd
       0.014283291 0.09394318 0.039802954 -0.0811933
000190 f0 7a 13 3e 1f 9e 9c 3d 52 38 4f 3e e4 22 65 3e
       0.14402366 0.07647347 0.20236328 0.22376591
0001a0 48 a3 4b be d9 b1 bf be 80 79 c9 3c 57 b5 92 3d
       -0.19886506 -0.37440374 0.024594069 0.07163494
0001b0 48 b9 04 3d cb 8e 2a be e4 8f 70 3e e0 2e c9 3e
       0.03240326 -0.16656034 0.2349239 0.39293575
0001c0 ef 78 de 3e a8 ea b0 3e 65 b8 1f 3d e7 c8 96 be
       0.4345164 0.3455403 0.03899421 -0.2945015
0001d0 5f 3f 9a be ca 95 0b 3d 8f 69 a9 be 34 29 32 3e
       -0.30126473 0.034078397 -0.33088347 0.1739853
0001e0 3d e1 77 be 2e c1 7a 3e 96 1a 33 be 08 15 cd 3d
       -0.24207015 0.24487755 -0.1749061 0.10013777
0001f0 ae fb 43 3e f6 73 b6 3c 73 16 88 be d6 00 5c 3d
       0.19138977 0.022272091 -0.26579627 0.053711735
000200 4e b7 9e 3e 75 94 2d 3e 5f 04 50 be 0c 1b 91 bc
       0.30999225 0.16951163 -0.20314167 -0.017713092
000210 03 87 55 3e 9f 0c 25 bd 2b 7b 44 be 1d 81 81 be
       0.20852284 -0.04029524 -0.1918761 -0.25293818
000220 66 8a 9a bd 13 f3 aa bd b0 9c 97 3d 13 dd c2 3e
       -0.07545929 -0.08347144 0.07402933 0.3805929
000230 30 b2 b6 bd 43 96 e4 3d c7 e3 25 3e 17 24 cf 3e
       -0.08920705 0.11161473 0.16200171 0.40457222
000240 58 52 10 3e 4c d5 8b be ee 21 5a 3e 8a aa 29 3e
       0.14093912 -0.2731117 0.21302006 0.16568962
000250 ac 38 20 be 23 9a ab be 76 17 ee bd 26 80 bf 3e
       -0.15646619 -0.33516034 -0.116255686 0.37402457
000260 49 8d 8c be 7e cc d7 be fb f2 1f 3e 71 30 41 3e
       -0.27451542 -0.42148203 0.15620033 0.18866135
000270 0b 44 9b be 50 33 b0 be 24 de 62 3c ec 04 5b bc
       -0.3032535 -0.34414148 0.013846908 -0.013367873
000280 3c 5d 0a bb e1 ae 11 3e 68 ab 1b 3e 46 eb c5 bd
       -0.00211127 0.14226867 0.15202105 -0.096640155
000290 aa 92 a4 bd 0e c5 d9 3d c0 47 2c 3e 61 64 43 be
       -0.080357864 0.10633288 0.16824245 -0.1908126
0002a0 53 3c 36 be 67 39 00 bf 9e 3e 33 3e 2f 47 02 3e
       -0.1779645 -0.5008759 0.17504355 0.12722467
0002b0 ca eb 68 be a4 97 24 be c6 bd 05 be 9c 33 55 3e
       -0.22746196 -0.16073471 -0.13060674 0.20820469
0002c0 87 cb b8 be 88 aa d7 bd 9e d0 3a bd 79 53 a3 3e
       -0.3609278 -0.10530573 -0.04560911 0.31899622
0002d0 0b 68 63 bc 96 12 8b 3e 25 56 bc bb 57 19 80 3d
       -0.013879786 0.27162617 -0.005747574 0.06254833
0002e0 64 10 d5 3d e0 2d 15 3c 86 a7 3c 3d 09 eb 9c bd
       0.10403517 0.009105176 0.0460582 -0.07662017
0002f0 18 4a d8 bc 36 7f a7 3d 2e cc fc be dc 11 26 3f
       -0.026402518 0.081785604 -0.49374527 0.64871
000300 c3 e4 3d 3d 29 d2 0b be 49 e4 b6 be 2a d2 98 bc
       0.046360742 -0.13654388 -0.35721043 -0.018654902
000310 05 6e 93 3e 89 7f 47 3e eb 53 ee bc c0 ae 7a 3c
       0.28794876 0.19482245 -0.02909275 0.015300453
000320 3d d0 9c be 80 b4 aa 3e 2b 50 9d be ec 4f e2 3d
       -0.30627623 0.33340836 -0.30725226 0.110504
000330 b7 3a 39 be 7a 5a 3e 3e 4c d0 36 bd 80 9b 2b be
       -0.18088804 0.18589202 -0.04463224 -0.16758537
000340 aa 29 1d bf e7 ee 79 3e 60 dc 69 3e a3 b7 9b bd
       -0.613917 0.2440754 0.22837973 -0.07603385
000350 12 74 18 bd 88 93 c9 bc 1e e5 78 3d 63 49 66 3d
       -0.03722007 -0.024606481 0.06076538 0.05622233
000360 fb d4 af bd 2a 50 84 be bb d3 b7 3c a2 a4 6e be
       -0.08585545 -0.2584241 0.022439828 -0.2330499
000370 bc 42 2e be 24 f8 74 bd 7f 70 52 3d a6 db a0 be
       -0.17017645 -0.059806958 0.051376816 -0.31417578
000380 a1 5d 9a 3e 9b 7a bf bc b5 65 9c be f2 c7 9f be
       0.30149558 -0.023373893 -0.30546346 -0.31207234
000390 10 af c5 bd 0a 14 ea 3d f5 5e 8c 3e 2d f2 01 bc
       -0.09652531 0.114296034 0.27416196 -0.007931274
0003a0 d1 3e 7a 3e d2 8f 37 3e fa b3 a5 be 82 c8 ed be
       0.24438025 0.17925957 -0.32363874 -0.46442038
0003b0 12 e2 94 3e 87 8a bb be b2 d1 b2 be fe 0e 29 bf
       0.29078728 -0.36629125 -0.3492561 -0.660385
0003c0 ab 35 67 3d 31 a9 e0 3e 8f f5 dd bd d2 b1 e8 bd
       0.056447666 0.43879083 -0.10837852 -0.113620415
0003d0 2b b3 6d 3e eb cd 83 be 52 2b ad 3d c7 61 96 be
       0.23212878 -0.2574304 0.08455528 -0.29371473
0003e0 1d c8 1c 3e 8f b0 4a be d3 ce 97 be 13 2c f7 bd
       0.15310712 -0.19793914 -0.29649982 -0.12068953
0003f0 f0 55 32 be cb c0 39 bc 96 57 d1 3e ff 6a 0e 3d
       -0.17415595 -0.011337469 0.40887135 0.03477001

network_body._body_endoder.seq_layers.0.bias f4 [128]
000000 6d 47 d3 3b 3d a9 c9 3b 99 97 10 3d 8b ef ff bc
       0.0064477236 0.006154208 0.035300825 -0.031242153
000010 cb d2 37 3d 20 8f 56 be d0 5f a8 3d af 87 6e bc
       0.044878762 -0.20953035 0.082214 -0.014558717
000020 44 65 07 3e dd 34 6c 3c 31 23 79 3d 8a c3 51 3d
       0.13222224 0.0144169 0.060824577 0.05121187
000030 29 2b 67 3d 0f 8a 48 bd f8 eb f8 bc 4c 0d 56 3e
       0.056437645 -0.048959788 -0.030385956 0.2090351
000040 51 66 b2 3c 0a 9e 85 bd 16 4f b9 3d 12 bf 3b 3d
       0.021777304 -0.06524284 0.090482876 0.045836516
000050 f7 1c 99 3b d2 ec a1 3c 04 d1 c4 3d 91 2a c6 3d
       0.0046726423 0.019766245 0.09610179 0.09676088
000060 3d 69 09 3d d6 d8 dc bc 51 01 15 bc 7b cb 36 3d
       0.03354763 -0.026958864 -0.009094552 0.044627648
000070 cc f9 b4 3c af db 57 3b a8 2a 38 3c bc f2 6a bb
       0.022091769 0.0032937338 0.011240639 -0.0035850247
000080 89 57 d4 3d 48 37 39 3d 3d 34 9c bd dd 05 ab 3d
       0.103682585 0.045218736 -0.07627151 0.08350728
000090 29 24 b4 bc 49 2c 16 3c 41 b2 96 3d d2 dd 54 3d
       -0.021989899 0.009165832 0.07358218 0.051969357
0000a0 e2 0a 92 be 2e 4d 97 3b b8 cd ae 3d 80 ac e9 3c
       -0.28523928 0.004617355 0.085353315 0.028524637
0000b0 3f a4 f9 3d 61 ad 17 3c 58 eb b3 3b 7a aa 1e 3d
       0.121895306 0.009257645 0.0054907016 0.038736798
0000c0 67 10 fe 3c 43 8f a7 3d 0e f2 df 3d 87 5d b1 3d
       0.03101368 0.08181622 0.1093484 0.08660417
0000d0 40 76 7b 3c 52 92 5f 3d c4 bf da 3c a2 8d a8 3d
       0.015348017 0.0545829 0.02670277 0.08230139
0000e0 51 c0 45 be 2c 90 85 3d eb 55 ae 3d f7 42 51 3b
       -0.19311644 0.06521639 0.08512481 0.0031930783
0000f0 97 75 e1 bd 59 ff 32 3d 0b 17 9e 3c b1 eb 9c bd
       -0.110087566 0.04370055 0.019298097 -0.07662142
000100 a7 ea e7 3c c4 6a 37 3d 9b 61 30 3b 04 ea d4 3c
       0.028310133 0.044779554 0.0026913646 0.025990494
000110 30 3a 2b 3d a1 f1 8e 3d 11 3f 2f 3d 26 f0 ea 3c
       0.04180354 0.06979681 0.042784754 0.028678965
000120 64 96 5d 39 5a 6d e3 3c 2b 82 a4 3d bb 60 8e 3d
       0.00021132227 0.027762104 0.0803264 0.069520436
000130 8f 9c 3f 3d 24 4d 2e bd bb 63 08 3d 10 40 ea 3b
       0.046780165 -0.042554036 0.033298235 0.00714875
000140 95 7c 8c bd d9 4a db bd b7 d6 44 3d fc a0 63 bb
       -0.068597 -0.107076354 0.04805633 -0.0034733405
000150 81 38 4a 3d a5 2e 5a 3d b5 08 cd 3d 31 fa 47 bd
       0.049370293 0.05326714 0.10011426 -0.048822585
000160 82 9c 49 bd 9b 58 e9 ba 3c 56 b6 3d 44 6e 45 3d
       -0.049221523 -0.0017802896 0.08903167 0.04820086
000170 15 3f 93 3c 1e cd 85 3d 4a ad 9b 3d 8a 4b 3d bd
       0.017974416 0.065332636 0.07601412 -0.046214618
000180 33 97 95 3d 3f aa b8 3d 80 5c 82 3d c6 23 b0 bb
       0.073042296 0.09016847 0.06365299 -0.0053753583
000190 4d 8f 12 3d 70 01 13 3d fa e8 92 3c 87 cc ce 3c
       0.035781194 0.035890043 0.017933358 0.02524401
0001a0 41 f1 89 3d 10 11 55 3d 47 24 be 3d c6 a7 ca 3c
       0.06735469 0.052018225 0.09284263 0.024738204
0001b0 f5 f8 42 3d 5f ad 5e 3d bb f4 28 3d 82 1f ce 3c
       0.047600705 0.05436456 0.04124902 0.025161508
0001c0 41 86 f6 bc 6b 5e 3c 3c 3f 81 6b bc 9d 2f 2e 3c
       -0.030093314 0.01149712 -0.014374076 0.010631469
0001d0 10 5c dd 3d 95 fe 23 3d 1e ab 3d 3d 02 99 1b bd
       0.10808575 0.04003771 0.04630577 -0.037987716
0001e0 42 09 46 bc ff ce 5d 3d f0 6b 46 3c cd 59 f6 bd
       -0.012087168 0.054152485 0.012110695 -0.12028847
0001f0 ea ea 07 3d 23 fd 14 3d 6f df 68 3d 8b d5 34 3e
       0.033183016 0.036374222 0.056853708 0.17659585

network_body._body_endoder.seq_layers.2.weight f4 [128, 128]
000000 1a 7b cf 3d 4f 0e 9f 3e 86 fe 60 3e b9 83 9a 3b
       0.10130902 0.31065604 0.21972093 0.0047154096
000010 bd 10 0f be fd fb 86 3d 8f 2a c8 bd 4c e2 e0 bd
       -0.13971229 0.06591032 -0.097737424 -0.10980663
000020 ae d1 ae be d8 0c 5c 3d 46 3e e0 bd 9d 71 09 3e
       -0.34144348 0.053723186 -0.10949378 0.13422246
000030 9b b7 1a be 6d ce 7d 3e 1c 0f 54 3d f6 6a 89 be
       -0.15109102 0.24785776 0.051772222 -0.26839417
000040 ec 2f 0a be 00 fa 40 3e 09 ee fe 3c 48 78 46 be
       -0.13494843 0.18845367 0.031119363 -0.19381821
000050 7c 47 f2 3c 48 d9 00 3e 24 41 98 be 7f c6 ef bd
       0.029575102 0.12582886 -0.29737198 -0.11707782
000060 95 6f a9 3d 35 c2 6a be 6e 81 da 3c ca ba 94 bd
       0.08273236 -0.22925647 0.026673045 -0.0726219
000070 db 11 e2 bd de d0 0b be 65 ab 7e bd 89 b9 c7 bd
       -0.11038562 -0.13653895 -0.062175173 -0.09752185
000080 14 0c 19 bd c9 71 4e 3e 43 04 22 be c0 2c 9e be
       -0.037365034 0.20160593 -0.15821938 -0.30893517
000090 0e 01 a0 3e 95 90 b5 bd 7b 74 90 be be 5b 21 be
       0.31250805 -0.088654675 -0.28213868 -0.15757653
0000a0 df 7e 3e 3e 25 18 e9 3d a5 d9 14 be 32 c4 3a bd
       0.18603085 0.11381558 -0.1453615 -0.045597263
0000b0 77 22 85 be c1 5c 30 3d bf 3f 6c be c2 56 33 be
       -0.26002857 0.043057207 -0.23071192 -0.17513564
0000c0 3c 54 8d 3e d3 62 25 bd b0 58 e0 bd f0 fa d0 3e
       0.27603328 -0.04037745 -0.10954416 0.4081645
0000d0 21 f6 13 3e 8c 09 b0 3e 5b f1 03 3e 21 f8 60 be
       0.1444936 0.34382284 0.12885039 -0.21969654
0000e0 43 aa 47 3e 91 1f e1 bd 40 9b 1c bd d2 9c 72 3c
       0.19498543 -0.10992349 -0.038233995 0.014807897
0000f0 f7 45 17 3e 69 37 5e 3c e0 96 ce 3e c1 c0 47 3d
       0.14772783 0.0135630155 0.40349483 0.04876781
000100 ba 43 d1 bd fd 62 10 3e 8c d5 06 be c1 c2 a1 3d
       -0.10217996 0.14100261 -0.13167399 0.078984745
000110 6a f7 57 be 4c dd e0 be 42 13 36 be 38 0c d7 3b
       -0.21090475 -0.43918836 -0.17780784 0.006562736
000120 c2 9a e4 3d b9 6a ff 3d 60 a2 55 bd cc 05 29 bc
       0.1116233 0.124715276 -0.052156806 -0.0103163235
000130 c0 c1 cb 3d f6 20 c4 3d 01 00 b0 3a a0 8f 45 3e
       0.09949064 0.09576599 0.0013427736 0.1929307
000140 9b 60 42 3e 4c 4e d4 3e 39 15 54 be e6 2c 4b be
       0.18982165 0.41465986 -0.20711221 -0.19841346
000150 4a 80 af 3e b1 e2 2b 3c b4 cc fb 3d f9 de 8b 3d
       0.34277564 0.010491059 0.122949034 0.06829638
000160 b2 cf 35 3e b3 98 e0 3e ec 54 4a 3e 82 44 d3 bc
       0.1775501 0.438665 0.19758958 -0.025789503
000170 63 80 47 3e 7f f5 2b be 38 5a bd bd 4b 4c 0c be
       0.1948257 -0.16792868 -0.092457235 -0.13700978
000180 fa 37 0e 3d 53 f8 7d 3e ac 84 3f bc 7c 6b c8 3d
       0.034721352 0.2480176 -0.011689346 0.09786126
000190 31 98 b4 bd 9f 45 3f be b1 16 39 3e 19 1e d0 3d
       -0.08818091 -0.18678902 0.18075062 0.10161991
0001a0 c4 99 f5 bd 47 8b c7 bd a4 ac 86 be a5 cd 9b bc
       -0.11992219 -0.09743362 -0.2630359 -0.019018957
0001b0 99 36 78 3d a9 dd 5e 3d 0f f1 bb 3e 9b 26 30 3d
       0.060598943 0.05441061 0.3670735 0.043005567
0001c0 75 e0 b1 3e b7 5b b1 3c 77 a3 b1 bd 84 e9 82 bc
       0.3474156 0.021650178 -0.086737566 -0.01598049
0001d0 99 86 94 3d 5c c6 e7 3d 60 5b 08 3e a0 25 a0 3e
       0.07252235 0.11317131 0.13316107 0.31278706
0001e0 ad 18 c4 3e ee 2f 9a be ea cd 54 3e fb 60 85 3d
       0.38300076 -0.30114692 0.20781675 0.06512638
0001f0 7c 60 0a 3b 86 ad 83 bd ab 04 99 be ac 38 d5 be
       0.0021114638 -0.06429581 -0.29886374 -0.416448
000200 4a 25 1a bd 25 8f a3 3e e7 a0 8c bd 1c a9 13 3d
       -0.037633218 0.31945148 -0.06866627 0.036049947
000210 09 b9 53 3e e4 6a 2e 3d de 8a ba 3d d1 60 00 be
       0.20676054 0.042582408 0.09108518 -0.12536933
000220 ab 05 86 3d f3 39 9a 3c e3 3b 97 bd d0 9f 8b 3a
       0.0654405 0.01882646 -0.07384469 0.0010652486
000230 f7 99 ae bd 98 ac f9 3d c6 1b f8 3d b2 6d fa bd
       -0.0852546 0.12191123 0.12114672 -0.12227954
000240 ff 26 5f bd 4e aa 93 3d e1 54 0f 3e ff 1f c6 bd
       -0.05448055 0.072102174 0.13997222 -0.096740715
000250 71 57 2f 3d ba 20 bb 3c 50 70 07 be 3d 2b bf 3d
       0.042808 0.022842754 -0.13226438 0.09334419
000260 f1 68 b9 be 0a f9 9d bd 45 82 53 3c f0 8f b9 3b
       -0.36212876 -0.07713516 0.012909477 0.0056629106
000270 86 0d 7b bd 0b 94 52 be 10 a5 db bc f3 56 aa 3d
       -0.061292194 -0.20564286 -0.026812106 0.083173655
000280 31 14 44 3d 4b 8e f5 bd 86 26 ec bc 3d b0 4c 3d
       0.04787082 -0.11990031 -0.028826963 0.04997276
000290 c6 91 b8 3d 30 40 f5 bd d3 9e 68 3d 6a 27 8e bd
       0.09012179 -0.119751334 0.05679209 -0.069411114
0002a0 5e c2 b0 bd b5 46 22 be 64 2a b3 bb 78 8c d6 3d
       -0.086308226 -0.15847285 -0.0054677 0.10476011
0002b0 93 3b 2e 3d 6c ed 39 be f9 01 ad 3d cf 06 10 3e
       0.042537283 -0.18156976 0.08447642 0.14065097
0002c0 0e bc 4c bd b5 99 10 3e 62 60 a1 bd 10 a0 4a 3e
       -0.04998403 0.14121135 -0.07879712 0.19787621
0002d0 7a a4 63 bc 19 3e 93 3d b8 3c 62 3c 80 6a 44 3e
       -0.013894195 0.071895786 0.013808422 0.19181252
0002e0 db 9d 99 3d cd 3d 80 be e1 8a 8c bc 48 26 a0 bd
       0.07500812 -0.2504715 -0.017156066 -0.078198016
0002f0 ed b1 40 3d 18 2a 90 3d 66 87 ac 3d 87 2d 7b 3d
       0.047044683 0.07039279 0.08424263 0.061322715
000300 54 2b c6 bd 9e f2 23 3e fe 96 f1 bc a7 16 1a bc
       -0.09676233 0.1601052 -0.029490944 -0.009404815
000310 9c fd bd bd 60 58 79 be 3a 22 b9 be 46 e9 6c 3d
       -0.09276888 -0.24350119 -0.36158925 0.057839654
000320 49 18 12 bc 30 78 ac be d4 64 a5 bd 7f 2c 66 3c
       -0.008916923 -0.33685446 -0.08075872 0.014048695
000330 6d 9f 95 3c 82 e3 36 bc e8 9a 10 bb 46 95 ee 3d
       0.018264497 -0.0111626405 -0.0022064988 0.116495654
000340 b8 94 e4 bc 80 cb 00 bd 14 a3 06 be 75 43 b8 bc
       -0.027902946 -0.031444073 -0.13148147 -0.022493104
000350 8d 07 e4 3d 41 00 38 3e 23 8e fa 3d 16 74 de bc
       0.11134253 0.17968847 0.12234142 -0.027154963
000360 a1 20 22 be 1d 83 62 3e f3 84 b2 3d 16 2b e2 ba
       -0.1583276 0.22120328 0.08716764 -0.0017255272
000370 15 ad e9 3c 7a 20 09 be 42 c9 cb bd f8 e7 ab 3d
       0.028524915 -0.13391295 -0.09950496 0.08393854
000380 b3 38 67 be d0 62 a9 3d bc a6 0a bd 4f 55 71 be
       -0.22580223 0.082708 -0.033850417 -0.23567699
000390 03 66 00 be 82 96 92 bd 05 42 13 be 60 34 26 3d
       -0.12538914 -0.07157613 -0.14380653 0.040577292
0003a0 cf ec 00 be 61 79 5b bc cd 21 a0 3d 5a 55 5e 3d
       -0.12590335 -0.013395638 0.07818947 0.054280616
0003b0 11 00 1e be 95 b4 a2 bb d1 a2 0a 3d 5d 6e 47 3d
       -0.15429713 -0.0049653747 0.03384668 0.048689235
0003c0 91 d7 5f be cc 7e 3c 3e d5 78 ac 3d d5 93 38 3d
       -0.21859576 0.18407744 0.084214844 0.04506286
0003d0 1f 03 c3 bd d6 48 a3 bd d2 cd f2 bd 7f 58 8b 3d
       -0.0952208 -0.07972877 -0.11855663 0.06803989
0003e0 bb cc 9a 3c 97 9d ea bc c5 b9 cf bd 00 82 f6 bc
       0.018896451 -0.028639598 -0.101428546 -0.030091286
0003f0 29 e2 14 bc 22 d6 84 3c 65 23 8b be 6b 75 8c be
       -0.009087124 0.016215388 -0.2717544 -0.27433333

network_body._body_endoder.seq_layers.2.bias f4 [128]
000000 6b 2e 73 bd 2d 0e d0 bd ce d6 66 bd 0a 6b cc bd
       -0.05937044 -0.10158954 -0.056357197 -0.099813536
000010 b5 55 a1 3d 0a 39 81 bd c6 57 99 3d 43 98 bb bc
       0.078776754 -0.063097075 0.074874446 -0.022899752
000020 f9 a0 c8 3d 95 64 cd bd fd c8 e5 3d cc 6b 96 be
       0.09796328 -0.1002895 0.11219976 -0.29379117
000030 e4 73 2e be b5 84 69 3b b4 0e 6e 3d be 6b 62 3d
       -0.17036396 0.0035632078 0.05811949 0.055278532
000040 8a 41 91 3d e3 cb 36 3d e2 9a ab bd 34 82 d4 3d
       0.07092579 0.044628035 -0.08379151 0.10376397
000050 a4 c0 77 3d 58 74 ba 3d e8 54 91 bd 9f 8c 9c 3b
       0.06048645 0.09104222 -0.07096273 0.0047775055
000060 11 ff b6 3d 77 9a 89 bc f8 e5 07 bd 67 a6 a7 3d
       0.08935369 -0.016797287 -0.0331783 0.081860356
000070 94 ef d4 bd 22 34 44 bd 27 c3 de 3d 78 e8 31 bd
       -0.103972584 -0.04790128 0.10877066 -0.04343459
000080 be 53 34 39 ef ff 7d 3c 94 b1 34 3c 52 c9 ba 3d
       0.00017197334 0.015502914 0.011028666 0.0912043
000090 ec b2 bf 3d e9 95 b7 3d 99 23 94 3d 90 77 5e bc
       0.093602985 0.0896414 0.07233352 -0.013578311
0000a0 82 17 10 bc b7 e4 9f 3d 42 d9 6e bd bc e3 c1 bc
       -0.008794667 0.07807296 -0.058312662 -0.023668163
0000b0 27 84 38 bc 4e ae e8 ba 3d f8 4d 3d 9b df 3f 3d
       -0.011261976 -0.0017752142 0.050285567 0.046844106
0000c0 db ff cc 3d f4 96 b1 3d 6e ed a6 3d ec 07 db 3d
       0.10009738 0.0867137 0.08150755 0.1069487
0000d0 d9 8c 80 3d e4 d7 e9 3d 85 0e 47 3b fa 1f cc 3d
       0.062768646 0.11418131 0.0030373645 0.099670365
0000e0 ce fb 77 3d 3f d6 8a bb 34 72 41 3d a4 47 97 3d
       0.060542874 -0.004236966 0.047228053 0.07386711
0000f0 28 e2 e0 3d 42 df a9 3d e2 1c af 3d 2e 36 8b 3d
       0.10980636 0.08294536 0.08550431 0.06797443
000100 7c c0 01 bc 4f 03 5d be 9b 54 a8 3d 54 58 b4 3d
       -0.007919427 -0.21583293 0.08219262 0.0880591
000110 fa a8 93 3d a9 f3 18 bd b1 37 e7 bb 5a 3a cf 3c
       0.07209964 -0.037341747 -0.0070561995 0.025296379
000120 22 8d 67 bd 88 37 ac bd 94 5e 04 be b9 7b 1b be
       -0.05653108 -0.08409029 -0.12926704 -0.15183915
000130 73 8e 8f 3d 0e 78 53 bd 4f c5 3e bd 5b 1d c5 3d
       0.07009592 -0.051628165 -0.046574887 0.0962474
000140 5f 42 6c bc af c2 c6 bc 43 ff ce 3d 9d aa 33 3d
       -0.014420121 -0.024262754 0.10107281 0.04386388
000150 ba 4e 1b bd 03 0c 15 bd c3 83 9b bb 70 79 2e bd
       -0.037916876 -0.03638841 -0.004745932 -0.04259628
000160 7f 6d ce bd 22 d7 96 bd 9d ae 22 bb d1 3c b2 3d
       -0.100794785 -0.07365252 -0.0024823316 0.08703006
000170 ec 91 94 3d 98 97 d1 3b d5 4c 22 3b ca 1b 99 bd
       0.07254395 0.006396245 0.0024765034 -0.074760035
000180 18 c7 82 3d fd 5a 50 3d 26 c3 84 bd 12 a7 ac 3d
       0.0638563 0.050868023 -0.06482534 0.08430304
000190 be 68 89 bd 23 d9 1f 3d 83 89 1e 3d fb 25 4c bd
       -0.06709431 0.039025437 0.03870536 -0.04984091
0001a0 c5 54 97 3d 9e 6a d7 bc 8e 29 94 bd da 99 be 3d
       0.073892154 -0.026295956 -0.072344884 0.093066886
0001b0 fc f2 56 3c 98 a8 c2 bc 99 70 77 3c d5 96 aa bc
       0.013119455 -0.023762032 0.015102529 -0.020823875
0001c0 06 90 64 3c b7 31 80 bd 50 d2 d9 bd 36 42 50 3c
       0.0139503535 -0.06259482 -0.10635817 0.012711098
0001d0 99 1f b0 3d 85 4c c6 3b 57 89 8c 3d b4 0b 2e be
       0.08599777 0.0060516023 0.06862133 -0.16996652
0001e0 92 49 36 be 41 6e 7b 3d d7 8c ac 3d 8f f0 db 3d
       -0.17801502 0.061384443 0.084253006 0.10739242
0001f0 a1 58 a9 ba 1f ce b0 3d 81 53 c8 3d 8e 3e 67 bd
       -0.001292009 0.086330645 0.09781552 -0.05645614

action_model._discrete_distribution.branches.0.weight f4 [3, 128]
000000 69 fe 68 3d b7 08 90 3d 86 7e 23 3e 28 16 14 3e
       0.05688325 0.07032912 0.15966234 0.14461577
000010 65 f4 66 3d ac cf 80 bb ce a6 df bd 7f e9 3a 3e
       0.056385417 -0.0039310064 -0.10920487 0.18253134
000020 8b d1 62 bd 87 e0 aa bd 95 9e 04 be f9 9e 7d 3d
       -0.055375617 -0.083436064 -0.12951119 0.061919186
000030 9f 61 79 bd 64 a1 c1 bd 13 0b 8e bd f5 cd c0 bc
       -0.060884114 -0.09454611 -0.06935706 -0.023535708
000040 0a 2d a2 bd 2d 9d f0 3c 10 34 de bd 41 a7 f2 bc
       -0.07918747 0.029371822 -0.10849774 -0.029620769
000050 32 34 10 3c a9 ef f8 bc 1d 17 9f 3d 3f 5a e0 bb
       0.008801507 -0.030387716 0.077680804 -0.0068466957
000060 07 f7 13 bc 01 93 fa bd 82 01 63 bc e5 dc 96 3d
       -0.009031064 -0.1223507 -0.01385534 0.07366351
000070 48 d2 90 be 4b 32 17 3e 3e 89 a5 bd 0f 20 9d bd
       -0.28285432 0.14765279 -0.080828175 -0.0767213
000080 9f 7c 95 ba 77 90 61 bc d0 f0 eb 3d 37 56 40 3b
       -0.0011404938 -0.013767353 0.11520541 0.0029348263
000090 57 1c dd bd ab e4 cc bd 70 db b1 bd 5e fc 06 be
       -0.10796421 -0.100045525 -0.086844325 -0.13182208
0000a0 31 d1 fd 3d a7 6a c7 bd 3b 0a bf 3d 3d 8e 04 be
       0.12393416 -0.09737139 0.09328123 -0.12944885
0000b0 52 1d 55 be 54 1b 1e 3c b9 2d 96 bd 48 67 08 bc
       -0.20811966 0.00965007 -0.0733294 -0.008325405
0000c0 23 fe 70 bd 20 5d 2d be 9a 76 e2 bd 3b f5 72 be
       -0.058836114 -0.16930056 -0.11057778 -0.2372636
0000d0 ec 75 c2 b9 44 8a 82 3d ff b4 0e be 69 bf db bc
       -0.00037090422 0.06374028 -0.13936232 -0.02682467
0000e0 f5 48 1d bd 27 9c 44 bc ec 24 07 be 05 a3 84 3d
       -0.038399655 -0.01200012 -0.13197678 0.06476406
0000f0 35 c2 ca bc 58 56 e1 bd 94 d7 a9 bc 90 b4 2d be
       -0.024750808 -0.11002797 -0.020732678 -0.1696341
000100 76 ee 91 3b 23 49 83 3e d0 1a a6 3b 80 3f b9 bd
       0.0044534756 0.25641736 0.0050691143 -0.09045315
000110 76 72 2a bd 15 cf 9a 3d 9c 69 2a 3e 10 37 95 3d
       -0.041613065 0.07559029 0.1664185 0.07285893
000120 10 11 07 3e 3a 69 1f 3d dc 13 a7 3d 52 b5 00 bd
       0.13190103 0.03891871 0.08158085 -0.03142292
000130 05 44 13 3d 11 d9 0b 3e f7 23 d1 3d 29 a5 9c bd
       0.03595354 0.13657023 0.10211938 -0.07648689
000140 f0 44 84 3c 67 1e b5 3d 97 38 79 be f5 8c 5b bc
       0.016146153 0.088436894 -0.24337994 -0.013400306
000150 7b 17 ad bc 43 e1 c5 3d 30 ba 17 3e d6 79 3c 3d
       -0.02112936 0.09662106 0.14817119 0.04601463
000160 46 03 ff 3d 5c 27 48 3e 43 72 2a 3e 1f e4 05 be
       0.12451796 0.19546264 0.1664515 -0.13075303
000170 d0 e1 19 bd d2 96 3c bd 35 db 05 be e8 39 73 3d
       -0.037568867 -0.04604227 -0.13071902 0.059381396
000180 53 9e a6 bd 58 bb d0 bb ac 43 12 3e 15 31 02 be
       -0.08135667 -0.0063699894 0.14283627 -0.12714036
000190 c2 29 fe 3d 8d 06 89 bd d4 3b c2 3c 6c 0a ad bc
       0.124103084 -0.066907026 0.023710169 -0.021123134
0001a0 4b 1a 6e bd 0a 4b 78 3e 52 df 1a 3e f6 3f 0b bd
       -0.058130544 0.24247375 0.15124252 -0.033996545
0001b0 92 a8 11 3e c2 f4 64 bc 63 65 72 be f7 2d 4c be
       0.1422446 -0.01397437 -0.23671488 -0.19939409
0001c0 ab 27 4d 3e 5d 63 32 3e 86 bd b6 3e 87 6b 4d be
       0.20034663 0.17420717 0.3569147 -0.2006055
0001d0 d3 a3 ac bb 29 23 a0 ba 04 f9 39 3d c4 e0 10 3e
       -0.005268553 -0.001221751 0.045403495 0.14148241
0001e0 3b 24 e5 bd 86 d0 1a bd a7 ab 75 bd 7b fe 13 3d
       -0.11188551 -0.03779652 -0.059978154 0.036131363
0001f0 db f5 2a 3e c7 23 06 be c8 be 28 bd 36 b7 1e 3e
       0.16695349 -0.13099585 -0.04119757 0.15499577
000200 7e 57 15 3d 7f 25 19 bd 8c 03 32 be 7a fb 28 be
       0.036460392 -0.037389275 -0.17384166 -0.1650218
000210 5a 69 05 3d 9e 3c 94 bb 17 1b 36 3e 7d 9d 31 be
       0.032571174 -0.0045238277 0.17783771 -0.17345233
000220 9e 40 95 3d 27 13 6c bd 77 eb 28 3e 30 d2 4e be
       0.072877154 -0.057635453 0.16496073 -0.20197368
000230 f0 7a bd bd e5 34 fc 3d af e2 06 3e d5 84 23 3d
       -0.09251964 0.12314776 0.1317241 0.0399216
000240 ce 68 fb 3d 52 e5 af 3c 42 87 91 3d ea b7 b5 3d
       0.12275849 0.021471653 0.071058765 0.088729694
000250 9b 70 83 3d 29 5d da 3c 83 9c dc bd bf 04 41 3d
       0.06417962 0.02665575 -0.1077204 0.047123667
000260 f1 b0 91 3d 77 a0 c4 3d 1a fc 5c bb 3b ad 9c 3c
       0.07113827 0.09600919 -0.00337196 0.019125571
000270 0e 70 74 3e 88 f6 e0 bd ba a0 76 3d ae 8f 38 3b
       0.2387087 -0.10984522 0.060211875 0.0028161812
000280 cd 60 da 3c 9c 63 b0 3b 23 35 8c bd 7a 20 ae 3d
       0.026657486 0.005382968 -0.068460725 0.08502288
000290 04 b3 16 3e 32 38 99 3d 01 cf cc 3d be 4d 89 3d
       0.14716727 0.074814215 0.1000042 0.06704281
0002a0 44 49 dd bd 36 7f d6 3d 12 e1 16 be 3c a2 cc 3d
       -0.1080499 0.10473482 -0.14734295 0.09991881
0002b0 3b dd 2c 3e 75 e5 1f 3d 11 cb 81 3d 22 4a 93 bb
       0.16881268 0.039037187 0.0633756 -0.0044949213
0002c0 1a c0 b9 3d 9c ad 2f 3e d7 dd e3 3d 3b aa 8f 3e
       0.090698436 0.1715607 0.11126297 0.28059563
0002d0 4b b8 8d 3d af d0 40 3d f8 ef 02 3e 45 b3 9d 3d
       0.06919917 0.047074016 0.12786853 0.077002086
0002e0 d0 ea a2 3d 6f 08 ac 3d f4 c5 ae 3d 0a aa 0a 3c
       0.07954943 0.08400046 0.0853385 0.008463392
0002f0 bb d5 9f 3d e1 36 12 3e 6f 6e 95 3d e4 a3 11 3e
       0.07804438 0.14278747 0.07296454 0.14222676
000300 a9 54 17 3d 21 e5 4a be 47 a4 0e 3d 21 6c cd 3d
       0.036945973 -0.19813968 0.034824636 0.100303896
000310 8b 50 c6 3d 1a 89 a6 bd c0 d7 b6 bd 14 c8 2f bd
       0.09683331 -0.08131619 -0.0892787 -0.04291542
000320 09 dd 0f be ec 0d 9f bd b2 8d e7 bd 58 00 28 be
       -0.14049162 -0.07766327 -0.11306323 -0.16406381
000330 b4 7e 1c 3d 40 68 be bd 20 3e de bd e8 0c df 3d
       0.03820677 -0.09297228 -0.10851693 0.108911335
000340 6f ee 83 bd 0c 96 c9 bd 86 85 8f 3e b9 fb 23 3d
       -0.06441962 -0.09843072 0.28031558 0.040034983
000350 4d b6 d6 bb 1c 45 fb bd 90 81 2f be 1e d0 90 bd
       -0.0065524937 -0.12269041 -0.17139268 -0.07070945
000360 60 ce 1b be 07 5f 0b be 82 cb 2d be ce c8 31 3e
       -0.15215445 -0.13610469 -0.16972163 0.17361757
000370 6f 64 59 3d c4 ae 70 3d 3b 82 1e 3e 4c ce 6d bd
       0.053074297 0.05876042 0.15479366 -0.05805807
000380 05 7c 8e 3d 69 4f 51 3d 7d 45 68 be 25 be 26 3e
       0.069572486 0.051101122 -0.22682758 0.16283472
000390 63 96 3e be c9 0c f6 3c 28 5e ac 3c 44 3f 5d bc
       -0.18612055 0.030035393 0.021040991 -0.013503853
0003a0 67 ac bc 3d ef 90 85 be 2a 7d 37 be c0 1d b5 3d
       0.09212571 -0.26087138 -0.1791884 0.08843565
0003b0 3a 90 3c be f2 4c 6c bd 3a 17 3d 3e 39 94 30 3e
       -0.18414393 -0.05769057 0.18465891 0.17244042
0003c0 e3 59 54 be a4 6e 27 be 68 9d 06 bf c0 83 11 3e
       -0.20737414 -0.163508 -0.5258393 0.14210415
0003d0 d8 43 bb 3d 4f df 4a 3c f5 16 34 3d d5 bb 95 be
       0.091437995 0.0123823425 0.043967206 -0.29244867
0003e0 52 c4 2e 3d 1c fc 2c 3d 21 68 bc 3d dd 7b 76 3d
       0.042667694 0.042232618 0.091995485 0.06017672
0003f0 37 68 aa bd 2f 24 fb 3d 38 be 3f 3d 36 84 1e be
       -0.08320659 0.12262761 0.046812266 -0.15480122

action_model._discrete_distribution.branches.0.bias f4 [3]
000000 f5 bb 99 bd b6 9f 13 3e 44 e9 22 be
       -0.07506553 0.14416394 -0.15909296

action_model._discrete_distribution.branches.1.weight f4 [3, 128]
000000 16 a9 2d 3b 0e 0b 95 bd 4a e3 53 3d 78 fa a8 bb
       0.0026498488 -0.07277499 0.05173043 -0.0051568113
000010 73 e2 19 3d 1b 16 00 be e3 31 44 3b a6 4e 8e 3c
       0.037569474 -0.12508433 0.0029936961 0.017371487
000020 3a ee fa 3c e9 3f 23 bd 32 dc 40 3c ad 19 8e 3c
       0.030631173 -0.03985587 0.011771249 0.017346228
000030 93 8b d5 bd e5 7b fa bd e7 66 ff bc 68 bd 9e 3b
       -0.10427012 -0.12230662 -0.031176997 0.0048443563
000040 cd a0 2e 3d 22 f7 44 3b 25 88 4a bd 8e 97 ae 3c
       0.04263382 0.003005453 -0.049446244 0.021312501
000050 a4 2b 7b 3c 0b 6c f0 3c 6b 44 c5 3d 17 66 e8 3d
       0.015330229 0.029348394 0.0963219 0.11347597
000060 a7 eb c5 3c da aa d6 bd 28 49 af 3d 2f 7a 29 3d
       0.02416022 -0.10481806 0.08558875 0.04137629
000070 bc fb 15 bd eb 0f 00 3d d0 e7 f4 3c 41 d5 24 bc
       -0.036617026 0.03126518 0.029895693 -0.010060609
000080 f3 53 59 3d 16 06 e2 3c 7c d1 36 3d 32 b7 09 3c
       0.053058576 0.027590793 0.044633374 0.008405494
000090 1c 81 fc 3c 38 b4 c3 3c be 68 d3 3b bc 7d 47 bd
       0.030823283 0.023889646 0.006451695 -0.048703894
0000a0 9a 65 90 3d e4 7c f1 3b 3b 5a a1 3d 1c 53 b4 bd
       0.07050629 0.0073696245 0.07878538 -0.08804914
0000b0 14 ad cc bd 4c 77 f5 3d 3d e7 89 3c fd 00 66 3b
       -0.099939495 0.11985645 0.016833896 0.0035095804
0000c0 28 88 2a 3d 26 ea 9e 3c 11 3e 13 3d c3 b5 0c bc
       0.041633755 0.01939876 0.035947863 -0.008588257
0000d0 98 7a 8e 3c d7 80 d4 3c 48 20 e5 bd ad 7a fb 3c
       0.017392442 0.025940342 -0.11187798 0.030698145
0000e0 7f e2 0b 3d 3e 53 05 3c f6 7d 40 3c 25 30 30 3d
       0.03415155 0.008137522 0.011748781 0.043014664
0000f0 fa 60 bf 3c 53 32 71 3d 9a 0c bc 3c ad 23 48 3d
       0.023361672 0.058885884 0.022955228 0.048862148
000100 b7 e6 b8 bd fa bb 43 3c 32 8d 2d 3d b4 ab 1c 3d
       -0.0902838 0.011946673 0.042370982 0.038249686
000110 74 10 80 3c 73 a4 21 be 8e 04 a1 bd 86 8d 16 3e
       0.015632845 -0.15785389 -0.07862197 0.14702424
000120 b8 70 b1 bd 44 4c 7d be da 46 0e be c3 6f 7e bd
       -0.086640775 -0.24736124 -0.13894215 -0.062118303
000130 5d 69 95 3c eb 69 db bb 27 45 67 3d 4f 10 ba 3c
       0.018238718 -0.006695976 0.056462433 0.022712855
000140 9a 07 b4 3d 4b 67 c6 3d 00 75 b8 3b ad 8e 0c 3d
       0.087905124 0.0968767 0.005629182 0.034315754
000150 95 a6 40 be 9b 2b a8 bd e0 88 ea 3d fb 7d 22 3e
       -0.18813546 -0.08211442 0.11451888 0.1586837
000160 c7 ca e4 3d 2a 71 9f 3d b3 6a 0b 3e e8 f3 75 3b
       0.11171489 0.07785256 0.13614921 0.0037529413
000170 85 5b e7 3c b9 21 d0 bc cd f8 14 bd ab 8c 08 3e
       0.028241882 -0.025406705 -0.036370087 0.1333491
000180 ab 45 b7 3c 21 64 2b 3c 93 92 71 3d 7f 88 9d 3c
       0.022372087 0.010460884 0.058977675 0.019230125
000190 62 3e 99 3e ec ca 7a 3d 6b 3b e3 3c 12 f4 c8 bd
       0.29930407 0.061228678 0.027738294 -0.09812178
0001a0 f0 c7 a2 3c 97 f6 b8 3d 63 e7 39 bc 19 b7 f1 3c
       0.019870728 0.09031408 -0.011346671 0.029506253
0001b0 0c 30 01 3e b3 bc d0 bd 85 3c 15 be 54 e9 c7 bd
       0.12615985 -0.101922415 -0.14573868 -0.09761301
0001c0 2d 06 09 3e 51 a4 33 bc e3 80 ce 3b 88 1a 13 bb
       0.13381262 -0.010964469 0.0063019856 -0.0022446234
0001d0 3c bb ac 3a c6 e3 4d be 15 e7 ce 3c db b9 c0 3c
       0.0013178359 -0.2010642 0.025256673 0.023526123
0001e0 4f 70 81 bc 9b 16 80 3c 20 c5 89 3c b8 47 34 3c
       -0.015800623 0.01563578 0.01681763 0.011003427
0001f0 41 e8 6c 3c 88 9f ee 3c 5f 7a 42 3d 5b 1f 81 bb
       0.0144596705 0.029128805 0.047479983 -0.0039405054
000200 20 37 a0 3e 41 56 38 3a a6 af 87 3d 7b 75 3b 3e
       0.31292057 0.0007031896 0.06625299 0.18306534
000210 69 c6 0f be b5 e8 30 bd 21 83 11 3e 82 3f ab be
       -0.14040531 -0.043190677 0.14210178 -0.3344689
000220 0a 0e 3b be 65 9d 36 3e 6e f1 d5 3c 4b d5 66 3e
       -0.18267074 0.17833479 0.0261161 0.22542302
000230 13 d0 2b 3e e1 14 2a 3d 99 dc 17 bc a7 9d 2a be
       0.16778593 0.041523818 -0.009268903 -0.16661702
000240 39 11 a4 3d 31 d1 30 be 9d 92 c0 3d 7a aa d3 bd
       0.080110975 -0.172673 0.09402964 -0.1033525
000250 7e 60 82 bc 8b 59 4b be 61 8b 0e 3d f2 2d 08 3e
       -0.015915152 -0.19858377 0.03480089 0.13298777
000260 33 57 33 be aa f9 01 3d a9 96 2f 3e 27 33 03 bd
       -0.17513733 0.03173224 0.17147316 -0.032031205
000270 74 27 11 3f 51 9b 28 bd 6b a1 35 be 68 bf 26 3e
       0.56700826 -0.041163746 -0.17737357 0.16283953
000280 54 a0 d1 3d f5 fd 64 3d 48 76 b3 3d 4b 20 a9 bd
       0.10235658 0.055906255 0.08762795 -0.082581125
000290 3e f7 3d 3c c9 01 19 be ad 9b 12 3d 4c ee eb bc
       0.011594592 -0.14942087 0.035792995 -0.028800152
0002a0 60 ac fa bc 30 d1 e7 3b 79 46 f7 3b c0 8d 94 3d
       -0.030599773 0.0070744976 0.007546243 0.07253599
0002b0 e6 b1 b6 3d 7b 65 bf 3d 18 48 88 bd d4 2d 07 3a
       0.0892065 0.09345528 -0.06654376 0.000515667
0002c0 4c cb 57 bd 5a a7 7a 3c fe 62 77 bd 3a db b2 3d
       -0.052684113 0.015298689 -0.06039714 0.087332204
0002d0 77 33 a6 ba 58 c1 50 bd bc d2 97 3c e4 c5 a5 bd
       -0.0012680133 -0.050965637 0.018533103 -0.08094385
0002e0 3c fe e1 3c 39 f4 9c 3e 34 a8 11 3e 28 31 29 bd
       0.027587049 0.30655077 0.1422432 -0.041306645
0002f0 6d 15 df bd 2a 77 f7 bc a3 08 3b bd 09 31 52 3d
       -0.108927585 -0.030208189 -0.045662533 0.051316295
000300 5f a1 04 be 05 ff d5 bb d4 b4 23 be 3f 0e 02 be
       -0.12952183 -0.006530645 -0.15986949 -0.12700747
000310 c1 08 0d be 90 a9 91 bc c5 7c c2 be 3b 54 8b 3d
       -0.1377287 -0.017781049 -0.37985817 0.06803175
000320 a0 cb a3 3b a0 13 f4 3d 0f 6d 83 3e f3 a0 23 3e
       0.004998639 0.11917806 0.25669143 0.15979366
000330 c8 3a 9d bd 94 b3 2b 3e b5 12 8b bd 97 c6 a0 3a
       -0.07677227 0.16767722 -0.067906775 0.0012266216
000340 03 43 a3 3c 02 e0 0c 3d 83 b8 b4 bd ac 4e 10 bd
       0.019929415 0.034393318 -0.08824255 -0.035231277
000350 01 86 6e bc be 2f 29 be 54 8e 47 bd fb 53 56 3d
       -0.014558316 -0.16522118 -0.04871972 0.052326184
000360 cb d6 27 bb b0 0d dd 3d 28 95 f5 bd 3f d9 1f be
       -0.0025610204 0.10793626 -0.1199134 -0.15610217
000370 61 a1 9f bd 2f 13 19 3e ff 49 30 3e 64 88 8d 3d
       -0.077944525 0.14948724 0.17215727 0.0691078
000380 23 a8 10 be 4e 19 a8 3d 57 a6 62 bd 26 7d 10 be
       -0.14126639 0.082079515 -0.055334415 -0.1411024
000390 b1 60 ea 3c 1d 2d 64 bb a3 34 9f 3c 51 66 1b 3d
       0.02861056 -0.0034816929 0.019434279 0.037939373
0003a0 a9 c2 19 bd ee 4d 60 bd 8e fa 06 3c 33 b6 09 bd
       -0.037539158 -0.05476182 0.008238448 -0.033621024
0003b0 7e ef 82 bd a5 09 67 bd 60 58 87 3e d2 55 ad 3e
       -0.06393336 -0.056405682 0.26434612 0.33854538
0003c0 2a a5 fe be a7 0a bd bd a9 44 18 3d 65 e4 5b 3e
       -0.49735385 -0.092305474 0.037174854 0.21473844
0003d0 41 42 93 bc d1 2a 87 bd a0 71 f7 bd 5a ac 00 3b
       -0.017975928 -0.065999635 -0.12082219 0.001963398
0003e0 57 78 cd 3e cd b9 30 bd 85 23 28 be 01 c4 bc bd
       0.40130875 -0.043145943 -0.164198 -0.09217072
0003f0 e0 c4 62 3d 3d e3 ef bb 37 d0 70 be 5a fc 27 3d
       0.055363536 -0.00732079 -0.23516928 0.041012146

action_model._discrete_distribution.branches.1.bias f4 [3]
000000 4d 90 6c 3d 6d 61 05 be 5c 00 a7 bb
       0.057754803 -0.13025446 -0.0050964784

exp_avg f4 [128, 29]
000000 73 4b 2d bb d8 6b 71 37 00 00 00 00 ee 54 c5 b9
       -0.0026442676 1.4389829e-05 0.0 -0.00037638046
000010 18 11 e5 39 2b fc 48 bb 00 00 00 00 ec 5e 98 b9
       0.0004369102 -0.0030667882 0.0 -0.00029062422
000020 9b 7a 87 b9 b6 6a 1b bb 00 00 00 00 7e ef d1 b9
       -0.00025840555 -0.0023714728 0.0 -0.00040042022
000030 1e 22 92 b9 c3 15 1a bb 00 00 00 00 f4 07 43 b9
       -0.0002787271 -0.0023511506 0.0 -0.00018599612
000040 e2 08 92 b9 eb 18 1a bb 00 00 00 00 0c 77 34 b9
       -0.00027853908 -0.0023513387 0.0 -0.00017210486
000050 db 0b 92 b9 8c 18 1a bb 04 00 00 80 46 9b 1f b9
       -0.00027856123 -0.0023513166 -6e-45 -0.00015221265
000060 1e 22 92 b9 c3 15 1a bb 04 00 00 00 56 04 05 b9
       -0.0002787271 -0.0023511506 6e-45 -0.00012685484
000070 00 00 00 00 b0 41 55 39 66 8e 94 35 00 00 00 00
       0.0 0.00020337733 1.1068303e-06 0.0
000080 c0 5b 60 b7 84 79 89 39 d8 20 72 b8 00 00 00 00
       -1.3372803e-05 0.00026221212 -5.7727884e-05 0.0
000090 c0 17 5b 37 6e 2a d5 39 06 ea 53 b9 00 00 00 00
       1.3058947e-05 0.00040658138 -0.00020209709 0.0
0000a0 96 e5 14 b8 34 8c 85 39 80 b6 52 b8 00 00 00 00
       -3.549977e-05 0.00025472196 -5.0237868e-05 0.0
0000b0 40 18 54 35 b2 9e 85 39 70 4a 53 b8 00 00 00 00
       7.901144e-07 0.00025485974 -5.0375646e-05 0.0
0000c0 e8 81 d8 b6 8b 66 85 39 30 89 51 b8 04 00 00 00
       -6.4524247e-06 0.00025444137 -4.995725e-05 6e-45
0000d0 20 49 cb b5 34 8c 85 39 80 b6 52 b8 04 00 00 80
       -1.5145961e-06 0.00025472196 -5.0237868e-05 -6e-45
0000e0 50 f6 3b b6 00 00 00 00 49 92 db bb a2 d6 85 38
       -2.8008544e-06 0.0 -0.006700788 6.381913e-05
0000f0 00 00 00 00 35 37 85 ba d8 19 96 b8 8a 22 d7 bb
       0.0 -0.0010163548 -7.157371e-05 -0.0065653967
000100 00 00 00 00 80 d1 6d ba 5b b3 6a bb 88 42 48 bb
       0.0 -0.00090720505 -0.003581247 -0.0030557234
000110 00 00 00 00 ea 8b 81 ba 28 a9 1a b9 a6 a5 d4 bb
       0.0 -0.0009883617 -0.000147496 -0.0064894734
000120 00 00 00 00 e8 93 0b ba d4 c0 1b b9 eb 9c d4 bb
       0.0 -0.0005324469 -0.00014853786 -0.0064884326
000130 00 00 00 00 16 27 f5 b9 57 aa 1a b9 9f a5 d4 bb
       0.0 -0.00046759163 -0.00014750041 -0.00648947
000140 04 00 00 80 35 0b df b9 28 a9 1a b9 a6 a5 d4 bb
       -6e-45 -0.00042542224 -0.000147496 -0.0064894734
000150 04 00 00 80 94 f5 b8 b9 00 00 00 00 a1 d5 f4 3a
       -6e-45 -0.00035278185 0.0 0.0018679389
000160 d6 61 3f b7 00 00 00 00 2c e0 92 39 be 79 65 39
       -1.1407266e-05 0.0 0.0002801431 0.00021884494
000170 a7 a7 d6 3a 00 00 00 00 b6 a0 81 39 5a ef 34 3a
       0.0016376869 0.0 0.00024724536 0.0006902121
000180 2f df 98 3a 00 00 00 00 00 14 8f 39 ae e8 ac 38
       0.0011663194 0.0 0.00027289987 8.244939e-05
000190 51 88 e8 3a 00 00 00 00 7c 7d 19 39 38 19 ad 38
       0.0017740821 0.0 0.00014637964 8.25398e-05
0001a0 47 85 e8 3a 00 00 00 00 9a e1 05 39 b5 c0 ab 38
       0.0017739915 0.0 0.00012767912 8.18981e-05
0001b0 cf 9a e8 3a 04 00 00 80 fe 2a f8 38 ae e8 ac 38
       0.0017746332 -6e-45 0.000118335694 8.244939e-05
0001c0 51 88 e8 3a 04 00 00 00 b9 6d ca 38 00 00 00 00
       0.0017740821 6e-45 9.652548e-05 0.0
0001d0 ab 27 94 3b 9f a0 1d b7 00 00 00 00 87 35 3f 3a
       0.0045213304 -9.395327e-06 0.0 0.0007294048
0001e0 f0 eb b4 39 1d 8a 88 3b 00 00 00 00 8a ba 30 3a
       0.00034508063 0.004166855 0.0 0.00067416637
0001f0 4b b5 1b 3b 69 fc 0b 3b 00 00 00 00 99 4a 31 3a
       0.0023759182 0.0021360165 0.0 0.000676313
000200 b4 03 12 b9 f8 68 98 3b 00 00 00 00 9b 03 cc 39
       -0.00013925025 0.004651185 0.0 0.00038912598
000210 ca 72 12 b9 72 6c 98 3b 00 00 00 00 a8 7c af 39
       -0.00013966407 0.0046515996 0.0 0.00033471477
000220 44 9a 13 b9 ae 75 98 3b 04 00 00 00 ab 6c a4 39
       -0.00014076481 0.0046527004 6e-45 0.00031361482
000230 b4 03 12 b9 f8 68 98 3b 04 00 00 80 bd bc 84 39
       -0.00013925025 0.004651185 -6e-45 0.00025317623
000240 00 00 00 00 dd 91 c2 ba 74 b8 9f 35 00 00 00 00
       0.0 -0.0014844496 1.1900106e-06 0.0
000250 a8 c5 7a b9 48 4c 13 b9 67 00 b0 ba 00 00 00 00
       -0.0002391549 -0.0001404743 -0.0013427854 0.0
000260 7a 0e 7a b9 02 2d 1f b9 50 84 ae ba 00 00 00 00
       -0.00023847251 -0.00015180188 -0.0013314579 0.0
000270 af 3b 52 b9 87 43 62 38 0b 7c c9 ba 00 00 00 00
       -0.00020049395 5.394549e-05 -0.0015372051 0.0
000280 4b 60 0b b9 37 21 62 38 fc 7a c9 ba 00 00 00 00
       -0.00013291945 5.3913533e-05 -0.0015371735 0.0
000290 9b d6 dc b8 aa 43 61 38 0e 74 c9 ba 04 00 00 00
       -0.00010530391 5.3707197e-05 -0.001536967 6e-45
0002a0 2d 51 da b8 87 43 62 38 0b 7c c9 ba 04 00 00 80
       -0.0001041017 5.394549e-05 -0.0015372051 -6e-45
0002b0 42 b5 a8 b8 00 00 00 00 20 87 9f 3b 54 ab 59 35
       -8.044626e-05 0.0 0.004868403 8.1088115e-07
0002c0 00 00 00 00 bb 22 44 3a 77 86 57 3a 1e 9d 84 3b
       0.0 0.0007481982 0.0008221636 0.00404705
0002d0 00 00 00 00 dd a0 40 3a 2e ba d6 3a c3 be 53 3b
       0.0 0.0007348189 0.001638239 0.0032309748
0002e0 00 00 00 00 d4 79 28 3a ea 9d 85 38 75 77 9d 3b
       0.0 0.0006426845 6.371348e-05 0.0048055
0002f0 00 00 00 00 7a e5 d7 39 44 9b 85 38 80 77 9d 3b
       0.0 0.0004117897 6.370855e-05 0.0048055053
000300 00 00 00 00 7f 71 af 39 40 2a 84 38 44 7d 9d 3b
       0.0 0.00033463162 6.30212e-05 0.0048061926
000310 04 00 00 80 cf ac a9 39 ea 9d 85 38 75 77 9d 3b
       -6e-45 0.00032362944 6.371348e-05 0.0048055
000320 04 00 00 80 eb 9e 85 39 00 00 00 00 ef 01 fa b8
       -6e-45 0.0002548614 0.0 -0.00011921289
000330 cd b2 6e b5 00 00 00 00 30 f5 8c b7 4c af 5c 38
       -8.89221e-07 0.0 -1.6803475e-05 5.2615345e-05
000340 7b 1b 35 b9 00 00 00 00 66 04 13 b7 4d fa 3e 37
       -0.00017271742 0.0 -8.762907e-06 1.138316e-05
000350 4e df 09 b9 00 00 00 00 66 0a b7 b7 4f ba 9b b7
       -0.00013148526 0.0 -2.1820142e-05 -1.8564197e-05
000360 c1 f0 d4 b8 00 00 00 00 74 f1 f8 b6 f7 95 9b b7
       -0.00010153792 0.0 -7.419085e-06 -1.8547273e-05
000370 d7 f9 d4 b8 00 00 00 00 e2 df 08 b7 85 d3 97 b7
       -0.00010155484 0.0 -8.1583585e-06 -1.80991e-05
000380 71 ea d5 b8 04 00 00 80 37 dd e9 b6 4f ba 9b b7
       -0.000102002996 -6e-45 -6.969694e-06 -1.8564197e-05
000390 c1 f0 d4 b8 04 00 00 80 69 88 c0 b6 00 00 00 00
       -0.00010153792 -6e-45 -5.737926e-06 0.0
0003a0 cc 14 d8 3a 75 b0 a7 36 00 00 00 00 f4 62 12 39
       0.001648569 4.99753e-06 0.0 0.00013960508
0003b0 15 4c c0 39 79 a9 a8 3a 00 00 00 00 38 31 e5 38
       0.0003667778 0.001286789 0.0 0.000109287386
0003c0 1e 99 41 3a df df 6f 3a 00 00 00 00 b2 8c 18 39
       0.0007385182 0.0009150486 0.0 0.00014548263
0003d0 64 3c 4a 3a 95 3c 67 3a 00 00 00 00 da 45 94 38
       0.00077146874 0.0008820978 0.0 7.070201e-05
0003e0 b4 35 4a 3a 45 43 67 3a 00 00 00 00 7a 25 8c 38
       0.0007713691 0.00088219746 0.0 6.682701e-05
0003f0 dd 87 49 3a 1e f1 67 3a 04 00 00 80 a8 5c 76 38
       0.0007687787 0.000884788 -6e-45 5.8737263e-05

exp_avg_sq f4 [128, 29]
000000 a3 7a 1e 39 94 7f 0e 39 00 00 00 00 6e fd 81 36
       0.0001511374 0.00013589702 0.0 3.8740027e-06
000010 32 44 13 38 f0 3a 85 39 00 00 00 00 00 aa e3 35
       3.5111043e-05 0.0002541165 0.0 1.6962294e-06
000020 78 91 6d 39 77 8b 84 38 00 00 00 00 8c 1b 8f 36
       0.00022656273 6.320228e-05 0.0 4.264939e-06
000030 00 80 69 37 34 27 90 39 00 00 00 00 d7 50 58 35
       1.3917685e-05 0.0002749503 0.0 8.058391e-07
000040 fd ac 08 39 11 66 23 39 00 00 00 00 54 b3 5a 36
       0.00013034414 0.00015582914 0.0 3.2588914e-06
000050 93 2c a3 37 47 41 8b 39 c6 40 c8 2e a3 11 1a 35
       1.945187e-05 0.0002656078 9.106453e-11 5.7395135e-07
000060 c9 c5 84 38 51 bf 6b 39 c6 f4 46 2d e6 2c 0c 36
       6.331091e-05 0.00022482617 1.13093476e-11 2.088776e-06
000070 00 00 00 00 cc bb 29 37 2a e0 29 36 00 00 00 00
       0.0 1.011691e-05 2.5313443e-06 0.0
000080 ab ed 53 34 62 0f 87 36 5d 18 0f 37 00 00 00 00
       1.973737e-07 4.0251043e-06 8.529137e-06 0.0
000090 d0 d6 dc 33 e7 01 cd 36 1e 76 d2 36 00 00 00 00
       1.02836225e-07 6.1096976e-06 6.2722384e-06 0.0
0000a0 dc 1c 53 34 90 6a 6d 36 ba 73 17 37 00 00 00 00
       1.9661405e-07 3.537778e-06 9.027246e-06 0.0
0000b0 43 00 3a 33 5a 21 a3 35 2d 57 3e 37 00 00 00 00
       4.3306738e-08 1.2154153e-06 1.134518e-05 0.0
0000c0 bd bc d4 33 e1 7d 74 36 b8 e1 14 37 ed 71 f3 2e
       9.9063506e-08 3.6432104e-06 8.874042e-06 1.1070598e-10
0000d0 91 ba 09 33 9f 40 bb 35 34 a8 3d 37 6b fd 4e 31
       3.206748e-08 1.3951393e-06 1.1304441e-05 3.0120997e-09
0000e0 81 ab 76 33 00 00 00 00 9b f5 4c 39 ab 69 1a 39
       5.743232e-08 0.0 0.00019546451 0.00014725949
0000f0 00 00 00 00 75 1d da 36 0c ae 85 37 1c 02 ae 39
       0.0 6.5003355e-06 1.5935882e-05 0.00033189438
000100 00 00 00 00 6c 40 25 36 6b 50 9e 39 0a 9a 46 38
       0.0 2.4624414e-06 0.00030196024 4.735034e-05
000110 00 00 00 00 b3 b0 e7 36 8b 54 d5 36 8e 4e b3 39
       0.0 6.904907e-06 6.3577368e-06 0.00034200068
000120 00 00 00 00 ef 28 98 35 88 46 ac 38 83 73 8a 39
       0.0 1.1336796e-06 8.2147366e-05 0.00026407474
000130 00 00 00 00 41 00 96 36 76 df 06 38 92 4c a6 39
       0.0 4.470378e-06 3.2156204e-05 0.00031719037
000140 ab 1e d1 2e 5d c5 5d 35 cf ae 39 38 b2 82 9f 39
       9.5096674e-11 8.2616117e-07 4.427024e-05 0.0003042422
000150 94 83 4d 31 1e ba 13 36 00 00 00 00 ed 52 f1 37
       2.990622e-09 2.2013041e-06 0.0 2.8768054e-05
000160 ba 2c 6a 37 00 00 00 00 06 2a 26 35 d8 1c 38 37
       1.3957901e-05 0.0 6.190097e-07 1.097397e-05
000170 9e 5e 05 38 00 00 00 00 1c 03 93 34 50 c0 0c 38
       3.179779e-05 0.0 2.7383146e-07 3.3557706e-05
000180 88 d2 25 37 00 00 00 00 9f 2c 32 35 f2 d7 ff 36
       9.8837845e-06 0.0 6.63751e-07 7.6247316e-06
000190 e6 11 13 38 00 00 00 00 1e d4 0f 34 d8 9b 6d 37
       3.50642e-05 0.0 1.339508e-07 1.4162586e-05
0001a0 71 7d f6 37 00 00 00 00 ec b1 ea 34 c3 25 0a 37
       2.9383898e-05 0.0 4.3715352e-07 8.234233e-06
0001b0 27 ec 13 38 3a 1a b3 2e e0 bb d4 33 80 35 bc 36
       3.5267465e-05 8.1446364e-11 9.9061936e-08 5.609065e-06
0001c0 eb 69 1d 38 e1 63 86 31 2d a2 8e 34 00 00 00 00
       3.753036e-05 3.911268e-09 2.656756e-07 0.0
0001d0 1a fb e0 38 80 9f be 38 00 00 00 00 c1 20 35 36
       0.00010727924 9.089615e-05 0.0 2.6990167e-06
0001e0 5a 03 5b 38 d3 8e 17 39 00 00 00 00 10 fa 8f 35
       5.221679e-05 0.00014453688 0.0 1.0727108e-06
0001f0 6e 29 33 39 26 e4 04 38 00 00 00 00 e5 7f 4c 36
       0.00017086204 3.1683732e-05 0.0 3.0472813e-06
000200 67 96 22 38 4c 3c 26 39 00 00 00 00 1b ae 10 35
       3.8763883e-05 0.00015853456 0.0 5.3897537e-07
000210 1a f7 97 38 ac c7 03 39 00 00 00 00 4d 27 20 36
       7.246267e-05 0.00012567517 0.0 2.3864734e-06
000220 bc c5 7c 38 80 79 12 39 13 90 fd 2e a3 61 d2 34
       6.0265636e-05 0.00013968907 1.1530701e-10 3.9186588e-07
000230 98 26 be 37 65 98 39 39 d4 27 46 31 27 06 a7 35
       2.2667737e-05 0.00017699746 2.8835432e-09 1.244426e-06
000240 00 00 00 00 9c 11 dd 36 66 99 09 37 00 00 00 00
       0.0 6.5883632e-06 8.201552e-06 0.0
000250 f9 bb 6b 34 41 d9 81 36 74 83 32 37 00 00 00 00
       2.1954465e-07 3.8697913e-06 1.0640233e-05 0.0
000260 57 ad e5 33 b2 97 00 37 34 9a ec 36 00 00 00 00
       1.0695174e-07 7.664714e-06 7.0512997e-06 0.0
000270 20 0a 7c 34 a1 11 5a 36 c2 c9 3e 37 00 00 00 00
       2.3473012e-07 3.2494793e-06 1.1371858e-05 0.0
000280 2a 75 4a 33 f5 2a 18 36 61 72 4d 37 00 00 00 00
       4.713835e-08 2.267477e-06 1.2245583e-05 0.0
000290 8a a6 2b 34 46 52 bf 36 f4 da 1a 37 cd 55 a6 2c
       1.5986203e-07 5.7018215e-06 9.230094e-06 4.7275296e-12
0002a0 56 de fd 32 27 64 31 34 8a 07 73 37 43 44 16 30
       2.9554183e-08 1.6520845e-07 1.4485684e-05 5.466669e-10
0002b0 e7 64 9f 33 00 00 00 00 97 3b c8 38 f5 75 2f 38
       7.4223685e-08 0.0 9.547843e-05 4.1833107e-05
0002c0 00 00 00 00 1d 3c 16 36 6a 91 12 38 77 e0 d5 38
       0.0 2.2386732e-06 3.494454e-05 0.00010198441
0002d0 00 00 00 00 9b 4e 8d 35 97 c8 be 38 04 b2 4a 38
       0.0 1.0528196e-06 9.097269e-05 4.8326343e-05
0002e0 00 00 00 00 d8 fb 16 36 cb 21 d5 37 61 be eb 38
       0.0 2.2498334e-06 2.5407315e-05 0.00011241134
0002f0 00 00 00 00 a1 b7 fd 34 dd a7 67 37 94 ab 00 39
       0.0 4.725853e-07 1.3807757e-05 0.00012270949
000300 00 00 00 00 fa d1 bf 35 b6 13 dc 37 e2 52 eb 38
       0.0 1.429172e-06 2.6235222e-05 0.00011221111
000310 3c 50 3a 2d 3c cb b0 34 6d a6 65 36 07 6e 0c 39
       1.05906915e-11 3.2930427e-07 3.4220532e-06 0.00013392429
000320 78 43 84 30 ae 80 44 35 00 00 00 00 62 04 16 37
       9.62344e-10 7.3202943e-07 0.0 8.941717e-06
000330 17 65 0c 35 00 00 00 00 6a 00 95 33 b2 7b d8 36
       5.230117e-07 0.0 6.9384285e-08 6.4517017e-06
000340 16 cc 36 36 00 00 00 00 5e 65 50 33 c5 ea fb 36
       2.7238907e-06 0.0 4.8520967e-08 7.5077137e-06
000350 03 33 fe 35 00 00 00 00 ce 42 93 33 00 ba 73 36
       1.8939321e-06 0.0 6.8573726e-08 3.6318088e-06
000360 d0 21 c0 36 00 00 00 00 dd 2d 08 33 5c d3 93 36
       5.725982e-06 0.0 3.170668e-08 4.405547e-06
000370 6b f5 9f 36 00 00 00 00 23 78 77 33 6e 16 1a 35
       4.7671397e-06 0.0 5.7618433e-08 5.740211e-07
000380 da 5d 16 37 cb 7d 54 2a bc e5 e3 32 ab 81 06 36
       8.962548e-06 1.8873026e-13 2.653075e-08 2.0043033e-06
000390 db 59 f5 36 4d 2f aa 2e c9 b6 58 33 00 00 00 00
       7.3120295e-06 7.739107e-11 5.045766e-08 0.0
0003a0 64 9b 5a 39 31 ef aa 39 00 00 00 00 4e 7a c3 35
       0.00020847988 0.00032603138 0.0 1.4564228e-06
0003b0 54 fc e5 38 fc 46 eb 39 00 00 00 00 ad 51 67 35
       0.00010966571 0.0004487558 0.0 8.617306e-07
0003c0 61 4c d1 39 d2 2b 19 39 00 00 00 00 2d 5d 05 36
       0.00039920493 0.00014607541 0.0 1.987278e-06
0003d0 96 33 81 38 52 d7 fe 39 00 00 00 00 da b9 22 35
       6.160808e-05 0.0004860708 0.0 6.062015e-07
0003e0 af 44 00 3a 57 31 73 38 00 00 00 00 1e c8 37 36
       0.0004893047 5.7981666e-05 0.0 2.7385609e-06
0003f0 60 7a 60 38 c7 10 03 3a 8d c8 a0 2f 87 c3 02 35
       5.3519732e-05 0.00049997534 2.924633e-10 4.8713304e-07
