results/ppo/Racing/Racing-1328.pt (torch, 603118 bytes, 48 tensors)

discrete_act_size_vector f4 [1, 2]
00000000: 0000 4040 0000 4040
3.0 3.0

network_body._body_endoder.seq_layers.0.weight f4 [128, 29]
00000000: ea97 8a3e 6030 6fbe a937 593e 1c77 ae3d
00000010: 6af8 e03d 55ee 97bd 6dbd 53bd a0cf 51bd
00000020: 3c98 6b3e 2168 62be 0db7 d1bd 760c aabd
00000030: 3def 95bd d039 153d 6701 993d 2328 68bc
00000040: 1253 353e 5905 203e 08ba eb3d aa89 603e
00000050: f0f8 dc3d 787d e8bd 0920 55be 36d0 5b3d
00000060: 1549 57be b8fc a2bc e7ca f8bd 566e b8bd
00000070: aa3b f93b 7df1 d93d 40a7 0a3d 4463 c8bd
00000080: 0725 06be bd07 263e dc6d 97bd 971e d6be
00000090: 991f 13bd e37c b53c 63a7 46bd 36e2 82bd
000000a0: f89c efbe d308 393e 5472 8dbd 4fc8 573e
000000b0: ce4c d23e 872e 8dbe ea62 a0be 2577 413d
000000c0: 7283 73be 8f81 a13d 0665 4a3e 9e41 423e
000000d0: e6d5 5f3e 3811 b03d 9161 563c 7cd9 5abd
000000e0: 93fc ba3e 0357 24be 1fbb c73d 4762 45be
000000f0: b0b5 9cbc d98a edbc 3d50 8abe bd73 073e
00000100: 7d6d 23be f7aa 053e a82a 4f3e f03a bcbe
00000110: 1ac3 cb3b 2781 833e c870 97be a265 9cbc
00000120: e0ac 9abc 922a bebd 0d92 94be eb9f 433d
00000130: cb64 753e c9a6 d93e cdef 41be 0727 583e
00000140: 62f1 083d 0007 65bd 7fcb 35be aa12 833d
00000150: ea46 673d 513b 09be 2257 563e dc1a 06bd
00000160: db46 0fbf 22ea 19be b083 0bbe 1f31 87be
00000170: 6530 f1be a817 8f3d 907f 9b3e c97a 71be
00000180: 6b51 a6be 529f efbb 27bc aebe 691b 51be
00000190: 8438 6b3e 2a5f 103e 31ae 9a3e 6f96 263e
000001a0: 4658 08bf 5d8b 823d ddc9 843d cba9 32bd
000001b0: d34e b6be 6a45 8e3e 0f11 913d ec49 a23c
000001c0: 2ce8 21be 8f2d 3e3d ab20 3ebd 97f5 fd3d
000001d0: 27f8 153e 7a8c 6c3e 157b 513d 23f2 1abc
000001e0: d5b9 073e b90b 913d 1137 8e3d 33db 533d
000001f0: 2a59 6c3d 30f0 173e da9b b7bd fd00 82be
00000200: 1e08 e0be 6267 753d 9c93 de3d bde1 923e
00000210: 3ec2 9f3d 62b2 213d ede3 903c 75b7 133e
00000220: 4494 d33c a80c eabe 5a3c ba3e 5115 c7bc
00000230: 6535 d5bd 6127 ad3d 0115 76be d405 a7be
00000240: 525d b73e 82f5 963e 2b57 2d3b 7f1c fc3d
00000250: 48f6 43be c86a a43e 5541 afbe acc3 5d3e
00000260: 0c36 a43d 310f ca3d 237d ecbb fa7b 4abd
00000270: d153 02bd 8cf7 a73e 59df 853d 0fb0 88bd
00000280: 0e81 f4bd f027 253d b2c8 d8bd fe29 62be
00000290: b7d4 b63d 4de2 933d 42cb 6bbe 41a7 3b3e
000002a0: 596e 423e 5888 093e 2e46 893e 037a 88be
000002b0: 7760 c6bd 037b 71be 689c e83c ac61 f1bc
000002c0: d5a3 84be 791b 593e 24c8 c83d 0804 29be
000002d0: 8518 0ebe 90fc fb3c 0145 45be 459a c4bc
000002e0: 11e3 f93d 6dc4 8f3c f350 c93e e2c9 f53d
000002f0: 6bf2 513e 89b3 ad3d e303 8f3e ff82 90bd
00000300: fe81 113e 2745 963e 93a3 19bd f191 723d
00000310: 16ee 9dbe 9917 843b b343 91bd f790 b33c
00000320: 05a9 4c3e 3254 883e 33ec 35be 8765 cbbd
00000330: 8f9a aa3d 84e0 9cbc 942e 2e3e 79b4 b9bd
00000340: b403 b93e 714b 72be 8cc0 c43e 82fe 0e3d
00000350: cb7f 2dbe 8c27 aa3e 628e e33d 58a4 b8be
00000360: 53b3 d23d 6978 e03d 5354 f53c 95a3 993d
00000370: 7e4f c23e 502b ebbe c5de 39be 5a4e 1fbe
00000380: bdd8 b63d 7de0 9abe c2aa 303e 0084 a43e
00000390: 4883 e6bd 6d5a f93e 1415 173c 4ee4 9a3c
000003a0: f0ad 3cbd f821 bf3d 2364 223e dc6e 933e
000003b0: a95f 90bd 6a87 043e f16e d0bd 4456 9f3e
000003c0: f479 fd3e 298a 963d 868f 0ebf e807 253e
000003d0: b4ba c13e df48 39bc 5d8f 81bd 2bfb 78be
000003e0: 8bbe c6bd 7307 a73d 32e4 183e d39e 09bf
000003f0: 035e 6e3e ac06 283d d855 9cbd d05e cc3d
0.27069026 -0.23358297 0.21212639 0.08518812 0.10984881 -0.07418505 -0.051694322 -0.051223397
0.23007292 -0.22110035 -0.10239992 -0.08303158 -0.07321022 0.036432087 0.074709706 -0.014169726
0.1770747 0.1562704 0.11510092 0.21927515 0.107896686 -0.11352056 -0.20813002 0.053665362
-0.21023972 -0.019895896 -0.121480756 -0.0900542 0.0076059895 0.10641763 0.03385091 -0.097845584
-0.13100062 0.1621389 -0.07394001 -0.41820213 -0.035918806 0.022154277 -0.048499476 -0.063908026
-0.46799445 0.18069772 -0.06906572 0.21072505 0.41074222 -0.2757456 -0.31325465 0.047232766
-0.23780611 0.078860395 0.197651 0.18970343 0.2185894 0.08597034 0.013084785 -0.053430066
0.36520824 -0.16048817 0.097524874 -0.19275771 -0.019129604 -0.028996872 -0.27014342 0.13227744
-0.15959735 0.13053499 0.20231116 -0.36763716 0.0062183263 0.25684473 -0.29578233 -0.019091431
-0.018881261 -0.092854634 -0.29017678 0.04775993 0.2396423 0.4251006 -0.18939133 0.21108638
0.033433326 -0.05591488 -0.17753409 0.06400044 0.056464113 -0.13401534 0.20931676 -0.03274046
-0.5596749 -0.15030721 -0.13624454 -0.26404664 -0.47107235 0.06986934 0.3037076 -0.23581995
-0.32483992 -0.0073126936 -0.34127924 -0.20420612 0.22970778 0.14098802 0.30211022 0.16268323
-0.53259695 0.06374238 0.06483815 -0.04361896 -0.35607013 0.27787334 0.07083332 0.01981064
-0.15811223 0.046430167 -0.046417873 0.12400358 0.14645444 0.23100463 0.05114277 -0.009457144
0.13254483 0.07082314 0.06944097 0.051722717 0.05770222 0.14837718 -0.08965273 -0.2539138
-0.43756193 0.059913047 0.10867998 0.2868785 0.07800721 0.03947676 0.017686808 0.14425452
0.025827534 -0.4571278 0.3637417 -0.024302157 -0.10410575 0.084547766 -0.2403145 -0.32621634
0.35813385 0.29484183 0.0026449661 0.12310123 -0.19136918 0.32112718 -0.34229532 0.21656674
0.08018121 0.09866179 -0.007217066 -0.04943464 -0.031818215 0.3280605 0.06536741 -0.066742055
-0.11938678 0.04032129 -0.105851546 -0.22086331 0.08927291 0.07220898 -0.23026755 0.18325521
0.18987407 0.13430917 0.26811355 -0.26655588 -0.09686368 -0.23582081 0.028394893 -0.029465519
-0.25906244 0.21201886 0.09803799 -0.16505444 -0.13876541 0.03076008 -0.19264604 -0.023999343
0.122015126 0.017549718 0.39319572 0.12001397 0.20502631 0.08481509 0.27932653 -0.070562355
0.14209744 0.29349634 -0.037509512 0.05922121 -0.30845708 0.0040311334 -0.07092991 0.02191971
0.19986351 0.26626736 -0.17765884 -0.09931474 0.08330261 -0.019150026 0.17009956 -0.090676256
0.36135638 -0.23661591 0.38428152 0.034910686 -0.1694328 0.33233297 0.11111142 -0.36062884
0.1028811 0.109604664 0.029947435 0.07501904 0.37951273 -0.45931482 -0.18151386 -0.15557232
0.08928058 -0.30249396 0.17252639 0.32131958 -0.11255509 0.48701802 0.009221334 0.018907692
-0.046064317 0.09332651 0.15858512 0.28795516 -0.07049496 0.12942281 -0.101774104 0.31120503
0.49507105 0.07350571 -0.5568775 0.16116297 0.37837756 -0.011308878 -0.063261725 -0.24314563
-0.09704312 0.08155718 0.149308 -0.5375797 0.2327805 0.041021988 -0.07633561 0.099790215

network_body._body_endoder.seq_layers.0.bias f4 [128]
00000000: 3a9f ce3c 5f17 a43c 49a3 6c3c dd95 e43c
00000010: 67c6 cf3c 737d d73c 438b 203d 6619 703d
00000020: 36a0 643d 8bb9 0f3c e265 723c 4b02 a03c
00000030: c7a9 243d a376 413d fbf2 bc3c 2cae 93bc
00000040: 391d fd3c 9e9a bd3c 45cb a63c 73db 603d
00000050: f01e 423d b405 163d 9df7 0fbc 2638 be3c
00000060: 17ea 133d b5cd 613d 547b 343d 15d8 4c3c
00000070: a04a fd3c a4c5 66bc b2e9 3a3c 2266 1f3d
00000080: fbcd ad3c 505e 033d 7ae7 043d 8450 453d
00000090: e6d7 9d3c be43 713c d7ac f83c cff4 113d
000000a0: 1c30 973c b0a2 a8bb a7d8 aa3c 4195 533d
000000b0: f1b2 f2b9 1a93 3e3d 0923 0f3d 1730 013d
000000c0: 7bc0 663c 90a6 483d 6615 a0bd efcb ec3c
000000d0: 4222 9cbc b41f 1f3c 870e c5bc b4c7 053d
000000e0: 577b 1f3d 6efc c83c d5d6 1a3d 9448 f63c
000000f0: 145f fe3c 309f d63b 4834 d43c 84b6 933c
00000100: fd20 c63c f65a 55bd fc2f 163d 7f55 3e3d
00000110: 6683 273d d44d a13c 3182 6d3d 40aa 3a3d
00000120: ccd8 a93d 207c f83c 323f 893c df1f 393d
00000130: 26c7 1e3d 0012 013d eda1 853c e319 0ebc
00000140: 0f6c 803c adeb 7e3c c668 1c3b f0ad 013c
00000150: 44ba 1d3d e73c f13c 6a73 f93c c148 233d
00000160: edbd a93b f1c0 e53c 8637 943d 4383 123c
00000170: 6e3c 063d a4ee 363d df4a 233d d80e 0e3d
00000180: 131d 923c 8dd5 d83c 4452 e83c 9db6 c93c
00000190: 44a5 af3c 452f db3c 7c2e 4f3d 7040 ac3c
000001a0: bfc6 fc3c dbe7 063d 171c 0f3d fd97 393d
000001b0: 5e26 a53c 89ee 5b3d 6609 ea3c 8618 aa3c
000001c0: f60e ffbc 5242 da3c ec3b 473d 508a 423d
000001d0: 91cf fa3c c9a6 5d3c 24a9 4b3c 6380 fc3c
000001e0: df60 313d 0dc5 4e3d 60de 8a3d e6b6 c93c
000001f0: 9fa4 8dbc 81ed 5a3d 3c2e 0f3d 7abb 2d3a
0.02522241 0.020030675 0.014443227 0.027903492 0.02536316 0.026304936 0.03919531 0.05861797
0.05581685 0.008772264 0.014794799 0.019532343 0.040200975 0.04723228 0.02306508 -0.018027388
0.030897724 0.023145016 0.020360598 0.054896783 0.047392786 0.036626533 -0.008787063 0.023220133
0.036111917 0.05512782 0.044062927 0.01250269 0.030919373 -0.014085207 0.011408256 0.03891576
0.021216383 0.032072365 0.032447316 0.04817249 0.019267987 0.014725624 0.030355854 0.03563386
0.018455558 -0.005146347 0.020855261 0.05165601 -0.0004629116 0.046527006 0.03494552 0.031540003
0.014083977 0.04898697 -0.078165814 0.028905837 -0.019059304 0.009712148 -0.024054779 0.032661155
0.038935985 0.02453443 0.037802536 0.030063905 0.031051196 0.0065497383 0.025903836 0.018031366
0.024185652 -0.0520887 0.036666855 0.046468254 0.040896796 0.019690432 0.05798549 0.04557252
0.08293304 0.030332625 0.016753767 0.04519641 0.03876414 0.031511307 0.016312564 -0.008673164
0.015676526 0.015559119 0.002386616 0.007915005 0.038507715 0.029447986 0.030450542 0.039864305
0.0051801116 0.028046103 0.07237153 0.008942428 0.032772474 0.04466118 0.039866325 0.034682125
0.01783613 0.026469016 0.02835954 0.02462321 0.02144111 0.026755938 0.05058144 0.02102682
0.030856488 0.03293596 0.034938898 0.045310963 0.020159896 0.05369428 0.028568935 0.020763647
-0.031135064 0.026642952 0.04864113 0.047495186 0.030616554 0.013528534 0.012430463 0.030822938
0.043305274 0.05048089 0.06780696 0.024623346 -0.017290412 0.053449158 0.034956202 0.00066273625

network_body._body_endoder.seq_layers.2.weight f4 [128, 128]
00000000: 8bd6 18be acbe b33d 5160 123d 30c4 4abe
00000010: b5d8 e43c f572 4a3d fb22 e03d 7ead d1bd
00000020: b270 bebd 418c c3bc c1aa 883c 2b2e 6c3e
00000030: 65d2 a9bd ee52 303e b938 a8bd 4235 22bd
00000040: 98f7 43bd f998 9e3d 2e73 1a3e b769 adbd
00000050: c996 823d 48be 9f3d 52a0 bebc bbeb 3b3d
00000060: 03ec 193d bd6a 073e 4b8d 893d 1057 a8bd
00000070: 9698 3ebd 1a7f a0bd 60fd 123d 31a0 01be
00000080: 660e 9cbd 70ce f4bd 8e7f d63d 381f 2cbd
00000090: a72b 19bc 74de 9abd 2da3 85bd db28 9cbd
000000a0: ed2c 85bd 59b2 5b3e 143c fcbc 410a b33c
000000b0: 1d6f 27be 33c2 1f3d 14f6 813d 2be0 3dbe
000000c0: 84de 2abe 00c7 cabb 428a f73c 6b4f d73d
000000d0: f639 23bd 173d 2ebe 2fe9 e8bd 3767 81bc
000000e0: 392b 6ebe c7ab 09bc e459 abbc a932 883c
000000f0: c7b7 b03d 2cfe 39bd 02cc d1bd 98f4 43bb
00000100: 96d8 a53d 07a6 8ebc ebe6 04ba 3ee3 5e3e
00000110: c50c ac3d b829 3cbd ae66 003e b2e7 773e
00000120: 34d6 6c3e 1af0 0a3e 6bae ae3c 4270 3c3e
00000130: 3a32 b2bc 663c b5bd eee1 13bc d4fc b83c
00000140: 907c 6c3d a68e 073d 429f 983d b1ff c7bd
00000150: 9fc3 f2bd b0d3 593d 6157 6e3d 8f4b 9d3d
00000160: 15dd cb3d 9a42 f2bc 8171 f5bd c31e 32be
00000170: 9b2b ff3d e4ca cc3d cd59 12be 68b6 823d
00000180: 4861 25bd f18d 3b3d 0707 d23c 3919 273d
00000190: 05bd 393e 7126 24be 7d35 d23d 0929 39be
000001a0: 767e fa3d c3b3 6bbd 25d2 67bb c402 dc3c
000001b0: d443 1c3e e284 163d 3697 2abd 29e9 6b3b
000001c0: 77bd eebd 404a 8f3d b053 99bd e622 f13d
000001d0: bd96 a5bd 6e62 023e 541e eabd ed70 0a3d
000001e0: 5ba6 d53d 44ad 433d 5fd2 303e 231b c9bd
000001f0: b303 ddbc 5c65 02bd e6ad 433e 5861 9dbd
00000200: 1b53 ad3c d5ef 24be bdff 52be 4035 133e
00000210: 67f3 0b3d 6985 91bd ca68 963c 0f81 1d3e
00000220: 9b8d f2bc 44b8 28bc 8cf3 843d 4ae5 f73a
00000230: 6a69 5c3c 3bee 46be 734b 473d 6e15 19bd
00000240: 86ef 2bbc b71b e23c 66fc 363c f854 253e
00000250: 7551 c43d 58d5 2f3c 6169 e33b c8ff 20be
00000260: ba25 19be 9e15 e8be 0226 acbd bd7c 413e
00000270: 2577 8ebe bc95 9839 b3bb 97bd c313 3cbe
00000280: 6f5c 0abb ab30 613e 72c1 e23c 9c60 19be
00000290: 8273 62bd 82bb 0dbe 860f 84bc 5879 1f3d
000002a0: da8b a3bd 524e 59bd b79a 2abd 753f 8b3d
000002b0: eda9 083e d92f 65be f6cd 563d 1d5e 3f3e
000002c0: 1a7c 8ebe 37aa d8bc 3d25 893c e107 31be
000002d0: cdb6 123e b674 bcbc 8a56 94bd 43d4 a33d
000002e0: 9eea d43d 6bc0 ca3d a6dd 99bd c227 443d
000002f0: a14c dd3d bd2c b03d 090a b4bd 1751 1ebd
00000300: 2e79 673e 8989 5bbe 8f08 b03d 1f80 ab3d
00000310: be98 9cbd 795d 623d 4d3d 39be c0d8 f13d
00000320: aa31 213e d7c1 68be fd33 bd3e 360c 82be
00000330: 3101 82bd 5df1 e2bd 79df 0b3e 2750 763d
00000340: 51d2 96bd 4f30 00bd f7d0 943d fd4e b5bd
00000350: 96d9 6c3e 6eaa a03d 4283 93be 40de 21be
00000360: e486 623d 377c 44bd 22dc 503e b343 9c3e
00000370: 2ecc 20be 0a54 c63d 6ed4 5c3e d6c8 4d3e
00000380: a82a cb3a e91f 3a3d da30 d63d 0f42 973d
00000390: 103a e6bd c7a7 433e ae20 18be 9631 813d
000003a0: fabc 30bd 4971 5abd 60e4 2d3e b32f d23b
000003b0: 2ed6 09bd 95da 7bbd 9db2 afbd 1bbf efbc
000003c0: 0cd1 b7bd 0dde 7abd c0ff dd3d e9c4 68bd
000003d0: fe98 ab3d 370d 02be 18ee dabd 8856 c3bd
000003e0: 342a d2bd d59b 8bbd 9682 11be 07c0 c83c
000003f0: 7e44 ccbd 6174 9dbd 3e7b f03d 4827 133d
-0.14925592 0.08776602 0.035736386 -0.19801402 0.027935365 0.049426038 0.10944172 -0.10238169
-0.09298839 -0.02387059 0.016682984 0.23064487 -0.08292083 0.17219135 -0.08213944 -0.03960157
-0.047843546 0.07744021 0.15083 -0.08467429 0.06376416 0.07799965 -0.023269806 0.045879107
0.037578594 0.13224311 0.067164026 -0.08219731 -0.046532236 -0.07836743 0.03588617 -0.12658764
-0.07619934 -0.11953437 0.10473548 -0.04202196 -0.009348786 -0.07561961 -0.06525264 -0.0762498
-0.065027095 0.21454753 -0.030790366 0.021855475 -0.1635098 0.039003562 0.06345764 -0.18542545
-0.16686445 -0.0061882734 0.030217294 0.10513195 -0.039850198 -0.17015491 -0.11372601 -0.015796287
-0.23258676 -0.008402771 -0.020916887 0.01662572 0.08628803 -0.045408413 -0.102439895 -0.0029900428
0.08097951 -0.017413152 -0.000506981 0.21766374 0.08400873 -0.045938224 0.12539169 0.24209478
0.23128587 0.13568154 0.021323403 0.18402198 -0.021752466 -0.08849411 -0.009026034 0.022581495
0.05773598 0.033095025 0.07452251 -0.09765566 -0.11853718 0.053180397 0.0581888 0.07680427
0.099542774 -0.029572774 -0.1198454 -0.17394547 0.12459489 0.09999636 -0.14292069 0.063824475
-0.040375978 0.045789663 0.025638117 0.04079554 0.18138511 -0.16030289 0.10264108 -0.1808206
0.12231152 -0.05754448 -0.0035373059 0.026856788 0.1526025 0.03674782 -0.041648112 0.0035997129
-0.11657231 0.06996584 -0.07486665 0.117742345 -0.08085392 0.1273286 -0.11431566 0.0337991
0.104321204 0.04777266 0.1726775 -0.09819629 -0.026979303 -0.031834945 0.19109306 -0.076845825
0.021157792 -0.16107114 -0.20605369 0.14375782 0.034167673 -0.07105524 0.018360514 0.15381263
-0.029608538 -0.010297839 0.064917654 0.0018912938 0.013452867 -0.19426815 0.04865594 -0.037373953
-0.010494119 0.027601106 0.011168575 0.16145694 0.09585849 0.010732017 0.0069400524 -0.15722573
-0.14955798 -0.45328993 -0.08405687 0.1889524 -0.27825275 0.0002910326 -0.07408848 -0.18366913
-0.0021112224 0.21991222 0.027680133 -0.1497826 -0.055285938 -0.1384106 -0.016120683 0.03893408
-0.07985659 -0.053053208 -0.041651454 0.06799213 0.13346072 -0.22381534 0.052442513 0.18688245
-0.27829057 -0.026448352 0.01674139 -0.17288162 0.14327545 -0.02300487 -0.072430685 0.0799947
0.10396312 0.09899982 -0.07512979 0.04788948 0.108056314 0.08602283 -0.087909766 -0.038651552
0.2260482 -0.21439184 0.085953824 0.083740465 -0.07646321 0.055264924 -0.1808979 0.1180892
0.15741602 -0.22730194 0.36953726 -0.2539994 -0.063478835 -0.11081193 0.13659467 0.060135033
-0.073643334 -0.03129607 0.072664194 -0.088529564 0.23129877 0.07845007 -0.2881108 -0.15807438
0.055304423 -0.047970023 0.20396474 0.305204 -0.15702888 0.09683998 0.2156541 0.20096144
0.0015500383 0.04544059 0.104585364 0.073856466 -0.11241543 0.1910697 -0.14856216 0.06308286
-0.043148972 -0.053330693 0.1698165 0.0064143776 -0.033651523 -0.061487753 -0.0857899 -0.02926593
-0.089754194 -0.06124692 0.10839796 -0.056828413 0.0837879 -0.12700354 -0.10689944 -0.09537989
-0.10261956 -0.06816832 -0.14209971 0.024505628 -0.09974001 -0.07688213 0.117422566 0.035926133

network_body._body_endoder.seq_layers.2.bias f4 [128]
00000000: a32a 233d d920 453b f31f d33c 130f 87bb
00000010: f3ea d8bc 5d48 9c3c c16b 903c 3e1c 733c
00000020: 3db7 0cbc 218e cf3c 9b35 aa3c d4c8 083d
00000030: 6415 fabc 635b baba fb85 58bc ef1b bc3c
00000040: cca2 c13c d2fc 0f3d a942 d73c ba1f 913c
00000050: 348c 9e3b 2ee1 d13a 6ce2 9a3c dfdb a53b
00000060: 4a03 4dbc c5d1 333d ee1e 143d f8b1 c53c
00000070: 2139 0bbc 46fc dfbc 837c b23c ba81 e8bc
00000080: c5dd dd3c 3af6 cc3c 6350 2ebd 594d ed3c
00000090: 340d 86bc e27b 503d 50e6 083d 4567 c2bb
000000a0: ce33 133d bc38 34ba 219e a03c 0334 00bd
000000b0: e466 bc3c 6a19 c23c 3918 823c f62b 2cbb
000000c0: 450e 253d bbdb bd3c 7ffc 4c3c 5489 e6bb
000000d0: cc22 2a3d 9c87 c33b 2714 c13c a64b 17bd
000000e0: da10 3c3d e4b6 5c3c c5a7 4b3c 41b3 d53c
000000f0: 3abe 0c3d 07f4 1e3c a831 b33c 6ecf df3c
00000100: 00c8 a93c f62f 23bb a64c 4d3c e241 be3c
00000110: 2a60 b53c 52c1 063d 1973 65bc 640b 153c
00000120: 2274 313d 34b3 fb3c d70a 083d fb53 ee3c
00000130: 90c8 f23c 3e3e 353d 5ebc 933c dd11 513c
00000140: 3c14 9c3c bf15 603c 5203 c4bc b826 583b
00000150: 8b37 0c3d 688e 043d f20f d3bb 7b28 163d
00000160: 492c 323d babd f3bc cf35 d33c 03af 333d
00000170: 12ae e43c 8fb8 c5bc 7036 803c 3fba 72bc
00000180: 64d1 ec3c 5eb2 023d 0340 5ebc 2006 b33c
00000190: 87e2 a13c b8bf 313d ca4c e63c 06c1 963c
000001a0: 121d 1d3d 0dd6 ee3c 5c2e 163d 9e66 bc3c
000001b0: a83f 1bbd bcc8 0e3d 8da1 a43b 874c 133d
000001c0: 7cfa f6bc e03b f4bc a4f0 873c 4090 1fbd
000001d0: 5758 29bb bfef 96bc e7b1 5fbc 6992 0f3d
000001e0: aaea c53c 9376 113d a86a 05bc b343 7f3c
000001f0: d331 f93c c29d 1c3d 0ac9 c7bb 8e59 54bc
0.039835583 0.0030079393 0.02577207 -0.00412167 -0.02647922 0.019077474 0.017629506 0.014838276
-0.008588609 0.025336327 0.020777514 0.03339465 -0.030527778 -0.0014217909 -0.013215537 0.022962539
0.023637198 0.035153218 0.026276903 0.017715324 0.004838491 0.0016012543 0.018906794 0.005061611
-0.012512991 0.043901224 0.03616231 0.024132714 -0.008497507 -0.027341973 0.021787887 -0.028382171
0.027083287 0.025019754 -0.04255713 0.028967546 -0.016363718 0.050899394 0.033422768 -0.005932721
0.035938077 -0.0006874909 0.019606652 -0.031299602 0.02299828 0.023693759 0.01588069 -0.002627132
0.04029681 0.023176065 0.012511372 -0.0070354138 0.04153709 0.0059670936 0.02356918 -0.03693738
0.04591451 0.013471339 0.012430136 0.026086451 0.0343611 0.009701735 0.021874264 0.02732059
0.02072525 -0.0024900413 0.012530481 0.023224775 0.022140581 0.03289921 -0.014004492 0.009096954
0.043323644 0.0307251 0.033213463 0.02909278 0.029636651 0.044248812 0.018034156 0.012760607
0.019052617 0.01367706 -0.023927364 0.0032982063 0.034232657 0.03236237 -0.00644111 0.0366597
0.043499265 -0.029753555 0.025782494 0.043868076 0.027915034 -0.024135856 0.015650958 -0.014814912
0.028908439 0.031908385 -0.013565066 0.021853507 0.019761337 0.043395728 0.028112788 0.018402588
0.0383578 0.029154802 0.036665305 0.02299815 -0.037902504 0.034859404 0.005024141 0.035961654
-0.030148737 -0.029813707 0.016594239 -0.038955927 -0.0025840008 -0.018424867 -0.013653255 0.035051737
0.024159748 0.03551347 -0.008143105 0.015580106 0.030419266 0.038236387 -0.006096964 -0.012960805

action_model._discrete_distribution.branches.0.weight f4 [3, 128]
00000000: b536 07bd 3e84 173c 7b73 bebc daa5 a63c
00000010: 7c1d 4abd 389f 73bb 6a7c 1abc 5b9c 4fbd
00000020: 9672 d33d 00fe 78bc 9532 18bd a085 fdbc
00000030: 4ae5 44bc 508f 6abc e172 81bd 4fc2 993d
00000040: 408b 65bc 892b 99bc be25 c3bc 9c6e 67bc
00000050: bf01 71ba 42f6 e43c d6d7 173c f699 bf3c
00000060: c320 a93d d7c4 b8bc f273 1fbc d303 843d
00000070: a692 3a3d 5ade bf3d cf4a c03d afe7 043d
00000080: 5e84 45bd 7a1e b0bc 0f8b 29bd 74a1 96bc
00000090: 16be e63b 235b 493c 1493 233d ef91 90bd
000000a0: a962 4abb 3289 4fbd 1683 a9bc 26f0 183c
000000b0: 23bb 25bd a29e b2bc 03d5 8a3c a36b 8d3d
000000c0: 5352 c8bc 68c4 18bd 33b5 b53d bdf5 5e3b
000000d0: a411 32bc e639 a53d 2305 a8ba 30ba bb3c
000000e0: b0d7 aebb 2d6f 2d3d 2635 1c3d 3cc4 ebbb
000000f0: ed90 93bc 4a32 2c3c ba86 30bd cb81 a3bc
00000100: 0819 9fbc 9ed0 643d 679b 0bbd 94ff cf3a
00000110: df2f c53a 3cdd 34bd d0a0 713d 122e 693d
00000120: 4477 11bd c4be f6bc 4a9c 04bd bdc4 61bc
00000130: 535b 0fbd 53e3 78bd b53e f53c 8d27 0c3e
00000140: f4e2 a5bc 4aeb c63c bbcc e23b ef81 8abc
00000150: fcab 86bc 82f9 8dbc 7841 0a3d 66fe 6abb
00000160: e243 f1bc d69a 80bc 28b0 50bc e6b0 d2bc
00000170: 6467 36bb 490a 28bc 1d3e 393d 5172 57bd
00000180: 22a5 f8bc 4d41 4bbc dae5 5a3d 84e2 52bc
00000190: bea9 ad3d 46d8 69ba 6f02 7c3d e8ab b53c
000001a0: af8e 08bd 9b29 fdbc 7f21 dabb 6ac9 813d
000001b0: 1901 043d 97a1 54bc 31b0 5a3c dbe1 c539
000001c0: d726 443d 9ae4 063d aa9d 503d 374a 8e3c
000001d0: c8a0 643d e6a7 9e3d d149 a43c 2112 e7bc
000001e0: 5b01 41bd b054 1fbd fd30 4d3d 0134 903c
000001f0: 948c 303d 79a2 15bd dcbf 283d 391b 7abc
00000200: f44c 463d 06e6 1cbc 8ea0 2e3c 98b5 92bd
00000210: eac7 d4bb a2c8 823c dcb3 e53a aadb d43c
00000220: a388 0abe 15dc 3c3d 4520 193d b68b 483d
00000230: 3fb9 c7bc 3ded 243b 7d89 b83c a8c5 00be
00000240: 1701 453d 652c 4c3d c0a6 0d3d 66ff c2ba
00000250: 496f 80bb e696 b2bd f19c ebbc d7ad e5bb
00000260: bb81 e3bd 23b8 163d cb85 f23c aee6 debd
00000270: efd4 7bbd c6c7 b9bd e67a f7bd 91f4 39bd
00000280: cfc6 263d 7e2a 8d3c 88a1 983c c1d7 1c3d
00000290: 0ace 44bd b7b6 d13c 9b8e 03bd bc26 7c3d
000002a0: 5c23 193d bdc6 043d 84f1 753c 00fb 44bd
000002b0: 7c64 803d a40a 1c3d 508e 11bb 03be acbd
000002c0: b68e 3e3d 0e62 71bc 13e4 c0bd f17b c5bc
000002d0: ab7e 643d 7829 87bd e48c 9e3b 39f4 e9bc
000002e0: 7b14 393d b581 33bd 60f3 27bd 849d 2f3d
000002f0: 968f 003d 201e 1e3d 854d 2e3d ec88 563d
00000300: a60a ec3c dbb4 0dbe 913c 6b3d 452f 0f3d
00000310: d8f3 0e3d 070f 783d b64d bdbd 3e7e a1bd
00000320: e46e 753d 49ff 793d 28d4 783d 9185 c43c
00000330: 38ce 483d ccce 8e3d 4f0f 51bc 649c edbd
00000340: d24b c93c 402c 2b39 c086 8abd 78b3 f4bc
00000350: 1320 0d3d 47bd 733d 33e0 66bd ffd6 5c3d
00000360: 968b 263d dae4 86bc 3fdf 743d 8865 993d
00000370: ff88 0a3d 40b3 8039 2051 72bd 051b b43c
00000380: 0484 0a3d cf0c 4b3d a908 76bd 912e 163d
00000390: e321 9fbd a500 333d d6fe e5bc c810 3fbd
000003a0: ed11 933d a109 633d df2f 433d 7e63 9bbd
000003b0: 00cf 54bd 1dd7 d13c 827a 4c3c 801e a73c
000003c0: 35b2 aebd 4745 48bd 3e8a 7fbd a893 68bd
000003d0: 1bb2 89bd aad6 cabd 496e 9abc 29ca 0f3d
000003e0: 3cd9 683d 37df 243d 6e51 96bd 2e6d 703c
000003f0: 851e 4cbd 99df 5e3d a719 bebd 6a3f debc
-0.033011157 0.009247838 -0.023248425 0.020342756 -0.049344525 -0.003717376 -0.009429077 -0.05068622
0.1032459 -0.015197277 -0.037157614 -0.030947506 -0.012017557 -0.014316395 -0.063207395 0.075077645
-0.014010251 -0.018697517 -0.023821708 -0.014125492 -0.00091936806 0.027949456 0.009267768 0.023388844
0.08258202 -0.022554798 -0.009732233 0.06446042 0.04555001 0.09368582 0.093892686 0.032447513
-0.04822194 -0.021498907 -0.041392382 -0.018387534 0.007041703 0.012289795 0.039935187 -0.070590846
-0.003088156 -0.05066795 -0.02069239 0.0093346 -0.04046167 -0.021804158 0.016947275 0.06905296
-0.024453318 -0.037296683 0.08872452 0.0034020983 -0.010868464 0.08067684 -0.0012818914 0.02291593
-0.0053357705 0.042342354 0.038136624 -0.007195024 -0.018013442 0.010510037 -0.043097235 -0.019959351
-0.019421116 0.055863015 -0.03408375 0.0015869015 0.0015044174 -0.044156298 0.058991253 0.0569287
-0.03551413 -0.030120261 -0.03237561 -0.013779816 -0.034999203 -0.06076367 0.029937128 0.13686962
-0.020249821 0.024282116 0.0069213784 -0.01690766 -0.01643943 -0.017330889 0.033753842 -0.00358572
-0.029451314 -0.015698832 -0.012737311 -0.025719117 -0.0027832622 -0.010256358 0.04522525 -0.052599255
-0.030352179 -0.012405706 0.05344186 -0.012871388 0.084796414 -0.0008920472 0.06152576 0.022176698
-0.0333392 -0.030903628 -0.006656825 0.06337245 0.03222761 -0.012977979 0.013347671 0.00037743044
0.047888603 0.032932855 0.05093161 0.017369373 0.055817395 0.07746868 0.02005473 -0.028206887
-0.047120433 -0.038899124 0.050095547 0.017602922 0.043102816 -0.0365319 0.041198596 -0.015265279
0.048413232 -0.009576326 0.010658396 -0.071635425 -0.006493558 0.01596481 0.0017524916 0.02598365
-0.13528685 0.046108324 0.03738429 0.048961364 -0.024380324 0.002516582 0.022526497 -0.125754
0.048096742 0.049847025 0.034582853 -0.001487714 -0.003919516 -0.08720188 -0.028761359 -0.0070092487
-0.111087285 0.0367967 0.029604813 -0.108838424 -0.061482366 -0.09071307 -0.12083988 -0.045399252
0.040716942 0.017232176 0.018631712 0.038291696 -0.048048057 0.02559982 -0.03211842 0.061560377
0.037387237 0.032416094 0.015011195 -0.048090935 0.06269166 0.038096085 -0.002221007 -0.08434679
0.04652282 -0.014732851 -0.09418502 -0.024106951 0.055784862 -0.065997064 0.004838573 -0.028558837
0.045185547 -0.04382487 -0.041003585 0.042874828 0.031386934 0.03860295 0.042554397 0.052376673
0.028813671 -0.13838522 0.057430808 0.03495719 0.034900516 0.060561206 -0.09243338 -0.07885407
0.059920207 0.061034475 0.060749203 0.02398947 0.04902479 0.06973037 -0.0127599975 -0.11602095
0.024572287 0.00016324315 -0.06763983 -0.029870734 0.034454416 0.05950668 -0.056366157 0.053915974
0.040660463 -0.016466547 0.059783217 0.07490069 0.033822056 0.00024547614 -0.059159398 0.02198554
0.033817306 0.049572762 -0.060066853 0.036665503 -0.07770135 0.043701787 -0.028075617 -0.046646863
0.071811534 0.055429105 0.047653075 -0.07587336 -0.051955223 0.02561527 0.01248038 0.020400286
-0.08530084 -0.048894193 -0.062387697 -0.05678144 -0.06723424 -0.09904225 -0.018851416 0.035104904
0.056847796 0.040251937 -0.0733975 0.014674468 -0.049833793 0.054412458 -0.092822365 -0.027129848

action_model._discrete_distribution.branches.0.bias f4 [3]
00000000: ec2b f2ba 84d4 c33c 15e2 42bd
-0.0018476225 0.023905046 -0.04757889

action_model._discrete_distribution.branches.1.weight f4 [3, 128]
00000000: 8448 ff3a 1839 253c 962b 243d 41d6 283a
00000010: 00ae 5abd 7f6a 763d 5ffe f43b 58d7 823c
00000020: 6554 c43c 1c1f 163d 8183 923c 555f fe3c
00000030: 5e5d e2bd 9a95 9cbd c531 c2bd 5ac1 3b3d
00000040: 8f23 133c 6c71 1c3d 86e1 233d 0cff a63d
00000050: 3e45 01bd 5494 6a3c 9276 c53c cf9a ad3c
00000060: 15f4 dd3b d3c7 0e3d 6229 f73c abb9 7a3c
00000070: 1973 f6bd c273 09bc 6122 f33c 4d22 97bd
00000080: 9527 883c 4710 5c3a 0dee afbc bc8a 273c
00000090: b48b cfbd b8b2 b23c fc4a d53d adde cfbc
000000a0: 57be 563d 4cbb 063d 7c70 063d 9fe3 013c
000000b0: 56a4 51bb 87d6 193d e3ee 13bb 7d80 9abc
000000c0: a5c0 d63c 8542 493d e06b bb3c c737 5cbd
000000d0: dc1c f33c ef77 97bc 4473 223c fa10 973b
000000e0: a339 733c 8729 083d e921 663d bbe6 bd3c
000000f0: 822c fb3c 3cb6 ab3c 7fa5 673c 4267 3fbb
00000100: eafb 46bc 176e d0bb da10 12bc 3147 cfb9
00000110: 13ed 8b3b cb14 6d3c b213 403c e9df 9f3d
00000120: e6dc c83c e60f 963c ec66 5a3c ec4f e73c
00000130: 5c6d d03c 7ab1 2b3d 2e5d 463c d924 073d
00000140: 31d6 eb3a cda0 813d 36cd d4bc f63e e63c
00000150: bbc2 883c f855 033c aefa 77bd c075 9c3c
00000160: c93a 003d fd73 92bb 9a73 3d3d 5599 f83b
00000170: ba7b 2f3c 5510 22bd fe8d 0f3d f782 b3bd
00000180: 4ad2 e03a ab21 2b3c a856 d8bc c659 823c
00000190: 98ba bf3c d66c 8b3a 5bfa 853d a5ea b1bc
000001a0: 9a92 e8ba fb46 6d3c 1b03 063d 075b 9a3a
000001b0: 7c6e 09bd 149d ab3c 15ff 0b3d f766 0fbc
000001c0: 27c9 cbbc eeb2 5fbd 6388 e33c 15e8 0fbd
000001d0: bdd7 babb 65f9 883c e9df 43bb e239 dc3c
000001e0: ec9f 7a3c b0d2 ad3c 8f78 92bc e7e3 5e3b
000001f0: deb4 f73c 7cf8 b03c 30ed b6bb 48bb a0bd
00000200: 6fa5 20bd 7228 a73d 0e0e 933c ebf0 b2bc
00000210: e6aa c03d 2014 083b d3d9 a1bd 06d1 b83d
00000220: 15ab eebc 95da bbbb c33b 1f3c 3ced 1ebd
00000230: 2ab8 c13c 794c fd3d 6ad9 433b 9c05 d0bd
00000240: 128c 35bd 2558 113c 14d2 79bc 6b33 9b3d
00000250: 080a 4fbd 21cd d33d 4917 0e3e 5c29 843c
00000260: 0798 8a39 713d bcbd 1a76 0dbd 0ea5 27bd
00000270: b33a 823c 132b 8e3c 0d86 84bd ad1c 8a3c
00000280: 3fbd 44bd 371f b5bd f32f 133d b7b7 8abd
00000290: 9ba2 a03d ac6d 7abd 1e82 6d3d ece7 a83d
000002a0: d8d5 6e3c cd81 003e 9a94 45bd 4097 163d
000002b0: d951 ffbc 4fe4 6b3c f7b0 9dbd bab4 603d
000002c0: e657 84bd 5911 d6bd c0c1 56bd d1f8 0a3e
000002d0: 5b99 22bc 81c7 b4bd 8906 0dbd b8be e93d
000002e0: 3f49 afbd 5401 053d 608e 4a3c 39b9 c0bc
000002f0: 185b 6fbd a0f6 793c 3869 68bd 64d1 1cbd
00000300: a59a 40bd ac89 e2bb db7e 96bc acf5 dabd
00000310: 580b 39bd 02a2 fbbc 41e5 9e3d 9440 60bd
00000320: b201 03bd 2cf4 b8bb 0a63 a0bc 91cf 50bc
00000330: 536b 92bc 8c3e 42bd 517d 23be f72d 4cbd
00000340: 3163 b8bd e817 163d 7b69 033e 36c6 8c3d
00000350: 6ced 6bbd 7886 a2bd 83f1 c13d ec29 36bc
00000360: 9fdf 8cbd 61a8 563d 1600 cd3c 8d13 7bbd
00000370: de3f 34bc 554d 9e3d c19f acbd 3b10 893d
00000380: b42f 8fbd 9b6b c9bc 8c31 e83c 5cf6 a6bc
00000390: 5596 72bc 0e57 543a 163f db3c 433c 1bbe
000003a0: 23e1 06bd 8f21 89bd 6a9d 12bd 6566 d9bc
000003b0: c002 003d 77f2 4cbd 3afa 683d a756 cfbd
000003c0: 427e 5b3c 80f7 253d a453 6f3d 97b4 c13d
000003d0: 51a7 ea3d 3e69 5ebb ad46 a53d 9661 a6bd
000003e0: cc7a 94bd fcdf 54bd 916e ad3c 9f97 be3d
000003f0: 2bdd 163c 52dd 52bd dddf c73c f651 af3d
0.0019476567 0.010084413 0.04008063 0.0006440618 -0.053388596 0.060160156 0.0074766125 0.015971825
0.023966024 0.036650762 0.017884972 0.031051317 -0.11052965 -0.07645722 -0.09482149 0.04583869
0.008980646 0.038194105 0.040009998 0.08154115 -0.031560175 0.014317591 0.02410439 0.021191983
0.0067734816 0.034858536 0.0301711 0.015303056 -0.12033672 -0.008389415 0.02967948 -0.07379589
0.016620437 0.00083947595 -0.021475816 0.010225948 -0.10134068 0.021813735 0.10414693 -0.025374735
0.052427616 0.032893464 0.032822117 0.007927804 -0.003198882 0.037558105 -0.0022572808 -0.018860096
0.026214907 0.049135704 0.022878587 -0.05376413 0.029676847 -0.018489806 0.009915177 0.004610178
0.014845285 0.03324273 0.056184683 0.02318131 0.030660871 0.02096092 0.014138578 -0.0029205834
-0.012145022 -0.00636078 -0.008915151 -0.00039535158 0.004270205 0.014470289 0.011723446 0.07806379
0.024519395 0.018318128 0.013330203 0.028236352 0.025442772 0.0419173 0.012107177 0.032994125
0.0017992911 0.063294984 -0.025976758 0.028106194 0.016694417 0.008016102 -0.0605418 0.019099116
0.031306062 -0.0044693933 0.046252824 0.007586638 0.010710651 -0.039566357 0.035047524 -0.08765214
0.0017152515 0.010445039 -0.026408508 0.015911948 0.023404405 0.0010637294 0.06541892 -0.021718333
-0.0017743886 0.014482255 0.032717805 0.0011776396 -0.03355263 0.020948924 0.034178812 -0.008752576
-0.02487619 -0.054614 0.027774995 -0.03513344 -0.0057019875 0.016720483 -0.00298881 0.02688307
0.015296917 0.021218628 -0.017879752 0.0034010352 0.030237611 0.021602862 -0.005582474 -0.07848221
-0.03922027 0.08162011 0.017951038 -0.021843394 0.09407596 0.0020763949 -0.07902875 0.09024243
-0.029134313 -0.005732844 0.009718838 -0.038800463 0.023647387 0.123681016 0.0029884228 -0.1015732
-0.044323035 0.008871113 -0.01524784 0.075781666 -0.050546676 0.103418596 0.1387607 0.016133003
0.0002643468 -0.091914065 -0.03453646 -0.040928893 0.01589713 0.017354524 -0.06470881 0.016859377
-0.04803204 -0.088438444 0.0359344 -0.06773322 0.078435145 -0.061139748 0.057985418 0.082473606
0.0145773515 0.12549515 -0.04823742 0.036765337 -0.031166958 0.014397695 -0.07699769 0.054859854
-0.06462078 -0.104525276 -0.05243087 0.13571478 -0.009924258 -0.08827115 -0.03443006 0.1141333
-0.085588925 0.03247197 0.012363046 -0.023525821 -0.058436483 0.015256554 -0.05674097 -0.038285628
-0.04702248 -0.0069133844 -0.018371036 -0.106913894 -0.045176834 -0.0307169 0.077585705 -0.054749086
-0.03198404 -0.005644342 -0.019578476 -0.0127448 -0.017873442 -0.04742293 -0.15965773 -0.049848523
-0.09003294 0.036643893 0.12833206 0.06873743 -0.05759947 -0.07935804 0.09469893 -0.011118393
-0.0687859 0.052406672 0.025024455 -0.061297942 -0.011001555 0.07729594 -0.08428908 0.06692549
-0.069915205 -0.024587443 0.028343938 -0.020381145 -0.01480635 0.00081001304 0.02676348 -0.15159707
-0.03292955 -0.06695854 -0.035794653 -0.026538083 0.031252623 -0.05003592 0.05687926 -0.101239495
0.013396801 0.040519238 0.058429375 0.09458273 0.11457694 -0.003393724 0.08070121 -0.08124082
-0.07249984 -0.05197142 0.021170886 0.09306263 0.009208004 -0.0514806 0.024398739 0.08560555

action_model._discrete_distribution.branches.1.bias f4 [3]
00000000: b6dc db3c 7641 3cbd d924 bd3b
0.026838642 -0.045960866 0.005772215

exp_avg f4 [128, 29]
00000000: e734 1c39 aeeb a22a 0000 0000 1b3c 1735
00000010: e734 1c39 ef6c 282b 0000 0000 7ef6 2f35
00000020: e734 1c39 e931 31a9 0000 0000 25cc 1a35
00000030: 6295 5baa e734 1c39 0000 0000 4812 1435
00000040: e734 1c39 6fb6 c3a9 0000 0000 006d 3e35
00000050: 6565 a4aa e734 1c39 0000 0000 d40a f734
00000060: e734 1c39 ba2a dc2a 0000 0000 0c07 9d35
00000070: 0000 0000 83da 053a efa9 8728 0000 0000
00000080: a9f6 0136 83da 053a e447 862a 0000 0000
00000090: 88bb 1636 83da 053a 2c57 48aa 0000 0000
000000a0: 1f67 0536 4315 9caa 83da 053a 0000 0000
000000b0: 54b1 f935 83da 053a 2a30 cda9 0000 0000
000000c0: 6ab3 2436 0e06 45aa 83da 053a 0000 0000
000000d0: a556 d035 83da 053a 26eb ef29 0000 0000
000000e0: e4d5 8836 0000 0000 7616 fa37 f4c4 392b
000000f0: 0000 0000 6e3c f133 7616 fa37 b873 412b
00000100: 0000 0000 4aeb 0c34 7616 fa37 6c9d 2628
00000110: 0000 0000 7a02 f633 8f2a 18a9 7616 fa37
00000120: 0000 0000 7ef0 f133 7616 fa37 f89a fda8
00000130: 0000 0000 e599 1634 8888 15aa 7616 fa37
00000140: 0000 0000 66cc c933 7616 fa37 aedc 042b
00000150: 0000 0000 f2ea 7534 0000 0000 e856 f339
00000160: 7a71 f228 0000 0000 1760 ec35 e856 f339
00000170: 887e 32a7 0000 0000 5701 0936 e856 f339
00000180: c0cc 3028 0000 0000 6abd f235 10c2 f526
00000190: e856 f339 0000 0000 185e e235 e856 f339
000001a0: 0ba9 ad27 0000 0000 34ee 1536 92e0 17a8
000001b0: e856 f339 0000 0000 e0e3 bc35 e856 f339
000001c0: 2956 8629 0000 0000 fe6b 7936 0000 0000
000001d0: 9c8e ac38 39a2 a6a9 0000 0000 736e a734
000001e0: 9c8e ac38 3b26 07aa 0000 0000 0855 c234
000001f0: 9c8e ac38 fd90 3b29 0000 0000 cfbf ab34
00000200: 55dc 8729 9c8e ac38 0000 0000 7c89 a134
00000210: 9c8e ac38 8e8a f927 0000 0000 d6dd d334
00000220: eced c829 9c8e ac38 0000 0000 9ccc 8634
00000230: 9c8e ac38 4359 f4a9 0000 0000 c0b7 2f35
00000240: 0000 0000 f13b 9d38 059b bda9 0000 0000
00000250: d8e9 9734 f13b 9d38 120e f52a 0000 0000
00000260: 6229 b134 f13b 9d38 1d26 7caa 0000 0000
00000270: c72b 9b34 b468 b1aa f13b 9d38 0000 0000
00000280: 68c7 9634 f13b 9d38 8c11 04aa 0000 0000
00000290: 5a61 be34 ac4d 92aa f13b 9d38 0000 0000
000002a0: 7985 7b34 f13b 9d38 0c42 e52a 0000 0000
000002b0: 2e1f 1c35 0000 0000 401d a935 4e9a 562a
000002c0: 0000 0000 60b6 8831 401d a935 685b ca2a
000002d0: 0000 0000 801e c231 401d a935 a3cc 7ba8
000002e0: 0000 0000 00d6 6031 48fe 12a8 401d a935
000002f0: 0000 0000 e8bf 1a32 401d a935 224b 2529
00000300: 0000 0000 4012 3e31 d2c5 f7a9 401d a935
00000310: 0000 0000 409d ff31 401d a935 c0fc d12a
00000320: 0000 0000 0080 7e2f 0000 0000 7325 d239
00000330: 38b0 fe29 0000 0000 121b cc35 7325 d239
00000340: d14e d0a8 0000 0000 e2a2 ec35 7325 d239
00000350: 5673 9b29 0000 0000 4093 d135 5d60 7429
00000360: 7325 d239 0000 0000 eea6 c335 7325 d239
00000370: e78b cc29 0000 0000 f16c 0136 e728 1729
00000380: 7325 d239 0000 0000 043c a335 7325 d239
00000390: ab46 0929 0000 0000 613d 5736 0000 0000
000003a0: 10de 10ba 5c6c 2a29 0000 0000 0ea5 0cb6
000003b0: 10de 10ba 90b5 e1aa 0000 0000 1a23 23b6
000003c0: 10de 10ba 0ff2 ef2a 0000 0000 985a 10b6
000003d0: d5f8 122b 10de 10ba 0000 0000 d32e 07b6
000003e0: 10de 10ba d3d3 9a2a 0000 0000 6833 32b6
000003f0: 0a45 ce2a 10de 10ba 0000 0000 7499 e1b5
0.00014897027 2.8940516e-13 0.0 5.633935e-07 0.00014897027 5.9836766e-13 0.0 6.5551274e-07
0.00014897027 -3.9345185e-14 0.0 5.766654e-07 -1.9502935e-13 0.00014897027 0.0 5.51609e-07
0.00014897027 -8.691387e-14 0.0 7.093913e-07 -2.920261e-13 0.00014897027 0.0 4.6015214e-07
0.00014897027 3.9109498e-13 0.0 1.1699462e-06 0.0 0.0005106108 1.5061708e-14 0.0
1.9366073e-06 0.0005106108 2.3853066e-13 0.0 2.24609e-06 0.0005106108 -1.7793812e-13 0.0
1.9878569e-06 -2.772592e-13 0.0005106108 0.0 1.8603555e-06 0.0005106108 -9.112184e-14 0.0
2.4542337e-06 -1.7499216e-13 0.0005106108 0.0 1.5522425e-06 0.0005106108 1.0654524e-13 0.0
4.078016e-06 0.0 2.9812782e-05 6.599853e-13 0.0 1.1233429e-07 2.9812782e-05 6.8727966e-13
0.0 1.3124114e-07 2.9812782e-05 9.2489865e-15 0.0 1.1455718e-07 -3.3787694e-14 2.9812782e-05
0.0 1.1266182e-07 2.9812782e-05 -2.815585e-14 0.0 1.4025825e-07 -1.3281227e-13 2.9812782e-05
0.0 9.396972e-08 2.9812782e-05 4.7202075e-13 0.0 2.2902876e-07 0.0 0.00046413322
2.691661e-14 0.0 1.7611336e-06 0.00046413322 -2.4771055e-15 0.0 2.041537e-06 0.00046413322
9.814361e-15 0.0 1.8085532e-06 1.7052891e-15 0.00046413322 0.0 1.6865697e-06 0.00046413322
4.8200423e-15 0.0 2.2341383e-06 -8.43088e-15 0.00046413322 0.0 1.4073412e-06 0.00046413322
5.965742e-14 0.0 3.716675e-06 0.0 8.228162e-05 -7.400022e-14 0.0 3.1186536e-07
8.228162e-05 -1.2003673e-13 0.0 3.6197184e-07 8.228162e-05 4.16481e-14 0.0 3.199079e-07
6.033426e-14 8.228162e-05 0.0 3.008862e-07 8.228162e-05 6.9261605e-15 0.0 3.946322e-07
8.923057e-14 8.228162e-05 0.0 2.5108318e-07 8.228162e-05 -1.0851261e-13 0.0 6.545997e-07
0.0 7.497508e-05 -8.420178e-14 0.0 2.8296085e-07 7.497508e-05 4.3530506e-13 0.0
3.299893e-07 7.497508e-05 -2.239532e-13 0.0 2.8902852e-07 -3.1514168e-13 7.497508e-05 0.0
2.8084764e-07 7.497508e-05 -1.1730043e-13 0.0 3.546109e-07 -2.5988706e-13 7.497508e-05 0.0
2.3424754e-07 7.497508e-05 4.07244e-13 0.0 5.81599e-07 0.0 1.2599994e-06 1.9060553e-13
0.0 3.9788546e-09 1.2599994e-06 3.5945834e-13 0.0 5.6496106e-09 1.2599994e-06 -1.39776725e-14
0.0 3.2717935e-09 -8.1597665e-15 1.2599994e-06 0.0 9.007614e-09 1.2599994e-06 3.6702527e-14
0.0 2.7659013e-09 -1.100332e-13 1.2599994e-06 0.0 7.439354e-09 1.2599994e-06 3.7301238e-13
0.0 2.314664e-10 0.0 0.00040082223 1.1310435e-13 0.0 1.5207063e-06 0.00040082223
-2.312682e-14 0.0 1.7630775e-06 0.00040082223 6.9033903e-14 0.0 1.5614569e-06 5.4262465e-14
0.00040082223 0.0 1.4577215e-06 0.00040082223 9.083689e-14 0.0 1.928591e-06 3.3564212e-14
0.00040082223 0.0 1.2161913e-06 0.00040082223 3.0481406e-14 0.0 3.2073224e-06 0.0
-0.0005526254 3.784157e-14 0.0 -2.09577e-06 -0.0005526254 -4.0094013e-13 0.0 -2.4309325e-06
-0.0005526254 4.262289e-13 0.0 -2.1510405e-06 5.2214944e-13 -0.0005526254 0.0 -2.0143823e-06
-0.0005526254 2.7502878e-13 0.0 -2.655399e-06 3.6640856e-13 -0.0005526254 0.0 -1.6808467e-06

exp_avg_sq f4 [128, 29]
00000000: a706 3c37 e6e8 3b36 0000 0000 aa65 0533
00000010: 56f2 1c37 3c42 b636 0000 0000 b7f8 8732
00000020: 9ec2 6637 182f 3235 0000 0000 87c4 5533
00000030: 294a a435 7250 6237 0000 0000 b8d1 4a32
00000040: 2028 5537 b0e1 a235 0000 0000 38eb 6233
00000050: b41b 5535 4992 6437 0000 0000 8270 4932
00000060: a4b4 3737 7e0f 8f36 0000 0000 82e7 5d33
00000070: 0000 0000 b9e2 9e36 057c 7635 0000 0000
00000080: 3d2b d531 912a 9936 2203 b835 0000 0000
00000090: d2cd 9231 4cd3 b136 2dee da34 0000 0000
000000a0: f5f6 1e32 ab54 0735 a2f7 b436 0000 0000
000000b0: ba25 6d31 5188 b436 3d47 9734 0000 0000
000000c0: 99cf 2a32 29f7 b734 577e b236 0000 0000
000000d0: eb9f 7431 9a7c ac36 ec00 4835 0000 0000
000000e0: ee66 3532 0000 0000 2580 3e36 588b ed35
000000f0: 0000 0000 95b6 a632 4107 d535 746f 5936
00000100: 0000 0000 ab13 be31 4aa5 9d36 68ee 4c33
00000110: 0000 0000 6520 3033 1c01 ba33 c3c7 9d36
00000120: 0000 0000 d8fc 7231 26db 4c36 3621 7935
00000130: 0000 0000 35cf 3f33 beac b733 534d 9e36
00000140: 0000 0000 f6fa 6631 8230 0f36 e0bc 3e36
00000150: 0000 0000 c992 1733 0000 0000 5ca5 3c36
00000160: f3b4 0232 0000 0000 6bbc 2c2f 1da2 3b36
00000170: de9b a032 0000 0000 cca1 ee2e 53ad 3c36
00000180: 2e7b 6931 0000 0000 7466 6d2f 1e11 1432
00000190: 3755 3c36 0000 0000 5030 b72e 30a8 3c36
000001a0: ca68 0a32 0000 0000 1122 932f c179 0332
000001b0: 75b0 3c36 0000 0000 7e7c 992e a9db 3b36
000001c0: 9cdd a832 0000 0000 54a4 e42f 0000 0000
000001d0: 3777 0d35 ee89 2735 0000 0000 debd a031
000001e0: d091 ab34 fd4d 7335 0000 0000 672c 2831
000001f0: abeb 5135 3137 b634 0000 0000 cfc3 e831
00000200: 902e 1c34 3e71 8d35 0000 0000 0c9d f030
00000210: a4f5 5335 aafa 9034 0000 0000 b491 f631
00000220: 550c 9434 5373 7c35 0000 0000 3fb9 d230
00000230: 53fb 3535 abd3 0335 0000 0000 0a10 d931
00000240: 0000 0000 2e5c b636 117d e435 0000 0000
00000250: c64d a632 3787 b436 70a3 1f36 0000 0000
00000260: 4ff6 8832 167d cc36 3692 b235 0000 0000
00000270: c679 c332 3ee2 ef35 8768 c336 0000 0000
00000280: 75c3 6d32 413e cf36 0dcc 8635 0000 0000
00000290: 75d9 b132 777d 8d35 6284 d436 0000 0000
000002a0: b20d 8032 3ee9 b636 a21a 1836 0000 0000
000002b0: d95f af32 0000 0000 6dfe 1536 3d2c 8c35
000002c0: 0000 0000 3eb7 fa31 a8ac 0836 d632 c235
000002d0: 0000 0000 6c51 a731 81a7 3936 6676 0335
000002e0: 0000 0000 38d9 2d32 9e96 3235 40a1 3d36
000002f0: 0000 0000 39a3 9331 6f7d 3f36 1c1c da34
00000300: 0000 0000 85d0 3132 6803 9934 9c8c 5136
00000310: 0000 0000 ed05 9631 2bb1 2836 1c91 8835
00000320: 0000 0000 a4d0 3f32 0000 0000 8934 cc35
00000330: 3431 5c34 0000 0000 5448 cb30 c974 c335
00000340: 57df 8934 0000 0000 a817 4330 81e0 da35
00000350: 8f41 8433 0000 0000 7059 1131 82df 1633
00000360: ea87 db35 0000 0000 a3d8 1330 d734 d935
00000370: 25bf 9d33 0000 0000 7641 1931 a4c8 0433
00000380: 361f de35 0000 0000 a599 0230 9b5b d535
00000390: d61f e633 0000 0000 1380 1031 0000 0000
000003a0: 59d4 bc36 2a0a 3736 0000 0000 9dc5 b132
000003b0: 4ad9 c236 77ae 6c36 0000 0000 bd80 7332
000003c0: 75f2 f736 7aa1 8d35 0000 0000 641c 2233
000003d0: 25b5 9735 0f27 fb36 0000 0000 f5a7 5032
000003e0: 02e6 ec36 61f8 8835 0000 0000 67f8 2533
000003f0: 746d 9535 92c6 ed36 0000 0000 0ae8 5732
1.1207222e-05 2.8000736e-06 0.0 3.105894e-08 9.354748e-06 5.4317334e-06 0.0 1.582917e-08
1.3754381e-05 6.63787e-07 0.0 4.9771668e-08 1.2240536e-06 1.348938e-05 0.0 1.1805632e-08
1.2705132e-05 1.2135624e-06 0.0 5.2833656e-08 7.9388997e-07 1.3623919e-05 0.0 1.1725321e-08
1.0949709e-05 4.2635356e-06 0.0 5.1666127e-08 0.0 4.735161e-06 9.1822614e-07 0.0
6.2040315e-09 4.5647107e-06 1.370998e-06 0.0 4.2725583e-09 5.2996093e-06 4.077896e-07 0.0
9.252962e-09 5.0414627e-07 5.3932463e-06 0.0 3.4509484e-09 5.3802873e-06 2.8177774e-07 0.0
9.942505e-09 3.426624e-07 5.3195213e-06 0.0 3.5597576e-09 5.140505e-06 7.450715e-07 0.0
1.055899e-08 0.0 2.8386796e-06 1.769843e-06 0.0 1.9407972e-08 1.5871848e-06 3.2400394e-06
0.0 5.5319638e-09 4.698207e-06 4.771428e-08 0.0 4.1007656e-08 8.661502e-08 4.70222e-06
0.0 3.535936e-09 3.052593e-06 9.2808057e-07 0.0 4.4659107e-08 8.553023e-08 4.7177687e-06
0.0 3.361206e-09 2.1336896e-06 2.8422146e-06 0.0 3.5290928e-08 0.0 2.8110435e-06
7.608139e-09 0.0 1.5710248e-10 2.7959534e-06 1.8697332e-08 0.0 1.0851728e-10 2.811507e-06
3.3975982e-09 0.0 2.1591423e-10 8.618626e-09 2.8063785e-06 0.0 8.3304585e-11 2.811208e-06
8.0564835e-09 0.0 2.676335e-10 7.652887e-09 2.8116895e-06 0.0 6.979749e-11 2.799303e-06
1.965855e-08 0.0 4.158972e-10 0.0 5.2700074e-07 6.241306e-07 0.0 4.6781983e-09
3.1957325e-07 9.063804e-07 0.0 2.4472457e-09 7.820151e-07 3.39403e-07 0.0 6.7743495e-09
1.4545572e-07 1.0538276e-06 0.0 1.7506934e-09 7.896108e-07 2.7004472e-07 0.0 7.176107e-09
2.757612e-07 9.4045134e-07 0.0 1.5332161e-09 6.779348e-07 4.910932e-07 0.0 6.3173546e-09
0.0 5.434754e-06 1.7023723e-06 0.0 1.936031e-08 5.380159e-06 2.378798e-06 0.0
1.5944492e-08 6.0942357e-06 1.3304586e-06 0.0 2.2756364e-08 1.7872733e-06 5.8236214e-06 0.0
1.3839657e-08 6.176328e-06 1.0043165e-06 0.0 2.07044e-08 1.0541834e-06 6.3335037e-06 0.0
1.4907389e-08 5.4511756e-06 2.2665267e-06 0.0 2.0416268e-08 0.0 2.2350825e-06 1.0443688e-06
0.0 7.29679e-09 2.0366078e-06 1.4468922e-06 0.0 4.8695963e-09 2.7664648e-06 4.8973595e-07
0.0 1.0119315e-08 6.6529344e-07 2.8257055e-06 0.0 4.2968193e-09 2.853423e-06 4.0626117e-07
0.0 1.0350168e-08 2.850095e-07 3.1225272e-06 0.0 4.3662483e-09 2.5137076e-06 1.0175022e-06
0.0 1.1165103e-08 0.0 1.5214474e-06 2.0506997e-07 0.0 1.4790751e-09 1.4562621e-06
2.568074e-07 0.0 7.0974204e-10 1.6307605e-06 6.158654e-08 0.0 2.1151116e-09 3.5127876e-08
1.6356328e-06 0.0 5.378615e-10 1.6183138e-06 7.345651e-08 0.0 2.230164e-09 3.0916127e-08
1.6549373e-06 0.0 4.7512067e-10 1.5896397e-06 1.07160005e-07 0.0 2.102756e-09 0.0
5.627557e-06 2.7275041e-06 0.0 2.0695376e-08 5.8069463e-06 3.5268292e-06 0.0 1.4173733e-08
7.3893993e-06 1.0552315e-06 0.0 3.7744385e-08 1.1303097e-06 7.48493e-06 0.0 1.21453825e-08
7.0601245e-06 1.0205077e-06 0.0 3.8642977e-08 1.113322e-06 7.086267e-06 0.0 1.2567407e-08

exp_avg f4 [128]
00000000: e734 1c39 83da 053a 7616 fa37 e856 f339
00000010: 9c8e ac38 f13b 9d38 401d a935 7325 d239
00000020: 10de 10ba 892a 5438 7080 fdb9 700b e3b7
00000030: a610 9a39 ba3c eb39 429f e4b8 d925 6937
00000040: a740 e5b9 8060 b034 62cf 7a38 677d a2b9
00000050: 50d1 8e39 fe86 7c38 22fd 2fb9 e15f f2b9
00000060: 8ca0 3639 44e6 343a 2831 2eba c772 9fb9
00000070: 2d71 b9b9 f8d1 aa3a 9885 2b3a fe12 36b9
00000080: c6fe 8fb9 2a8c 3d39 363c 273a c0fd 70b8
00000090: 18a8 8bb8 1e49 3b38 8381 71b8 2a74 35ba
000000a0: 48dc cd39 8e93 8838 4a05 1ab9 ee46 47b9
000000b0: 08f7 d139 285f 4eb9 b67b e1b8 9ceb 49b9
000000c0: 52ee a639 3a2d 0139 5839 8839 488c 11b8
000000d0: d4c5 34b9 1af9 70b8 8d33 ee3a 705a f839
000000e0: 8ee5 dbb9 c36e d638 ea17 c7b8 d839 e239
000000f0: 7623 9539 ed09 44b9 e654 09b7 be28 e239
00000100: 1427 d239 c285 7eb7 289c 7938 ba00 383a
00000110: bec3 e938 26a4 d1b9 0669 11b8 b245 683a
00000120: 72e1 d939 2877 f139 3565 7db9 365a 4038
00000130: 3d67 4539 86a1 bfb9 26f5 e237 6295 7739
00000140: b831 6737 2ff4 c139 ff26 7536 8434 a6ba
00000150: b476 9639 a7ac 5339 6fe9 813a a836 a3b9
00000160: a37d ceb8 3a7d 1dba def6 43ba de09 513a
00000170: 0ac7 10ba 2085 483a 3840 2cba 089a d936
00000180: fa33 7039 5458 123a f8c6 4a3a ecdf 2d3a
00000190: 4c38 9039 b046 4eb9 57cf 523a 2b3b ec38
000001a0: 8230 41b9 f19c 4fb9 5799 16b8 10ce 4fb9
000001b0: 1747 8838 4002 f139 d584 b938 86e7 5539
000001c0: 9a39 2f38 4b66 4739 8c28 693a 2cfe ba37
000001d0: fa5e 7c39 b805 69b8 fd06 23b9 2846 d536
000001e0: 36f9 6e39 116a 30b9 1ed5 4a3a 4810 bd38
000001f0: 60d5 2239 eed4 88ba 78dc 0cba cbe7 b1b8
0.00014897027 0.0005106108 2.9812782e-05 0.00046413322 8.228162e-05 7.497508e-05 1.2599994e-06 0.00040082223
-0.0005526254 5.0584353e-05 -0.00048351614 -2.7065835e-05 0.00029385573 0.00044867938 -0.00010901551 1.3896694e-05
-0.00043726453 3.2852768e-07 5.9797785e-05 -0.0003099248 0.000272403 6.0207203e-05 -0.000167836 -0.00046229272
0.00017416681 0.00069007673 -0.0006644898 -0.0003041236 -0.00035370272 0.0013032546 0.00065430393 -0.00017363948
-0.00027464906 0.0001807666 0.00063795166 -5.7456782e-05 -6.6593464e-05 4.465237e-05 -5.7579495e-05 -0.0006921912
0.0003926477 6.5124696e-05 -0.00014688555 -0.00019004542 0.0004004764 -0.0001968114 -0.00010751879 -0.00019256625
0.0003183955 0.00012319247 0.00025982666 -3.470134e-05 -0.00017239834 -5.7452453e-05 0.0018173322 0.00047369627
-0.00041941967 0.00010224946 -9.493514e-05 0.00043149176 0.00028445915 -0.00018695714 -8.185603e-06 0.00043136434
0.00040083437 -1.5170723e-05 5.9511658e-05 0.0007019151 0.000111467656 -0.00039985887 -3.4668505e-05 0.0008860483
0.00041557435 0.0004605588 -0.00024165663 4.5860383e-05 0.00018825843 -0.00036550703 2.7055456e-05 0.00023611405
1.3780249e-05 0.0003699376 3.6530544e-06 -0.0012680446 0.0002869867 0.00020186846 0.0009911488 -0.00031130505
-9.846247e-05 -0.0006007735 -0.0007475446 0.00079741876 -0.0005522823 0.00076492317 -0.00065708486 6.4850356e-06
0.00022907546 0.000558262 0.0007735337 0.0006632793 0.00027507765 -0.00019672024 0.00080417603 0.00011264378
-0.00018423985 -0.00019799524 -3.5905596e-05 -0.00019817823 6.498227e-05 0.00045968778 8.846229e-05 0.00020399512
4.1776897e-05 0.00019016226 0.00088942866 2.2291286e-05 0.00024067974 -5.5556855e-05 -0.00015547495 6.356062e-06
0.00022790287 -0.00016824181 0.00077374454 9.015255e-05 0.00015529012 -0.0010439435 -0.00053734286 -8.4831925e-05
