results/ppo/Racing/Racing-384.onnx (onnx, 88644 bytes, 9 tensors)

discrete_act_size_vector f4 [1, 2]
000000 00 00 40 40 00 00 40 40
       3.0 3.0

network_body._body_endoder.seq_layers.0.weight f4 [128, 29]
000000 a4 ed a7 3e f6 fe 8e be bb 71 df bd a8 44 0b 3e
       0.32798493 -0.27928895 -0.10910364 0.13600409
000010 b8 ea c0 be 4d 4d 20 3e 9b 7e 4c 3e d3 1d 9d 3d
       -0.37679076 0.15654488 0.19970171 0.07671704
000020 91 78 ac bc ce aa 91 be 5d 8c 37 be fb ae 49 be
       -0.021053584 -0.28450626 -0.17924638 -0.19695656
000030 d7 12 3b 3e e8 e3 e9 3d d4 9a 22 3e 3b b8 51 3d
       0.18268906 0.11420423 0.15879375 0.051201086
000040 0d 3c fa 3d 69 4c 9c be 86 08 7a be 65 1f 2b 3e
       0.12218485 -0.30527046 -0.24417314 0.16711195
000050 f3 64 ef bd 2c 1f c6 3c 25 16 15 be e6 b7 b5 3d
       -0.116891764 0.024184786 -0.14559229 0.088729665
000060 4a 0b 23 bf 27 7a 1d 3e 56 47 91 3c 36 3f 6b 3e
       -0.636891 0.15378629 0.017734211 0.22973332
000070 35 14 d3 bd 91 12 f0 bc 35 13 48 3e 7a f8 1f be
       -0.103065886 -0.029305728 0.19538577 -0.1562213
000080 2f 8c 22 3e 9e 04 bb bd 71 e7 d1 3d ae 49 53 3d
       0.15873788 -0.0913174 0.10249222 0.05158394
000090 c5 68 01 3f 8e 98 bf 3e bc 90 51 be 47 69 c2 3c
       0.5055049 0.37421077 -0.20465368 0.02373184
0000a0 3a d7 86 3e ad bd 92 3e 05 ad e2 3c c9 01 da 3d
       0.2633608 0.28660336 0.027670393 0.10644872
0000b0 e0 ec 37 be d8 f3 8e bc ae ec 0f be e3 2f 60 3e
       -0.17961454 -0.017450258 -0.1405513 0.21893267
0000c0 54 41 c9 3d 68 05 ac 3e d2 78 9f bd d2 01 9e 3e
       0.098269135 0.33597875 -0.077867165 0.30860764
0000d0 4d b3 3a 3e 2a 6f d5 3d ea ed 36 bd c5 63 6c 3e
       0.1823246 0.104215935 -0.044660486 0.23084934
0000e0 2b a3 fb 3d 68 40 c4 bd bc a9 73 bd cf a7 e8 bd
       0.12286981 -0.09582597 -0.059488043 -0.11360132
0000f0 84 4e ee bd 16 bc b3 3e b2 c4 15 bc fd 69 31 be
       -0.116360694 0.35104436 -0.009141134 -0.17325588
000100 d1 2b 07 bd 73 81 33 3d 92 fc c3 3d 62 c4 43 be
       -0.03300077 0.043824624 0.09569658 -0.19117883
000110 e3 83 a8 3d 90 a9 b6 bd 2e 7b 61 be 2c ac c8 3d
       0.082282804 -0.0891906 -0.22019646 0.09798464
000120 ce 31 8e be 29 5a 1b 3e 25 fb a8 3d 3a 6b 4f 3d
       -0.27772373 0.15171112 0.08251027 0.05063937
000130 b9 29 26 bd b5 1c 1b bd 01 cf a5 3e e0 e9 4a 3e
       -0.040567134 -0.037869174 0.32384494 0.19815779
000140 6a ff c1 be cc 38 86 3e 38 87 2c 3e 09 14 af 3c
       -0.37890178 0.26215208 0.16848457 0.021371858
000150 f3 20 31 bd 61 cd 4e 3e 5f df 85 3d 56 76 aa 3c
       -0.043244313 0.20195533 0.06536745 0.02080838
000160 8e 46 86 bd 14 6c 9c 3e 36 32 34 be be ee d3 bd
       -0.06556426 0.30551207 -0.17597279 -0.10348271
000170 ca 72 89 bb 44 a8 b2 bd e6 10 c3 bd e9 e0 9e bd
       -0.004194592 -0.087235 -0.095247075 -0.07757742
000180 4f 1a a0 bd d0 b5 08 be 31 a5 c1 bd 7b 47 22 3d
       -0.07817518 -0.13350606 -0.09455336 0.03961895
000190 0b ec 6a be d2 42 81 3e 1f 7b 61 bd 06 6f bd be
       -0.22941606 0.25246292 -0.055049058 -0.36998767
0001a0 0a fb 9d 3e 8b 0e d9 3e 66 4f bb 3d 4e 54 11 be
       0.3085559 0.42393908 0.091460034 -0.14192316
0001b0 8b 94 d2 bd ec 9e 3e be 50 ca e1 3c 14 13 b5 3d
       -0.102822386 -0.18615311 0.02756229 0.088415295
0001c0 6a 56 9d 3e b2 de 1b bf 5f c2 84 3e f6 f5 72 3e
       0.3072999 -0.6088668 0.25929543 0.23726639
0001d0 46 2d 90 bd a9 28 b4 bc 29 78 a5 3d 5a 5f 46 be
       -0.07039885 -0.021992045 0.08079559 -0.19372311
0001e0 72 c1 03 be 22 bb 84 3c 09 2a 20 bd ce 71 6e be
       -0.12866762 0.016202513 -0.039102588 -0.232856
0001f0 23 8d 4c 3d e2 14 92 3e f0 63 12 be 67 69 90 3c
       0.049939286 0.28531557 -0.14295936 0.017628385
000200 4e 20 9d be 87 10 86 3c 96 a7 c0 3d 6a 06 89 be
       -0.3068871 0.016365303 0.094069645 -0.26762706
000210 94 ec a2 be 67 7b 4f 3d 29 e4 23 be 08 72 4c bb
       -0.3182112 0.050654795 -0.16005005 -0.0031195898
000220 8b 33 f4 3d 85 30 30 bd f1 7c b7 3c 27 9c 8d 3d
       0.119238935 -0.04301502 0.022398444 0.06914549
000230 b8 f8 ac bc 70 47 7a 3d bb 6e 6f be 14 ef 3b be
       -0.021114692 0.061103284 -0.23382084 -0.1835292
000240 63 dd d0 bc e2 9a 96 be 00 2d c4 3c e8 3d 4a 3e
       -0.02549619 -0.2941504 0.023947239 0.19750178
000250 24 11 a0 3d 49 5d 79 be c1 0d e1 3b 48 82 db 3c
       0.07815769 -0.24351992 0.0068680947 0.026795521
000260 73 c6 7b 3d 15 d4 f0 bc d8 e1 6b be a7 04 c3 3e
       0.061468553 -0.029398004 -0.23035371 0.38089487
000270 83 b1 94 be 92 62 d6 3b 6d 34 6e 3e 08 42 1e be
       -0.2904168 0.006542512 0.23262186 -0.15454876
000280 e7 fd 1e 3e 3e d0 2d 3e f9 95 ad 3e ba 69 78 3d
       0.15526544 0.1697397 0.33903483 0.060647704
000290 bb 5c 96 3c 27 be 66 be 8a ed 12 3e a5 34 aa bd
       0.018354764 -0.22533475 0.14348426 -0.083108224
0002a0 59 01 b7 3c 51 4d 18 be c6 b0 07 3e eb e8 67 3e
       0.02233951 -0.14873244 0.13251027 0.22647445
0002b0 5e 62 0b be 24 28 30 be bc af 23 3e 8b 27 cd bd
       -0.13611743 -0.17202812 0.15985006 -0.10017308
0002c0 24 8f 97 3d b0 55 73 be ed 7a 01 be 28 d3 57 bb
       0.07400349 -0.23763156 -0.12644549 -0.0032932255
0002d0 fc d0 ae 3e 77 34 05 bb 53 2f 0c 3e 3b aa 54 be
       0.34143817 -0.002032546 0.13689928 -0.20768063
0002e0 b7 fd a3 be f9 1e d7 be 6f 27 d8 3e dd a3 d4 bb
       -0.32029507 -0.42015818 0.42217585 -0.0064892606
0002f0 9e 31 24 bd b6 fe 39 3d a2 f3 2e be 96 d7 05 bf
       -0.04008638 0.045408927 -0.17085126 -0.52282083
000300 d3 63 b0 3c 30 14 7d 3e c9 91 75 be 64 a4 b0 3c
       0.021531975 0.24714732 -0.23981394 0.021562763
000310 4f c0 57 be 71 86 25 3c d7 87 cf bd 62 2a 32 3e
       -0.21069454 0.010102854 -0.10133331 0.1739898
000320 6b 4f d9 3d 88 88 a9 3d 31 10 89 3e 3a 13 2c 3d
       0.10610851 0.082779944 0.26770166 0.042010523
000330 d9 07 59 be 4a a7 57 3e c4 1b eb 3d 42 50 ac be
       -0.211944 0.2105991 0.11479905 -0.33654982
000340 a3 f0 5f 3e d2 42 80 3e e0 aa 8b be a0 ec a5 bd
       0.2186914 0.2505098 -0.27278805 -0.08101773
000350 90 17 95 3d 14 b3 da 3d eb 49 6f 3e 0d e0 0b 3e
       0.07279885 0.10678688 0.23368041 0.13659687
000360 34 f6 16 be 62 47 2c 3e f1 2f 18 3e 82 d9 96 3d
       -0.14742357 0.16824105 0.14862038 0.07365705
000370 81 96 01 be c3 6a 61 3e 1a 24 fd 3e 06 b6 1b 3e
       -0.12655069 0.22013383 0.49441606 0.15206155
000380 84 dc 2f bd a7 a2 22 3e f7 c6 f9 3d 4b c3 89 3e
       -0.04293491 0.1588236 0.12196153 0.2690681
000390 90 c2 c3 3d ee b7 5e 3d 52 97 c4 3c 0b dd 0a bd
       0.09558594 0.054374628 0.023997936 -0.03390221
0003a0 72 9e 59 bd 42 bf c5 3d 30 d5 74 be a2 d9 d1 3d
       -0.05312962 0.0965562 -0.2390945 0.10246588
0003b0 22 e9 66 3e 7c 16 38 3e cd dd 58 3e aa f7 9e 3e
       0.2254987 0.17977327 0.2117836 0.31048328
0003c0 26 97 79 3e 74 bc 72 bd 71 8d b9 3d 6a e3 c1 3e
       0.24374065 -0.059261754 0.09060181 0.37868816
0003d0 b1 69 16 be 72 ed 3d bd e6 73 36 3d f2 56 75 bd
       -0.14688756 -0.046369024 0.044544123 -0.05989737
0003e0 6a b0 30 be 83 64 7a be 5c c0 aa 3e 2c b5 0f be
       -0.17254797 -0.24452405 0.33349884 -0.14033955
0003f0 82 d3 b2 3c 2b a0 19 3f fb a5 0a be 35 cd 8f be
       0.02182937 0.6001002 -0.13539879 -0.28086248

network_body._body_endoder.seq_layers.0.bias f4 [128]
000000 e4 98 c8 3c dd 4f 0f 3d 01 54 14 3d b7 6b 5d 3b
       0.024486966 0.034988273 0.036212925 0.0033786127
000010 aa 11 a6 bc f6 3b c2 3c 92 32 3b 3d cb 1a dd 3c
       -0.020272095 0.023710232 0.045702524 0.026990315
000020 78 58 f8 3c 31 fc 0d 3d 5a e5 08 bd e6 04 ab bc
       0.030315623 0.034664337 -0.03342185 -0.02087636
000030 54 ae be bc 35 ad 00 bd 72 a6 f2 bc 26 01 20 3d
       -0.023276486 -0.031415183 -0.029620383 0.039063595
000040 14 b0 bd 3c bd dd 5f 3d c8 57 a0 bc 5d d6 a6 3b
       0.02315525 0.054654825 -0.019573107 0.005091472
000050 0a 28 16 3d a9 53 09 3d 5c d6 18 3d bc 83 46 bc
       0.036659278 0.03352705 0.037313804 -0.012116369
000060 d3 65 13 3d 8c de a8 bc ca 0c 2d 3d 18 ee 9d bc
       0.03598578 -0.020613931 0.042248525 -0.019278571
000070 d2 4a 47 3d 51 8f f9 3c ec f2 10 3d 59 92 00 3d
       0.04865534 0.030463846 0.03538792 0.031389568
000080 80 5e e9 3c 38 2d 35 3d 1e 50 06 3d d6 b0 ab 3c
       0.028487444 0.044232577 0.03279125 0.020958345
000090 db b9 e3 3c 8b 3e 23 3d 3d d6 9d 3c 56 8f de bc
       0.027798584 0.039854567 0.019267196 -0.027167957
0000a0 b8 85 e5 3c 30 70 10 3d 82 5f 09 bd 9e 9f c5 bc
       0.028017864 0.03526324 -0.03353835 -0.024123963
0000b0 21 55 d2 bc 87 c3 ef 3c a0 73 aa 3c 5e f6 e1 bc
       -0.025675358 0.02926804 0.020807087 -0.027583297
0000c0 4d c2 f8 bc 3f 8c ed 3c 65 47 c1 bc 19 09 84 bc
       -0.030366087 0.028997539 -0.023593614 -0.01611762
0000d0 a6 b2 e8 bc 04 4c ea b8 cc 36 14 3d c1 41 f3 3c
       -0.028405499 -0.000111721485 0.03618507 0.02969444
0000e0 58 da f1 3c 05 3a ed bc a9 58 f7 bc e2 ed be 3c
       0.02952306 -0.02895833 -0.030193644 0.02330679
0000f0 08 18 18 3d 4e 87 1a 3d 77 94 79 3c be c2 01 3d
       0.037132293 0.037726693 0.015233151 0.03167986
000100 79 86 04 3d db 1c 1f 3d 5d 7d 12 3d 8a 8a e3 3a
       0.032354806 0.038845878 0.035764087 0.0017360013
000110 5e eb 9c bc 24 a2 37 3d 72 ef 87 3b ed 1c a0 3c
       -0.0191552 0.044832364 0.004148417 0.019545043
000120 31 1f 29 3d 90 16 1e bd 20 e8 19 3d d6 68 09 bd
       0.041289512 -0.038595736 0.037574887 -0.033547245
000130 61 18 0e 3d c3 02 0c 3d 30 f5 0c 3c e8 3d d9 3c
       0.03469122 0.03418232 0.008603379 0.026518777
000140 3c c0 bf 3c e0 e4 02 3d dd 82 02 3d b8 91 e7 bc
       0.023407094 0.031956553 0.031863082 -0.028267726
000150 60 5f df 3c af 54 e1 3c 7a bb 17 3d df 2b 1e bd
       0.027267158 0.0275062 0.037044026 -0.038616057
000160 48 e1 a9 bc 23 dd dd 3c fc 09 52 bc 14 1a 17 3d
       -0.020737305 0.027082985 -0.012819763 0.036890104
000170 58 d9 12 bd c8 84 18 3d 69 74 0c bd 36 d9 e7 bc
       -0.035851806 0.037236005 -0.034290705 -0.028301816
000180 b0 42 c1 ba 8d bd 4a bc 48 e9 04 3d 19 32 56 3c
       -0.0014744606 -0.012374294 0.032449037 0.013073468
000190 f0 45 dd bc aa 14 14 3d 0d 70 05 3d d6 56 d6 3c
       -0.027010888 0.03615252 0.032577563 0.026164453
0001a0 94 f4 fe 3c ad fb 80 3c e5 0e 16 3d ff f7 aa 3c
       0.031122483 0.015745008 0.0366353 0.020870207
0001b0 a2 39 0e 3d fd 82 ce 3c 34 56 70 bc bd ea 04 3d
       0.03472293 0.025208944 -0.01466899 0.032450426
0001c0 ad 44 dc bc fd ca 18 3b 51 48 f4 bc 9f 95 ce bb
       -0.026888216 0.002331435 -0.02981964 -0.0063044573
0001d0 e5 20 b4 3c cf 8c f7 3c 7c bf ba bc e6 37 01 bb
       0.021988342 0.03021851 -0.022796385 -0.0019717156
0001e0 03 a5 fd bc 58 e8 fa bc 1d c2 c2 bc a1 00 b7 bc
       -0.030962473 -0.030628368 -0.023774201 -0.022339167
0001f0 70 a3 35 3b ad 57 21 3d a6 4c 6f bb 36 49 a6 bb
       0.0027715825 0.039390255 -0.0036514192 -0.0050746454

network_body._body_endoder.seq_layers.2.weight f4 [128, 128]
000000 64 b5 e1 3d 2e f6 89 3d da d8 88 bd 67 95 96 3d
       0.11020926 0.06736408 -0.06681986 0.07352715
000010 a5 3c 4f bd 62 f5 02 bb e2 4f b4 3d 63 a4 12 3d
       -0.050594945 -0.0019982685 0.08804299 0.035801303
000020 08 d7 e6 3d 81 4c f4 3d 46 3c ea bd 57 27 8c bd
       0.11271483 0.119286545 -0.114372775 -0.06843441
000030 67 1c 11 3e 1c dd 97 bd 2e ab 09 bd a6 9d c3 3d
       0.14170991 -0.0741522 -0.033610515 0.095515534
000040 d7 d3 2f 3e 7b 4d 1e bd ec e7 9c 3d 89 43 cd bd
       0.17170654 -0.03864811 0.07661423 -0.10022647
000050 47 d0 52 3d 01 ee 0d 3e 8f a7 8d 3c bc 0c 2d 3d
       0.05146816 0.13860323 0.017291812 0.042248473
000060 5a 03 d6 bd d4 5b be bd 89 e7 78 bc 50 67 0a be
       -0.10449858 -0.092948586 -0.015191921 -0.13515973
000070 81 9e 08 bd a9 06 8a 3e fd 28 37 3d a6 81 fd ba
       -0.033354286 0.26958206 0.044716824 -0.0019341006
000080 ec ab cb bc 00 df 02 be 43 43 b9 bb 3d 4b 92 bd
       -0.024862252 -0.1278038 -0.00565377 -0.07143257
000090 1f 35 28 3d 0c 45 80 bc 03 bc 1a 3e 34 c3 99 3d
       0.041066285 -0.015657924 0.15110783 0.07507935
0000a0 87 8b b1 3c 63 77 29 bd aa 88 c1 bd 42 f4 15 bc
       0.021672977 -0.04137362 -0.09449895 -0.009152474
0000b0 be b3 b3 3d f8 61 d6 3a 2f 75 c1 3d c4 1c 36 bd
       0.087745175 0.0016356101 0.09446179 -0.044461027
0000c0 18 d3 4f 3d 30 7a 53 3d 7d 0c 72 3d b2 60 e1 bd
       0.050738424 0.0516302 0.05909394 -0.11004771
0000d0 7f 32 ed 3c 3b de f4 3d 40 4f b2 3b fe 15 5a bd
       0.028954742 0.119564496 0.0054415762 -0.05324363
0000e0 7d 4b 80 3d 28 18 2b bd 56 5a 7b bc 97 3f b7 3d
       0.06264398 -0.041771084 -0.015341362 0.08947676
0000f0 cf 68 91 bd b8 47 0a 3e 45 fd a7 bc b1 66 49 bb
       -0.07100069 0.13503921 -0.02050651 -0.0030731375
000100 e9 85 6e 3c 03 07 77 3d b7 8f d9 3d 94 67 49 bc
       0.014558294 0.06030942 0.106231146 -0.012292761
000110 64 4a 9b bd 14 fc 76 bc 53 12 56 be 11 4a 0c 3e
       -0.07582548 -0.015074749 -0.20905428 0.13700129
000120 dc d8 6f 3d 2d 55 02 3e c5 59 dc bd 1e cb 10 be
       0.058556423 0.12727804 -0.1075931 -0.14139983
000130 ad 29 ab 3c ee ba 7c 3c d6 cd 2b 3b 85 83 ac bd
       0.020893896 0.015425427 0.0026215217 -0.08423523
000140 47 40 a3 3d dc d6 14 3e 20 f3 e8 3d af fe 08 bd
       0.07971244 0.14535087 0.113744974 -0.03344601
000150 28 c1 c1 bc 2f d9 e9 3d a0 d8 39 3c 07 1f f2 bd
       -0.023651674 0.114183776 0.011343151 -0.11822324
000160 0c 7c c0 bc 38 d6 8a bd c8 ed 94 3d 27 13 0d 3e
       -0.02349665 -0.0677914 0.07271916 0.13776837
000170 8f 7c 72 3d 6d 14 3d 3d 2b 01 2f 3a cc 80 26 3c
       0.05920082 0.046162058 0.0006675894 0.0101625435
000180 aa 06 71 3d 27 a6 65 bd de 5b 82 3d 2a c3 ec 3c
       0.058844246 -0.05606666 0.063651785 0.028901655
000190 39 49 28 3d 81 eb 98 bc b4 93 ba 3c 47 d4 fa bb
       0.041085456 -0.018666985 0.022775508 -0.0076547
0001a0 28 f8 30 3e 14 f9 dd 3c 54 c5 a3 bd 68 d5 29 3d
       0.17282164 0.027096309 -0.07996622 0.041463286
0001b0 30 b0 e2 3c 80 fe 78 3d 64 fa 38 3d 28 c6 18 3e
       0.027671903 0.060789585 0.045160666 0.1491934
0001c0 34 8c 5a bc c4 f4 c0 bd c4 bc c8 3d 67 3f 62 bd
       -0.013339091 -0.09421685 0.09801629 -0.055236246
0001d0 0d 9b 3a bc 15 f2 02 bd 7f 9c fa bc 67 dc ac 3c
       -0.011389506 -0.03196915 -0.030592201 0.02110119
0001e0 32 dd 63 3c 9a 5e 9a 3d 00 79 00 be d1 44 4e be
       0.013907718 0.07537575 -0.12546158 -0.20143439
0001f0 97 7a f3 bd 64 f9 d9 3c 89 17 97 3d 40 d0 5a 3d
       -0.118886165 0.026608177 0.07377536 0.05342126
000200 43 a3 40 bd 1e e9 c8 3c ef 0a 56 bd 03 94 3f 3d
       -0.0470307 0.024525221 -0.05225652 0.046772014
000210 23 a7 11 3e 11 e8 27 bc 91 40 b9 3c 8f b2 7d bc
       0.14223914 -0.0102482 0.022613795 -0.015484466
000220 3d d2 4d bc f5 c6 9c bd 15 6a f0 3c ee 13 ce bd
       -0.012562332 -0.076551355 0.029347459 -0.10062395
000230 9a 34 53 be a4 72 fe 3c 77 33 d0 3d 82 e3 bd bc
       -0.20625535 0.031060524 0.10166066 -0.023179773
000240 56 b6 5f bd 6a bd 5d be ca c3 26 3e cf 6a 19 3d
       -0.05461725 -0.21654287 0.16285625 0.037455376
000250 90 6d a8 3d 19 c8 1f bd f3 01 0c be 61 bf 9c 3d
       0.082240224 -0.039009187 -0.13672619 0.0765369
000260 59 95 3d 3e 4a 77 be ba ca ae 9a bd 23 eb 54 bd
       0.18514003 -0.00145314 -0.075528696 -0.051982056
000270 d6 5a 39 3d a4 02 35 3c a4 88 e8 bd af 02 b9 bd
       0.045252644 0.011047993 -0.11354187 -0.09033715
000280 9f 0c 0a bd be 63 fb 3d 07 9f 0f 3c 92 d0 1d be
       -0.033703443 0.12274884 0.008765942 -0.15411595
000290 34 94 c3 3d 2d 08 b9 bd 33 bd 02 be 04 10 99 bd
       0.09549752 -0.090347625 -0.12767486 -0.07473758
0002a0 2d fd 5f bb 58 91 2b 3c 6b 16 27 bd db 35 a8 3d
       -0.0034178004 0.010471664 -0.040792864 0.08213397
0002b0 c9 54 fb 3d be 24 53 bd 32 27 fa bc f1 f5 b5 bc
       0.12272031 -0.051548712 -0.030536268 -0.022212
0002c0 11 1b 93 3d 23 39 59 3e a8 5e 0b bd 37 bf da 3d
       0.07182897 0.21213202 -0.034025818 0.106810026
0002d0 c3 bb ad 3d 2a eb 91 3d 4e c1 b0 3d 6b ce 86 bd
       0.08483078 0.07124932 0.0863062 -0.0658234
0002e0 3b 73 d2 3d 21 ac 44 bd 9f 9a a7 bd da 55 e7 3d
       0.10275885 -0.048015717 -0.081837885 0.11295672
0002f0 83 d3 ef bd d8 eb 1b be 1e fd 4e 3e 0a 87 0f be
       -0.117102645 -0.15226686 0.20213744 -0.14016357
000300 cf f9 27 3e c1 f0 2c bd be ea 99 3c 42 c9 3b 3d
       0.16403888 -0.04222179 0.018788692 0.04584623
000310 2b 25 6f bd 38 5d a9 3d 90 4f 05 3d 05 e1 24 be
       -0.058385056 0.08269733 0.03254658 -0.16101463
000320 05 fd 6b 3d 51 cb 3c be 0a 15 09 3e 6b e2 aa bd
       0.057614345 -0.18436934 0.13386932 -0.08343967
000330 b7 14 fe bd f2 bc f1 3c 32 23 c8 3d c2 fb 82 3d
       -0.12406295 0.029509041 0.09772338 0.06395675
000340 6e 4f e5 bd 1e b1 e9 3d 14 fb 00 bb c8 97 15 3c
       -0.11196791 0.114107355 -0.0019680904 0.009130426
000350 3b 95 54 bd a3 49 b0 3d d3 20 2c 3d f7 70 b0 bd
       -0.05190013 0.08607795 0.04202349 -0.08615296
000360 a9 12 d5 3c 38 72 cc 3d de e5 db 3d ce 3e 95 3c
       0.026009874 0.09982723 0.10737203 0.018218424
000370 33 2b bd bd cb 58 34 3d 2b 27 52 bc 3c bd 6a bd
       -0.09236755 0.044029992 -0.012826721 -0.057309374
000380 89 71 d2 bd 9e f9 c7 bc 55 78 be 3d ae 00 15 be
       -0.10275561 -0.024411019 0.09300295 -0.1455104
000390 28 bb 0d 3d c1 97 79 bd 6b 87 cb 3b 2e f4 8a bd
       0.034602314 -0.06093574 0.0062112114 -0.06784855
0003a0 d4 c8 b3 3c 96 21 7e 3d ae 28 b1 bd 85 47 85 bd
       0.021946348 0.06204375 -0.08650337 -0.06507782
0003b0 da 23 3a be 11 3c 60 3e ec 05 e9 3d 13 94 d6 bd
       -0.18177739 0.21897914 0.11378083 -0.10477462
0003c0 8d 0f 49 bc 36 bc 2e 3d ef 3d 46 3d 68 6c 4d bd
       -0.012271774 0.04265996 0.04839891 -0.050152212
0003d0 2d 4b 72 3e b4 08 f8 3d 69 e5 2c bd ff 3f 29 3c
       0.2366149 0.12111035 -0.04221097 0.010330199
0003e0 c0 0f d8 3d 83 aa 11 3e 92 f1 ab ba 70 a5 82 3b
       0.10549879 0.14225201 -0.0013118258 0.003987007
0003f0 23 94 17 bd 28 54 0d 3d bb 8b 44 3d 11 21 2d bd
       -0.03700651 0.034504086 0.04798482 -0.042267863

network_body._body_endoder.seq_layers.2.bias f4 [128]
000000 97 af c4 3c cc f2 64 bc a6 dd b9 bc e8 9e d4 3c
       0.024009509 -0.013973903 -0.022688698 0.025954679
000010 f5 70 d6 3c a9 0a 2b 3c 19 c1 03 3d 65 39 3a bc
       0.026176909 0.010439553 0.032166574 -0.011366223
000020 ee 63 08 3d 95 d7 71 bc 6c 1d ab 3c 02 f8 1d 3d
       0.033298425 -0.014760871 0.020888053 0.038566597
000030 50 cc 74 bc 4a 89 ac 3c 2b af 2d 3c 1d 04 9c bc
       -0.01494129 0.021061558 0.010600845 -0.01904493
000040 7a 2a 43 bc 7a c6 90 bc 60 dd c7 3c f3 07 c9 3b
       -0.011911983 -0.017672766 0.024397552 0.006134981
000050 73 ba 5c bc e4 d8 31 bc 36 03 cc bc 6a 1d 08 bc
       -0.013472187 -0.010854933 -0.024903875 -0.008307794
000060 d1 d5 ca 3c 33 54 e9 3c 9f c1 6d 3c 3d 6e cc 3c
       0.024760159 0.028482532 0.014511495 0.02495491
000070 36 ba b7 bc 06 eb d5 bb 14 45 b9 3c d5 cb 8b bc
       -0.02242766 -0.006528261 0.022615947 -0.017064968
000080 91 4c 9d bc b1 91 d5 bb 02 85 8f 3c a4 a9 cb bc
       -0.019201549 -0.006517612 0.017519478 -0.024861164
000090 cc 08 06 3d 85 fd a7 bc 9f 74 3f 3d 20 c3 cc 3c
       0.032723233 -0.02050663 0.046742078 0.024995387
0000a0 0d 4d 93 bc ca 7e 33 3b a4 e4 96 bc 08 16 ba bc
       -0.017981077 0.0027388805 -0.018419571 -0.022715583
0000b0 c6 4c 88 bc 40 a3 ae 3c 85 e0 09 bb f5 e8 e0 3c
       -0.01663817 0.021318078 -0.0021038365 0.027454833
0000c0 f6 ed 54 3c ac 4c 85 bc dc 07 57 bc 5d cb b5 3c
       0.012996187 -0.016271912 -0.013124432 0.022191698
0000d0 ba 04 bb 3c e4 60 ce 3c 06 33 cd 3c 9d 1b dd 3b
       0.022829402 0.025192685 0.025048744 0.0067476765
0000e0 fc d3 6c 3c 38 7f f2 3c 7c c4 a6 bc d8 60 9a bc
       0.014454838 0.029601678 -0.020357363 -0.018845007
0000f0 1b 3c 0d 3d 1b 10 89 bc 9e 43 61 3c 4e 44 be 3c
       0.03448115 -0.016731312 0.013749031 0.02322593
000100 48 a9 eb 3c c1 70 a8 3c 4a 90 a0 3c 3d 81 06 3d
       0.028767243 0.020561578 0.019600052 0.032838095
000110 59 cf 0f 3d 8f 0a bb 3b 70 b3 75 bc c2 68 0d bc
       0.03510985 0.005708046 -0.0149963945 -0.008630933
000120 b2 00 8b bc bd ce f8 3b a6 9d 03 3d 54 97 ce 3c
       -0.016968105 0.0075930045 0.032132767 0.025218643
000130 14 82 dd bb 64 2c 0b 3d e8 ef 05 3d 71 a6 15 3d
       -0.0067598913 0.03397788 0.032699496 0.036535684
000140 85 37 d5 3c 4e da ab 3c 49 4a c1 3c 78 ab ab 3c
       0.02602745 0.02097812 0.023594992 0.020955786
000150 c6 2d 34 bc 2d 35 02 3d 0f 5b 48 bc 8b 11 fb 3c
       -0.010997241 0.031788994 -0.012228741 0.030648014
000160 b8 2a a0 ba 25 93 bb 3c b4 fa ce 3c 96 aa 06 bc
       -0.0012219762 0.022897312 0.025266029 -0.008219382
000170 a0 aa a1 3c 1b 51 ad bc 65 a4 c8 3c 75 c5 98 bc
       0.01973468 -0.021156838 0.024492452 -0.018648842
000180 65 b2 8e bc 15 d3 a3 bc d4 ad 4a 3c 2f ae 85 bc
       -0.01741905 -0.019998113 0.012370545 -0.016318409
000190 d4 bc e9 bc 24 4b 85 bc 80 90 de bc 34 7a 8d 3c
       -0.028532423 -0.016271181 -0.027168512 0.017270185
0001a0 e0 b7 df 3c fe f1 b6 3b 42 e9 b4 3b 12 3a b7 3c
       0.027309358 0.005583047 0.0055209706 0.022366557
0001b0 27 b6 d8 3c b6 bd 70 3c 4b 1f 29 3c 62 8d 98 bc
       0.026454045 0.014693668 0.010322402 -0.018622104
0001c0 74 33 20 bc 1f 97 db 3c f9 ba dd 3c f9 4a 99 3c
       -0.009777892 0.026805459 0.027066695 0.018712508
0001d0 c1 c5 ca 3c 19 45 06 bc 62 cf 02 3d 18 21 e7 3c
       0.0247525 -0.008195185 0.031936057 0.028214023
0001e0 59 be d1 3c 35 69 06 3d b7 54 bd 3c 83 bb 9c bc
       0.02560346 0.032815177 0.023111684 -0.019132381
0001f0 36 17 49 3c 1c 23 00 3d f3 88 0c 3b e3 7a f7 3c
       0.0122736 0.031283483 0.0021443933 0.030209964

action_model._discrete_distribution.branches.0.weight f4 [3, 128]
000000 8a 8c be bb d6 0b 36 b9 7a 95 ce 3c a2 aa 00 bd
       -0.0058150934 -0.00017361282 0.02521776 -0.031412728
000010 61 af 43 bb 33 14 73 bb ea 90 d0 bb fb 41 03 3d
       -0.0029859173 -0.0037090897 -0.0063649314 0.032045346
000020 9c b7 6f bc f8 11 3d ba 0b 73 fb bb 3e 11 86 bc
       -0.014631178 -0.00072124554 -0.0076736263 -0.016365644
000030 da 18 1e 3c cc 29 83 bc 75 67 3a 3c 14 fb e2 3b
       0.00964948 -0.016011141 0.011377205 0.0069269035
000040 ad 70 42 3a 13 20 2b 3c 33 71 28 bc 77 5b 2d b9
       0.00074173027 0.010444659 -0.010280895 -0.00016532639
000050 e6 ce a7 3b a1 f9 0e 3c a4 68 8b 3c b6 04 5b bb
       0.0051210998 0.008726508 0.01701767 -0.0033419556
000060 04 d3 a0 3b 04 90 9f bc 2d 6a af 3b 1b 07 7d bc
       0.0049079675 -0.019477852 0.0053532333 -0.015443589
000070 a6 74 88 3c 29 d6 f8 3c c9 7f 05 bc 6f 41 05 3c
       0.016657185 0.030375557 -0.008148142 0.008133276
000080 97 da 74 3c 54 2d 04 ba a9 2d 50 3c a8 51 9d bb
       0.014944694 -0.0005042155 0.012706199 -0.004800994
000090 22 cb 33 3c b8 42 21 3c 92 80 2b 3c d2 ce 9c bc
       0.010973724 0.009842567 0.010467665 -0.019141588
0000a0 19 d2 45 3c 74 38 81 bc d9 27 29 3a de b0 1a 3c
       0.012074017 -0.01577399 0.0006452776 0.0094415825
0000b0 5d c0 85 3c 28 73 bc bc 4f ee 30 3c 7f dc e2 bc
       0.016327078 -0.02300413 0.010799005 -0.027693031
0000c0 c7 2b 75 bc 7a 78 63 3b f0 9c 3f 3c de 97 65 bc
       -0.014964051 0.003470926 0.011695132 -0.014013259
0000d0 9d 53 54 3b 6e 0a 33 bc 83 66 91 bc 3f 3c 31 3c
       0.003239847 -0.01092778 -0.017749077 0.010817586
0000e0 3c cc 91 bc e4 5a 7c bc 19 80 00 3a 29 26 84 3c
       -0.017797582 -0.015402529 0.00049019005 0.016131477
0000f0 dd b2 d5 bc 9e db 93 3c 9a 97 d7 ba 13 7f f0 bc
       -0.026086265 0.018049058 -0.0016448379 -0.029357469
000100 eb b7 21 bc 78 2a 0e bb 8c 7f 5b bc 68 d5 b0 3b
       -0.00987051 -0.0021692794 -0.013397109 0.0053965338
000110 7e 01 20 3b 90 5f 0b 3c 95 51 60 3c c0 c8 e8 3c
       0.0024414952 0.008506671 0.013691326 0.028416038
000120 ca f9 03 3c 73 ba 43 bb bc 36 00 bc a9 3a 61 bc
       0.00805516 -0.002986577 -0.00782555 -0.013746896
000130 9a 37 ee 3b 99 1e 7d bc 62 ee 84 bc 93 04 06 bc
       0.007269812 -0.01544919 -0.016226951 -0.0081798015
000140 e7 44 17 bd 75 99 ef bc 38 94 c4 bc 33 8d b3 bc
       -0.036930945 -0.029247979 -0.023996457 -0.021917915
000150 04 82 ce 3c 3a 2b da bc a4 2a 9e 3c 61 02 90 3c
       0.02520848 -0.02663194 0.019307442 0.01757926
000160 0d 7a 09 3c 32 3e 4e bc 52 98 eb bc 4f 66 7a 3c
       0.008390916 -0.012588071 -0.028759155 0.015283181
000170 ad dd 38 bc 1a 31 ac 3c 56 b6 32 bc df ab 5a 3c
       -0.01128332 0.021019507 -0.01090773 0.013346641
000180 7d c8 ba 3c e2 c6 78 3b 47 37 df 3c 54 84 88 3c
       0.022800678 0.003796034 0.027248038 0.016664661
000190 60 ac 8a 3c 75 7a 65 3c 1b a7 34 3c 71 2c 4b bc
       0.016927898 0.014006247 0.011026169 -0.012400732
0001a0 59 0e 2c bb 45 e2 c3 bb 29 36 c3 3b a5 6b fd bc
       -0.002625367 -0.005977901 0.005957384 -0.030935118
0001b0 45 80 be bc 07 6c 6c bc 90 1d 74 3b e2 bb 90 3c
       -0.023254523 -0.014430053 0.0037249066 0.017667715
0001c0 9f be a7 3b 70 05 0e bb 05 5d ba bc 8a 0a 4e bc
       0.0051191594 -0.0021670721 -0.022749433 -0.012575755
0001d0 76 1c d4 bb 97 aa 08 3c b7 48 ab bc c6 72 6e bc
       -0.0064731194 0.008341453 -0.020908697 -0.014553731
0001e0 e3 42 9c bc d9 b7 96 3b 4a 83 06 bd 55 19 98 3b
       -0.019074863 0.004599553 -0.03284005 0.0046416917
0001f0 e0 7b 1f bc f8 95 bb bc 69 4d 16 bc c1 93 be bc
       -0.009734124 -0.02289866 -0.009173729 -0.023263814
000200 3d f5 cb 3c 4b 03 10 bc f4 29 b3 bc ee f8 5f 3c
       0.024897212 -0.008789848 -0.02187059 0.013670189
000210 90 d7 dc 3c a4 22 9c 3a 3a 81 f9 3c c6 48 37 bd
       0.026958257 0.0011912179 0.030457128 -0.044747137
000220 d4 f7 09 3d f2 b9 69 bc 35 13 91 3c 4f 68 f5 3c
       0.033683613 -0.014265524 0.017709354 0.029956965
000230 44 cb e4 bc 02 58 e6 3c 6e 1f 26 3c c8 6e b4 bc
       -0.027928956 0.028118137 0.010139329 -0.02202548
000240 bb 65 05 bd cd 99 d7 bc 56 d2 0c 3d c4 a0 0e 3c
       -0.03256772 -0.026318455 0.03438028 0.008705322
000250 c6 33 dc bc e9 f1 00 bc 67 1d 98 bc e7 39 81 bc
       -0.026880156 -0.007870176 -0.018568708 -0.01577468
000260 49 9e ba 3c a2 32 dd 3c b6 6f 4b 3c d5 82 06 3d
       0.022780554 0.027001683 0.012416771 0.032839615
000270 0b ff bf bc 04 06 49 bc 8c a0 75 3c 46 ba 07 bd
       -0.023437044 -0.012269501 0.014991891 -0.03313663
000280 3a 2f c9 bc 06 fe 18 bd ef f0 8f 3c b7 5a e9 bc
       -0.024558652 -0.03735163 0.01757094 -0.028485639
000290 90 1b 30 3c f6 ba 11 bc 7e c7 86 3c 67 9f 91 3c
       0.010748759 -0.008894673 0.016452547 0.017776204
0002a0 e7 d9 85 bc ef 16 e9 bb 2a c5 43 bc 59 51 18 bd
       -0.016339255 -0.0071133296 -0.011948863 -0.037186954
0002b0 68 50 19 bd 71 d9 dc 3c ce ed 77 bc 14 76 d5 3c
       -0.037430197 0.026959153 -0.015132381 0.02605728
0002c0 ce b9 a2 3b 40 62 17 bd 38 38 c9 bc 69 c6 0d 3d
       0.0049659973 -0.036958933 -0.02456294 0.034613047
0002d0 5b f3 f0 3b 3b ff 16 3d e3 ba 9d 3c 5d cb b8 bb
       0.007353229 0.0368645 0.019254154 -0.005639477
0002e0 41 cc 90 3c de 52 27 3d 69 28 ed bc 05 c9 46 bc
       0.01767552 0.040850513 -0.028949933 -0.012132888
0002f0 90 f5 37 3d 8f c9 88 bc f4 91 25 3c ab 0a ee 3c
       0.04491192 -0.016697673 0.010105599 0.029057821
000300 df 58 15 3d 8d 2a 8f 3c 77 dc 03 3b 36 ca 2f 3c
       0.036461707 0.017476344 0.002012042 0.010729363
000310 a1 69 ca 3c e4 89 33 bc 45 a2 f0 bc 89 d0 0e bd
       0.02470857 -0.010958169 -0.029374251 -0.034866843
000320 21 c0 eb bb d9 2e 15 3c 8a cc f1 3c 6e e6 d9 3c
       -0.0071945344 0.009105408 0.029516477 0.026599135
000330 e1 e8 71 bc b0 a0 96 3c 39 73 3a 3d 64 a8 eb 3c
       -0.014764995 0.018387169 0.04552004 0.028766818
000340 22 8d bf 3c 7d 79 36 3d 05 f4 45 3d 2a 87 89 3c
       0.023382727 0.044549454 0.04832842 0.016788084
000350 e8 e7 b0 bc 7c b4 02 3d 4e 6f a3 bc ad 5f ea 3c
       -0.021594957 0.031910405 -0.019950535 0.028610075
000360 f1 67 2c 3c d4 60 ee 3c 48 35 9f 3c 35 60 36 bc
       0.010522828 0.029098906 0.019434586 -0.011131336
000370 b8 5f b4 3c a9 35 ea bc 75 14 b2 3c c0 1d d0 bc
       0.022018299 -0.02859004 0.02173827 -0.02540481
000380 0b 3a ca bc 4e d1 b2 bc 47 58 13 bd df 52 55 bc
       -0.02468588 -0.02182832 -0.03597286 -0.013020246
000390 71 5d cf bc 33 4f e2 bc 6c b2 c2 bc 37 77 73 3c
       -0.025313111 -0.027625656 -0.023766719 0.014859966
0003a0 35 21 e7 3c 87 e8 37 3c 1f dd 7f bc 0d 64 bf 3c
       0.028214077 0.011224872 -0.015616684 0.023363138
0003b0 fb 26 ff 3c ee 49 3b 3c 2f 15 63 bc 0a 49 85 bc
       0.031146517 0.0114312 -0.013860031 -0.01627018
0003c0 ea fa 1d bd 13 52 0e 3d 8c a4 fa 3c 1b 7b 9c 3c
       -0.03856937 0.03474624 0.03059604 0.01910167
0003d0 f0 37 20 3d 45 b1 f7 bc 41 2d 77 3c 8f a5 e8 3c
       0.039115846 -0.030235896 0.015086473 0.028399257
0003e0 f3 0d 07 3d 9b 14 03 3d df 23 fa 3c 31 2f a6 bc
       0.032972287 0.032002073 0.030534683 -0.020286174
0003f0 95 9e 88 3c ea 85 e7 3c 41 f2 65 bc 9c 05 c6 3c
       0.01667718 0.028262097 -0.014034809 0.024172597

action_model._discrete_distribution.branches.0.bias f4 [3]
000000 24 5a 1d bc 58 e8 56 3c bb 18 b8 bc
       -0.009604011 0.0131169185 -0.02247273

action_model._discrete_distribution.branches.1.weight f4 [3, 128]
000000 f1 fb 4a 3c 85 6f 16 3c 2d 70 c3 bc 32 23 68 bc
       0.012389169 0.009181862 -0.0238572 -0.0141685475
000010 c8 bc 02 3d e1 22 89 3b 57 a6 70 3c d7 04 b8 3a
       0.031918317 0.004185066 0.014688096 0.0014039528
000020 39 64 56 3b 7b 65 84 bc fe f5 6a 3c 37 4d 0b 3c
       0.0032713546 -0.01616167 0.014340876 0.008502296
000030 63 62 2c bc 27 ec b2 3c bf e2 9a 3b 9f c9 a9 bb
       -0.010521504 0.021841122 0.0047267373 -0.005181506
000040 d4 03 a5 bc 51 1f 78 bb 4a 70 c8 3c 14 c6 bd 3a
       -0.020143427 -0.0037860463 0.024467606 0.0014478588
000050 07 5d 1d bc 1b e6 b3 3b 00 b9 05 bc 56 d4 be bc
       -0.009604699 0.005490077 -0.008161783 -0.023294609
000060 0c e3 06 3c 4b cc 69 3c d4 5e 47 bc 2a 8d 48 3c
       0.008232843 0.014269899 -0.012168605 0.012240687
000070 ec b2 f2 bb a0 da 20 bc e0 74 a0 3c 00 2a ba 3b
       -0.007406583 -0.009817749 0.01958698 0.0056812763
000080 da 33 37 bc 4b ee d8 3c f3 3d ad bc da 36 22 bc
       -0.011181796 0.026480814 -0.021147704 -0.009900773
000090 72 20 b3 bc e7 cd f0 ba 3e 96 63 bc 55 36 c4 3c
       -0.021866057 -0.001837191 -0.013890801 0.023951689
0000a0 76 e2 47 bc b8 2a 97 3b 62 9f da bb c1 51 12 bc
       -0.012199989 0.004613247 -0.006671832 -0.008930624
0000b0 88 0d 01 39 c4 bd 8a 3b 78 34 50 bc bc b3 04 3d
       0.0001230744 0.0042340476 -0.012707822 0.03239797
0000c0 56 ff a0 3b f5 f7 5b bc b6 c0 36 bc 27 cd b2 3c
       0.004913251 -0.013425817 -0.011154344 0.02182634
0000d0 2c 5e 86 3b ca 60 48 3c d3 f2 26 3b 71 77 40 bc
       0.0041005816 0.012230108 0.0025474324 -0.011747227
0000e0 c1 d0 0d 3d 67 65 a2 3c 9c db f3 bb 92 3f 20 bc
       0.03462291 0.019823743 -0.007441951 -0.009780781
0000f0 4e 2b 05 3c a4 3e 6e bc eb d4 54 3c 7e 4e 46 3c
       0.008128 -0.014541302 0.012990217 0.012103675
000100 d0 ff 52 3c 11 26 3b 3c b0 c0 d6 3b 75 24 cb 3c
       0.012878373 0.01142265 0.006553732 0.024797658
000110 96 bd 9e 3c a1 e1 5c bc 59 69 ef bb ee 3f b1 bc
       0.019377511 -0.0134815285 -0.0073062596 -0.02163693
000120 d6 ce 05 bc 45 c1 7e bc 0c b8 c9 3b 1f 15 8d 3c
       -0.008166989 -0.015549009 0.0061559733 0.017221985
000130 9f 0f a7 bb 9b 8a 3e 3c 91 f4 a0 3c e1 d5 2b 3c
       -0.0050982977 0.011629726 0.019647868 0.010488004
000140 a9 f6 95 3c 9b 7a f9 3b e1 6d 2f 3d d7 b1 29 3c
       0.018306093 0.0076134927 0.042829398 0.010357342
000150 91 e2 12 3c 3d 03 b4 bb a2 50 4f bc 68 24 2d bc
       0.00896515 -0.00549355 -0.012653502 -0.010567762
000160 55 73 7d 3c 92 48 a5 3c 93 91 9d 3c 84 a0 7e 3b
       0.015469392 0.020176206 0.019234454 0.0038853
000170 4a a6 63 3b 91 9b 48 bc 9d 2f 9f 3c f6 67 39 bc
       0.0034736567 -0.012244121 0.019431883 -0.01131629
000180 73 26 de 3b 46 b4 34 bb 27 bb 85 bc 88 fd 1e 3c
       0.006779486 -0.0027573272 -0.016324593 0.009704001
000190 0e cb a6 bc 40 24 b6 bc 9a 14 20 3c 65 27 b7 3c
       -0.020360496 -0.022234082 0.009770537 0.022357652
0001a0 87 93 58 3c e2 c2 20 3c c6 bd 0b bc 2c c0 d7 3b
       0.013218767 0.009812089 -0.008529132 0.006584188
0001b0 32 41 1e 3c 1f 33 75 3b 5d c8 a1 3c fd f2 41 3c
       0.009659098 0.0037414504 0.019748861 0.011837718
0001c0 b4 e8 8c bc 0f 6c 96 3c 28 22 08 3d 7b 36 32 3c
       -0.017200805 0.018362073 0.0332357 0.010877247
0001d0 a3 8c 1f 3c a9 96 dd 3b 90 1d c2 3c 71 4b 10 bb
       0.00973812 0.006762345 0.023695737 -0.0022017623
0001e0 0a 4e bf 3b 61 7d 3f 3c 10 da 03 3d 78 0a 19 bc
       0.0058381604 0.0116876075 0.032190382 -0.009340875
0001f0 22 b0 d2 3c 36 5a 9b 3b 36 a3 32 3c 02 d5 8f 3c
       0.025718752 0.0047409786 0.01090317 0.017557625
000200 0d 98 d0 bc 20 2e d0 3c 1f 78 88 ba e6 b6 5f bd
       -0.025463128 0.02541262 -0.0010411775 -0.054617785
000210 ba fe 8f bc e0 af 61 3d 6f 77 ad bc ea 9b bb 3c
       -0.017577518 0.055099368 -0.021175114 0.022901494
000220 93 cc 9c bc be 6f 4f 3c 40 d1 82 bc a6 f1 0a bd
       -0.019140517 0.012660919 -0.015968919 -0.03392186
000230 0e 6a de 3c d1 dc 21 bd 72 57 82 bc 67 95 81 3c
       0.02715018 -0.039517228 -0.015910838 0.01581831
000240 d7 bd c0 3c dd 73 f9 39 7f 59 a1 bc e4 15 14 3b
       0.023528023 0.00047579306 -0.019695995 0.0022596056
000250 9d 8f f6 3c d7 02 16 3c 25 31 fc 3c c9 a8 77 3c
       0.030097777 0.0091559505 0.030785153 0.015115925
000260 41 db 08 bd 20 d0 d3 bb 8e fc ee bc c5 8d e2 bb
       -0.03341222 -0.0064640194 -0.029173162 -0.006913873
000270 13 17 96 3c 6b 39 36 3c ad 79 25 bc 45 5d 86 3c
       0.01832155 0.011122088 -0.010099811 0.016401896
000280 7b b8 40 3c 46 f3 c6 3c 56 3e 0e bd e6 18 0f 3d
       0.011762734 0.024285924 -0.034727417 0.034935854
000290 16 72 46 bd ef 20 7e 3c 35 ca 7c bd 22 32 82 bc
       -0.048448645 0.015510782 -0.061716277 -0.015893046
0002a0 31 0e 88 3b e8 ff 7c 3c da b8 f4 3b 63 2f e0 3b
       0.0041520824 0.015441872 0.007468325 0.0068415864
0002b0 e4 39 b5 3c 27 42 70 bd f5 a9 27 3d d1 7e 93 bc
       0.022122331 -0.058656838 0.040933568 -0.018004807
0002c0 41 9e 94 bc e2 c1 11 3c 61 08 77 3b bc cb d5 bc
       -0.018141868 0.008896323 0.0037694203 -0.026098125
0002d0 92 24 06 bd 2e 5c 9a bc 97 ee de bb 81 fa 73 bc
       -0.03274972 -0.018842783 -0.0068033445 -0.014891268
0002e0 c8 c0 9c 3c 7b ce 8a bc 9d b0 b4 3c ce be 60 3c
       0.019134894 -0.01694416 0.022056872 0.013717366
0002f0 1a 0d 2e bc 16 b0 28 3d f2 b2 b7 bc 80 ed c4 bc
       -0.010623241 0.041183554 -0.022424195 -0.02403903
000300 03 c9 61 bc 13 b4 a4 bc 4f 41 4e 3d 58 b7 08 bd
       -0.013780835 -0.020105397 0.050355252 -0.033377975
000310 b5 7c 67 bc 5b a2 d6 bc 58 13 80 3c dd e1 87 3c
       -0.014128854 -0.026200464 0.015634224 0.016587192
000320 49 e2 c2 3b 87 ad 80 bc 94 27 ac bc aa 93 9c bc
       0.0059473854 -0.015707744 -0.021014966 -0.01911338
000330 9e 63 f1 3c 98 3c 87 bc cd 06 4e bc c4 f7 06 bc
       0.029466446 -0.016508386 -0.012574864 -0.008237783
000340 ee 56 0d bd b7 08 88 3c 3b 3a 16 3d 96 5d 07 ba
       -0.03450673 0.016605718 0.036676627 -0.00051637867
000350 c1 9b ef 3c e5 51 1f bc b6 24 f6 39 af 83 98 bc
       0.029249074 -0.009724115 0.00046948128 -0.01861748
000360 3b b4 e8 bb e5 f3 18 bd 75 19 6a bc 6e 0a d5 3a
       -0.0071015633 -0.03734197 -0.014288296 0.0016253719
000370 7d a4 9f 3a 47 65 92 3c b1 d0 4f bc 27 a5 04 bc
       0.0012179759 0.017870558 -0.012684033 -0.008096016
000380 e0 de 4f 3c 46 21 f5 3c 95 b1 2d bd 4e 37 66 3b
       0.012687415 0.029923093 -0.042405684 0.003512818
000390 05 7b 12 3c 0d 2b 3a 3c d0 b1 f7 3b 90 4d 5f bb
       0.008940463 0.011362803 0.0075590387 -0.003407333
0003a0 5c a7 3c bd 8f 1b bf 3c 78 24 1e 3d 84 2e c9 bc
       -0.046058044 0.02332857 0.038608998 -0.024558313
0003b0 6a 7f c0 bc e4 94 3a bb 2c a8 40 3d 22 5a a0 3c
       -0.023498256 -0.0028470093 0.04703538 0.019574229
0003c0 e2 56 64 3c ff 05 33 bd 64 a2 54 bc 0e 49 36 3b
       0.01393673 -0.04370689 -0.01297817 0.002781454
0003d0 d3 7e 25 bd 2c 01 ba 3c d3 a8 ad ba 32 56 81 bb
       -0.040404152 0.022705637 -0.0013249166 -0.003947043
0003e0 f9 4d 16 bd df 28 cc bc ca fc 80 bc 90 9c fd 3b
       -0.036695454 -0.024921833 -0.01574554 0.007739611
0003f0 8f 32 c5 3c 7e b0 81 bc 09 a9 52 3d 48 ce 5f bc
       0.02407196 -0.015831228 0.051430736 -0.013660021

action_model._discrete_distribution.branches.1.bias f4 [3]
000000 88 75 01 3c 16 51 29 bc 93 bf 1a 3c
       0.007901557 -0.010334274 0.009445089
