results/ppo/Racing/Racing-1999.onnx (onnx, 88644 bytes, 9 tensors)

discrete_act_size_vector f4 [1, 2]
0	0x40400000	3.0
1	0x40400000	3.0

network_body._body_endoder.seq_layers.0.weight f4 [128, 29]
0	0xbe00a962	-0.12564614
1	0x3ea19698	0.31560206
2	0x3d997921	0.07493807
3	0xbe94f096	-0.29089803
4	0x3e05114e	0.12994882
5	0xbe381007	-0.17974864
6	0x3e8bf2fd	0.27333823
7	0x3af12ffe	0.0018401144
8	0xbed55566	-0.41666716
9	0xbe6356e7	-0.2220112
10	0xbde4b438	-0.111671865
11	0x3e88980d	0.26678506
12	0x3b69e78e	0.0035690996
13	0xbe82998b	-0.2550777
14	0x3e7d00e2	0.24707368
15	0xbc421dea	-0.011847952
16	0x3d8d2fba	0.06893869
17	0xbe8f8b8c	-0.28036153
18	0x3e94d36d	0.29067555
19	0xbe5e8f22	-0.21734288
20	0x3ca2245e	0.019792732
21	0xbe9a23d2	-0.30105454
22	0x3e4b44d5	0.19850476
23	0x3d1d125d	0.03834759
24	0x3d837aa8	0.06419879
25	0x3d574907	0.05255988
26	0x3d0805e9	0.03320876
27	0x3c6c85ac	0.014436167
28	0xbdcbd04f	-0.09951841
29	0xbd01a458	-0.03165087
30	0x3e87c232	0.26515347
31	0xbdbb6983	-0.09150984
32	0x3d6d048c	0.057865664
33	0x3db3bd2b	0.08776315
34	0x3ddbb41e	0.10727714
35	0xbe1281cc	-0.14307326
36	0xbd140cec	-0.036145136
37	0xbde482a4	-0.1115773
38	0x3da09ab6	0.07842009
39	0x3c8b78c5	0.01702536
40	0xbd881114	-0.066438824
41	0x3e039d30	0.12852931
42	0xbe3f5958	-0.18686426
43	0xbdad6c8c	-0.08467969
44	0xbcbd5363	-0.023111051
45	0x3ecef5fa	0.4042204
46	0x3e99e8ba	0.3006037
47	0xbcd27750	-0.025691658
48	0x3f11be0e	0.56930625
49	0xbe675dff	-0.2259445
50	0x3e33d4ce	0.17561647
51	0xbbe8c31c	-0.007103337
52	0x3b01ff87	0.0019836144
53	0x3ec277a6	0.3798191
54	0xbc754f9a	-0.014972592
55	0xbe5245ee	-0.20534489
56	0xbe1c2cb9	-0.15251435
57	0x3e81d8c6	0.25360698
58	0x3d2aba39	0.041681502
59	0x3d49aea0	0.0492388
60	0xbf22fa04	-0.63662744
61	0x3e84e9d5	0.2595965
62	0xbe3f0375	-0.18653663
63	0x3c690415	0.014222165
64	0x3d919da1	0.071101435
65	0xbda45211	-0.080234654
66	0x3e9b4dfd	0.30332938
67	0xbe909b56	-0.28243512
68	0x3d02c202	0.0319233
69	0x3d4417d6	0.047874294
70	0x3d3f4b6a	0.04670278
71	0x3ec5e153	0.3864847
72	0xbd88fc6d	-0.066887714
73	0x3db76a94	0.08955875
74	0xbd7ea728	-0.06217113
75	0xbd50b370	-0.050952375
76	0xbf24519f	-0.64187044
77	0xbe128972	-0.14310244
78	0xbeacee8c	-0.33775747
79	0x3e8a747a	0.2704199
80	0x3d98d125	0.07461766
81	0xbeb4a494	-0.35281813
82	0xbeb8e55e	-0.36112493
83	0xbe2d5ae2	-0.169292
84	0xbe36a2b7	-0.17835508
85	0xbe690c85	-0.22758682
86	0x3e147c7e	0.14500615
87	0x3e19fb56	0.15037283
88	0xbe3b9174	-0.18317205
89	0x3cd7a1ff	0.026322363
90	0xbdb4f346	-0.08835463
91	0x3dc80910	0.097673535
92	0x3d025e43	0.031828176
93	0x3e22c927	0.15897046
94	0xbd100468	-0.035160452
95	0xbe590fe4	-0.21197468
96	0x3ee40fca	0.44543296
97	0xbbc2801e	-0.005935683
98	0x3de91ef7	0.11382859
99	0xbe22985d	-0.15878434
100	0x3d9a5aae	0.07536827
101	0x3d98bf83	0.07458403
102	0xbcf67541	-0.030085208
103	0xbe8446ba	-0.2583521
104	0x3e5ebc94	0.21751624
105	0x3d8fcecd	0.07021866
106	0x3df5d329	0.12003166
107	0xbde25102	-0.11050607
108	0x3d92ba22	0.07164408
109	0x3eba3912	0.36371666
110	0x3e352e3c	0.17693418
111	0xbdb0f861	-0.086411245
112	0x3df1297c	0.11775491
113	0x3ddc4fda	0.10757418
114	0x3d93e440	0.072212696
115	0x3d6e04e7	0.058110144
116	0x3dd64b39	0.10463566
117	0xbe3aa5d5	-0.18227322
118	0xbbb387b9	-0.005478826
119	0x3e66bfdf	0.2253413
120	0x3da5c018	0.080932796
121	0x3e99c21b	0.30030903
122	0x3e65cc8b	0.22441308
123	0x3caac0cc	0.020843886
124	0xbe44d441	-0.19221593
125	0xbe83ccb4	-0.25742114
126	0x3ebddb4b	0.3708137
127	0xbe7259d0	-0.23667073
128	0xbe26f9cb	-0.16306226
129	0xbd8e0519	-0.06934566
130	0x3e21b449	0.1579143
131	0x3e664cb0	0.22490191
132	0x3d710514	0.058842734
133	0xbe855e0e	-0.2604832
134	0xbd83d1f8	-0.06436533
135	0x3cd6ce07	0.026221288
136	0x3d3bd661	0.045858745
137	0x3e7e1507	0.24812709
138	0xbe4e488e	-0.20144865
139	0x3e269013	0.16265897
140	0xbcdbf8ac	-0.026851974
141	0x3da3e458	0.080025375
142	0x3e86879b	0.26275334
143	0x3dfcdf58	0.12347287
144	0x3e233ead	0.15941878
145	0x3e8d1f11	0.27562764
146	0xbe6cef27	-0.23138104
147	0x3e82d7d3	0.25555286
148	0xbeac8d85	-0.3370172
149	0x3cde6b6d	0.027150834
150	0x3e6a006c	0.22851723
151	0x3e8b27a1	0.27178672
152	0x3e20d467	0.15706025
153	0x3eb374e3	0.35050115
154	0x3bcbe62a	0.006222506
155	0xbdd1257e	-0.10212229
156	0xbe1de19f	-0.15418099
157	0x3e23a852	0.15982178
158	0x3e69388c	0.22775477
159	0x3e11bbe6	0.14231834
160	0x3ec68087	0.38769934
161	0xbd4c0738	-0.04981157
162	0xbdf6fb71	-0.120596774
163	0x3e7e0bef	0.2480924
164	0x3e211e86	0.157343
165	0x3cd483ab	0.02594169
166	0xbd5a2cfd	-0.05326556
167	0x3da7d55d	0.08194993
168	0x3da342c8	0.07971722
169	0x3cc065bf	0.023486016
170	0x3e19463d	0.149682
171	0x3e611640	0.21981144
172	0x3e672190	0.22571397
173	0x3e3f344f	0.18672298
174	0xbe2f638c	-0.17127818
175	0xbe6e9572	-0.23299196
176	0xbeca31cb	-0.39491114
177	0xbe0888e9	-0.13333477
178	0xbebf802c	-0.37402475
179	0xbd0f8223	-0.035036217
180	0xbe9b5195	-0.3033568
181	0xbe12e4b1	-0.14345051
182	0xbdde30da	-0.108491614
183	0xbe06b0ea	-0.13153425
184	0x3db2d158	0.087313354
185	0xbe867386	-0.26260012
186	0x3e462e3a	0.19353572
187	0xbe32ffde	-0.17480418
188	0xbefafe23	-0.49022016
189	0xbe882357	-0.26589462
190	0xbe83821c	-0.25685203
191	0xbc6c05ae	-0.014405651
192	0xbdc2d47c	-0.095131844
193	0x3e280bfd	0.16410823
194	0xbe2ecc79	-0.17070188
195	0x3e577a18	0.21042669
196	0xbd8b5887	-0.068039946
197	0x3c0f2804	0.008737568
198	0xbe98b177	-0.29822895
199	0xba952d79	-0.001138135
200	0x3d2683ac	0.040652916
201	0x3d764597	0.06012496
202	0xbe3f4d82	-0.1868191
203	0xbd284272	-0.041078992
204	0x3e38ac20	0.1803441
205	0x3e140ccd	0.14458008
206	0x3e511f3f	0.20422076
207	0xbe360df3	-0.17778759
208	0x3ea3ec99	0.32016447
209	0x3cee69b7	0.029103143
210	0x3e69767d	0.22799106
211	0xbd15e5e1	-0.036596183
212	0xbe10c85d	-0.14138933
213	0x3e813e28	0.25242734
214	0x3eb1e8dc	0.3474797
215	0xbdc828ec	-0.0977343
216	0x3e9fa0bb	0.31177315
217	0x3ea113e6	0.31460494
218	0xbebd393a	-0.36957723
219	0x3e80068d	0.25004998
220	0x3e4e2739	0.2013215
221	0xbe248a9a	-0.16068497
222	0xbddd6d16	-0.10811822
223	0x3c959abd	0.018262262
224	0xbe16c0ee	-0.14722034
225	0xbbde8d8d	-0.0067917765
226	0x3ee0e815	0.43927065
227	0x3e862906	0.26203173
228	0x3dece83d	0.115677334
229	0x3c976d6a	0.01848479
230	0x3ca278eb	0.019833049
231	0xbe88c8b6	-0.2671563
232	0xbdf811e5	-0.12112788
233	0x3c6a7e89	0.014312395
234	0xbd187c46	-0.03722789
235	0xbc0d4526	-0.008622443
236	0x3d0e74d8	0.0347794
237	0xbe7134a2	-0.23555234
238	0xbf1c1a66	-0.6097778
239	0xbe8ba026	-0.2727062
240	0x3c53f905	0.012937789
241	0x3e38d969	0.18051685
242	0x3e967ed0	0.29393625
243	0x3efcaf8e	0.49352688
244	0x3e120571	0.14259888
245	0x3e805efc	0.25072467
246	0x3e6143b0	0.21998477
247	0xbedffb75	-0.43746534
248	0x3dab2286	0.08356194
249	0xbae10aec	-0.0017169393
250	0xbeb5a30d	-0.3547596
251	0x3e71c2e6	0.23609504
252	0x3d532214	0.05154617
253	0xbd965523	-0.07340457
254	0xbdf1db1b	-0.11809369
255	0xbec2c760	-0.38042736

network_body._body_endoder.seq_layers.0.bias f4 [128]
0	0xbb6586cd	-0.0035022974
1	0x3d2c0d10	0.042004645
2	0x3d35d9a3	0.044397008
3	0x3ce3c1a9	0.027802305
4	0x3cea2c92	0.028585706
5	0x3cae8970	0.02130577
6	0xbd1522e6	-0.036410235
7	0x3d0f1df3	0.03494067
8	0x3c69a069	0.014259436
9	0x3c1ec0b3	0.009689498
10	0x3c7c897e	0.01541364
11	0x3c61da15	0.013784905
12	0xbc84e508	-0.016222492
13	0x3cb56048	0.022140637
14	0x3cc5925b	0.02411764
15	0x3caed313	0.021340882
16	0x3cf39476	0.029733878
17	0x3d4a672e	0.049414806
18	0x3bf1c8d8	0.007378679
19	0x3d1fda10	0.03902632
20	0x3d157e21	0.03649724
21	0x3d26b9e8	0.040704638
22	0x3c86fd3c	0.016478173
23	0xbc282bcd	-0.010264349
24	0x3d156388	0.036471874
25	0x3ca1e522	0.01976258
26	0xbbddcc58	-0.0067687444
27	0x3b4ba4ea	0.0031073638
28	0x3d04a3e5	0.032382865
29	0x3c3c7923	0.011503491
30	0xbc633cd0	-0.013869479
31	0x3c5a6959	0.013330781
32	0x3cf197db	0.029491356
33	0x3ce96cd7	0.028494282
34	0x3ba03129	0.004888673
35	0x3ce14127	0.027496887
36	0xbca08764	-0.01959581
37	0xbcf62e7f	-0.030051468
38	0x3d4b2422	0.049595006
39	0xbd1b6a3d	-0.037943114
40	0x3cd671f6	0.026177388
41	0x3d24a26e	0.040193968
42	0xbd0882c2	-0.033327825
43	0x3c6ddcfa	0.014518017
44	0x3cbbbd4d	0.022917414
45	0xbc62cc7f	-0.013842701
46	0xbaef753b	-0.001826919
47	0x3d135c36	0.03597661
48	0x3d76864f	0.06018668
49	0x3d0b99c6	0.034082197
50	0x3cda8d30	0.026678652
51	0x3cd5d9bb	0.026104799
52	0x3d406fba	0.04698155
53	0x3cf554bc	0.029947631
54	0x3ca35b2a	0.019940931
55	0xbb19dd08	-0.0023477692
56	0x3c7d3ed9	0.015456879
57	0x3cdf35e3	0.027247375
58	0x3c8f8440	0.017519116
59	0x3cd67968	0.026180938
60	0x3cedd7d6	0.029033583
61	0x3d484a41	0.04889894
62	0x3cc1658f	0.023607997
63	0x3c244e52	0.010028439
64	0x3d401024	0.046890393
65	0x3cc9df01	0.02464247
66	0xba57ea25	-0.00082364894
67	0x3b27f0f1	0.002562579
68	0xbc18307a	-0.009288901
69	0x3cd82630	0.026385397
70	0x3cfa6927	0.030567719
71	0xbd277477	-0.040882554
72	0x3cef6f42	0.029227857
73	0x3ccae9bf	0.024769662
74	0x3c203b5e	0.009779779
75	0x3d30b023	0.043136727
76	0x3cbef0b5	0.023308137
77	0xba4a0819	-0.0007706895
78	0x3d23f9ff	0.040033337
79	0x3c98fcb7	0.018675191
80	0x3c991e86	0.018691313
81	0x3cade203	0.021225935
82	0xbcab9b83	-0.020948177
83	0xbc3d95fb	-0.011571403
84	0x3c6735ca	0.014111945
85	0x3c80434a	0.015657086
86	0x3d3a9807	0.04555514
87	0x3d3fb10f	0.046799716
88	0xbcbd84dd	-0.023134643
89	0x3d48042a	0.048832096
90	0x3cf5252f	0.029924957
91	0x3c772c63	0.015086266
92	0xbbdcd392	-0.0067390883
93	0x3c9f7766	0.019466113
94	0xbad1f5ef	-0.0016018728
95	0x3cc8b7a5	0.024501631
96	0x3c47ef70	0.012203082
97	0xbb246d9d	-0.0025089749
98	0x3d27702a	0.040878452
99	0x3cc01c2b	0.023450932
100	0x3d6db593	0.05803449
101	0x3cea8ea7	0.028632475
102	0x3d0721a0	0.03299105
103	0xbb48138c	-0.003052923
104	0x3c8f9426	0.017526697
105	0x3c05cf03	0.008167031
106	0x3d972eec	0.073819965
107	0x3ceb7875	0.028743962
108	0xbb86c690	-0.004113026
109	0x3bf635a1	0.0075137173
110	0x3ccf6c46	0.025320183
111	0x3b907270	0.0044081733
112	0x3c30d37d	0.01079261
113	0x3d33f2c6	0.0439327
114	0x3c9ced7c	0.01915621
115	0x3bcde72f	0.0062836627
116	0x3d204992	0.039132662
117	0x3ca49cab	0.020094236
118	0xbb6f5d89	-0.0036524257
119	0x3d198331	0.03747863
120	0x3d09cec4	0.033644453
121	0x3b1e1930	0.00241239
122	0x3d032f1c	0.03202735
123	0x3d0867ef	0.033302244
124	0x3cb4a940	0.022053361
125	0x3d8c0e72	0.06838693
126	0x3cc29d56	0.023756664
127	0x3b697cff	0.0035627482

network_body._body_endoder.seq_layers.2.weight f4 [128, 128]
0	0x3e4c5a26	0.19956264
1	0x3def05b2	0.11671008
2	0x3d3e57b5	0.046470363
3	0x3e0e0f95	0.13873132
4	0xbc1be171	-0.009514199
5	0xbd0b2865	-0.03397407
6	0x3d6ac3cd	0.057315636
7	0x3da845a4	0.08216408
8	0x3e6bab53	0.23014574
9	0xbd552f70	-0.052047193
10	0x3e1803bd	0.14845176
11	0x3d704574	0.058659986
12	0xbd64e4a6	-0.05588212
13	0x3e48d07d	0.19610782
14	0xbc30d0c0	-0.010791957
15	0xbcb558bb	-0.022137037
16	0x3d0c7ee6	0.034300707
17	0x3da67433	0.08127632
18	0xbd6f02ce	-0.058352284
19	0xbdaac962	-0.08339192
20	0xbe03dcf6	-0.12877259
21	0xbdbbe359	-0.091742225
22	0x3de06a9c	0.10957834
23	0xbdc83cb7	-0.097772054
24	0xbd22703c	-0.039657816
25	0xbdf5c4d3	-0.12000432
26	0xbe16c2f7	-0.1472281
27	0x3e06e190	0.13171983
28	0xbdf63c19	-0.120231815
29	0x3b86f043	0.004117997
30	0x3d213374	0.03935571
31	0x3d467e15	0.048460085
32	0xbe655975	-0.22397406
33	0xbd8224ca	-0.06354673
34	0xbbedfdc3	-0.007262917
35	0xbe0e8f03	-0.13921742
36	0x3b8c9b82	0.004290999
37	0xbcf8774e	-0.030330326
38	0x3d04e347	0.03244331
39	0xbc6cc9cc	-0.014452409
40	0x3e0769b5	0.13223918
41	0xbbbeebb9	-0.00582644
42	0x3cd48615	0.025942842
43	0x3d4bca61	0.04975355
44	0xbdad3082	-0.08456518
45	0xbe06b6ec	-0.13155717
46	0xbdeaf65c	-0.114727706
47	0x3dbbe567	0.091746144
48	0xbdc2bb02	-0.09508325
49	0xbdb36d65	-0.087611
50	0xbc464813	-0.012102145
51	0xbd0f4378	-0.034976453
52	0xbd8616fa	-0.06547351
53	0xbce14c45	-0.027502188
54	0x3c47c414	0.012192745
55	0x3dcbc472	0.09949578
56	0x3dbe7294	0.09299198
57	0xbcfbac81	-0.030721905
58	0xbdfc6cc8	-0.12325436
59	0x3d7f5f34	0.062346652
60	0x3e27387f	0.16330145
61	0xbd7cecd0	-0.06174928
62	0xbc30e9e6	-0.010797953
63	0x3de6730b	0.112524115
64	0x3e520131	0.20508267
65	0xbe3afc3d	-0.18260284
66	0x3cda91d0	0.026680857
67	0xbe54a0d7	-0.2076448
68	0xbd3d65cc	-0.04623966
69	0xbc2585c6	-0.010102695
70	0x3ccf5fa8	0.025314167
71	0x3cacbd79	0.021086441
72	0x3dea79d2	0.11449017
73	0xbd83ff54	-0.06445184
74	0x3e83d3bd	0.2574748
75	0xbce8b4aa	-0.02840646
76	0x3e89791d	0.26850215
77	0xbddfd530	-0.10929334
78	0x3d2fe1ea	0.042940058
79	0xbc42a8be	-0.011881052
80	0xbd09d7cb	-0.03365306
81	0xbe9d1541	-0.30680278
82	0xbcbee79d	-0.023303801
83	0x3ded5e4e	0.11590253
84	0xbdde1cd8	-0.10845345
85	0xbe1f4680	-0.15554237
86	0xbda372db	-0.07980891
87	0xbddfcbd2	-0.109275475
88	0x3d8acdaa	0.067775086
89	0xbe53b98c	-0.2067625
90	0x3cd07ee9	0.02545114
91	0xbd9795ae	-0.07401596
92	0x3d3d429a	0.046206094
93	0xbde4d892	-0.1117412
94	0xbcb019bb	-0.021496644
95	0x3e130dcf	0.14360736
96	0xbd0f674d	-0.035010625
97	0xbd95c4fa	-0.07312961
98	0xbda51083	-0.0805979
99	0x3d732f60	0.059371352
100	0xbbcdb0de	-0.0062771877
101	0xbdaad630	-0.08341634
102	0xbda72044	-0.08160451
103	0x3e3066d3	0.17226724
104	0x3e0918f4	0.13388425
105	0x3e268afc	0.16263956
106	0x3da4665a	0.080273345
107	0xbdddaf3d	-0.1082444
108	0x3cb2eec8	0.021842375
109	0x3e0e7afa	0.139141
110	0x3df056d2	0.1173531
111	0xbc29be15	-0.0103602605
112	0xbcf5bba9	-0.02999671
113	0xbdb17d5e	-0.0866649
114	0xbd9f3f39	-0.07775731
115	0xbd7777ab	-0.06041686
116	0xbdc42cd6	-0.09578864
117	0x3df63e30	0.1202358
118	0x3d92427b	0.071415864
119	0x3b95d895	0.0045729377
120	0x3dc7644d	0.09735928
121	0x3bf0024a	0.0073244916
122	0xbc8812db	-0.016610553
123	0x3dc89c72	0.097954646
124	0xbda01f98	-0.07818526
125	0x3e3e8f65	0.18609388
126	0x3d5b8d2c	0.05360143
127	0xbac77e53	-0.0015220143
128	0x3ccc03cc	0.024904154
129	0x3df5a266	0.11993866
130	0xbd786ed2	-0.06065256
131	0xbe7d9292	-0.24762943
132	0xbd6290da	-0.055313922
133	0x3b42c88f	0.0029721593
134	0xbd57c153	-0.052674603
135	0x3daa5227	0.083164506
136	0x3e0b2fad	0.13592406
137	0xbd4c2953	-0.049844097
138	0x3e8d248e	0.27566952
139	0x3e4be419	0.19911231
140	0x3d3de224	0.046358243
141	0x3dd2a939	0.10286183
142	0x3eb9f835	0.3632218
143	0xbe1b7df6	-0.15184769
144	0x3d808835	0.062759794
145	0x3e9bce32	0.30430752
146	0xbd0f77b9	-0.035026286
147	0x3da19aba	0.0789084
148	0x3cf5718f	0.029961376
149	0xbde210ae	-0.11038338
150	0x3d0f7d33	0.03503151
151	0xbe12ef58	-0.14349115
152	0xbcd17471	-0.025568219
153	0xbda0ad33	-0.07845535
154	0x3b932358	0.0044902973
155	0xbe310553	-0.17287187
156	0x3dee68d2	0.11641087
157	0x3cfae096	0.030624669
158	0xbdc62256	-0.09674518
159	0x3d87e307	0.06635099
160	0xbe24cdd6	-0.16094145
161	0xbd5e5f47	-0.054290082
162	0xbc3ee71a	-0.011651779
163	0x3ca1fc59	0.019773649
164	0x3d4b0dd9	0.049573753
165	0xbb7dc0c4	-0.0038719634
166	0x3b4d8c4b	0.0031364139
167	0x3c815488	0.015787378
168	0x3e40cc12	0.18827847
169	0xbd284e33	-0.0410902
170	0xbd84bb97	-0.064810924
171	0x3e451222	0.19245198
172	0xba4217b4	-0.0007404045
173	0xbca040a8	-0.01956208
174	0xbc8099b7	-0.015698297
175	0xbbc872d7	-0.0061172056
176	0xbd4f2990	-0.050576746
177	0xbde8a086	-0.113587424
178	0x3da90f69	0.082548924
179	0xbdc420e6	-0.095765874
180	0x3d5017be	0.050803892
181	0x3d5af9db	0.053460937
182	0x3e491fdb	0.19641058
183	0xbb13d1a3	-0.0022555373
184	0xbd95ca10	-0.07313931
185	0xbe019907	-0.12656032
186	0xbe16b573	-0.14717655
187	0xbdf9cf81	-0.12197781
188	0xbd072d1b	-0.033002
189	0xbe666e9b	-0.2250313
190	0xbde57d4d	-0.1120554
191	0x3e4698ac	0.19394177
192	0x3e1ebe76	0.15502343
193	0xbdf6d31b	-0.12051984
194	0xbdcad747	-0.09904342
195	0xbe44544f	-0.19172786
196	0xbe56fd98	-0.20995176
197	0xbd54debe	-0.051970236
198	0xbd982b28	-0.074301064
199	0xbd31be22	-0.043394215
200	0x3dad5955	0.08464304
201	0xbe115593	-0.141928
202	0x3e84602a	0.25854617
203	0xbd568833	-0.052375983
204	0xbcecf1bc	-0.028923862
205	0xbd63bfe0	-0.055602908
206	0xbe06188e	-0.13095304
207	0xbce375dd	-0.027766163
208	0xbd918258	-0.07104939
209	0xbe03ced2	-0.12871864
210	0xbe8ccde0	-0.2750082
211	0x3d1682a8	0.036745697
212	0xbe302777	-0.17202555
213	0xbd77690b	-0.06040291
214	0x3d2cf7b2	0.04222841
215	0x3d22120b	0.03956799
216	0xbe2b0321	-0.16700412
217	0xbc53aeff	-0.01292014
218	0xbe13f4b8	-0.14448822
219	0xbcec25e0	-0.028826654
220	0xbce4b99b	-0.027920535
221	0xbdb81295	-0.08987919
222	0xbd4ae3b3	-0.049533557
223	0x39bb7801	0.0003575683
224	0x3e0f9004	0.14019781
225	0x3d58cb12	0.052928038
226	0x3c06d6bc	0.008229908
227	0xbd4a0c56	-0.04932817
228	0x3d9d0636	0.076672
229	0xbdc77834	-0.09739724
230	0x3de76a04	0.11299518
231	0x3d5b4d54	0.053540543
232	0x3e4ff396	0.20307764
233	0xbd69bdcd	-0.057065774
234	0x3e87b704	0.26506817
235	0xbe65e796	-0.22451624
236	0xbe56f9f7	-0.20993792
237	0x3c9a9589	0.018870132
238	0x3b430787	0.0029759125
239	0xbd3a9127	-0.045548584
240	0xbc87401f	-0.016510068
241	0xbc950bdf	-0.018194137
242	0xbddd2873	-0.10798731
243	0xbd85d7dd	-0.06535313
244	0xbd442499	-0.047886465
245	0x3e04630e	0.12928411
246	0xbc0e5926	-0.008688247
247	0xbe155245	-0.14582165
248	0xbd19234a	-0.03738717
249	0xbd92537f	-0.07144832
250	0xbd1ef174	-0.038804486
251	0x3e0d2935	0.1378525
252	0x3ca2d05d	0.019874746
253	0xbd9bb0e0	-0.076020956
254	0x3d4b4349	0.049624715
255	0xbdb29204	-0.087192565

network_body._body_endoder.seq_layers.2.bias f4 [128]
0	0x3b1f84e4	0.0024340684
1	0x3cd9256a	0.026507098
2	0xbb39c5b6	-0.0028346605
3	0x3ca90d3b	0.020636192
4	0x3cf884a5	0.030336687
5	0x3cafba5d	0.02145117
6	0x3c97c0bf	0.018524526
7	0x3cb0c4e0	0.021578252
8	0x3d075229	0.03303734
9	0x3cb34476	0.02188323
10	0x3cdd8d30	0.027044863
11	0x3c2b108f	0.01044096
12	0x3cdeefd6	0.027213972
13	0x3c5a6927	0.013330734
14	0x3cd8c5d5	0.026461521
15	0x3cdadbe8	0.026716188
16	0x3be9247a	0.007114944
17	0x3cae20a1	0.021255793
18	0x3cb1e605	0.021716127
19	0x3b97a477	0.00462776
20	0x3c88b4ba	0.01668774
21	0x3cc59a8e	0.024121549
22	0x3cbd2be9	0.023092227
23	0x3c7cf71b	0.015439774
24	0x3c045b2f	0.0080783805
25	0x3d36156a	0.044454016
26	0x3d3f537c	0.046710476
27	0x3c6b224c	0.014351439
28	0x3cbe2a0b	0.023213407
29	0x3c3e11d3	0.011600929
30	0x3bd8df21	0.006618396
31	0x3d339ac6	0.043848775
32	0x3ca14178	0.019684538
33	0x3b43d83a	0.002988352
34	0x3be3e50c	0.0069547947
35	0x3ad103eb	0.0015946602
36	0x3d503be9	0.050838385
37	0x3c9261a4	0.017868824
38	0x3ca58632	0.02020559
39	0x3ced9997	0.029003901
40	0x3d10be60	0.035337806
41	0x3c904a3b	0.01761352
42	0x3cc40d4a	0.023932118
43	0x3a375a7d	0.000699438
44	0x3c946b77	0.01811765
45	0x3c9e76f6	0.019343834
46	0x3c910449	0.017702239
47	0xbb5ad900	-0.0033393502
48	0x3b27722c	0.002555023
49	0x3ceeb1ae	0.029137459
50	0x3cfbc7f1	0.030734988
51	0x3b6b0aa4	0.0035864497
52	0x3cb3e2ad	0.021958673
53	0x3cd3a924	0.025837488
54	0x3c410ed8	0.011783324
55	0xba4a5d2d	-0.0007719573
56	0x3cd61577	0.026133282
57	0x3cd73f84	0.026275404
58	0x3cbf39ac	0.02334293
59	0x3c453e70	0.012038812
60	0x3ae9d1e4	0.0017839042
61	0x3c82467b	0.015902748
62	0x3ca1949a	0.019724179
63	0x3c42f3ae	0.011898918
64	0x3cc43b99	0.0239542
65	0x3c88e834	0.016712286
66	0x3cc3c4ce	0.023897555
67	0x3cac596a	0.02103873
68	0x3cb96dc0	0.02263534
69	0x3bf4ef91	0.0074748476
70	0xbc6b91e7	-0.014378048
71	0x3cec868e	0.028872754
72	0x3cb8b849	0.022548812
73	0x3cca0af7	0.024663432
74	0x3c709826	0.0146847125
75	0x3caf0c53	0.021368181
76	0x3cced244	0.025246747
77	0x3d0b6959	0.034036014
78	0x3d0ea2ce	0.03482323
79	0x3cb848ce	0.022495653
80	0x3c93cb88	0.018041387
81	0x3c162a77	0.009165398
82	0x3c2c54a8	0.0105182305
83	0x3c0a4976	0.008440366
84	0x3c24869a	0.010041857
85	0x3cfcd19c	0.030861668
86	0x3c45a30f	0.012062802
87	0x3d2ab9de	0.041681163
88	0x3c320548	0.010865517
89	0x3c97cca9	0.018530207
90	0x3cf07da1	0.02935678
91	0x3c9b4788	0.018955007
92	0x3c8c13d9	0.017099308
93	0x3c035414	0.008015651
94	0x3c80ada9	0.015707808
95	0x3cd5fd8a	0.026121873
96	0x3d008976	0.031381093
97	0x3ca67066	0.020317268
98	0x3cad9698	0.021189973
99	0x3cdfed58	0.027334854
100	0x3c5ec826	0.013597524
101	0x3ccd3188	0.025048032
102	0x3d25a613	0.040441584
103	0x3cb05427	0.021524502
104	0x3cc678f2	0.024227593
105	0x3cbadd92	0.022810731
106	0x3bf2af79	0.007406172
107	0x3c680d24	0.014163289
108	0x3cf21e92	0.029555593
109	0x3bf660d7	0.0075188684
110	0x3d83653a	0.06415792
111	0x3d3fc552	0.04681904
112	0x3ccbef57	0.0248944
113	0x3c650f85	0.013980751
114	0x3d193162	0.03740061
115	0x3c0985c9	0.008393713
116	0x3c0d8ce3	0.008639547
117	0x3c4a9c51	0.01236637
118	0x3cde0cd2	0.027105723
119	0x3c923db0	0.01785168
120	0x3c541125	0.012943541
121	0x3cf9dea1	0.030501666
122	0x3ccf158d	0.02527883
123	0x3d10c712	0.0353461
124	0x3c958c07	0.018255247
125	0x3cb42920	0.021992266
126	0x3cbda2f9	0.023149
127	0x3cdc23e8	0.02687259

action_model._discrete_distribution.branches.0.weight f4 [3, 128]
0	0x3cc2de11	0.02378753
1	0x3d811840	0.063034534
2	0xbc75b6f0	-0.014997229
3	0x3d230475	0.039799172
4	0xbb89ab72	-0.004201346
5	0xbcd38d6f	-0.025824277
6	0xbcd04071	-0.025421353
7	0xbd0a857b	-0.033818703
8	0xbc83e616	-0.016100924
9	0xbcad880c	-0.021183036
10	0xbda7a563	-0.08185842
11	0x3ca2039c	0.019777112
12	0xbd7f4b85	-0.06232788
13	0xbda7e467	-0.08197861
14	0x3dc5491e	0.096330866
15	0xbd56187b	-0.05226944
16	0xbd0f9c24	-0.035061017
17	0x3c627815	0.013822575
18	0xbc0b8d8f	-0.008517637
19	0x3ca0ef06	0.019645225
20	0xbd0b464e	-0.034002595
21	0xbd4a9bec	-0.049465105
22	0xbc8aa58d	-0.016924644
23	0xbc1eaff4	-0.009685505
24	0x3d8d4a47	0.06898933
25	0x3d375cb4	0.044766143
26	0xbd42ce3e	-0.04755997
27	0xbcbf0b2e	-0.02332076
28	0xbc874a6a	-0.016514976
29	0xbbf491f3	-0.0074636876
30	0x3d257b19	0.0404006
31	0x3d14a899	0.0362936
32	0xbd5320af	-0.05154484
33	0x3ce65ffc	0.02812194
34	0xbc9ebadc	-0.01937621
35	0x3da89a8e	0.08232604
36	0x3c90c392	0.01767138
37	0xbd58da6d	-0.052942682
38	0xbd146ad5	-0.036234695
39	0xbd0e24c7	-0.034703042
40	0x3defc279	0.117070146
41	0x3d5377a8	0.051627785
42	0xbc55a845	-0.013040607
43	0xbc14069e	-0.009034781
44	0x3d96e1c2	0.07367279
45	0xbd065948	-0.03279999
46	0x3d0e89f5	0.034799535
47	0x3ca9abef	0.020711867
48	0xbd005b9e	-0.031337373
49	0x3deb79a2	0.11497809
50	0x3d72548b	0.059162658
51	0x3d13508a	0.03596548
52	0xbbe10135	-0.006866599
53	0xbd01ba60	-0.03167188
54	0x3d0f684c	0.035011575
55	0x3c2d5bc0	0.010580957
56	0xbd4fabb8	-0.050700873
57	0xbb2f4611	-0.0026744644
58	0xbd51db1a	-0.051234342
59	0xbb8394f3	-0.004015559
60	0x3c541073	0.012943375
61	0xbd069a92	-0.032862253
62	0x3c88affb	0.016685477
63	0xbcbbeb86	-0.022939455
64	0xbca1bcb7	-0.019743307
65	0xbca9617f	-0.020676373
66	0x3cc4714f	0.023979811
67	0xbd2419e6	-0.04006376
68	0x3d8a2e25	0.067470826
69	0x3cf5a94e	0.029987957
70	0x3c5735ba	0.013135368
71	0xbb5895f0	-0.0033048354
72	0xbc95eaf5	-0.018300513
73	0xbc847c9e	-0.016172703
74	0xbb89da5d	-0.004206939
75	0x3c56cd7f	0.0131105175
76	0xbd777437	-0.060413565
77	0x3d6eeb31	0.058329765
78	0x3d9ce7eb	0.07661422
79	0xbd831cf2	-0.06402005
80	0xbcfd5987	-0.030926479
81	0x3c875ed0	0.016524702
82	0x3cd3a4ef	0.025835482
83	0xbc583723	-0.013196739
84	0x3c303586	0.0107549485
85	0xbc8d6a40	-0.017262578
86	0x3d22f96b	0.039788645
87	0xbdab12fa	-0.08353229
88	0x3c3e8f7a	0.011630887
89	0xbd2fb780	-0.04289961
90	0x3d254a66	0.040354155
91	0x3c1c94ac	0.0095569305
92	0x3baa7f71	0.0052031805
93	0x3d946389	0.07245547
94	0x3d990d73	0.07473268
95	0xbd5d092a	-0.053963818
96	0xbca91b0c	-0.02064278
97	0x3d0dd879	0.034630273
98	0x3c727266	0.0147977825
99	0xbd31932f	-0.043353256
100	0xbc88442b	-0.016634068
101	0xbd7d72e8	-0.06187716
102	0xbd5ea5a3	-0.054357182
103	0xbcc63ba7	-0.024198366
104	0xbc2e2f7a	-0.0106314365
105	0xbd2483d2	-0.040164776
106	0xbc3db4d8	-0.011578761
107	0x3d475f34	0.048674777
108	0x3d49a95b	0.049233776
109	0xbd25c1f1	-0.04046816
110	0xbddff041	-0.10934497
111	0x3dbce8ec	0.09224114
112	0xbd6d1b51	-0.05788738
113	0xbdafc25e	-0.085819945
114	0x3ae7685b	0.0017655002
115	0x3d05e823	0.032692086
116	0x3c9f28a0	0.019428551
117	0xbc88b241	-0.01668656
118	0xbd0b4c1d	-0.034008134
119	0xbc212ad0	-0.009836867
120	0xbc1a73f8	-0.009427063
121	0x3dd3bdd3	0.103389405
122	0x3d8c65c1	0.068553455
123	0x3c7777e1	0.015104265
124	0xbb8fc951	-0.0043880125
125	0xbce523b6	-0.02797113
126	0xbd6c62d5	-0.05771144
127	0xbd8396b8	-0.06425232
128	0xbd076b1e	-0.03306114
129	0xbdcb902b	-0.09939607
130	0x3cf49376	0.029855471
131	0xbdafaacc	-0.08577499
132	0x3c0c3d7e	0.008559583
133	0x3d4a0f5b	0.04933105
134	0x3d3b5f03	0.045744907
135	0xbc29f685	-0.010373716
136	0x3ca3434c	0.01992955
137	0x3d092956	0.033486687
138	0x3d92f4d5	0.07175604
139	0x3bc7dfc5	0.0060996735
140	0x3d8f181c	0.069870204
141	0x3da58dde	0.080837
142	0xbdcf2a7f	-0.10115527
143	0x3bbe99ff	0.0058166976
144	0x3d0e951f	0.03481018
145	0x3c494f3a	0.0122869555
146	0x3d338e19	0.043836687
147	0xbd165178	-0.03669879
148	0x3d18719c	0.03721772
149	0x3c8f9032	0.017524812
150	0xbc41baed	-0.011824352
151	0xbcd53ef7	-0.026031
152	0xbd83123d	-0.06399963
153	0xbdb45847	-0.088059
154	0x3c0f5f93	0.008750814
155	0x3d335ba0	0.043788552
156	0x3d3e052c	0.04639165
157	0x3d6d8385	0.057986755
158	0xbd70d499	-0.0587965
159	0xbddfc81f	-0.10926842
160	0x3d1f2788	0.03885606
161	0xbd2d8239	-0.042360518
162	0x3d6df4de	0.05809485
163	0xbde6c507	-0.11268049
164	0xbda4a559	-0.0803935
165	0x3d857b99	0.06517715
166	0x3d8bf12d	0.0683311
167	0x3d91e905	0.07124523
168	0xbddcb828	-0.107773125
169	0xbdd1cc30	-0.10244024
170	0x3d11ed60	0.03562677
171	0xbcb67f93	-0.022277629
172	0xbd9abcc4	-0.075555354
173	0x3d36dea1	0.04464591
174	0xbd67593a	-0.056481577
175	0xbd1454a1	-0.03621352
176	0xbc86f742	-0.016475324
177	0xbd94fe5f	-0.0727508
178	0xbd9d6cf3	-0.07686796
179	0xbca90d1f	-0.02063614
180	0x3c9d283f	0.01918423
181	0x3d201883	0.039085876
182	0xbdd5d355	-0.10440699
183	0xbca1d9a6	-0.019757103
184	0xbc39de2a	-0.011344472
185	0xbd32690b	-0.043557208
186	0x3db2ea7e	0.08736132
187	0x3c8901b2	0.016724441
188	0xbcc01e81	-0.023452045
189	0x3d0874fa	0.033314683
190	0x3bd8ce0e	0.0066163605
191	0x3d06b499	0.032887075
192	0x3d089532	0.03334541
193	0x3d42a775	0.04752298
194	0x3cc5d912	0.024151359
195	0x3d8f293a	0.06990285
196	0xbd994279	-0.07483382
197	0xbd15bc00	-0.036556244
198	0xbcb17b90	-0.021665365
199	0x3d8009c0	0.0625186
200	0x3cb77601	0.022395136
201	0x3d1bbe14	0.03802307
202	0x3d246785	0.040137786
203	0xbd7e3b4f	-0.06206828
204	0x3d9b3c69	0.07579882
205	0xbdd810b5	-0.105500616
206	0xbddf219e	-0.10895084
207	0x3d79f862	0.061027892
208	0xbd16f5bb	-0.03685544
209	0xbd659672	-0.05605168
210	0x3b53f408	0.00323415
211	0x3d32b786	0.043632053
212	0xbd0a8c83	-0.03382541
213	0x3c95ea1b	0.018300107
214	0xbc742001	-0.014900208
215	0xbc8896f4	-0.016673543
216	0xbd9c43e2	-0.07630135
217	0x3d7073c8	0.058704168
218	0xbb89f897	-0.0042105424
219	0x3c813ec6	0.015777003
220	0xbcca1aa1	-0.0246709
221	0xbd718385	-0.058963317
222	0xbdb471c7	-0.08810764
223	0x3d96dd0f	0.07366382
224	0x3bb6e4f8	0.0055814944
225	0xbd97049d	-0.07373927
226	0x3d0f7c6e	0.035030775
227	0x3d5f3a0f	0.05449873
228	0x3d01a863	0.031654727
229	0x3daa1492	0.08304705
230	0xbd2165ef	-0.039403852
231	0x3d36a028	0.04458633
232	0x3d368089	0.044556174
233	0x3d5ee098	0.054413408
234	0x3b693d9d	0.0035589703
235	0xbd904e6c	-0.07046208
236	0xbdc8315d	-0.0977504
237	0xbafb83fa	-0.0019189112
238	0x3cedc31b	0.029023698
239	0xbd9bcf34	-0.0760788
240	0x3d95b3d1	0.07309688
241	0x3d8ad512	0.06778921
242	0x3d3b0f6c	0.045669004
243	0xbd89783c	-0.06712386
244	0xbd28140c	-0.041034743
245	0x3caa0a3f	0.020756839
246	0x3d0870ca	0.03331069
247	0x3cf1632d	0.029466236
248	0x3d306dbf	0.043073412
249	0xbe0a618e	-0.13513777
250	0xbde71190	-0.11282647
251	0x3c48f9a9	0.012266555
252	0x3ce7db50	0.028302819
253	0x3d56c7e0	0.05243671
254	0x3d85b98d	0.06529532
255	0x3d2f93b3	0.042865466

action_model._discrete_distribution.branches.0.bias f4 [3]
0	0xbbd9e28a	-0.00664932
1	0x3c4566ac	0.012048405
2	0xbc6f47d2	-0.014604526

action_model._discrete_distribution.branches.1.weight f4 [3, 128]
0	0x3bdc0122	0.006714002
1	0x3d417724	0.047232762
2	0xbbf6a09f	-0.0075264717
3	0x3d2b7e7e	0.04186868
4	0x3cef6ad8	0.029225752
5	0x3c313d19	0.0108177895
6	0x3c7e6c01	0.01552868
7	0x3c7818a8	0.015142597
8	0xbb44a208	-0.0030003805
9	0xbb018332	-0.0019762036
10	0x3a49e976	0.000770233
11	0xbc2cedcf	-0.010554745
12	0x3cc1be58	0.023650333
13	0x3d842b92	0.06453623
14	0xbc6f589b	-0.0146085275
15	0xbc2b3c13	-0.0104513345
16	0x3c94560f	0.018107442
17	0x3cb0d9a2	0.02158815
18	0xbb8da4cc	-0.004322624
19	0xbdb13535	-0.086527266
20	0x3d5495ec	0.05190079
21	0xbbeeaa8c	-0.0072835144
22	0xb93b6b19	-0.00017873607
23	0x3cc239ac	0.02370914
24	0xbd03319b	-0.03202973
25	0xbd4cc75e	-0.04999482
26	0xbad1f2be	-0.0016017777
27	0x3baea891	0.0053301533
28	0x3c33d936	0.01097708
29	0x3c3b58fa	0.011434788
30	0xbce45e4e	-0.027877
31	0x3c45b41a	0.012066865
32	0x3d087a95	0.03332003
33	0xbd863eff	-0.06554984
34	0x3d6ddf88	0.058074504
35	0x3caee7ab	0.021350702
36	0x3d57642e	0.052585773
37	0x3cb3a291	0.021928104
38	0x3c8566e1	0.016284408
39	0x3cd8e302	0.026475433
40	0xbd161570	-0.03664154
41	0x3c89a31d	0.016801411
42	0x3c682f33	0.014171409
43	0xbc626ff4	-0.013820637
44	0x3bbd2a3f	0.0057728584
45	0x3c955605	0.018229494
46	0xbc3d684c	-0.011560511
47	0x3b7adbde	0.0038278024
48	0x3aaddb73	0.0013264254
49	0x3d8fd461	0.0702293
50	0x3d7ff294	0.0624872
51	0x3d24ad3f	0.040204283
52	0x3ce0ec18	0.027456328
53	0x3c5db05a	0.013530815
54	0x3d519bb9	0.0511739
55	0xbcffe2ce	-0.031236079
56	0xbcc99c35	-0.024610618
57	0x3c67dab6	0.014151266
58	0x3d790a19	0.060800646
59	0x3c985d24	0.0185991
60	0x3ce6b64c	0.028163098
61	0x3c3c7e35	0.0115046995
62	0x3d504925	0.050851006
63	0x3c458434	0.012055445
64	0x3c9f56c3	0.01945055
65	0x3bc2fc72	0.005950504
66	0x3a9e3c72	0.0012072457
67	0x3cfd94a9	0.030954676
68	0x3d0e7277	0.03477713
69	0xbc72bbff	-0.01481533
70	0xbcbc2770	-0.022968024
71	0xbcb3d28d	-0.021950984
72	0xbc1fe4ea	-0.009759167
73	0x3c99876c	0.018741332
74	0x3c8e9948	0.017407075
75	0xbd24c356	-0.04022535
76	0x3ca024ea	0.019548852
77	0x3c0127b7	0.007883004
78	0x3d76044a	0.060062684
79	0x3c9e5a14	0.019330062
80	0xbcbbf42e	-0.022943582
81	0x3d2a3f3f	0.041564222
82	0xbd420ed4	-0.047377422
83	0x3ca307db	0.019901207
84	0xbbf86909	-0.0075808805
85	0x3b98e0f7	0.00466549
86	0x3d0b3f48	0.033995897
87	0xbc2b0dcd	-0.010440302
88	0xbd2b0ba7	-0.04175916
89	0x3c4082cb	0.0117499335
90	0x3c5631a8	0.013073362
91	0x3c3af416	0.011410734
92	0x3d2a8343	0.041629087
93	0x3d0d5637	0.03450605
94	0xbd4746e4	-0.04865159
95	0x3c956305	0.018235693
96	0x3c542af2	0.012949692
97	0x3cfadaed	0.03062197
98	0xbaa8ac14	-0.0012868666
99	0x3d17ffab	0.03710906
100	0x3b9d3590	0.004797645
101	0x3c35ecc9	0.011103817
102	0xbcc3f6d2	-0.023921404
103	0xbb9be0fb	-0.0047570444
104	0x3d498d11	0.049206797
105	0x3c878068	0.016540721
106	0x3d131e44	0.035917535
107	0xbc0b68c0	-0.008508861
108	0xbb8d3c48	-0.0043101646
109	0xbcace716	-0.021106284
110	0x3bf57fca	0.0074920403
111	0xbc8c78d5	-0.017147461
112	0x3c867d75	0.016417244
113	0x3d158b57	0.036509838
114	0x3c3046a5	0.0107590305
115	0x3d04550c	0.03230767
116	0xbcecfda7	-0.028929545
117	0x3c6e7dfd	0.014556405
118	0x3a856579	0.0010177336
119	0x3b0e806d	0.0021744028
120	0x3ca1b542	0.01973975
121	0x3cdd690a	0.027027626
122	0x3cacc750	0.021091133
123	0x3ca14f6a	0.019691188
124	0x3bb644a0	0.00556238
125	0x3c175c5a	0.009238327
126	0x3d4b4672	0.04962773
127	0x3c21d87f	0.009878277
128	0x3c0a72b0	0.008450195
129	0xbccdabf5	-0.02510641
130	0xbbbac40e	-0.005699641
131	0x3d59da52	0.053186722
132	0x3dbe0acf	0.09279405
133	0xbc04d7cf	-0.008108093
134	0xbc5e02f2	-0.013550507
135	0x3d891cff	0.06694984
136	0xbd95885b	-0.07301398
137	0xbd27cce6	-0.04096689
138	0x3dff6fd0	0.124724984
139	0xbd69ae4d	-0.05705099
140	0xbc3603c5	-0.011109297
141	0x3d8aa801	0.067703255
142	0xbd69f0d3	-0.057114433
143	0x3d717f82	0.05895949
144	0xb9705bb2	-0.00022922343
145	0xbcf18e0b	-0.029486677
146	0xbd5a05c3	-0.05322815
147	0xbb5e2b76	-0.0033900416
148	0x3ba5c99d	0.0050594346
149	0x3d848e89	0.06472499
150	0x3b697ff7	0.0035629252
151	0x3d81e85b	0.063431464
152	0xbd36a000	-0.04458618
153	0xbdc18a74	-0.09450236
154	0x3cc6f6a8	0.024287537
155	0xbc135192	-0.008991616
156	0xbcbe527f	-0.023232697
157	0xbd146711	-0.036231104
158	0x3c00ccc8	0.007861324
159	0xbd3fa079	-0.046783898
160	0xbd1dea47	-0.038553502
161	0xbcf8b370	-0.030359
162	0x3d4f1eb7	0.0505664
163	0xbb36b65e	-0.0027879695
164	0xba849fad	-0.0010118388
165	0xbd7ecc1d	-0.062206376
166	0xbd82478e	-0.06361304
167	0xbd6157d3	-0.055015396
168	0xbdc4f0a9	-0.09616215
169	0xbb9ca3bd	-0.0047802613
170	0xbd50bf69	-0.050963793
171	0x3d42f7cc	0.0475996
172	0x3c62292b	0.0138037605
173	0xbcb6571f	-0.02225834
174	0x38f12c6a	0.00011500048
175	0x3d74bf60	0.059752822
176	0x3c933548	0.017969742
177	0xbbe74546	-0.0070578186
178	0xbcf268e8	-0.029591039
179	0x3c9d2b01	0.019185545
180	0x3db7af4a	0.089689806
181	0xbd5ccbbe	-0.05390524
182	0x3b65ef14	0.0035085129
183	0x3d1baa6b	0.03800432
184	0x3d049bb4	0.032375053
185	0x3d0190c7	0.03163221
186	0xbca1ffb4	-0.019775249
187	0xbd056866	-0.032570265
188	0x3d03ac65	0.03214683
189	0xbd09c130	-0.033631504
190	0x3b6b69de	0.0035921256
191	0x3c35ec72	0.011103736
192	0xbd474f6a	-0.04865972
193	0xbcdebbb8	-0.02718912
194	0xbda6d0e6	-0.08145313
195	0xbb8531f7	-0.004064794
196	0x3bd76666	0.006573486
197	0x3d071d3a	0.032986857
198	0x3d413900	0.0471735
199	0xbd56df2c	-0.052458927
200	0xbd65cdc9	-0.056104455
201	0xbc84380c	-0.016140006
202	0x3ba6c368	0.005089212
203	0x3b896f1a	0.0041941525
204	0xbcc37c1d	-0.023862893
205	0xbc473e95	-0.012160917
206	0xbce08b09	-0.027410047
207	0x3b592acc	0.0033137081
208	0x3c73ed90	0.014888182
209	0x3c82fba3	0.01598913
210	0xbdb949d2	-0.09047283
211	0x3c5778c2	0.0131513495
212	0x3dbfe482	0.09369756
213	0xbd98bcb0	-0.07457864
214	0x3b5a8857	0.0033345425
215	0x3b279a2b	0.002557407
216	0xbd175955	-0.036950428
217	0xbc8edfa0	-0.017440617
218	0xbc3f917e	-0.011692403
219	0xbd00fd27	-0.031491425
220	0x3d378ec0	0.04481387
221	0x3d185518	0.037190527
222	0xbd341252	-0.043962784
223	0xbd0133ca	-0.03154353
224	0x3d9fe051	0.07806457
225	0x3c2292d5	0.009922703
226	0xbd48479a	-0.04889641
227	0xbc8de251	-0.01731983
228	0xbce49678	-0.02790378
229	0x3d8982b1	0.067143805
230	0xbbec37c9	-0.0072087985
231	0xbcc47012	-0.02397922
232	0xbcca6dcb	-0.024710556
233	0x3be21df5	0.006900544
234	0xbc552cb8	-0.01301115
235	0xbcdcefb9	-0.026969777
236	0x3b519ded	0.0031985
237	0x3d746867	0.05966988
238	0x3cb66dd4	0.022269167
239	0xbdf87473	-0.12131586
240	0xbbf52eae	-0.0074823713
241	0xbc1fdcf9	-0.009757274
242	0xbdae0a52	-0.08498062
243	0x3bf750c2	0.007547469
244	0x3d77580e	0.06038671
245	0xbd1ca2b7	-0.038241114
246	0xbd4f02df	-0.050539847
247	0xbcb32f32	-0.02187309
248	0x3c44cf30	0.012012288
249	0xbd2b41aa	-0.04181067
250	0xbca2a0b1	-0.019852014
251	0xbd96c36c	-0.073614925
252	0xbd512c43	-0.051067602
253	0xbd6afb96	-0.057368837
254	0x3cc8f16e	0.024529185
255	0xbd5376cb	-0.05162696

action_model._discrete_distribution.branches.1.bias f4 [3]
0	0x3c61165a	0.013738239
1	0xbca6947c	-0.020334475
2	0x3bd3ca96	0.006463359
