results/ppo/Racing/Racing-10320.pt (torch, 515282 bytes, 40 tensors)

discrete_act_size_vector f4 [1, 2]
0	0x40400000	3.0
1	0x40400000	3.0

network_body._body_endoder.seq_layers.0.weight f4 [128, 29]
0	0xbc08e8a5	-0.008356248
1	0x3d727d1a	0.059201337
2	0x3d032342	0.032016046
3	0x3df5b2e1	0.11997009
4	0x3d9695ee	0.073528156
5	0x3e76b76b	0.24093406
6	0x3da9f545	0.082987346
7	0xbdd1fb2e	-0.10252987
8	0x3e3369bc	0.17520803
9	0x3d469bc4	0.048488393
10	0x3dece693	0.11567416
11	0x3e85b153	0.2611185
12	0x3dfa26cb	0.122144304
13	0xbe85ea82	-0.26155478
14	0x3e3ac663	0.18239741
15	0xbe1f6afa	-0.15568152
16	0x3e1f1600	0.15535736
17	0xbd0db2d1	-0.03459436
18	0x3d1ea9e4	0.03873624
19	0xbe44403a	-0.19165125
20	0x3b456668	0.0030120853
21	0x3e0d63a0	0.13807535
22	0xbdf61d2e	-0.12017284
23	0x3de8b807	0.113632254
24	0x3e8c1efb	0.27367386
25	0xbe1ca7ea	-0.15298429
26	0xbe4000a8	-0.1875025
27	0xbec43bde	-0.38326925
28	0x3d893691	0.06699861
29	0x3ddba926	0.10725622
30	0x3e92c28d	0.28664055
31	0xbdbf897b	-0.09352394
32	0x3e17646f	0.14784406
33	0x3d266a4e	0.040628724
34	0x3ec23edd	0.37938586
35	0xbe54d6fc	-0.20785135
36	0xbe4520d0	-0.19250798
37	0x3df7366d	0.12070928
38	0xbce4709b	-0.027885726
39	0x3e239929	0.15976395
40	0x3cab9ad1	0.020947846
41	0xbe0d8fab	-0.13824336
42	0xbd872400	-0.06598663
43	0x3d1ff241	0.03904939
44	0xbd1cd398	-0.03828773
45	0xbe02a650	-0.12758756
46	0x3e397090	0.18109345
47	0xbe3a73c3	-0.18208222
48	0x3ea9cdad	0.3316473
49	0xbe28b1d4	-0.16474086
50	0x3e30ab3c	0.1725282
51	0xbd577629	-0.05260292
52	0xbde47916	-0.11155908
53	0xbe2da25f	-0.16956471
54	0xbd3be78e	-0.045875125
55	0xbe89f91d	-0.2694787
56	0xbdbefee1	-0.09325958
57	0xbe10cd82	-0.14140895
58	0x3e2b3316	0.16718706
59	0xbe9f3486	-0.3109476
60	0x3e753df5	0.23949416
61	0xbe27e1aa	-0.16394678
62	0x3cf5e626	0.03001697
63	0xbe80a828	-0.25128293
64	0xbdfdb152	-0.12387337
65	0xbdfabc43	-0.12242939
66	0xbdd37c85	-0.103264846
67	0x3dc65d59	0.096857734
68	0xbe3f713e	-0.18695542
69	0xbcb9316d	-0.022606576
70	0xbd5059bc	-0.050866827
71	0x3cfa9850	0.030590206
72	0x3d91f4b3	0.07126751
73	0xbe88db17	-0.26729652
74	0xbe0ec5f7	-0.13942705
75	0x3e2f14c2	0.17097762
76	0x3ec55fca	0.38549644
77	0x3dbb9ecf	0.0916115
78	0xbdc5d428	-0.09659606
79	0x3d914177	0.070925646
80	0xbd315f31	-0.043303672
81	0xbdcdfd5b	-0.10058089
82	0xbc854efb	-0.016273012
83	0x3e28c7ee	0.16482517
84	0x3d8c76ce	0.06858598
85	0xbd768e26	-0.060194157
86	0x3dc095f6	0.09403603
87	0x3dc918a3	0.09819152
88	0x3e7486e6	0.23879585
89	0x3dc8c84f	0.09803831
90	0x3d5ab738	0.053397387
91	0xbecae783	-0.39629754
92	0xbce4bbbb	-0.027921548
93	0x3dc94ced	0.098291256
94	0x3ea1844e	0.31546253
95	0x3e50f7c0	0.20407009
96	0x3d583a34	0.05278988
97	0xbdbdd65e	-0.09269403
98	0xbe668fb2	-0.22515753
99	0xbe29e7b0	-0.16592288
100	0xbd2b8d9b	-0.041883092
101	0x3dc02b5b	0.093832694
102	0x3cd1939f	0.025583087
103	0xbe8ddd61	-0.2770796
104	0x3dbe6bb2	0.09297885
105	0xbda73e50	-0.08166182
106	0x3e54e71d	0.20791288
107	0xbd454818	-0.048164457
108	0x3e69a60e	0.22817251
109	0xbc4cd0e0	-0.012500972
110	0x3dd4b2c2	0.10385658
111	0x3e8a3c5e	0.26999182
112	0x3df10431	0.117683776
113	0x3eb1a65a	0.3469723
114	0x3d72d9c8	0.059289724
115	0xbdd8a3e1	-0.105781324
116	0x3e48f19e	0.1962342
117	0xbe0a610d	-0.13513584
118	0xbd8a200f	-0.06744396
119	0xbe915113	-0.28382167
120	0x3dec83b9	0.115485616
121	0xbdab3575	-0.083598055
122	0x3ce990cf	0.028511433
123	0x3ebc8afa	0.3682478
124	0xbd8e5264	-0.069493085
125	0x3ed423f8	0.41433692
126	0x3d7f2b50	0.062297165
127	0xbd155810	-0.036460936
128	0x3e9d2e93	0.30699596
129	0xbcc4e21d	-0.0240336
130	0xbc16fa66	-0.009214973
131	0xbd9b347d	-0.07578371
132	0xbd95a6de	-0.07307218
133	0x3dc1765e	0.09446405
134	0xbdf3a232	-0.11896171
135	0xbe26e8bd	-0.1629972
136	0x3e5af8a6	0.21383914
137	0xbeabca8e	-0.33552974
138	0xbde9819d	-0.11401675
139	0xbe273840	-0.16330051
140	0x3e1da463	0.1539474
141	0x3e14d929	0.14535965
142	0x39998956	0.00029284757
143	0x3c90a45e	0.017656501
144	0xba6debe1	-0.0009075981
145	0xbd90e120	-0.07074189
146	0xbea80a19	-0.32820204
147	0x3e1305ed	0.1435773
148	0xbdec8692	-0.11549105
149	0xbe073a35	-0.13205798
150	0xbe09d47f	-0.13459967
151	0xbddda381	-0.108222015
152	0x3d49c0ed	0.049256254
153	0x3eb7fc02	0.35934454
154	0xbd200a3e	-0.039072268
155	0xbda91e8e	-0.08257781
156	0x3d254a3b	0.040353995
157	0x3e50a7e9	0.20376553
158	0x3db5091a	0.088396266
159	0x3dc22aec	0.09480843
160	0x3e12a4e2	0.1432071
161	0x3e12613f	0.14294909
162	0xbea7e0df	-0.3278875
163	0xbe2d5477	-0.16926752
164	0xbe834551	-0.25638822
165	0xbe22db1f	-0.159039
166	0x3e7b7aab	0.24558513
167	0x3ea41eb2	0.3205467
168	0xbe864732	-0.26226193
169	0xbcd537b1	-0.026027532
170	0xbe02724f	-0.12738918
171	0xbccd886f	-0.02508947
172	0xbe464d93	-0.1936553
173	0xbf0c86cf	-0.548932
174	0x3e09f40c	0.13472003
175	0xbe4705e9	-0.19435848
176	0x3db4be09	0.08825309
177	0xbe614b60	-0.2200141
178	0xbe764e92	-0.2405341
179	0xbea8164f	-0.3282952
180	0xbe184e42	-0.14873603
181	0xbc83ff23	-0.01611287
182	0x3e7f3f67	0.2492653
183	0xbe06cbbf	-0.1316366
184	0xbe280106	-0.1640664
185	0x3e534e6e	0.20635387
186	0xbe21371e	-0.15743682
187	0x3ea128a6	0.31476325
188	0xbe888176	-0.2666127
189	0x3dd98ea5	0.106229104
190	0x3f0723fd	0.5278929
191	0x3def8011	0.116943486
192	0xbe53445a	-0.20631543
193	0xbe39a9e8	-0.1813122
194	0xb9a22041	-0.0003092308
195	0xbdfebced	-0.124383785
196	0x3d9507ea	0.072769
197	0x3e57ba34	0.21067125
198	0xbd8218f5	-0.063524164
199	0x3e6dd09c	0.2322411
200	0x3d8d8349	0.06909806
201	0x3e6b8ac0	0.23002148
202	0x3ccba4e7	0.024858905
203	0x3f21e7be	0.63244236
204	0xbdfd754b	-0.123758875
205	0xbe8cd43d	-0.27505675
206	0xbec81bbf	-0.3908367
207	0xbd86a333	-0.065740965
208	0x3e83ae2b	0.25718817
209	0x3dfc9ad5	0.12334219
210	0x3eabbeaa	0.33543903
211	0xbd8ae651	-0.067822106
212	0xbe007763	-0.12545542
213	0x3ea3af28	0.3196957
214	0xbd034075	-0.032043893
215	0xbe6cb92d	-0.23117514
216	0xbe6a904e	-0.2290661
217	0x3e2f4c26	0.17118892
218	0x3e5dfa88	0.21677601
219	0xbd4436e1	-0.0479039
220	0x3de5772d	0.112043716
221	0x3e1726bf	0.14760874
222	0xbe4834bb	-0.19551365
223	0xbc72c602	-0.014817717
224	0x3cb746b1	0.022372575
225	0x3e23bf73	0.15991001
226	0xbe062610	-0.13100457
227	0x3e0ef1fa	0.13959494
228	0x3ef4ed1e	0.47837156
229	0xbe942e63	-0.2894164
230	0xbe83668d	-0.25664178
231	0x3e0d701b	0.13812296
232	0x3e9b3d68	0.30320287
233	0xbed06fb5	-0.40710226
234	0x3d40f09b	0.04710446
235	0x3ddda948	0.108233035
236	0x3e7bc503	0.24586873
237	0x3cacbd94	0.021086492
238	0x3e69c61b	0.22829477
239	0x3deaa484	0.1145716
240	0x3e884eb0	0.26622534
241	0x3e268964	0.16263348
242	0xbdddcb78	-0.10829824
243	0x3defc667	0.11707764
244	0xbddef9e4	-0.108875066
245	0x3d945875	0.07243434
246	0xbcfeb147	-0.031090392
247	0x3dbb41ff	0.09143447
248	0x3e7fb8fb	0.24972908
249	0x3dea619d	0.114443995
250	0x3e091ee1	0.13390686
251	0x3e5b38b1	0.21408345
252	0x3dac21a8	0.08404857
253	0xbec1776c	-0.37786424
254	0x3cb9bf6b	0.022674283
255	0xbea68c86	-0.32529086

network_body._body_endoder.seq_layers.0.bias f4 [128]
0	0xbb8a040d	-0.0042119087
1	0xbb503313	-0.0031768724
2	0x3b4ed0a8	0.0031557474
3	0x3b72f78d	0.0037073821
4	0xba78b196	-0.00094869116
5	0x3b2d118a	0.002640816
6	0x3ba08d9c	0.0048996937
7	0x3b22b79e	0.0024828683
8	0xbbaf9eb3	-0.0053594946
9	0xbb73d9e7	-0.0037208737
10	0xbb87f10b	-0.0041486076
11	0xba88484e	-0.0010397525
12	0x3bf8bd26	0.0075909076
13	0x3c07129d	0.008244184
14	0x3bd64de9	0.0065400493
15	0x3b571227	0.0032817216
16	0x3ae385da	0.0017358616
17	0xbb08d4ea	-0.002087886
18	0xb88a9a00	-6.6090375e-05
19	0x3bfbdc4d	0.007686174
20	0x3bba2dc5	0.0056817257
21	0x3c0723cb	0.00824828
22	0xbade58e4	-0.0016963747
23	0xbb9b4761	-0.0047387336
24	0x3b4442f2	0.002994713
25	0x3c0338ef	0.0080091795
26	0xbbbc5a66	-0.005748081
27	0x3ba3350d	0.0049806894
28	0x3be76073	0.007061058
29	0x3bf8c812	0.0075922096
30	0x3aa34607	0.0012456783
31	0x3b9a1828	0.0047025867
32	0xbb61c1ea	-0.0034447857
33	0x3b93df64	0.004512714
34	0xbbb3c4bc	-0.005486099
35	0x3a894046	0.0010471425
36	0x3a72c9a6	0.00092616153
37	0xbc07396b	-0.008253436
38	0xbb45e19d	-0.003019429
39	0xbb8bd53f	-0.0042673643
40	0xbb3c7876	-0.0028758324
41	0x3a98ab43	0.001164772
42	0x3bd156c5	0.0063885176
43	0x3ae4e08c	0.001746194
44	0xbb95e92b	-0.004574915
45	0x3a9fa018	0.0012178449
46	0xbad38a2d	-0.0016139202
47	0xb9b66cda	-0.00034794846
48	0xb9e940f9	-0.00044489632
49	0xbabaf2ee	-0.0014263073
50	0xbaf62c19	-0.0018781453
51	0x3bc9629f	0.0061457898
52	0xbb91c759	-0.004448813
53	0x3c03c5b8	0.008042745
54	0xbb855d86	-0.0040699868
55	0x3ba236c8	0.004950378
56	0x3c106e39	0.008815342
57	0x3b929aa2	0.004474
58	0x3bf66b6a	0.007520129
59	0xba1ffa0a	-0.00061026274
60	0x3a9fda86	0.0012195862
61	0xbb5f8e0d	-0.0034111768
62	0x3b965088	0.004587237
63	0xbb9f3afe	-0.0048593273
64	0x3bec8b0a	0.007218723
65	0x3ac756f2	0.0015208407
66	0x3b50c3fa	0.0031855092
67	0xbaaedb1c	-0.0013340446
68	0xbbc29b66	-0.005938935
69	0x3b492c8d	0.003069672
70	0x3bb6847f	0.005569994
71	0x3b16a6c5	0.0022987586
72	0x3bff0123	0.007782118
73	0xbbaaf4ca	-0.0052171694
74	0xb99e1115	-0.00030148836
75	0xb9c1e706	-0.00036983954
76	0x3bbebe7a	0.0058210464
77	0x3b80bdf2	0.0039288932
78	0x3b672fbc	0.0035276255
79	0x39519c78	0.00019990082
80	0x3b784f0d	0.0037888915
81	0x39530724	0.00020125188
82	0x3be2a2f1	0.006916397
83	0x3b1711f3	0.002305147
84	0x39426903	0.00018540402
85	0x3acd0d59	0.0015644237
86	0x3bfae3c6	0.0076565472
87	0xbad66a9b	-0.0016358675
88	0xbb2698ba	-0.0025420622
89	0x3c0ba95a	0.008524263
90	0x3a7da1ef	0.0009675314
91	0x3b998ce2	0.004685984
92	0x3b7ecb3d	0.0038878464
93	0x3be8c270	0.007103257
94	0x3a553170	0.0008132672
95	0x3b363bac	0.0027806563
96	0x3adb8919	0.0016749232
97	0x3c04d32e	0.00810699
98	0x3adf91b0	0.0017056968
99	0xb9b6a23e	-0.00034834625
100	0xbb296228	-0.002584586
101	0x39cc51aa	0.00038970757
102	0xbbacc3b2	-0.005272352
103	0x3aa4d204	0.0012574797
104	0xbbc64728	-0.006050963
105	0xbaddbab5	-0.0016916605
106	0xbaae52df	-0.0013299844
107	0x3aff8431	0.0019494352
108	0xb8dd585e	-0.00010554561
109	0x3b3dbf15	0.0028953005
110	0x3b82218b	0.003971284
111	0xba49dcec	-0.00077004614
112	0xbba5c9b3	-0.005059445
113	0x3b450421	0.0030062275
114	0x3af5c444	0.0018750508
115	0xbbae8d9b	-0.0053269393
116	0x3b9ad372	0.0047249133
117	0xbb81c077	-0.003959711
118	0x3ac655ed	0.0015131809
119	0xb9154f89	-0.00014239376
120	0x3bac49a6	0.005257803
121	0xbb3111aa	-0.0027018585
122	0x39a054c6	0.0003058074
123	0x3c0204a4	0.007935677
124	0xbba0ba44	-0.004905017
125	0xbb4147fa	-0.0029492364
126	0xbb53deab	-0.0032328765
127	0x3a4a7a40	0.0007723905

network_body._body_endoder.seq_layers.2.weight f4 [128, 128]
0	0x3c672761	0.01410851
1	0x3a4149d8	0.00073733693
2	0x3dcf7a0b	0.101307
3	0xbd76ee1c	-0.060285673
4	0x3c7a179b	0.015264417
5	0xbc8f4a51	-0.017491492
6	0x3d66289a	0.056191064
7	0x3ccaa219	0.024735497
8	0x3dc3f6f7	0.09568589
9	0xbddfd446	-0.1092916
10	0x3cd2a00e	0.025711086
11	0x3d387a80	0.0450387
12	0xbcdaeae0	-0.026723325
13	0x3c080fd2	0.008304553
14	0xbd6f39a4	-0.05840458
15	0x3db30087	0.08740335
16	0xbe611127	-0.219792
17	0x3e3ed722	0.18636754
18	0x3decc9e8	0.11561948
19	0xbd996f08	-0.07491881
20	0xbcc17c53	-0.023618853
21	0xbd7c4337	-0.06158754
22	0x3d4732ed	0.04863255
23	0xbd968588	-0.07349688
24	0xbbca73ef	-0.006178371
25	0xbc3c75f6	-0.011502733
26	0x3de63047	0.11239677
27	0x3df5417b	0.1197538
28	0xbd7d3506	-0.061818145
29	0xbd63a10c	-0.05557351
30	0xbd0d67d7	-0.034522858
31	0x3e35a85f	0.1774001
32	0x3c71fa59	0.01476916
33	0x3d9f4e74	0.077786356
34	0x3d0ceb8d	0.034404326
35	0xbe823bf7	-0.25436375
36	0xbd79e27c	-0.061007008
37	0xbbeb1449	-0.007174049
38	0x3c98541f	0.0185948
39	0x3d4f12fb	0.05055521
40	0x3e3ecddb	0.18633215
41	0xbd5c06fa	-0.05371759
42	0xbd07e289	-0.033175025
43	0x3d960dd2	0.07326855
44	0x3be86dcf	0.0070931683
45	0x3dffc52b	0.12488779
46	0xbe047b2d	-0.12937613
47	0x3db4fcf1	0.08837307
48	0xbe2ee715	-0.17080338
49	0x3b80fd6b	0.00393646
50	0xbddcf96d	-0.10789762
51	0xbcfe7dc8	-0.031065837
52	0xbd0df5b4	-0.03465815
53	0x3cee2ca7	0.029074026
54	0xbd99c3f0	-0.07508075
55	0x3d9ae7e1	0.07563759
56	0xbd8a4edd	-0.06753323
57	0xbe07e09d	-0.13269277
58	0x3dcb9758	0.09940976
59	0xbdd1e328	-0.10248405
60	0xbdce2e1c	-0.100673884
61	0xbd7b38fe	-0.06133365
62	0xbd096ffe	-0.03355407
63	0x3dab3c42	0.08361103
64	0x3d870e71	0.06594551
65	0x3b17afc9	0.0023145548
66	0x3e0e04e9	0.1386906
67	0x3da86da3	0.082240365
68	0x3cda93a7	0.026681734
69	0x3dc44680	0.09583759
70	0x3d0b7e28	0.03405586
71	0xbe1ee589	-0.15517248
72	0xbdfa1ce1	-0.122125395
73	0xbdb18e88	-0.08669764
74	0xbdbc4d20	-0.09194398
75	0x3dc0d598	0.0941574
76	0x3deca060	0.115540266
77	0xbbaa7bb8	-0.0052027367
78	0x3d69fc19	0.057125185
79	0x3d5b444c	0.05353193
80	0x3d80b1ba	0.06283899
81	0xbe5b93f8	-0.21443164
82	0x3d569136	0.052384578
83	0xbd75d22c	-0.06001489
84	0xbdba769a	-0.09104653
85	0x3e6b109d	0.22955556
86	0xbe05fbec	-0.13084382
87	0xbd06378a	-0.03276781
88	0x3dace4f7	0.08442109
89	0xbdd302a4	-0.10303238
90	0xbd37fc65	-0.044918437
91	0xbcb53c9e	-0.022123631
92	0xbd01ed75	-0.031720597
93	0xbc02e8f5	-0.007990112
94	0xbc4ac7e3	-0.012376758
95	0x3e26e42e	0.16297981
96	0xbe2902c0	-0.16504955
97	0x39457266	0.00018830001
98	0x3dc5efe5	0.09664897
99	0xbd495142	-0.04914976
100	0x3c89d11a	0.01682334
101	0xbd419e8c	-0.047270343
102	0xbdc5b2ca	-0.09653242
103	0x3d90657b	0.07050606
104	0x3de8311a	0.113374904
105	0x3e2591f4	0.16168958
106	0xbd3d5333	-0.046221923
107	0xbd279a6f	-0.040918764
108	0xbd825b5e	-0.06365083
109	0xbd759984	-0.059960857
110	0x3b7ca385	0.0038549614
111	0x3d277608	0.040884048
112	0x3bd081d4	0.006363133
113	0x3d816cc5	0.06319574
114	0x3cb0a00d	0.021560693
115	0x3d5c3d80	0.05376959
116	0x3c8b62c2	0.017014865
117	0x3e152a89	0.14567007
118	0x3ce2a91b	0.027668526
119	0xbdc27c31	-0.09496344
120	0xbd8b6c6c	-0.06807789
121	0x3de7c10a	0.11316116
122	0xbd4a33a5	-0.04936566
123	0x3d284e7f	0.041090485
124	0xbd80f359	-0.06296415
125	0x3cbb620b	0.022873899
126	0x3dedda00	0.11613846
127	0xbe03bf2e	-0.12865898
128	0xbddbac4e	-0.10726224
129	0xbc00ae2a	-0.007854024
130	0xbe84d2aa	-0.25941974
131	0x3b9ea417	0.0048413384
132	0xbd786317	-0.060641374
133	0xba45df75	-0.00075482513
134	0x3d970229	0.07373459
135	0xbe3db547	-0.18526183
136	0xbd0a13d1	-0.033710305
137	0xbd729973	-0.05922837
138	0x3d98ae0d	0.074550726
139	0xbd596cf6	-0.05308243
140	0xbbc045cb	-0.005867695
141	0xbd4fa152	-0.050690956
142	0x3cdef073	0.027214264
143	0xbc20f755	-0.009824594
144	0x3ca8df67	0.020614339
145	0xbdb4f08a	-0.08834942
146	0xbc7557a8	-0.014974512
147	0xbd465373	-0.048419427
148	0x3c37508a	0.011188636
149	0xbd813bbd	-0.06310222
150	0xbdef9fd3	-0.11700406
151	0xbc357e95	-0.011077543
152	0xbddcc6be	-0.107800946
153	0xbe48e335	-0.19617923
154	0xbd36e9fd	-0.044656742
155	0x3d691d09	0.056912456
156	0xbcefa02a	-0.029251177
157	0x3c66b4bb	0.014081175
158	0x3c5503f5	0.013001432
159	0x3cd478dc	0.025936536
160	0x3e168df7	0.14702593
161	0xbdb1a836	-0.08674662
162	0xbe11676d	-0.1419961
163	0x3be6a272	0.007038408
164	0xbdaf3a55	-0.08556048
165	0xbd22adc6	-0.039716505
166	0x3e70fd57	0.23534141
167	0x3e1c5aeb	0.15269057
168	0xbc988639	-0.01861869
169	0xbd98c0eb	-0.07458671
170	0x3e26a6b8	0.16274536
171	0xbd9b6c24	-0.075889856
172	0xbde01e4e	-0.1094328
173	0x3ba4ed98	0.005033206
174	0xbe1071ee	-0.1410596
175	0x3d0b6ccd	0.034039307
176	0xbdb101e2	-0.08642937
177	0x3dc87ec6	0.09789805
178	0xbdf140c3	-0.117799304
179	0x3d530f39	0.05152819
180	0x3d3382bf	0.04382586
181	0xbe43e920	-0.19131899
182	0xbc956c8e	-0.01824024
183	0xbc849645	-0.016184935
184	0xbd8d6a78	-0.06905073
185	0xbd56556f	-0.05232757
186	0x3e04345c	0.12910599
187	0x3d16f25e	0.036852233
188	0x3cd298b2	0.025707576
189	0x3ea4e1f1	0.3220363
190	0x3cc04020	0.023468077
191	0x3d90fff1	0.07080067
192	0x3d1235e4	0.035695925
193	0xbe19a0f1	-0.150028
194	0xbe0f6c11	-0.14006068
195	0x3d84e0d1	0.06488193
196	0x3e7fa7a6	0.24966297
197	0x3e37b24a	0.17939106
198	0xbdf70823	-0.12062099
199	0x3dac791b	0.084215365
200	0x38800e24	6.1061495e-05
201	0xbd9f5b09	-0.077810355
202	0xbd0d5e26	-0.034513615
203	0x3e290404	0.16505438
204	0xbe09bb83	-0.13450436
205	0xbd8bb17e	-0.06820963
206	0xbdfd8c89	-0.123803206
207	0x3d2e0741	0.042487387
208	0x3dffb3d0	0.124854684
209	0x3df01402	0.11722566
210	0x3ce22369	0.027604776
211	0x3da054cc	0.07828674
212	0xbdc7aff7	-0.097503595
213	0x3cf4b4c4	0.029871352
214	0xbdbd3793	-0.092391156
215	0x3dd31ad0	0.103078485
216	0xbdeec177	-0.11657994
217	0x3c75817d	0.014984486
218	0xbcce606a	-0.025192458
219	0xbd448cd6	-0.047985874
220	0x3be140ac	0.0068741646
221	0xbb29622b	-0.0025845866
222	0x3d961620	0.07328439
223	0xbe6015db	-0.21883337
224	0x3d498863	0.049202334
225	0xbe05f8e6	-0.13083228
226	0xbc88a05b	-0.016678026
227	0xbe1e587e	-0.15463445
228	0xbe0e1e01	-0.13878633
229	0x3c41bd5f	0.011824935
230	0xbe0736e1	-0.13204528
231	0xbdd9a94f	-0.10627996
232	0x3e5713b1	0.21003605
233	0xbc6181e7	-0.013763881
234	0x3d871090	0.06594956
235	0x3d75116e	0.059831075
236	0xbd4a471f	-0.049384233
237	0xbd78742e	-0.060657673
238	0xbc59b385	-0.01328743
239	0xbc3d6a46	-0.011560982
240	0xbda313b5	-0.07962743
241	0xbdd2dea5	-0.10296372
242	0xbcb749eb	-0.022374114
243	0x3d24cb8e	0.040233187
244	0x3dc66eda	0.09689112
245	0x3de1e1ba	0.11029382
246	0x3dda1c45	0.10649923
247	0xbcb176a5	-0.02166302
248	0xbdf02e1a	-0.11727543
249	0xbd8b48ad	-0.06800971
250	0xbc3d16a3	-0.011541042
251	0xbe0d5f4d	-0.13805886
252	0x3df9382d	0.12168918
253	0xbe1f7527	-0.15572034
254	0xbdea966e	-0.114544734
255	0x3e141911	0.14462687

network_body._body_endoder.seq_layers.2.bias f4 [128]
0	0xbba9f41c	-0.005186571
1	0x3865e458	5.4810516e-05
2	0xbaf1addc	-0.0018438655
3	0xbb5dc5c7	-0.0033839808
4	0x3bc99960	0.006152317
5	0x3a8f9da9	0.001095702
6	0xbb22381b	-0.002475268
7	0x3a409c6b	0.0007347527
8	0x39dd0fc4	0.0004216415
9	0xbb89857a	-0.00419682
10	0xb9f274e9	-0.00046244942
11	0x3b1db7bf	0.002406582
12	0xbb028487	-0.0019915418
13	0x3b6f8fab	0.0036554139
14	0x38fc7ffe	0.00012040137
15	0xbb4ca2b0	-0.00312249
16	0x3be15d9c	0.006877614
17	0x3ad5fc36	0.0016325775
18	0x3bcd77bd	0.0062703774
19	0x3ad0e520	0.0015937425
20	0xbae45d60	-0.0017422847
21	0xbadf6758	-0.0017044349
22	0xba2e9f95	-0.0006661353
23	0xbba4a6f1	-0.005024784
24	0x3b081454	0.002076407
25	0xbb48399c	-0.0030551916
26	0xbacbf5e3	-0.0015560951
27	0x3bd22f16	0.0064143045
28	0xb9e08dd1	-0.0004283027
29	0xbbbeb884	-0.005820336
30	0x3b9ddd6d	0.004817656
31	0x3b83445c	0.004005952
32	0xbb08e7d3	-0.002089013
33	0x3aa6b7e2	0.0012719596
34	0xbb8d2215	-0.0043070414
35	0xbb48480d	-0.0030560524
36	0x3b49bceb	0.003078277
37	0x3bb5662f	0.005535863
38	0x3b886c7b	0.0041633225
39	0x3b580b4c	0.0032965718
40	0xbb84475f	-0.0040368284
41	0x3b19ce8a	0.0023469054
42	0xba267514	-0.00063498435
43	0x3b1299c6	0.0022369488
44	0xba996e6b	-0.0011705881
45	0xbafa3d0e	-0.0019091682
46	0x3a6164be	0.00085980806
47	0xbb8f2e5d	-0.0043695406
48	0x3b299f2d	0.002588223
49	0xbae91db0	-0.0017785337
50	0x3a38dbac	0.00070517766
51	0x3ae6f2c0	0.0017619953
52	0xb97964b8	-0.00023784011
53	0xbab37c19	-0.00136936
54	0xbb4825d1	-0.0030540118
55	0x3acf632e	0.0015822405
56	0xbb92025b	-0.004455847
57	0xbb49951b	-0.003075904
58	0x3aa6c4a8	0.0012723403
59	0x3b5e17a5	0.0033888605
60	0x3be37fa0	0.0069427043
61	0x3b4aaa8a	0.0030924403
62	0x39b18eac	0.0003386637
63	0x3b45fca0	0.003021039
64	0x3bc12360	0.0058941096
65	0xba9092fa	-0.001103013
66	0x3bd01d8b	0.006351178
67	0x3b6c2a07	0.0036035792
68	0x3bc8abf7	0.0061240154
69	0x3becae69	0.0072229397
70	0xbb7439c1	-0.003726587
71	0x39a3a297	0.00031210922
72	0x3b512818	0.0031914767
73	0x3b8dbcac	0.00432547
74	0x3b8aa270	0.00423079
75	0x3ba89589	0.005144779
76	0x3a21782c	0.00061595696
77	0xbbc5760c	-0.006026035
78	0x3b517bb7	0.003196461
79	0x3b44f1ee	0.0030051428
80	0x3b0adfea	0.0021190592
81	0x3bcd9b4f	0.0062746177
82	0x3be22f5b	0.006902618
83	0xbb62b07e	-0.003459006
84	0x3bd684ff	0.006546616
85	0x3bceda3d	0.006312637
86	0xbbb34371	-0.005470686
87	0x3ab21ea0	0.0013589449
88	0xbb4d19c7	-0.0031295882
89	0x3a0aa774	0.00052892347
90	0x3b5159f1	0.0031944478
91	0x3bbb9391	0.0057243784
92	0x3bbfbb7b	0.005851207
93	0x3b1fd628	0.0024389122
94	0x3ba05e47	0.0048940512
95	0x3b00bb22	0.001964279
96	0xbac6a777	-0.001515611
97	0xbb8822c1	-0.0041545336
98	0x3b6d5a9d	0.003621734
99	0xbb33795f	-0.0027385575
100	0x3a42f34b	0.0007436766
101	0xbab31ce5	-0.0013665227
102	0x3b411c22	0.0029466231
103	0x3afc0bde	0.0019229611
104	0xbb605a43	-0.0034233488
105	0x3be67959	0.0070335087
106	0x3b27eb3f	0.0025622395
107	0x3bcfe602	0.0063445577
108	0x3924214a	0.0001565266
109	0x3a80216e	0.0009775588
110	0xba28fa77	-0.00064460136
111	0x398dc303	0.0002703891
112	0xbb013b50	-0.001971919
113	0x3b827e7f	0.0039823647
114	0x3bbafa87	0.0057061347
115	0x3b216023	0.0024623952
116	0x3b818d15	0.003953586
117	0x39792760	0.00023761159
118	0xbb07f4cf	-0.0020745283
119	0xbbac5fbf	-0.0052604373
120	0x3b95520f	0.0045569013
121	0xba80c1b6	-0.0009823355
122	0x3a835222	0.0010018984
123	0x3ba89c7a	0.0051456066
124	0x3baf6aee	0.005353323
125	0x3b8fe73b	0.0043915785
126	0xbb1932ce	-0.002337623
127	0x3adb4578	0.0016729077

action_model._discrete_distribution.branches.0.weight f4 [3, 128]
0	0x3bcde390	0.006283231
1	0x3bb60b8e	0.0055555766
2	0x3c3a141f	0.011357336
3	0x3b8026cc	0.003910875
4	0xbb6167af	-0.0034394076
5	0xbc0a14de	-0.008427827
6	0x3b943ffb	0.0045242286
7	0x3c68dc99	0.014212751
8	0xbb18569e	-0.0023244987
9	0xba8bce12	-0.0010666272
10	0xbc0a88ba	-0.00845545
11	0x3b058698	0.0020374414
12	0x3b999978	0.0046874844
13	0xbc2f3e5d	-0.010696021
14	0x3c2cc184	0.010544185
15	0xbc401d86	-0.011725789
16	0xbabc16e8	-0.0014350088
17	0x3b4818b8	0.0030532312
18	0xbb87ba22	-0.004142062
19	0xbc5f7152	-0.0136378575
20	0x3c270b6d	0.010195595
21	0xbb4fe1c6	-0.0031720265
22	0x3b5caa3b	0.0033670801
23	0xbb840949	-0.004029427
24	0xbb9c5984	-0.0047714133
25	0xb923f8e4	-0.0001563761
26	0x3b53b2b6	0.0032302565
27	0xbb890fd6	-0.004182796
28	0x3c078c1a	0.008273149
29	0xbb6225e9	-0.003450746
30	0xbbc2d642	-0.0059459517
31	0x3b3bb1b6	0.002863986
32	0x3bb744e4	0.005592929
33	0xbb0042a1	-0.0019570964
34	0x3b79c210	0.0038110055
35	0x3b6c3c88	0.0036046822
36	0x3b3c1bc0	0.0028703064
37	0x3c16def6	0.0092084315
38	0xbc84d4ff	-0.016214846
39	0xba6156ef	-0.0008596023
40	0xbb7ee537	-0.0038893947
41	0xbba0d442	-0.0049081156
42	0xbc0af790	-0.008481875
43	0x3c1301cb	0.008972595
44	0x3ace7c17	0.0015753534
45	0xbb49a0ba	-0.0030765967
46	0xbbc20c4c	-0.005921876
47	0xbb9f9ae4	-0.0048707593
48	0x3a95f315	0.0011440242
49	0xbb999b3e	-0.0046876958
50	0x3c92b34d	0.017907763
51	0xb900bdc6	-0.00012277727
52	0xbbad7947	-0.0052939984
53	0xbad49371	-0.0016218257
54	0x3c69dd26	0.014273917
55	0x3c3c925c	0.011509504
56	0x3b62d79a	0.0034613372
57	0x3a08c8f2	0.00052179315
58	0xbc59c2dc	-0.013291087
59	0xbbd92be6	-0.0066275476
60	0x3b20f5a6	0.002456048
61	0xbbfe87b2	-0.007767641
62	0xbb4182ca	-0.002952742
63	0x3b8056a8	0.00391658
64	0x3c67aac8	0.0141398385
65	0xbb4e1907	-0.0031448023
66	0x3b8aeb56	0.00423948
67	0x3c102ead	0.008800191
68	0xbc8d216a	-0.017227847
69	0xbbb2f72f	-0.0054615955
70	0xbb840194	-0.0040285084
71	0xbb159040	-0.0022821575
72	0xbb864fb2	-0.004098856
73	0x3c61d3c8	0.013783403
74	0x3c2da090	0.010597363
75	0x3ae5aa32	0.0017522036
76	0x3b28a90f	0.0025735532
77	0x3bd5ea1e	0.006528153
78	0x3a99e417	0.001174095
79	0x3c16c3b1	0.00920193
80	0x3ba5ca27	0.005059499
81	0xbc300321	-0.0107429335
82	0x3ab0d68e	0.0013491677
83	0xbbe7b624	-0.0070712734
84	0x3bddc173	0.0067674457
85	0xbac96d7e	-0.0015367714
86	0x3b40aec5	0.0029401046
87	0x3b6e369b	0.0036348465
88	0xbbea9958	-0.0071593933
89	0x3ba37ea8	0.004989464
90	0x3be1a45b	0.006886048
91	0xbc3927a9	-0.01130096
92	0x3b2758cb	0.0025535102
93	0xbc04a974	-0.008097041
94	0x39b09ca5	0.00033686045
95	0xbb371871	-0.0027938152
96	0x3ca8e6ee	0.020617928
97	0xbb0d2d16	-0.0021541766
98	0x3c5f6d92	0.013636963
99	0xbb997790	-0.0046834424
100	0xbbb9efe2	-0.005674348
101	0x3b48fe04	0.0030668983
102	0xbb0b2485	-0.0021231484
103	0xbb822bb0	-0.003972493
104	0xbbedf255	-0.0072615542
105	0x3bd58bf5	0.0065169283
106	0x3c561e38	0.013068728
107	0xbd04b540	-0.032399416
108	0x3b923bc5	0.0044626915
109	0xbc2a165f	-0.01038131
110	0xbc57d368	-0.013172962
111	0xbb25a247	-0.0025273727
112	0x38b64b3c	8.69245e-05
113	0xbb9dbdbf	-0.0048138793
114	0xbc0a0829	-0.008424797
115	0xbb6fb8c4	-0.0036578635
116	0x3ca30cd6	0.019903582
117	0x3bd07abb	0.006362287
118	0x3c44b022	0.012004884
119	0x3c168666	0.0091873165
120	0xbb7ec359	-0.003887376
121	0x3b8cc496	0.004295896
122	0xbc8a7d37	-0.01690541
123	0xbbf4aa5c	-0.0074665975
124	0x39160e64	0.00014310476
125	0x3a586007	0.0008254055
126	0xbc2197fc	-0.009862896
127	0xbc169a42	-0.009192051
128	0x3bda3bbc	0.006659953
129	0xbc4c7926	-0.012480056
130	0xbc303547	-0.01075489
131	0xbb9681a8	-0.004593093
132	0x3b8e30b1	0.0043393006
133	0x3bcb838d	0.0062107504
134	0xbcc6af3b	-0.024253478
135	0xbc4002a2	-0.011719378
136	0x3c0857a6	0.008321678
137	0x3b85e6a6	0.0040863333
138	0xbb84fbb2	-0.0040583247
139	0xbbfcf022	-0.0077190557
140	0x3be4e879	0.0069857207
141	0x3c5cd150	0.013477638
142	0xbb15f342	-0.0022880589
143	0xbc08935f	-0.008335917
144	0x3c864c10	0.016393691
145	0xbb448502	-0.0029986505
146	0x3cc313c5	0.023813138
147	0xbba33906	-0.004981163
148	0x39b79bf3	0.0003502067
149	0xbbe71872	-0.0070524747
150	0x3c379e4e	0.011207176
151	0xbc8ca352	-0.017167721
152	0x3a4ad240	0.0007737018
153	0x3b3a5daf	0.0028437187
154	0x3b94a2d7	0.0045360136
155	0x3c190ea5	0.00934187
156	0xbb18a4e9	-0.0023291653
157	0xbc30344e	-0.010754658
158	0x3c5a360c	0.01331855
159	0x3c5c70f5	0.013454665
160	0xbcd05402	-0.025430683
161	0xbc801ff2	-0.015640233
162	0xbbb5f889	-0.0055533093
163	0xbb0addaa	-0.002118925
164	0x3b965256	0.004587452
165	0x3bdcbeb1	0.0067365994
166	0x3c519dd9	0.0127939815
167	0x3c7e1033	0.015506792
168	0xbcc41678	-0.023936495
169	0x3c423078	0.011852376
170	0x3b079ada	0.0020691664
171	0x3b93eb95	0.0045141676
172	0xbac61fa7	-0.0015115634
173	0xbbf33f1c	-0.0074232947
174	0xbbcb74cf	-0.006208993
175	0xbaa29eb8	-0.0012406921
176	0xbbb8d1ca	-0.005640243
177	0xbb586444	-0.0033018747
178	0xbb411c6f	-0.002946641
179	0x3bfed54a	0.007776891
180	0x3bc55378	0.006021913
181	0xbc36d547	-0.011159248
182	0xbc366212	-0.01113178
183	0xbc11a150	-0.008888558
184	0x3b909d29	0.004413266
185	0xbbad309d	-0.005285336
186	0x3c4e3126	0.01258496
187	0x3c62a464	0.013833139
188	0x3c8c9c50	0.01716438
189	0xbb156bf4	-0.002279994
190	0x3c13a92f	0.0090125045
191	0x3caf21c2	0.021378402
192	0x3c5cb2df	0.013470381
193	0xbb90e4c7	-0.0044218036
194	0x3c793d6b	0.015212397
195	0x3c985e95	0.018599788
196	0x394d3d7b	0.00019573227
197	0x3ceb01ee	0.028687444
198	0x3b33ac32	0.0027415869
199	0x3b6bb7ba	0.0035967664
200	0x3cb948ee	0.022617783
201	0x3b6d9fbd	0.0036258542
202	0x3b8a7595	0.0042254427
203	0x3bd12036	0.0063820137
204	0xbaf8b30e	-0.0018974261
205	0xbc6f4a0c	-0.0146050565
206	0x3bbbdc4e	0.0057330495
207	0x3b43428a	0.00297943
208	0xbbd0000c	-0.006347662
209	0x3c6d3d64	0.014479969
210	0x3c1f32a2	0.009716662
211	0x3badaa3a	0.0052998336
212	0x3c885cac	0.016645752
213	0x3c6d57b8	0.014486246
214	0xbbaea247	-0.0053294036
215	0x3bf19401	0.00737238
216	0xba68e888	-0.00088847475
217	0xbce30177	-0.02771066
218	0x3c89cee2	0.016822282
219	0x3c100d83	0.008792284
220	0x3bf1a588	0.007374469
221	0xbc81cdb0	-0.01584515
222	0x3c4f05f2	0.012635695
223	0x3b5f28d9	0.0034051447
224	0x3c115a5e	0.008871643
225	0xbb1ad682	-0.0023626392
226	0x3c80fc2e	0.015745249
227	0x3b537295	0.003226434
228	0xbc7a899c	-0.015291598
229	0xbcdf948c	-0.027292512
230	0x3bba0a7c	0.0056775194
231	0xbbaf99d8	-0.005358916
232	0x3b253340	0.002520755
233	0x3c5b5710	0.013387457
234	0x39d49b87	0.00040551668
235	0x3cd22dc0	0.02565658
236	0xbc9e8b3a	-0.019353498
237	0x3c1aacb9	0.009440594
238	0xb806f8d0	-3.2179814e-05
239	0xbb88867b	-0.004166422
240	0x3c01ad74	0.00791489
241	0x3c228848	0.009920187
242	0x3ba1cb60	0.0049375743
243	0x3c5187e9	0.012788751
244	0x3c2968aa	0.010339895
245	0xbba3d7b4	-0.005000079
246	0xbae5347c	-0.0017486955
247	0xb974e5e0	-0.00023355288
248	0x3ca08139	0.019592868
249	0xbb55378a	-0.0032534325
250	0xbb2836a1	-0.0025667327
251	0xbb36323a	-0.0027800933
252	0x3bbf7a0e	0.0058434075
253	0x3b932385	0.0044903182
254	0xbb30340e	-0.0026886496
255	0xbc461025	-0.01208881

action_model._discrete_distribution.branches.0.bias f4 [3]
0	0xbb024b49	-0.00198813
1	0x3b86c0e8	0.0041123517
2	0xbb428baa	-0.0029685297

action_model._discrete_distribution.branches.1.weight f4 [3, 128]
0	0xbc3011cc	-0.010746431
1	0x3c78f900	0.015196085
2	0x3c70586b	0.014669518
3	0xbab4f514	-0.0013805949
4	0x3badb011	0.0053005298
5	0x3cedfe66	0.02905197
6	0x3c6eb98a	0.014570603
7	0xbb6fea81	-0.003660828
8	0x3c4853e9	0.012227037
9	0x3b5d96d5	0.0033811827
10	0x3b1247a1	0.0022320526
11	0xbabf4d82	-0.0014595243
12	0xba68e1a2	-0.00088837196
13	0xbc529d5c	-0.0128549
14	0xbb4ab569	-0.0030930883
15	0x3c0c6bec	0.008570652
16	0x3b7fa96c	0.0039010895
17	0xba0d783f	-0.0005396641
18	0x3c009ced	0.007849914
19	0xbc86e262	-0.01646537
20	0x3c1d45b1	0.009599135
21	0x3b55fe15	0.0032652665
22	0x3c4c3520	0.012463838
23	0x3c642849	0.01392562
24	0x3c092768	0.008371212
25	0xbc260292	-0.010132449
26	0xbb3fa959	-0.0029245226
27	0x3b8ba6f3	0.0042618453
28	0x3c20d2fe	0.009815929
29	0xbb1132ad	-0.002215545
30	0x3c629bc2	0.013831081
31	0x38a4ad18	7.8523706e-05
32	0x3aedb918	0.0018136827
33	0x3ae05283	0.0017114434
34	0x3bf9f07e	0.007627546
35	0x3c7d90e5	0.01547644
36	0xbb0b6ecf	-0.0021275764
37	0xbb9336af	-0.004492603
38	0xba7d7e33	-0.0009669989
39	0x3a94ed11	0.0011362155
40	0xbc18d4b3	-0.009328055
41	0x3bc39bea	0.005969514
42	0x3cb3fee4	0.021972127
43	0x3c73c6a2	0.014878901
44	0x3bf073c5	0.0073380196
45	0x3b71d102	0.003689826
46	0xbbec4ba3	-0.007211165
47	0xbbe3cbff	-0.0069518085
48	0x3ba01a2c	0.0048859324
49	0xbba2b50c	-0.00496543
50	0xbbf10a55	-0.007355968
51	0xbb25336e	-0.0025207656
52	0xbb3a59c5	-0.0028434854
53	0x3b6e2bd7	0.0036342049
54	0x3c7a85df	0.015290706
55	0x3a8a3419	0.0010544091
56	0xba0ab845	-0.00052917405
57	0xbbc11628	-0.005892534
58	0x3c5b8d6f	0.01340042
59	0xbb086c21	-0.0020816403
60	0xbb227a29	-0.0024792051
61	0xbc0e7fe9	-0.008697488
62	0xbb649104	-0.0034876475
63	0x3b33a919	0.0027414022
64	0x3caaeca1	0.020864787
65	0x3b010f18	0.0019692834
66	0x3bda112b	0.0066548786
67	0xbb42e5a0	-0.0029738918
68	0xbbb49545	-0.0055109584
69	0x3c6004f9	0.013673061
70	0x3b548774	0.003242937
71	0x3c2757ba	0.010213787
72	0xbc57131e	-0.0131271165
73	0xbb56e524	-0.0032790387
74	0x3b361832	0.0027785418
75	0xbba05015	-0.004892359
76	0x3b43f152	0.0029898477
77	0xbc0bc43a	-0.008530671
78	0x3c0d533e	0.0086258035
79	0xbb3e30bc	-0.0029020747
80	0xbca3d9d6	-0.020001333
81	0xbc38daa8	-0.0112826
82	0x3ae26410	0.0017272253
83	0x3b1d1758	0.0023970213
84	0xbab36201	-0.0013685824
85	0x3b4f257e	0.003160804
86	0xba6fd356	-0.0009148618
87	0xbbc3932c	-0.005968472
88	0x3b8f5b29	0.004374881
89	0x3b880cae	0.004151902
90	0x3cb88c1f	0.022527752
91	0x3c464ced	0.0121033015
92	0xbc38c713	-0.011277932
93	0x3a14b72e	0.0005673048
94	0x3b6cbad1	0.0036122093
95	0x3b0667b8	0.0020508599
96	0x3b8dd552	0.0043284083
97	0xbc2c59fe	-0.010519503
98	0xbaf4b085	-0.001866833
99	0x3c49f8f3	0.0123274205
100	0xbc618428	-0.013764419
101	0x3c46a246	0.01212365
102	0xbb03a05d	-0.0020084598
103	0x3c5e1665	0.013555144
104	0x3c6c3c1a	0.014418626
105	0x3affee50	0.0019525979
106	0xbb1cb7f7	-0.0023913363
107	0xbc8d22f7	-0.017228587
108	0xbc7fceff	-0.015613317
109	0xbbaf9a7a	-0.005358991
110	0x3c37139f	0.011174112
111	0xbc3aede2	-0.011409255
112	0xbb64c70a	-0.0034908676
113	0xbb022143	-0.0019856251
114	0xbb6685f7	-0.0035175064
115	0xbb4dcd89	-0.0031403026
116	0x3c3f295a	0.011667574
117	0xbbe9f4f8	-0.0071397983
118	0x3af940bf	0.0019016488
119	0x3bf7a20c	0.0075571593
120	0x3b590a24	0.0033117617
121	0xbb6b584a	-0.0035910779
122	0xbc42bcdb	-0.011885847
123	0xba3e09d2	-0.0007249388
124	0xbc732b02	-0.014841797
125	0xba6c7e99	-0.000902155
126	0x3c636791	0.013879673
127	0xbbd97da6	-0.006637293
128	0xbbe387ed	-0.006943694
129	0x3a8e3178	0.0010848483
130	0x3c75a0f0	0.014991984
131	0xbb69eeda	-0.0035695345
132	0xbb228714	-0.002479975
133	0xbad0a165	-0.001591724
134	0x3a310a33	0.0006753534
135	0x3bf326ae	0.0074203825
136	0x3c505f96	0.012718102
137	0x3cb45934	0.022015192
138	0x3b4e4b29	0.0031477904
139	0xbbadf456	-0.005308668
140	0x3c6ff3e3	0.0146455495
141	0xbc0f58e7	-0.008749223
142	0xbcc81bcc	-0.024427317
143	0xbc9354d4	-0.017984785
144	0xbc4a5f9c	-0.012351897
145	0xbc11b4fe	-0.00889325
146	0xbc905d5d	-0.017622644
147	0xbb0f636c	-0.0021879328
148	0xbbf93a58	-0.007605832
149	0x3c66a0e2	0.014076443
150	0x3c9cc05f	0.019134698
151	0x3b04f8b8	0.002028985
152	0x3bd0fee3	0.006378041
153	0x3bc8da95	0.0061295726
154	0xb9375d29	-0.00017486945
155	0xb9538b66	-0.00020174458
156	0xbc497c8f	-0.0122977635
157	0x3c119bf8	0.0088872835
158	0xbc6fcf32	-0.014636802
159	0x3b346e8b	0.002753171
160	0xbb4ddbe4	-0.0031411583
161	0x3b0f6fb0	0.002188664
162	0x3b5e024a	0.0033875876
163	0x3b832ee7	0.004003394
164	0x3b0b3817	0.002124315
165	0xbc8c4b29	-0.017125683
166	0x3b849a67	0.0040467265
167	0xbb8ff430	-0.004393123
168	0x3c808172	0.015686724
169	0xbb63deef	-0.003477033
170	0x3ad0574b	0.0015895156
171	0xbba4e4dd	-0.0050321654
172	0x3b425b13	0.0029656335
173	0xba801736	-0.0009772542
174	0x3c69ac96	0.014262339
175	0x3b3f33c9	0.0029175153
176	0xbb8aebb6	-0.0042395247
177	0x3c8c1cfa	0.01710366
178	0x3bedb1f3	0.007253879
179	0xbb9a3a93	-0.0047066896
180	0xb973e278	-0.00023258652
181	0xbbfd1aab	-0.0077241263
182	0x3c638914	0.013887662
183	0x3ba01a66	0.0048859594
184	0x3bdbfa31	0.0067131747
185	0xbae231a8	-0.001725723
186	0x3ae8efcf	0.0017771664
187	0xbbc9ee24	-0.006162422
188	0xbc465dd6	-0.012107333
189	0x3b24ddec	0.002515669
190	0x3c2437bd	0.010023055
191	0xbb2569fc	-0.0025240174
192	0x3ab98a05	0.0014155513
193	0xbba1ac1a	-0.004933846
194	0xbb6b8b8d	-0.0035941333
195	0x3bd56dad	0.0065133185
196	0xbb9c92ed	-0.004778257
197	0xbc37ef15	-0.011226435
198	0x3c7a25e4	0.015267823
199	0xbc4ab623	-0.012372526
200	0xb9a14e3e	-0.00030766608
201	0x3b520253	0.0032044842
202	0x3a181b31	0.00058023917
203	0xbc51f1e2	-0.012814017
204	0xbb7666e2	-0.0037597944
205	0x3c4a88d4	0.012361724
206	0xbbe2426f	-0.006904892
207	0xbb840304	-0.00402868
208	0x3b81d9eb	0.0039627454
209	0xb8ee88e8	-0.00011374225
210	0xbbc2c627	-0.0059440318
211	0x3bbcce3a	0.005761889
212	0xbb9a9e1b	-0.0047185547
213	0x3b8440d1	0.004036047
214	0x3c1dc718	0.009629987
215	0x3c03ee14	0.008052368
216	0xbb4568fe	-0.0030122395
217	0x3b65b829	0.0035052395
218	0x3ad7e6d2	0.0016471988
219	0xbbe0203d	-0.0068397806
220	0xbc4121d0	-0.011787847
221	0xbc26c69d	-0.010179189
222	0xbb918bf6	-0.0044417335
223	0x3b5d190e	0.0033736858
224	0x3c0cf18e	0.008602513
225	0xbb964ac8	-0.0045865513
226	0x3b93fcdb	0.0045162267
227	0x3bee3d6f	0.007270507
228	0x3c4d78ad	0.012540978
229	0x3ba1f855	0.0049429336
230	0x3bd9dad6	0.0066484017
231	0xbc542c02	-0.012949945
232	0x3ba07052	0.004896202
233	0xbc2287be	-0.009920059
234	0xbc0b765c	-0.008512106
235	0x3b681b7b	0.003541677
236	0x3bc8d918	0.006129395
237	0x3bade2ae	0.0053065633
238	0xbc3db20b	-0.011578093
239	0x3c13f1d9	0.009029829
240	0xbbfb7ef6	-0.007675047
241	0xbc8af600	-0.016963005
242	0xbc7de0a0	-0.015495449
243	0x3c9641e9	0.018341975
244	0x3becc4ac	0.0072255936
245	0xbc39a2e9	-0.011330345
246	0xbc50e78a	-0.012750516
247	0xbb815b5b	-0.003947658
248	0x3b57468d	0.0032848448
249	0x3c0fe0fb	0.008781667
250	0xbc8c6150	-0.017136246
251	0xbc0c970b	-0.008580933
252	0xbc4fdffd	-0.01268768
253	0xbad9a483	-0.0016604814
254	0xbbfd0ddf	-0.007722601
255	0xbc0776ea	-0.008268097

action_model._discrete_distribution.branches.1.bias f4 [3]
0	0xbb19192a	-0.0023360946
1	0xbae1ec2c	-0.0017236522
2	0x3b76f2bc	0.0037681302

exp_avg f4 [128, 29]
0	0xb619e8e6	-2.2934341e-06
1	0xb71b3b9b	-9.252598e-06
2	0x37a4df04	1.9654173e-05
3	0x37a1ce03	1.9288627e-05
4	0x379a2c0c	1.8378742e-05
5	0xb78ff000	-1.7158687e-05
6	0x37212041	9.6038575e-06
7	0x37492cf2	1.1990998e-05
8	0xb6f26716	-7.224163e-06
9	0xb6425e28	-2.896306e-06
10	0x379c279f	1.86151e-05
11	0x379113ee	1.7294627e-05
12	0x37c217e9	2.3137736e-05
13	0xb7730225	-1.4484428e-05
14	0x3624eb27	2.457478e-06
15	0x36ee0e12	7.0945907e-06
16	0xb66654b0	-3.4321965e-06
17	0xb61aafea	-2.3050184e-06
18	0x376a701c	1.3973589e-05
19	0x376f8303	1.4276014e-05
20	0x3763905f	1.3563868e-05
21	0xb73f711e	-1.1410824e-05
22	0x371550d6	8.899913e-06
23	0x3689b50a	4.103994e-06
24	0xb70b6558	-8.308642e-06
25	0xb67ecef4	-3.7969412e-06
26	0x37af382d	2.0887785e-05
27	0x378a2f0e	1.6472794e-05
28	0x00000000	0.0
29	0xb5d1c8f5	-1.56302e-06
30	0xb794f1c5	-1.7755558e-05
31	0x3754b406	1.26781e-05
32	0x37419966	1.1539412e-05
33	0x36359aa8	2.7061124e-06
34	0xb709dd68	-8.2173865e-06
35	0x36236fb2	2.4353908e-06
36	0x363d637e	2.8221107e-06
37	0xb6d66762	-6.3897323e-06
38	0xb743c838	-1.1669523e-05
39	0x3760e387	1.3404416e-05
40	0x3735ed0b	1.0843632e-05
41	0x37136e8e	8.787623e-06
42	0xb72e937b	-1.0405546e-05
43	0xb5a642b4	-1.2387377e-06
44	0xb43ecf00	-1.7770435e-07
45	0xb6d15996	-6.2391146e-06
46	0xb73ac385	-1.1131987e-05
47	0x374bb814	1.2142602e-05
48	0x3713e94b	8.8162005e-06
49	0x36b937f9	5.5199457e-06
50	0xb71f31a0	-9.488693e-06
51	0x358eacff	1.0630173e-06
52	0xb605333a	-1.9848362e-06
53	0xb702b872	-7.791548e-06
54	0xb6f67914	-7.3454667e-06
55	0x3732476f	1.0626259e-05
56	0x36c23e01	5.7888687e-06
57	0x00000000	0.0
58	0xb5511739	-7.789236e-07
59	0x37f6f8ff	2.9441433e-05
60	0xb7e3bf0c	-2.7149472e-05
61	0xb7cddac0	-2.4539768e-05
62	0x358bc756	1.0414321e-06
63	0x36c1255c	5.7561974e-06
64	0xb72a374b	-1.01456635e-05
65	0xb7220d34	-9.659027e-06
66	0xb68469a4	-3.9462047e-06
67	0x37dea02c	2.6539048e-05
68	0xb7ca1a0a	-2.4092402e-05
69	0xb7b84524	-2.1966705e-05
70	0xb6530a9e	-3.144763e-06
71	0x36e0d308	6.7002875e-06
72	0xb6f48104	-7.286786e-06
73	0xb6e5c1c4	-6.847289e-06
74	0x36807f39	3.829508e-06
75	0x378864a0	1.625932e-05
76	0xb7b71a76	-2.1827622e-05
77	0xb79086c4	-1.7228893e-05
78	0xb3f75500	-1.1517295e-07
79	0x368aa8d7	4.132376e-06
80	0xb70146e2	-7.705503e-06
81	0xb694f1ff	-4.4389158e-06
82	0x36cffab8	6.1982682e-06
83	0x3707aa3e	8.086265e-06
84	0xb787db5e	-1.6195405e-05
85	0xb72808f7	-1.0015668e-05
86	0x00000000	0.0
87	0xb7a798d6	-1.9979121e-05
88	0x37dd67e4	2.639363e-05
89	0xb83383d5	-4.2799704e-05
90	0xb852a5d8	-5.0222356e-05
91	0xb6b0f718	-5.2739742e-06
92	0x373c73be	1.1232622e-05
93	0xb81fcb92	-3.8098144e-05
94	0xb841329a	-4.6061912e-05
95	0xb78a0514	-1.6453247e-05
96	0x35940f90	1.1031389e-06
97	0xb79bbae6	-1.8564471e-05
98	0xb804aa72	-3.1629992e-05
99	0x36816e5a	3.857346e-06
100	0x36f85296	7.40059e-06
101	0xb83a2366	-4.4378823e-05
102	0xb8482b4c	-4.772404e-05
103	0xb7856d34	-1.5905687e-05
104	0xb789b2f6	-1.6415008e-05
105	0xb6907aa0	-4.30581e-06
106	0xb7b5e707	-2.1684462e-05
107	0x36b44c80	5.373324e-06
108	0x36b2125a	5.30695e-06
109	0xb83b7e40	-4.4701854e-05
110	0xb8379208	-4.3766602e-05
111	0xb73245a4	-1.0625841e-05
112	0xb7b8478e	-2.196783e-05
113	0xb5f81248	-1.848276e-06
114	0xb71472d7	-8.848226e-06
115	0x00000000	0.0
116	0x37622adc	1.3480629e-05
117	0xb786b2ab	-1.6057244e-05
118	0x3729536c	1.0092608e-05
119	0x376d4010	1.41412165e-05
120	0x367cbac4	3.7659638e-06
121	0xb780bc7b	-1.5346557e-05
122	0x378ad1bc	1.6548547e-05
123	0x3791ca28	1.7379483e-05
124	0x36a10f4a	4.799954e-06
125	0x35aa7ea0	1.270284e-06
126	0x343b5966	1.7448255e-07
127	0x3710f28d	8.639542e-06
128	0x37422227	1.1571253e-05
129	0xb7732428	-1.4492347e-05
130	0x370f564c	8.543557e-06
131	0x3777a43e	1.4760588e-05
132	0x36dd90cb	6.6031694e-06
133	0xb64843fa	-2.984189e-06
134	0x361a9c44	2.3038747e-06
135	0x36bfabc0	5.712238e-06
136	0xb6bac7bf	-5.5664855e-06
137	0xb68b742d	-4.1560475e-06
138	0x37808655	1.5321342e-05
139	0x3758c200	1.2919772e-05
140	0x36fafe48	7.480183e-06
141	0xb634932c	-2.6907755e-06
142	0x35924804	1.0898807e-06
143	0x356640fc	8.577624e-07
144	0x00000000	0.0
145	0xb6b615d2	-5.426563e-06
146	0x35a858cd	1.254282e-06
147	0xb6d5ccbd	-6.3717293e-06
148	0xb6d328cb	-6.293039e-06
149	0xb70f9ab6	-8.559486e-06
150	0x374bb4d6	1.2141847e-05
151	0xb74ce578	-1.2212775e-05
152	0xb75c01bd	-1.3113427e-05
153	0x3382b680	6.086793e-08
154	0xb722fe0e	-9.715104e-06
155	0xb4287c64	-1.5691472e-07
156	0xb4f9e8bd	-4.6549204e-07
157	0xb7009be4	-7.665691e-06
158	0x371494b3	8.856109e-06
159	0xb7254397	-9.850503e-06
160	0xb766193e	-1.3714945e-05
161	0xb6d07f1a	-6.2136796e-06
162	0xb6f8de75	-7.4168734e-06
163	0x3699782a	4.5737443e-06
164	0x3635975f	2.7059211e-06
165	0x357d63c3	9.4395017e-07
166	0x36c6ac19	5.9208946e-06
167	0xb78294cd	-1.5566498e-05
168	0xb7852bf3	-1.5875301e-05
169	0xb6e60409	-6.855004e-06
170	0xb6f342be	-7.249734e-06
171	0x36cb6577	6.0616835e-06
172	0x363b02fc	2.7866909e-06
173	0x00000000	0.0
174	0xb723c34f	-9.761031e-06
175	0xb7a10bd6	-1.9198207e-05
176	0x3509625e	5.117962e-07
177	0xb70f1578	-8.528463e-06
178	0xb51877f0	-5.6798945e-07
179	0xb7ed5018	-2.8289898e-05
180	0x35a55102	1.2317034e-06
181	0xb6fd9876	-7.5577364e-06
182	0xb79e805b	-1.8894838e-05
183	0xb71e4ede	-9.435897e-06
184	0x3592463a	1.0898286e-06
185	0xb6e968f2	-6.9561584e-06
186	0x376afe22	1.4006657e-05
187	0xb7ebc804	-2.8107323e-05
188	0xb75f8c4d	-1.3324502e-05
189	0xb75f1bb0	-1.3298282e-05
190	0xb706bace	-8.030516e-06
191	0xb7bd2a85	-2.2550355e-05
192	0x357abd5c	9.340781e-07
193	0xb71808e0	-9.061972e-06
194	0xb60b7191	-2.0778718e-06
195	0xb794dde5	-1.7746303e-05
196	0xb707bc06	-8.090405e-06
197	0xb773fa1d	-1.4542163e-05
198	0xb69e08dc	-4.7097983e-06
199	0xb7ae98ac	-2.081351e-05
200	0xb65eb62a	-3.3186611e-06
201	0xb7215df9	-9.6182275e-06
202	0x00000000	0.0
203	0xb7301229	-1.0494646e-05
204	0xb753d7d4	-1.2626831e-05
205	0x34def988	4.153228e-07
206	0xb73ec4dc	-1.1370717e-05
207	0xb6d21b1b	-6.261643e-06
208	0xb738210d	-1.097495e-05
209	0xb691da0c	-4.3467207e-06
210	0xb760b0f0	-1.3392637e-05
211	0xb750bf4a	-1.2442304e-05
212	0xb75f2bc7	-1.33020285e-05
213	0x3651d745	3.126873e-06
214	0xb68305ba	-3.904771e-06
215	0x37768ea6	1.46959555e-05
216	0xb75eebb1	-1.3287107e-05
217	0xb7c22455	-2.314352e-05
218	0xb7a742bf	-1.9939032e-05
219	0x352a166e	6.3362575e-07
220	0xb7df9b2c	-2.665593e-05
221	0x36193341	2.282861e-06
222	0xb6afac2c	-5.23545e-06
223	0x36cb239d	6.0540174e-06
224	0xb715f2e4	-8.937644e-06
225	0xb7a4dde3	-1.9653648e-05
226	0xb7994538	-1.8271254e-05
227	0xb57b006c	-9.35054e-07
228	0xb7a21827	-1.9323152e-05
229	0xb628d6a8	-2.5158897e-06
230	0xb6e074e1	-6.6893267e-06
231	0x00000000	0.0
232	0x37d3f38f	2.5266576e-05
233	0x3619ec31	2.2936258e-06
234	0x37ec959e	2.8203063e-05
235	0x381a659c	3.6811092e-05
236	0x378db259	1.689156e-05
237	0x370db879	8.447206e-06
238	0x37d31963	2.5164982e-05
239	0x382c50f2	4.108338e-05
240	0x37960590	1.7883984e-05
241	0x3794a994	1.772194e-05
242	0x37741015	1.4547278e-05
243	0x37bfd588	2.2868408e-05
244	0xb6aaad2a	-5.0865538e-06
245	0x37bdf875	2.2646253e-05
246	0x380c48e7	3.3446497e-05
247	0x383489b1	4.304358e-05
248	0x37da463a	2.6020327e-05
249	0x37ca5595	2.4120129e-05
250	0x362d6e10	2.5843074e-06
251	0x379f3e46	1.8983275e-05
252	0xb73dc5ca	-1.1311329e-05
253	0x37d085d6	2.4857854e-05
254	0x381f21f0	3.794016e-05
255	0x382cf22a	4.123353e-05

exp_avg_sq f4 [128, 29]
0	0x2d8837d0	1.5486196e-11
1	0x2d1cfc1d	8.923554e-12
2	0x2e4065c7	4.3746142e-11
3	0x2e4eaf16	4.6994485e-11
4	0x2dfff557	2.9099096e-11
5	0x2d740948	1.3871855e-11
6	0x2dec4435	2.6860384e-11
7	0x2e219ec2	3.6748167e-11
8	0x2d2366f4	9.2883375e-12
9	0x2da85251	1.9135945e-11
10	0x2e0d937d	3.2190684e-11
11	0x2e126a02	3.329071e-11
12	0x2e6bf20d	5.3647798e-11
13	0x2d668b76	1.3104953e-11
14	0x2d89afd8	1.5653187e-11
15	0x2e03484f	2.9850174e-11
16	0x2d89c4d6	1.566251e-11
17	0x2d9151be	1.6520892e-11
18	0x2dc50edd	2.2402908e-11
19	0x2e03ea60	2.999412e-11
20	0x2e1d9d66	3.5837465e-11
21	0x2d823cf3	1.4806356e-11
22	0x2d96112f	1.7060657e-11
23	0x2ded9f39	2.701449e-11
24	0x2db7b344	2.0884301e-11
25	0x2d77519c	1.4058445e-11
26	0x2dc3bbfa	2.2252412e-11
27	0x2e10095e	3.275013e-11
28	0x00000000	0.0
29	0x2c2f220e	2.48879e-12
30	0x2d3b652b	1.0652183e-11
31	0x2ceb5a2c	6.689113e-12
32	0x2cf23f9f	6.885117e-12
33	0x2c256b35	2.3507422e-12
34	0x2d241672	9.3273046e-12
35	0x2bf9a134	1.7737257e-12
36	0x2c4f3f3f	2.9451578e-12
37	0x2c598ef6	3.0916914e-12
38	0x2cc04c84	5.465463e-12
39	0x2d0747b3	7.689782e-12
40	0x2ceda680	6.7544303e-12
41	0x2c8b961a	3.9672822e-12
42	0x2d19a828	8.734381e-12
43	0x2bb69efa	1.2976003e-12
44	0x2c36d80a	2.5983681e-12
45	0x2c3cc54e	2.6825933e-12
46	0x2caaddb2	4.8563037e-12
47	0x2d030152	7.446781e-12
48	0x2cec28cc	6.712053e-12
49	0x2c5a5700	3.1027958e-12
50	0x2cf8b38f	7.068519e-12
51	0x2c18060d	2.1603858e-12
52	0x2c5926d6	3.0859113e-12
53	0x2c5c98e4	3.1348752e-12
54	0x2c6e75f9	3.3887322e-12
55	0x2cf97dca	7.090971e-12
56	0x2cf499ab	6.9519577e-12
57	0x00000000	0.0
58	0x2dd4e369	2.42026e-11
59	0x2ddbd23f	2.4990785e-11
60	0x2e805370	5.8355876e-11
61	0x2e93b05d	6.7161145e-11
62	0x2dde7ca9	2.5293838e-11
63	0x2d89b4a6	1.565532e-11
64	0x2db35ee3	2.0392082e-11
65	0x2e1765e0	3.4423908e-11
66	0x2d3a2b22	1.0582453e-11
67	0x2e38f727	4.205627e-11
68	0x2e5de3f2	5.045204e-11
69	0x2e7fa228	5.812431e-11
70	0x2de368da	2.5853476e-11
71	0x2da33671	1.8555131e-11
72	0x2d86d689	1.5329309e-11
73	0x2e011675	2.935115e-11
74	0x2ca99a26	4.820383e-12
75	0x2e15fccf	3.4103217e-11
76	0x2e4c985d	4.6519556e-11
77	0x2e59bf66	4.9510084e-11
78	0x2d9d67ec	1.7894984e-11
79	0x2dc0fce1	2.1940174e-11
80	0x2dcc50fe	2.3228083e-11
81	0x2e1073f6	3.2844803e-11
82	0x2c860494	3.8090173e-12
83	0x2dff56da	2.9028713e-11
84	0x2e1ad57a	3.520515e-11
85	0x2e36c318	4.1555287e-11
86	0x00000000	0.0
87	0x2e2106c4	3.661317e-11
88	0x2e5c429c	5.008137e-11
89	0x2f2c0f9b	1.5648853e-10
90	0x2f5687c9	1.9511427e-10
91	0x2def14ff	2.7180478e-11
92	0x2e7e6d1e	5.784983e-11
93	0x2f1097fd	1.3150721e-10
94	0x2f363481	1.6571457e-10
95	0x2e08c887	3.1100924e-11
96	0x2ed6ca9c	9.767584e-11
97	0x2ed40c10	9.6427866e-11
98	0x2f181baf	1.3834155e-10
99	0x2e2f0c45	3.980129e-11
100	0x2e88e007	6.224359e-11
101	0x2ef224c7	1.1011419e-10
102	0x2f2ec9b7	1.5896871e-10
103	0x2de4d249	2.6013984e-11
104	0x2edfcf52	1.01776934e-10
105	0x2eb4614c	8.202736e-11
106	0x2f07372a	1.2297777e-10
107	0x2e575b5d	4.8966487e-11
108	0x2e8ce665	6.407389e-11
109	0x2f083e88	1.2391344e-10
110	0x2f1b6471	1.4132852e-10
111	0x2dca1a6b	2.2976473e-11
112	0x2eb3a5f4	8.169457e-11
113	0x2e975149	6.881124e-11
114	0x2eeae786	1.0682215e-10
115	0x00000000	0.0
116	0x2e35afee	4.1310892e-11
117	0x2dc396c9	2.2235895e-11
118	0x2da6ff04	1.8985265e-11
119	0x2dbcd9bf	2.1469824e-11
120	0x2e2f2f34	3.9832318e-11
121	0x2da263b1	1.846154e-11
122	0x2da64169	1.8901063e-11
123	0x2dd29eda	2.394478e-11
124	0x2dd2aaa8	2.3950023e-11
125	0x2e2fe3dd	3.9992776e-11
126	0x2d84d1a0	1.5099755e-11
127	0x2db26d98	2.0284927e-11
128	0x2e7beae5	5.727942e-11
129	0x2d88b0fe	1.554001e-11
130	0x2d8f080c	1.6260791e-11
131	0x2dc59057	2.2460407e-11
132	0x2da1b95d	1.8385899e-11
133	0x2e628906	5.1508152e-11
134	0x2d6564be	1.3039512e-11
135	0x2db433c9	2.0486628e-11
136	0x2e1efc05	3.614888e-11
137	0x2cb1f789	5.0581245e-12
138	0x2de86267	2.6419046e-11
139	0x2dfd0640	2.8765546e-11
140	0x2d85ebfa	1.5225144e-11
141	0x2e8278a8	5.9331484e-11
142	0x2d8a2b6c	1.5708067e-11
143	0x2d9aabe2	1.7584104e-11
144	0x00000000	0.0
145	0x2d98d694	1.7375691e-11
146	0x2ba68513	1.1831945e-12
147	0x2d4b62d2	1.15611565e-11
148	0x2d808200	1.4609647e-11
149	0x2d9d0246	1.7849843e-11
150	0x2d7d7f1e	1.4409611e-11
151	0x2d4ec9f7	1.17545895e-11
152	0x2d91bf9f	1.6569688e-11
153	0x2da19eb4	1.837406e-11
154	0x2d5ef230	1.2673015e-11
155	0x2c6dbe05	3.3785208e-12
156	0x2d00edd1	7.3287635e-12
157	0x2d56440b	1.21796e-11
158	0x2d53a6d5	1.20310055e-11
159	0x2d335a3a	1.0195006e-11
160	0x2d9a0661	1.7510606e-11
161	0x2dc31e2a	2.2182329e-11
162	0x2d63c75b	1.2947722e-11
163	0x2c4657c4	2.8186212e-12
164	0x2cf1ce61	6.8725446e-12
165	0x2cbfae77	5.447916e-12
166	0x2d5101a5	1.188064e-11
167	0x2d96e8b4	1.7156367e-11
168	0x2db3debe	2.0448861e-11
169	0x2d9376c7	1.6764713e-11
170	0x2d9a604f	1.7550543e-11
171	0x2cc3f434	5.5693453e-12
172	0x2d09e6d7	7.838805e-12
173	0x00000000	0.0
174	0x2de4a5ed	2.5994285e-11
175	0x2d5ee96d	1.267107e-11
176	0x2d9ed0f8	1.8055321e-11
177	0x2db11970	2.0133867e-11
178	0x2df00df2	2.7291034e-11
179	0x2e0969f5	3.1244302e-11
180	0x2d611467	1.27942995e-11
181	0x2d979ca3	1.7236273e-11
182	0x2de938a7	2.6514192e-11
183	0x2e03509f	2.9857557e-11
184	0x2d4cfa36	1.16516154e-11
185	0x2d951fe8	1.6953508e-11
186	0x2e03f309	3.000181e-11
187	0x2e10cd30	3.2924052e-11
188	0x2db0dcbe	2.0106913e-11
189	0x2dc1824e	2.1999427e-11
190	0x2d8da57c	1.6103334e-11
191	0x2e6367b1	5.170592e-11
192	0x2cffff91	7.2759095e-12
193	0x2d99ad06	1.7470924e-11
194	0x2d34708f	1.0256808e-11
195	0x2dcee5b2	2.3521494e-11
196	0x2e03011b	2.9786933e-11
197	0x2e158767	3.399894e-11
198	0x2d874124	1.5376651e-11
199	0x2e880ddd	6.1870266e-11
200	0x2d4d9df8	1.1687977e-11
201	0x2d922a70	1.6617124e-11
202	0x00000000	0.0
203	0x2f1f1593	1.446863e-10
204	0x2d9cd896	1.783133e-11
205	0x2db151d5	2.0158911e-11
206	0x2de471c0	2.5971114e-11
207	0x2f10e232	1.3177084e-10
208	0x2e0ece6c	3.24704e-11
209	0x2dc88c38	2.2799637e-11
210	0x2e1b4286	3.5302004e-11
211	0x2eaccf24	7.85845e-11
212	0x2e9e7021	7.204926e-11
213	0x2d1da822	8.96175e-12
214	0x2d45d79d	1.1246029e-11
215	0x2f019674	1.1785933e-10
216	0x2e2e37b5	3.9612497e-11
217	0x2e3470de	4.1027508e-11
218	0x2e77daba	5.6355566e-11
219	0x2e17e60c	3.4537748e-11
220	0x2f1a0807	1.400907e-10
221	0x2c9960e5	4.359279e-12
222	0x2d2328ea	9.274562e-12
223	0x2de548c5	2.6066602e-11
224	0x2e14258d	3.3684656e-11
225	0x2eb9daf8	8.451723e-11
226	0x2eea2f41	1.0649482e-10
227	0x2e09654a	3.1240156e-11
228	0x2f249d8b	1.4971684e-10
229	0x2cc1ec55	5.511628e-12
230	0x2d538e98	1.20256236e-11
231	0x00000000	0.0
232	0x2ed5111e	9.689159e-11
233	0x2d9c6357	1.7779262e-11
234	0x2f5a2e03	1.9843331e-10
235	0x2f6f25d8	2.1750368e-10
236	0x2ed1f1a8	9.5471464e-11
237	0x2e3f5816	4.3506608e-11
238	0x2f0b8d8a	1.2692261e-10
239	0x2f518701	1.9056402e-10
240	0x2e9e00fa	7.1851816e-11
241	0x2e5aab42	4.971957e-11
242	0x2f0d560d	1.2854447e-10
243	0x2f2b9202	1.5604232e-10
244	0x2ed66732	9.7499245e-11
245	0x2e50d67d	4.748423e-11
246	0x2ec05a30	8.74717e-11
247	0x2f3908a8	1.6828727e-10
248	0x2e9ae75f	7.044209e-11
249	0x2ea45eaf	7.474676e-11
250	0x2ec7ca8b	9.085451e-11
251	0x2f1993ee	1.3967824e-10
252	0x2eace3d6	7.862126e-11
253	0x2e581ac5	4.913649e-11
254	0x2ef5de53	1.1180803e-10
255	0x2f233c5c	1.4846208e-10
