results/ppo/Racing/Racing-15728.pt (torch, 603118 bytes, 48 tensors)

discrete_act_size_vector f4 [1, 2]
00000000: 0000 4040 0000 4040
3.0 3.0

network_body._body_endoder.seq_layers.0.weight f4 [128, 29]
00000000: e955 dfbe 0558 813d 9597 98be 4c1b 0e3d
00000010: 379e 9e3e 9e03 043d bfb1 98be 9737 813e
00000020: 846c 9b3e e927 92be 33b7 c7bd 1a15 73be
00000030: a6af 653e 5e77 473e c29a 68bf 1253 fe3d
00000040: cf37 1c3d 4562 f1bd 90fc b2bc e154 9c3e
00000050: 25d5 893e 3c8b 98bd 09ab 9fbe c1d9 90bd
00000060: 8b49 e1bd 37ac 3d3d af96 163d 7e37 7d3e
00000070: 3df1 153d d7f0 60bc e89a 02be 1d7c 263d
00000080: a496 2e3e ae3a 73bd 5149 993d b632 b7bd
00000090: 3e4e 913e 2954 7d3e 332a 78be fd2d 44bd
000000a0: 72b1 0b3d 0a80 a1be 28d4 9b3e 6a9c 6abd
000000b0: 19b6 143e c86d 7b3e afb5 bfbe 9f7e 503e
000000c0: 8224 fdbd 5781 0f3e c1e9 903e b513 0cbe
000000d0: 847e ee3e 117e 6f3d 4acc d0be d12d 19bd
000000e0: 6c53 ac3e ad62 09bd b860 d03b 3ebf ddbd
000000f0: 5e10 81bd a3f9 c2bc 6cc3 3bbe 4447 22be
00000100: 8466 5f3d 5fb9 db3c 1f48 f73d 04cd 95be
00000110: a5fa 6c3e 0147 3e3e 060f fd38 a606 0bbe
00000120: 16e2 3c3d fe1a 13be 8e51 a4bc 11c6 bc3e
00000130: 5f07 94be 001a 3a3e 1122 05be e92e 853e
00000140: 0a6c b9be 5dac 3dbe 3a04 b33d 5fc5 923d
00000150: 71dc 003f 1da0 303e 39e8 a7bd 2597 903d
00000160: 260d 0dbd 9f19 4abe 9877 3d3e 01da 823b
00000170: aecb 6abe 94bf ee3e 1024 00be 34e6 49be
00000180: c7cb c13e 243d 1fbe d1eb e73c 10ec d83e
00000190: 6200 8f3d b806 c1be a57f d2bd 1d4c 07bd
000001a0: 03d2 ffbd c9db 1dbb 8ec3 b33d 33da 93be
000001b0: 61a8 183e 39e3 ef3d 5a9d 4dbe e384 36be
000001c0: 146e 9b3d 2077 443d a647 d43d c03b 983d
000001d0: 0855 2e3d 7604 86bc 91f5 3f3d 7e59 56be
000001e0: ae6c 993e ee2e b9bc 635e 4c3d f59b 19be
000001f0: 38e4 e53e ec20 773e f408 b4be c65d 34be
00000200: e1f0 a23d fbe1 ca3d 766e 913e 4aa8 84be
00000210: 753e 843e 5a47 eabe 4169 d4bd 7d79 80be
00000220: dcc9 0dbc 9364 863e 4558 6fbe dc94 2fbe
00000230: dfdb 1c3f fe26 bebe b7fb 8a3e c3d2 86be
00000240: 5fe9 e3bd 95bc 9c3e 28da 50be 131b ee3d
00000250: f76b e7bd 5513 89bc 4ec4 283e 0c3e 053d
00000260: c214 103e 3dcc c7bd c01d 283e a533 37be
00000270: c9eb 53bd 537c 1cbe 9b87 7e3e ad92 0e3e
00000280: e2a7 23be a7ea 803e 3027 57be 7601 cabe
00000290: 75b0 8b3e 2832 acbe af98 c43e 3f0f 5ebd
000002a0: d5b3 37bd a739 b23e c5ff c9be 9471 4fbd
000002b0: 2738 bb3d 6c3c 88be 6fa6 16be a799 32be
000002c0: 071b 713e ce5a 083e 90e7 b6be 97d9 693e
000002d0: c176 e63e 9648 67bd 0dfe 5bbe 6555 57be
000002e0: cae5 b7bd 5454 10be fa4c 14bf 6a2e 84bd
000002f0: ec55 26bd ec31 02be b391 0cbe f1a4 d03d
00000300: a2a4 8fbe 39d1 973a c62b 053f 5405 31bd
00000310: 2fa1 22be 5894 a93e fd42 873e 2ba9 a7be
00000320: 4078 1f3c cfc6 17be f376 d63c 74db 243e
00000330: eee2 f13c 842e a3bd 6a03 953d 0c3c 763e
00000340: fd06 c0be 5a9d 803e 5f8f db3d f8a0 d0be
00000350: fb9e 243e ff51 a8bd 799a 3f3d 3db0 873d
00000360: ff3b a23d 7bb5 a13e 5dcc 8ebe 6469 79be
00000370: e249 bc3b 066f 1abc eee8 b9be b088 183f
00000380: f3d1 ce3e b831 06bc ecfd 80bb 0b6b 0d3e
00000390: a7f4 9dbe 22ab a53e 8542 db3d 9686 663d
000003a0: 7231 023d b918 523e f92d b13d 7556 babe
000003b0: 020b dfbd 4d82 203f 80af 31bd be29 b0be
000003c0: 1070 c23d c1a2 023f 52c1 6abe eb2d 83bc
000003d0: 52c0 9abe 875f 04be f119 febd 8a01 a93e
000003e0: 0082 cc3e dd58 933e fe58 1b3d d8c3 463e
000003f0: f62f dbbd 242e f03d 83a9 44bf eb34 073f
-0.43620232 0.063156165 -0.29803148 0.034694 0.30980083 0.032230012 -0.2982311 0.25237724
0.30356228 -0.28546074 -0.09751739 -0.23738518 0.22430286 0.19479129 -0.9086114 0.12418188
0.03813916 -0.117863216 -0.021848947 0.30533507 0.2692043 -0.07448432 -0.31185177 -0.07072783
-0.11000355 0.046306815 0.036764797 0.247282 0.036607016 -0.013729296 -0.12754405 0.040645707
0.17049652 -0.059382133 0.07484687 -0.08945219 0.28380007 0.24739136 -0.24234848 -0.04789542
0.034104772 -0.31543 0.304353 -0.057278074 0.1452259 0.24553597 -0.374433 0.20360802
-0.12360479 0.14014183 0.2830334 -0.13679393 0.465809 0.058469836 -0.4078086 -0.03739721
0.33657396 -0.03354137 0.006359186 -0.10827492 -0.0630195 -0.023800677 -0.18336266 -0.15847498
0.054541126 0.02682179 0.12074303 -0.29257977 0.23142488 0.18581773 0.000120667784 -0.13576755
0.04611405 -0.14365765 -0.02005842 0.36869863 -0.28911874 0.1817398 -0.13001277 0.26012352
-0.3621524 -0.18522783 0.087410405 0.07166552 0.50336367 0.17248578 -0.0819859 0.070600785
-0.034436367 -0.19736336 0.18502653 0.0039932732 -0.2292926 0.46630538 -0.12513757 -0.19716722
0.37850782 -0.15550667 0.028310688 0.423676 0.06982495 -0.37700438 -0.102782525 -0.03303157
-0.124912284 -0.00240873 0.087775335 -0.2887741 0.14907981 0.11713261 -0.20079556 -0.1782413
0.07589355 0.04796517 0.10365228 0.074332714 0.04256156 -0.016359549 0.04686505 -0.20932576
0.2996573 -0.022605386 0.0498947 -0.15000899 0.4490068 0.24133652 -0.3516308 -0.17613897
0.079561 0.099063836 0.28404588 -0.25909644 0.258289 -0.45757562 -0.10371638 -0.25092688
-0.008654084 0.26248607 -0.23373516 -0.17146629 0.61272997 -0.37139124 0.27145168 -0.26332673
-0.111284964 0.30612627 -0.2039572 0.11626258 -0.112998895 -0.016732851 0.16481134 0.032529876
0.14070418 -0.09755752 0.16417599 -0.17890795 -0.051738534 -0.15281801 0.24856417 0.1392314
-0.15982011 0.25179026 -0.21011043 -0.3945424 0.27283064 -0.33632016 0.38397738 -0.05421376
-0.044849236 0.3480961 -0.3945295 -0.050645426 0.091415696 -0.26608598 -0.14711927 -0.17441426
0.23545466 0.13315889 -0.35723543 0.2283691 0.45012477 -0.056465708 -0.21483631 -0.21028669
-0.08979376 -0.14094669 -0.57929957 -0.06454165 -0.040609285 -0.12714356 -0.13727455 0.1018771
-0.28055292 0.0011582739 0.5201992 -0.043217972 -0.15881799 0.3312099 0.26418296 -0.32746252
0.00973326 -0.14821933 0.026179766 0.1609934 0.029527154 -0.079678565 0.07276042 0.24046344
-0.37505332 0.2512005 0.10720705 -0.4074781 0.16076271 -0.082187645 0.046778176 0.06625412
0.079215996 0.3158377 -0.27890292 -0.2435661 0.005746112 -0.009425884 -0.36310524 0.5958357
0.40394554 -0.008190565 -0.00393652 0.13810365 -0.30850717 0.32357126 0.10706047 0.056280695
0.031785436 0.20517243 0.08651347 -0.36394086 -0.108907714 0.62698823 -0.04338026 -0.34406847
0.094940305 0.5102959 -0.22925308 -0.016013106 -0.30224854 -0.12927066 -0.12407292 0.33008987
0.39942932 0.28778735 0.037926666 0.19410646 -0.10702507 0.117275506 -0.76821154 0.5281512

network_body._body_endoder.seq_layers.0.bias f4 [128]
00000000: 9228 143e 2762 e2bb e9e6 a53d 0ccb 3bbc
00000010: 13b5 f83d 9216 c53d 0f04 18bd 0eee 30bd
00000020: 8ae4 99bc 7f59 403d 40ef 4b3d e17a b1bd
00000030: a045 2dbd cb70 6a3d 136b d13d 7a5c df3c
00000040: 6f19 27bd 3b2f c93c 7f3b 233e 3f67 d83c
00000050: 7985 923d 1b77 38bc f308 bf3d 4ffc 74bd
00000060: ffbc 513d ae1f 0f3c 0ca8 37bc e628 b23d
00000070: d463 0a3e 9782 303d af70 c03d 5515 cc3d
00000080: acde 29bc 74c3 0a3d 0053 4b3c ee6b a33d
00000090: 4dab adbc 9263 4a3d 1fdd e23b e10d 3d3c
000000a0: e049 7d3d 17e7 9b3d ca21 a7bc b3f0 c63d
000000b0: b5e0 38be 7b58 46bb 1e77 b23d ee18 c33c
000000c0: c275 903d 6dc5 9bb9 ea57 183d 0009 9bbd
000000d0: bba3 843d 0fed 683d f060 b7bc c083 513c
000000e0: a47d 01bd 541c c83d 889f 5e3e 754e 8abc
000000f0: a4e7 673d bfc1 cf3d 3bf6 02be 49c3 6ebd
00000100: d8cc a53d d44b 0b3e b608 88bd 470d d53d
00000110: 77c2 9abb 0629 313d fa5d 223d 6828 983d
00000120: 360f 2e3e c253 613d 1205 3d3d cca0 c83d
00000130: 9f8f 9f3c 69a3 4b3d f6cc 45ba 27e8 6f3d
00000140: 30bc 683d 8367 71bd 8c60 1d3d 8b45 e0bc
00000150: 767d d63c bca4 943c 12f9 423d 5610 a13d
00000160: 1471 a9bb cf4a 013d 5f86 683d c82f 2ebd
00000170: 778b 2d3a 0dd3 b83c c047 0dbd 3568 1b3e
00000180: d331 82b9 2ac5 a83d 86cb ac3d 7277 fb3d
00000190: 3743 a53d 3882 b93d b051 ce3d c353 45bd
000001a0: d487 133b 98b7 05bd c88f d83d 2a93 a1bd
000001b0: ec1f 36bd 330f 733d e138 083e 5fbf 003e
000001c0: 9c85 673d 0764 df3d 42cd 103e 8d98 513d
000001d0: c8b4 593d b38f 8dbd 4d84 5b3d 7727 373e
000001e0: 8e69 a33c bcf4 953d aa61 6b3d 8a85 0bbc
000001f0: 34c3 b63d 86a7 863d d3f1 a63c 78da a1ba
0.14468601 -0.0069086733 0.08100683 -0.011461984 0.12143912 0.096234456 -0.037113246 -0.043195777
-0.018785734 0.04696035 0.049788713 -0.086660154 -0.042302728 0.057236474 0.10225501 0.027265776
-0.04079574 0.024558654 0.15940665 0.02641642 0.07154364 -0.011258866 0.09327879 -0.059810933
0.05120563 0.00873558 -0.011209499 0.08699207 0.13514644 0.04309329 0.09396493 0.09965006
-0.0103680305 0.033877805 0.012409925 0.0797957 -0.021199847 0.049411364 0.0069233323 0.0115389535
0.06183803 0.07612436 -0.020401854 0.097138785 -0.18054469 -0.003026514 0.08714126 0.023815598
0.070537105 -0.00029710997 0.037193216 -0.07570076 0.064765416 0.0568667 -0.02238509 0.012787759
-0.03161396 0.09771028 0.21740544 -0.016883114 0.056617394 0.10144376 -0.12789242 -0.058291707
0.080957115 0.13603145 -0.066422865 0.10402923 -0.004722889 0.043252014 0.039640404 0.07429582
0.1699799 0.05501152 0.046147414 0.097962946 0.019477664 0.049716387 -0.0007545495 0.058571007
0.056820095 -0.058936607 0.038422152 -0.02737691 0.026182871 0.018144958 0.047600813 0.07864444
-0.0051709507 0.031565484 0.05676877 -0.042526037 0.0006620208 0.022561574 -0.034492254 0.1517647
-0.00024832654 0.08240731 0.084372565 0.12278642 0.08069461 0.090580404 0.100741744 -0.048175585
0.002251138 -0.03264579 0.10574299 -0.078893974 -0.044464037 0.059340667 0.13302948 0.12573002
0.056523904 0.109077506 0.141408 0.051170874 0.053150922 -0.06912174 0.05359297 0.17886148
0.019947793 0.0732207 0.057466187 -0.008515725 0.08923951 0.06574921 0.020378983 -0.0012348434

network_body._body_endoder.seq_layers.2.weight f4 [128, 128]
00000000: 46a7 f8bc 6e4b 803e eb5e 003d bc10 f63d
00000010: 98ed 0d3e b2dd 803e 013f 463c 1659 36bd
00000020: 27ee 3f3e bfa0 0f3d 34a5 61bd fe5c cebd
00000030: aac6 093d 158e 48bc 90df 3f3e f1f9 d03d
00000040: ec30 8e3c 1ea6 8a3c d718 4fbe 6d80 80be
00000050: 645c cf3d 665b 743e 4591 8dbe 52e1 1abe
00000060: 208d 353e 11b6 073c 2984 2ebe e411 43be
00000070: 6473 3ebe 1a56 bd3c cbea 683e bb00 803c
00000080: e588 adbe 0123 87bd 6699 8e3d 5dec 7b3d
00000090: 42f5 373d 2d33 99be d0bd 003e f1ba 56bd
000000a0: 9471 16be 6aef 803d 3688 febd 152f 223e
000000b0: 0199 263d 9a8d 12bd 5473 4b3b 2da5 6fbe
000000c0: 2223 743e 20c9 103e fec1 62be 738f 5c3e
000000d0: 63d0 89bd 70a1 9ebb 4874 85bd ce8d 8f3d
000000e0: c602 52bd 4938 c3bd 87bf abbd e6ac c03d
000000f0: 8bae 2cbc 45c5 f0bd 7284 783e 20e7 023e
00000100: 2443 bb3d 6537 aabd 6e23 773e ef41 823e
00000110: b236 c53d 53e6 cbbc 6879 93be 973d b6bb
00000120: f346 71be 9a06 3cbe 7bff 223d f5d9 11bc
00000130: 6920 a0bd bdf9 333b 5cc2 cd3d e067 20bb
00000140: 2777 95bc 77c4 0a3e 6454 23be 3c73 6abe
00000150: 815c 1fbe c229 3ebe 430c 6bbe c4e6 bebb
00000160: fbbf b8be 9755 58be 8613 7cbe 600a dabe
00000170: eec3 873c 0a00 a9be a508 483d 60a4 67bd
00000180: 1cbd c3bd 8f59 aa3e 2c2c c8bd 26cc f03d
00000190: 5a95 0fbe acbd 27be 3cfd 433d 8c80 6dbe
000001a0: 88e9 fabd 7152 74be cece 4abe 846d 173e
000001b0: 9337 74be f9ed 203e 5744 da3d 2417 a13c
000001c0: 6971 923c ca95 23be d9e8 03be aeba 073e
000001d0: 929a 8dbe a459 50bc c34a 35bc 3842 eb3d
000001e0: 2532 a63b d0ea 2a3e 8409 55bc beea 2e3e
000001f0: 4537 9abc 5a33 d63c 12a3 bfbe ed05 f93d
00000200: 7c64 2f3b 0f7e 13bd 6b17 f93d e094 0bbc
00000210: e047 f5bb 60d9 003d 6231 423d c80d c33a
00000220: bea8 29bd 4288 9f3d 6ccc c2bc 0602 edbd
00000230: a1a9 d3bd 5219 573d aa04 013e 6067 3c3e
00000240: 84a2 173e e110 08be d260 03bc 9090 9dbd
00000250: 445d 9c3d 86a4 42be 74ac 7fbd f99f 94bc
00000260: 0256 b93c 615c c43d 9d78 bcbd 86d8 733d
00000270: 3baf e63d 43ae fbba a0c3 923e 010a 9fbd
00000280: 45bd e63c ddad 94be 2817 22be dddc 2d3d
00000290: 8e02 39bc 844a 4fbd f8bb 853d de14 273c
000002a0: 633c a33d b28e fbbd 2c27 82bd 5c65 aebd
000002b0: f43a d8bd c2f0 36bd 9ef8 823e c925 6fbd
000002c0: 71ae 87bb a5ee bb3c 0904 07bc 11b2 56be
000002d0: 43fa 9a3d f39b b1bc 1788 49bd 4233 ae3d
000002e0: 1240 22bd 60f8 47bd 9c2b 383e df21 91be
000002f0: a7ee d9bd 18ab 78bc 9943 003d 591f 273d
00000300: 94f2 e23c 99c9 ec3d e5ca 8dbe 55aa ce3d
00000310: 5f08 89bd d63b ad3d ceb4 98bd c0ac babd
00000320: dd38 49be 6f14 69bc 51cd aa3d 8e5d 1a3d
00000330: 4a15 b1bd 3705 773d 23c5 ddbd 9d0d cb3a
00000340: 9a88 183e 03b3 a83c f5ba ac3d 4ea9 b23d
00000350: 52e2 9c3b 6941 183e 6907 04bd 6a7d 013e
00000360: 5ec2 e3bc 211b f53d f834 323d 5d4e 81bd
00000370: ae1e 013e 6bda 7dbc 4502 e3bd d95e f23b
00000380: 21e7 7ebe b4bf 24bd eeee 0f3d cd13 a0bd
00000390: 5f62 24be f429 183e a9e9 2f3e 3b3c 21bd
000003a0: e194 81bd 50e9 2ebe 2161 c2bc 9a4e 16bd
000003b0: e58a 63bc 536d 903d b347 b83d 4441 043e
000003c0: 3d14 dd3d 420f b8bc d733 093d 444b 763d
000003d0: 44d5 05bd 7385 7abd fba2 ab3c 584d 2b3e
000003e0: 7343 1fbe e5e0 0c3d c92a 1bbe 2f58 e5bd
000003f0: 9b0a 0f3e 9f01 373d 1523 bbbd 10dd 9b3d
-0.0303532 0.25057548 0.03134052 0.120149106 0.13860166 0.2516914 0.012099982 -0.044518553
0.18743192 0.03506541 -0.05508919 -0.100763306 0.033636726 -0.012240906 0.18737626 0.102039225
0.017357312 0.016924914 -0.2022432 -0.2509798 0.10125044 0.2386299 -0.27649894 -0.15125015
0.17729616 0.008283154 -0.17042603 -0.19049793 -0.18598706 0.023112345 0.22745816 0.015625348
-0.33893505 -0.06598473 0.06962852 0.06150471 0.04491163 -0.29921857 0.12572408 -0.052424375
-0.14691764 0.062956646 -0.12428324 0.15838273 0.04067326 -0.035779573 0.0031044083 -0.23402853
0.23841527 0.14139223 -0.22144315 0.21539097 -0.067292 -0.004841022 -0.065163195 0.07009469
-0.051272176 -0.0953222 -0.0838614 0.09407978 -0.010539661 -0.11756376 0.24269274 0.1278348
0.091436654 -0.08311347 0.24134609 0.25440928 0.09629573 -0.0248901 -0.28803563 -0.0055615413
-0.23562221 -0.18361893 0.039794426 -0.008902063 -0.07818682 0.0027462088 0.10046837 -0.0024475977
-0.018245293 0.13551508 -0.15950161 -0.22895521 -0.15562631 -0.18570617 -0.22953896 -0.0058258492
-0.3608397 -0.211264 -0.24616823 -0.4258604 0.016572919 -0.33007842 0.04883637 -0.056553245
-0.09557554 0.33271453 -0.0977405 0.11757688 -0.14021817 -0.16380948 0.047848925 -0.23193568
-0.12251574 -0.23859574 -0.19805452 0.1478787 -0.23849325 0.1571578 0.10657566 0.019664355
0.017876344 -0.15975109 -0.12881793 0.13254806 -0.2765699 -0.0127166845 -0.011065188 0.114872396
0.0050718957 0.16691136 -0.013002757 0.17081735 -0.018825183 0.026147533 -0.374291 0.121593334
0.0026762774 -0.03600889 0.1216267 -0.008519381 -0.007485375 0.031457305 0.047410376 0.0014881426
-0.04142069 0.07789661 -0.023779117 -0.115726516 -0.103350885 0.05251438 0.12599435 0.1839881
0.14808089 -0.13287689 -0.008018689 -0.07693589 0.076349765 -0.19008073 -0.062420323 -0.018142687
0.02262402 0.095879324 -0.09202693 0.059532665 0.11263891 -0.0019201714 0.28664875 -0.0776558
0.028166423 -0.29038897 -0.15829146 0.04244696 -0.011292113 -0.050608173 0.06529993 0.010197846
0.07970502 -0.12283076 -0.06355128 -0.085154265 -0.105581194 -0.0446632 0.25580305 -0.058385644
-0.004140668 0.022940943 -0.008240708 -0.20966364 0.07567265 -0.021680808 -0.04920205 0.085058704
-0.039611883 -0.048820853 0.17985386 -0.28346154 -0.106412224 -0.015177511 0.031314466 0.04080138
0.02770356 0.11561889 -0.2769386 0.10091082 -0.0669105 0.084586784 -0.07456361 -0.09114981
-0.19650598 -0.014226063 0.08339942 0.037686877 -0.08646639 0.060307708 -0.108286165 0.0015491728
0.1489586 0.020593172 0.08434097 0.087236986 0.0047877217 0.14868702 -0.03223363 0.12645498
-0.027802642 0.11968065 0.043507546 -0.06313775 0.1260936 -0.015493969 -0.11084417 0.0073965606
-0.24892856 -0.040221885 0.03513997 -0.07816277 -0.1605315 0.14859754 0.17178978 -0.03936408
-0.063272245 -0.17081189 -0.023727955 -0.036696054 -0.0138880955 0.07052102 0.089980505 0.12915522
0.10794876 -0.022468213 0.033496704 0.060130373 -0.03267409 -0.061162423 0.020951739 0.16728723
-0.15553074 0.034394164 -0.1515304 -0.1119846 0.1396889 0.04467928 -0.09137551 0.07610524

network_body._body_endoder.seq_layers.2.bias f4 [128]
00000000: 64f5 69bd 5f71 e93d fa94 f23d 42cc 4a3d
00000010: 4203 9dbd 2dd7 3d3a 31f3 c8bc ac71 19bd
00000020: a710 9dbd a667 643c bb8c 0a3e e2d9 113e
00000030: 31c8 713c 9f45 d43d 3e52 a33d c815 5ebd
00000040: 2f4a 86bc 1538 b23d 5a24 9f3d ad6e babd
00000050: 4e25 8ebd e807 a23d d668 7ebd e7d5 2abd
00000060: 72e6 dd3d a47c 93bd db47 88be 7721 b73d
00000070: d496 ce3d 43de ddbd f505 1b3d 19b4 153e
00000080: 2124 2fbd 9187 b83d d508 d23d e5f4 7a3d
00000090: 696d 883d 4c8c ce3d 392c 88bd dc5e 8bbd
000000a0: 1ddb 813d dc27 a73d 07bc 163d fcc9 e83d
000000b0: d3c9 8e3d 89ec 2f3d d017 eb3d 746d 9dbd
000000c0: 9fcd aa3d 30c0 45bd b3f7 3cbd bd2e c53d
000000d0: 366e 02bd 6cc2 76bd 2e81 a93d a3fd 923d
000000e0: 5c32 9f3d 18eb be3d 2c03 be3d 58ed 093e
000000f0: dd94 503d 8e13 183d 8f54 053e f09b d53d
00000100: 9371 113d 96ce 8c3d 1574 d83d 64e1 0b3e
00000110: 59c3 813d 4f3a 24bd 9672 af3d b891 a53d
00000120: 27f4 cabd 3d86 273d f270 0c3e c57e 7cbc
00000130: 2799 85ba 37a4 653d 144c a5bd 5fcb 96bd
00000140: 85fc ea3d e897 db3d bbdb 08bd c273 aa3d
00000150: 77c7 953d 9aa8 0abd 962b 873d 6e9c b13d
00000160: a46c 2ebd 8361 40be 3991 febc ed36 853d
00000170: 41db 79bd d0b3 bbbc 28c1 1ebc 0e88 90bd
00000180: 4ef5 b1bc 0f8e f2bc 34c1 d6bd 15ea 853d
00000190: c7a6 4e3d 8607 ad3d a369 1bbe ed7d aebd
000001a0: 5e8a c33d 9e2c 29bd bbc9 80be 2705 d03d
000001b0: 18d4 cd3c 228b a53d a445 4ebd d118 9c3d
000001c0: 4002 97bc cf46 2d3d 2ac2 ad3d 53c5 ab3d
000001d0: e121 c43d c2d3 873d 78b3 aabd 0eac d8bb
000001e0: c60e ea3d d33f ea3d 0206 0a3e 1cd3 5cbc
000001f0: 62bf 1ebe 43d2 e53d 94f4 a43d 3483 c7bd
-0.05711879 0.11398577 0.11844821 0.0495112 -0.07666637 0.00072418415 -0.024530025 -0.03746192
-0.07669192 0.013940727 0.13530247 0.14243272 0.014757202 0.10364842 0.07974671 -0.05421999
-0.016392795 0.08702103 0.077706054 -0.09103141 -0.06940709 0.07911664 -0.062111698 -0.0417079
0.108349696 -0.07201508 -0.2661732 0.0894193 0.10087362 -0.10833409 0.037847478 0.14619483
-0.042759065 0.09010232 0.10255591 0.061268706 0.06661493 0.10085353 -0.0664906 -0.06805202
0.06340621 0.081618994 0.03680041 0.113666505 0.06972089 0.042950187 0.11479151 -0.07686892
0.0834 -0.048278987 -0.046134662 0.09628055 -0.031843387 -0.06024401 0.08276592 0.071772836
0.07773277 0.09322184 0.09277949 0.13469446 0.050923217 0.037128024 0.13020538 0.10430133
0.035508703 0.06875341 0.10569016 0.13660198 0.06336088 -0.04009467 0.085667774 0.08084434
-0.099098496 0.040899504 0.1371496 -0.015411084 -0.0010192738 0.05606481 -0.080711514 -0.07363009
0.114739455 0.10722333 -0.033412676 0.0832286 0.073134355 -0.033852197 0.0660011 0.08672415
-0.042584077 -0.18787198 -0.031075107 0.06504617 -0.061000112 -0.02291289 -0.009689607 -0.070572
-0.021723416 -0.029608754 -0.10486069 0.06538788 0.05045202 0.084487006 -0.15177016 -0.08520112
0.09547876 -0.041302316 -0.25153908 0.10157233 0.025125548 0.08083178 -0.050359383 0.07621921
-0.01843369 0.042303856 0.084842995 0.08387246 0.095767744 0.066321865 -0.08335012 -0.0066123074
0.11428599 0.11437955 0.13478854 -0.013478067 -0.15502694 0.11221745 0.08054462 -0.09741822

action_model._discrete_distribution.branches.0.weight f4 [3, 128]
00000000: 4482 59bd f9e2 8ebd 999e eabd 6234 f1bd
00000010: cd0f b03c 2ac1 133e ac0d 4b3e 049e 25be
00000020: d6a1 5b3d e35b 0cbe 2bc6 24be 88a9 ce3d
00000030: 5c7a 86bd 2227 293d cacb dbbd 9b38 db3e
00000040: 3b7d 0b3e 0173 053d 5a6c d3bd aae0 843d
00000050: e778 0cbd 6c3d 1c3d 01d8 09be 34ba 163e
00000060: ae97 e6bd f5e8 553b 17bc 8b3d 541f 583d
00000070: 5365 63be 7588 613e c6bc a5bc 53b2 76bd
00000080: 7d7e 3b3e 92e3 f6bc e913 9fbd ac49 c43d
00000090: 982f 85bd cc5b eabd f2de 8e3e c514 d53d
000000a0: 706d 99be 03e9 96be 3b9d ed3d 331d 87bd
000000b0: 8d54 42be 8c1f 113d ff73 54be 3453 ee3c
000000c0: 1292 08be 8f93 1b3e 432c d83b adcf 14be
000000d0: 5fe2 3a3e ded9 ac3d 04b9 213d e2fa d43c
000000e0: 68ab 12be 3854 3abe 6d72 2dbe 920b 0abd
000000f0: bbfa ec3d 7793 de3c 0921 173d c991 7ebe
00000100: f296 87be b019 6fbc ce4f aebd 7c5a 14bd
00000110: 768d 863b 5efc 843e 07cd 19be 4e47 373d
00000120: 1c89 433e 825e 3cbc 8f1e f33c 94fb 42be
00000130: 523d 473e 9f14 073e 67ed 743d 73ec b43c
00000140: 88b3 a1bb 9f8e 86bd b4ac ddbd 2126 4cbc
00000150: 1102 4cbd 6b90 203d 347b 1bbd 303a 65ba
00000160: 5f4e abbd 098a 69be 9fed 8d3d e90e cf3c
00000170: 7532 343e 7819 d53d 773e 293e 4e00 af3e
00000180: c221 f5bd 34c7 6f3d 65d0 8cba 0c43 28bd
00000190: 00d0 cbbb 2ba1 e5bd 8715 be3d f1c1 1d3d
000001a0: 8a83 9ebd ec21 8f3d 27d2 ca3d 8a1c d1bd
000001b0: 9b31 353d 63b8 3bbd 6880 1bbd 8781 91bd
000001c0: 2d09 d7bd 3fdb c2be c721 a4bd c510 a3bd
000001d0: b134 2fbe 2070 a7bd d809 11bd c14b 20be
000001e0: 9138 bf3c 85b5 31bd c29d d8bd 833d 9bbc
000001f0: 43e0 8b3d af44 a9bd 9414 0ebd 006c 123d
00000200: b5f6 5d3c 6205 d23d 3294 403e da14 333e
00000210: 2ac8 c43c c464 30be 4cb5 81be 45ef 583e
00000220: b867 edbd d4ec 653e f92d 873e 87af 38bc
00000230: 4814 e03b 66cd e43c bd94 003e 7389 cbbe
00000240: afc5 aabd df87 af3a 7b71 1c3e 38ae e5bd
00000250: c9f9 05bd 965a b7bc 4146 1f3e d413 10be
00000260: 05fb 7a3d 5f13 c1bd 7755 4abe cf1a c63c
00000270: 9e37 113e 2cd7 90be 0e89 d83d 6bac 9d3d
00000280: 8f15 63be 5a0a 523d a4df ca3d 0c44 41bd
00000290: 7cf5 cb3d ca26 1d3e 2f4f c6be dcc4 4abe
000002a0: 5fed 9b3e 264f 633e 973b d0bd 69f2 a53d
000002b0: f90d 283e 1cb6 2fbb d870 593e e04d 4ebd
000002c0: 8ee2 473e 860b 2cbe ab4d fcba f53e 053e
000002d0: 4a40 80be 43b0 8dbd 3c73 0e3d 789e 8b3c
000002e0: e50f 8d3e 0c2c 563e 1b55 613e 7072 c43d
000002f0: 98a4 853d 6d88 923d 48ef b43d 90ef 903e
00000300: f82e 423e d92b f3bc 2027 0d3e 2cec bb3d
00000310: 63b6 db3d 7bc4 6dbe 374d 323e 6120 1d3d
00000320: b1dc 84be cb26 873d 1b39 413d 887e 8d3d
00000330: 7544 62be 6ee2 0ebd a51e 07bd 4b3f d63c
00000340: ba73 e53d 48aa 3a3e ee73 ad3d 18ee b1bb
00000350: 0238 a93c 8572 333d 5036 bb3d 916c 583d
00000360: b3fe dc3c 90fb 813d 4040 8abd 4446 53bc
00000370: 5785 c9bd aa61 0fbe efcc 88bb fdea aabe
00000380: e2cd 163d eecd 26bc ac0e 7fbd f9be 7d3d
00000390: a534 3d3d 2eec 2f3e e3f8 2cbe e3c6 293c
000003a0: 569c 053e 7733 07be 5d3b 6abe cf7c 083e
000003b0: 6de9 9dbc fdd3 613d 1853 233c 7ae9 0a3e
000003c0: 0399 fb3c 169c be3e e216 033e 065a 1d3e
000003d0: eedb 673e 3e9f eb3d 9cc6 98bd ef55 803e
000003e0: e04e 263d 2ae1 913d c944 883d 521a 6cbc
000003f0: c9b9 dfbd 359e ae3d dff9 983d 734f fbbd
-0.053102747 -0.06976885 -0.11456031 -0.11777569 0.02149191 0.14429155 0.19829434 -0.1617356
0.053621136 -0.13706927 -0.1609122 0.10090929 -0.06566307 0.041297086 -0.10732229 0.42816624
0.1362199 0.03258038 -0.10323401 0.06488164 -0.03429499 0.038144514 -0.13461305 0.14719468
-0.11259399 0.0032640074 0.06822985 0.05276425 -0.22206621 0.2202471 -0.020231616 -0.060228657
0.1830997 -0.03013781 -0.077674694 0.09584364 -0.065032184 -0.1144329 0.2790447 0.10404352
-0.29966307 -0.2947465 0.11602255 -0.06597366 -0.18977566 0.035430476 -0.20747374 0.029092409
-0.13336971 0.15193008 0.0065970733 -0.14532347 0.18250416 0.08439992 0.039483085 0.025998536
-0.14323199 -0.1819619 -0.16938181 -0.03370244 0.115712605 0.027169926 0.03689674 -0.248603
-0.2648235 -0.014593527 -0.08511315 -0.036219105 0.004106219 0.2597379 -0.15019618 0.044745736
0.19095272 -0.011497142 0.029677657 -0.19041282 0.19456986 0.1319146 0.059796717 0.022085404
-0.004934732 -0.065701716 -0.10823956 -0.0124602625 -0.04980666 0.039200228 -0.037959293 -0.00087443274
-0.083645575 -0.22806562 0.06930088 0.025275664 0.17597373 0.104052484 0.16527735 0.3417992
-0.119693294 0.058539584 -0.0010743259 -0.041079566 -0.006219864 -0.11212381 0.0928145 0.038515035
-0.07739933 0.06988892 0.09903365 -0.102105215 0.04423676 -0.04583014 -0.037964255 -0.071047835
-0.10499797 -0.38057896 -0.08014255 -0.07962183 -0.17109944 -0.08175683 -0.03540978 -0.15653898
0.023342403 -0.043386 -0.10576965 -0.01895023 0.06829884 -0.082650535 -0.034687594 0.035747528
0.013547589 0.10254933 0.18806532 0.17488423 0.024021227 -0.17225939 -0.2533363 0.21185024
-0.115920484 0.22453624 0.26402262 -0.011272318 0.006838355 0.027929973 0.12556739 -0.39753303
-0.083384864 0.0013391933 0.15277664 -0.1121487 -0.032708917 -0.022382062 0.15554143 -0.14070064
0.061274547 -0.09427523 -0.19759165 0.024182705 0.14181373 -0.28289163 0.10573016 0.07698902
-0.22176193 0.051279403 0.09905937 -0.047184035 0.09958932 0.15346828 -0.38732287 -0.19801658
0.30454537 0.22198161 -0.10167616 0.08102877 0.1641158 -0.0026811427 0.21234453 -0.050367236
0.19520018 -0.16801271 -0.0019249221 0.13012297 -0.2504905 -0.06918385 0.034777865 0.017043337
0.2755119 0.2091524 0.22005121 0.0959214 0.065255344 0.071549274 0.08834702 0.28307772
0.1896323 -0.029683994 0.13784456 0.091759056 0.10728147 -0.23219483 0.17412268 0.038360957
-0.25949624 0.06599196 0.0471736 0.069088995 -0.22096427 -0.03488391 -0.03298821 0.026153227
0.11203714 0.1822902 0.084693775 -0.0054299943 0.02065659 0.043810386 0.09141219 0.052837912
0.026976919 0.0634681 -0.06750536 -0.012895171 -0.09839886 -0.140021 -0.0041748206 -0.33382407
0.03681744 -0.010180933 -0.06226985 0.061949704 0.046192784 0.17179939 -0.16891818 0.01036236
0.13047919 -0.13203226 -0.22874208 0.1332886 -0.019276345 0.05513381 0.009968542 0.13565627
0.03071261 0.3722846 0.12801698 0.15366372 0.2264249 0.115049824 -0.07459757 0.25065562
0.040602565 0.07123025 0.06653745 -0.014410572 -0.109241076 0.08526269 0.07469534 -0.12271013

action_model._discrete_distribution.branches.0.bias f4 [3]
00000000: 2c54 acbd ee4f 253e 360f 39be
-0.08414492 0.16143772 -0.18072209

action_model._discrete_distribution.branches.1.weight f4 [3, 128]
00000000: b3a5 31be 12ec f33c 9e97 8b3c 7830 a7bc
00000010: 9512 b1bd f511 e03d a07a 8e3d 24af 53bd
00000020: d66f 02bd 24c3 a5bd 40c9 763c 4db0 1a3d
00000030: b160 423e 9f7e 023d e9ca 833d ee62 0c3e
00000040: 1020 aa3d e756 b73c 8308 ff3b 738f c43d
00000050: 0207 2fbe a246 083d 3c2b 54bd 110b ab3d
00000060: 55c0 913d 8d80 2e3e cc6d 2dbd a8a8 d03c
00000070: 351a 923c aa9b 3a3d 480f 553d a079 bb3d
00000080: ae7b 08be 798c b83c 43b2 ecb8 c7c3 023d
00000090: 1edb 0f3d cf66 8a3c d99e e8bd 310e 243e
000000a0: ae8a 42be 3808 343d 1e60 01be db07 823c
000000b0: 4880 03be 6460 273d 9e58 db3b d47a 28be
000000c0: 93a7 223d 3e7f 27be 63c8 8abe eb72 183d
000000d0: bc2b 373d 1ab2 393e 1ebd 7f3a 5b94 b33c
000000e0: be30 b4bc 23e7 0d3c 04eb 91bc af1e ff3c
000000f0: 20e7 a13d 8a69 3e3d 60b8 29ba 66a0 4b3d
00000100: c38c d2bd 254f a73d 48a6 d73c 4359 e43c
00000110: 7b67 033b 0b64 c53e 5a9a 983b 21f5 d13c
00000120: bbf0 c5bd 403f e03c 6fdb d53c da71 7dbc
00000130: 193c 333d daec 7a3d 92c6 e3bd 4bf8 2d3e
00000140: 6644 b73c 3443 c43b 7fe3 29be 656f d53c
00000150: fb74 283d 8b08 0e3e 439b e13b 8ddb f03c
00000160: 193e 07be f80b 7ebe b55e 0d3d 20af ab3c
00000170: 2339 9b3d 7b02 06be 4c5c 9c3c 5284 8abd
00000180: 9b47 12bd de19 113e a3b6 623e 7bd5 3c3d
00000190: e1dc 0e3c 5431 273d f5e2 643c a65a 4cbd
000001a0: a7fe 353c 3539 ea3d ed0e 4cbd b5dc ab3b
000001b0: 2d0a 933c 889e 913b bbda 61be 913a a43d
000001c0: 3a66 9bba b8b8 6fbd e8b2 29bb 7537 873c
000001d0: 538d 95bd 7a58 e53b 3014 0abe 0244 42bd
000001e0: 5837 a93c 6cc5 343d 1c65 213d 304d fd3d
000001f0: 472e efbd 25f2 cb3c aedf ae3c b62e 193e
00000200: 2185 2d3e 8b35 83bd 6981 89be 8756 46be
00000210: 2a4f 0abe c6f7 debd c59e 3fbe 1990 9b3d
00000220: 3d4a 1bbe 1de9 533e c4da dbbc a756 56be
00000230: aa0c 16bd 9702 eabd 82ca 433d 7653 67be
00000240: 8139 98bb b6cb 0abe 49dd bcbc 8fa1 1a3e
00000250: 155a d1bd 076c 3bbe c749 3e3d 5571 35bd
00000260: 19e3 9cbe 9d45 d03d 6e1a 693e 1414 c5bd
00000270: e765 16be 2e78 95bc 6d69 1f3c bbde a5be
00000280: 804b 20be c15b dabd 0928 ccbd 7ec5 85be
00000290: 8d9d ed3a 3f0f e43b b93b 4fbe ee8a 543e
000002a0: 794d c33d 9bf4 cc3c fe06 16bf 73d6 01be
000002b0: 5c4a 453e 52bd d3bd 93ef ff39 795c 0d3d
000002c0: c6db 343d 8e32 42bc d82e 32bd 32b0 10be
000002d0: 7bfa 37be 2a3b a93d 3203 0fbe f8ee bebd
000002e0: 18c8 bf3e 1fbf 95bd d49b b73d 9f3e a1bd
000002f0: e794 a23d 82e5 7a3d 2fb5 cebc 0468 2e3d
00000300: b2e3 403d 6c52 9ebe 0226 a2bd 8a0b 48bc
00000310: dc69 0bbd f763 b23d c936 d33c 278e cabd
00000320: 8672 e7bd 2f0e 36bc 85fd d9bd 5511 673e
00000330: 20e1 8ebe 783b 6abd 38d2 a5bd 7748 d23d
00000340: a8a1 39be 62d5 f239 add5 ab3d 4ffe 15be
00000350: a959 7ebe fa02 1b3e 5c3e 40be c8e1 e8bd
00000360: 5216 af3d f913 2f3f 6902 a63d c87d 69be
00000370: fd5d 4fba e179 79bc 55a9 313e bb45 473e
00000380: f095 fd3d 14e9 0d3e 40dd b53d 3c3a 17be
00000390: 3c02 91bd 6caa 673d e384 e33c b4ab cb3e
000003a0: 0694 90bc 8612 1fbd a041 863e c31d 7ebd
000003b0: eebc 33be c8c0 92bc 2987 513d e80d 00bd
000003c0: eb22 293e 4685 543c 88e3 69be 6979 38be
000003d0: 5f2d 7bbc b244 45be a2f8 cf3c 933b a53d
000003e0: f674 bdbd b039 81be 3d76 34be 9dfb ac3d
000003f0: 425e c13e cd55 efbd ea30 a1bd 0091 223e
-0.17348365 0.029775653 0.01704007 -0.020408854 -0.08646122 0.10940925 0.069569826 -0.0516807
-0.031844936 -0.08093861 0.01506263 0.03776579 0.18982197 0.031859037 0.064351864 0.13709614
0.08306897 0.022380305 0.007782997 0.09597673 -0.17092517 0.033270486 -0.051799044 0.0835172
0.071167625 0.17041226 -0.04234104 0.025471047 0.017834762 0.04555861 0.052016526 0.091540575
-0.1332843 0.02252792 -0.00011286561 0.03192499 0.035121076 0.016894726 -0.11358423 0.16021039
-0.18998215 0.04395315 -0.12634322 0.015872886 -0.12841904 0.04086341 0.0066939136 -0.16453105
0.039710592 -0.16357133 -0.27106008 0.03721897 0.044719443 0.18134347 0.00097556587 0.021921327
-0.021995898 0.008661064 -0.01781226 0.03114256 0.07905412 0.04648737 -0.00064743124 0.049713515
-0.102807544 0.081693925 0.026324406 0.027874595 0.0020050693 0.3855289 0.004657072 0.025629582
-0.09665056 0.02737391 0.02610561 -0.015469039 0.043758485 0.061261036 -0.11121859 0.16989248
0.022371482 0.0059894565 -0.16590689 0.026054094 0.041127186 0.13870446 0.0068849637 0.029401565
-0.13207282 -0.24809253 0.034514148 0.02095753 0.07579257 -0.13086884 0.01908698 -0.06763519
-0.03571282 0.14170024 0.22139983 0.04610203 0.008719654 0.040818527 0.013970126 -0.049891137
0.011108077 0.114366926 -0.04981892 0.005244816 0.017949188 0.004443947 -0.22056095 0.08018983
-0.0011856027 -0.05852577 -0.002589399 0.016505936 -0.07302346 0.0069990726 -0.13484263 -0.04742814
0.020656273 0.04413359 0.039403066 0.12368238 -0.116787486 0.024895737 0.021346893 0.14959225
0.16945316 -0.06406697 -0.26856545 -0.19368945 -0.13506761 -0.10887103 -0.1871291 0.07595844
-0.15165038 0.20694394 -0.026837714 -0.20931493 -0.03663317 -0.11426275 0.04780055 -0.22590432
-0.004645527 -0.13554272 -0.023054736 0.15100692 -0.1022226 -0.18302928 0.04645708 -0.044297535
-0.30642012 0.10169528 0.22763988 -0.0962297 -0.1468731 -0.018245783 0.009729725 -0.32396492
-0.15653801 -0.10662032 -0.099685736 -0.26127237 0.0018128619 0.0069598253 -0.20237626 0.20756122
0.09536261 0.02501898 -0.5860442 -0.12679462 0.19266647 -0.10338844 0.00048815887 0.034512017
0.044154905 -0.0118528735 -0.043501705 -0.14129713 -0.17966644 0.08263238 -0.13966063 -0.093229234
0.37457347 -0.07311844 0.08965269 -0.07873272 0.07938557 0.061254032 -0.02523288 0.042579666
0.047092147 -0.30922258 -0.07917406 -0.012209782 -0.034036502 0.08710473 0.02578296 -0.09890395
-0.113011405 -0.01111178 -0.10644058 0.22565205 -0.27906132 -0.05718562 -0.08096737 0.10267728
-0.18128073 0.0004631682 0.08390365 -0.14647792 -0.2483889 0.15137854 -0.18773788 -0.11371189
0.08549179 0.6838985 0.081059285 -0.22801888 -0.00079104287 -0.015226812 0.17349751 0.19460194
0.12382114 0.13858443 0.08880091 -0.14768308 -0.07080504 0.05655901 0.027773326 0.39779437
-0.017648708 -0.038836025 0.26221943 -0.0620401 -0.1755254 -0.01791419 0.05115429 -0.031263262
0.16517226 0.012971228 -0.22840703 -0.18015064 -0.0153306415 -0.19264486 0.025387112 0.080680035
-0.09250824 -0.25239325 -0.1762323 0.08446429 0.37767226 -0.11686287 -0.07870658 0.15875626

action_model._discrete_distribution.branches.1.bias f4 [3]
00000000: ab0e ac3d 0140 38be 5cf7 9fbb
0.08401235 -0.17993166 -0.0048817825

exp_avg f4 [128, 29]
00000000: 1305 baba 4881 1738 0000 0000 4ca1 1ab9
00000010: c6c1 dc39 7979 ecba 0000 0000 fe46 17b9
00000020: cea3 bfba fe70 f438 0000 0000 7ebe 29b9
00000030: a9a4 c739 0435 e6ba 0000 0000 d45d d8b8
00000040: 41d1 91ba 76b0 8ab9 0000 0000 de7d 54b9
00000050: e8dd eb39 38bc c3ba 0000 0000 c8ed 81b8
00000060: e0cc 3db9 5efa abba 0000 0000 3adc b3b9
00000070: 0000 0000 4c11 d13a 1911 02ba 0000 0000
00000080: 5782 bb38 014f c1b9 805c c03a 0000 0000
00000090: 1023 9838 e826 983a eddc 93b8 0000 0000
000000a0: 2ef6 cb38 f2c9 d439 203c 333a 0000 0000
000000b0: 0059 c637 d48f 13b9 5620 a13a 0000 0000
000000c0: c6a3 9738 9dd9 ae39 2864 a139 0000 0000
000000d0: cca6 d436 d036 9438 4ee4 7939 0000 0000
000000e0: 0de4 4338 0000 0000 abf4 083b d546 09b9
000000f0: 0000 0000 0509 7839 3c87 2cb9 af28 0b3b
00000100: 0000 0000 284a 0939 3c4a 003b 7acb 9ab6
00000110: 0000 0000 225b 8139 0db6 e738 5b64 f03a
00000120: 0000 0000 1990 1938 a559 54ba 7b79 343b
00000130: 0000 0000 eabe 1939 24f0 e138 ece1 3a3b
00000140: 0000 0000 fff5 d338 3bae 7838 d6ca ae3a
00000150: 0000 0000 6c8c 1db8 0000 0000 2fa1 073a
00000160: b0ff 45b9 0000 0000 09bb 0b38 5f73 e4b8
00000170: 5f5f e539 0000 0000 7e91 2f38 e5a8 d939
00000180: e0dd e0b8 0000 0000 ed0b 2638 139e b5b8
00000190: b4ba d239 0000 0000 6157 1338 d4d4 7d39
000001a0: e0ee 9a38 0000 0000 c938 6f38 9a0d 94b8
000001b0: 0437 d2b8 0000 0000 0073 d735 b95d 1ab7
000001c0: 6344 e839 0000 0000 a1a4 ff38 0000 0000
000001d0: 7a5e de39 7f1c 8bb9 0000 0000 a1b6 1138
000001e0: d23e bab8 b6d1 8139 0000 0000 9a76 8f37
000001f0: d419 3539 4200 d7b7 0000 0000 02dd 2438
00000200: 42f1 3039 a0a2 afb7 0000 0000 58d1 1eb7
00000210: 5ac4 4bba 257e 723a 0000 0000 0002 1a35
00000220: b316 2639 0014 74b6 0000 0000 3808 ae36
00000230: 8cd2 5738 ae54 a8b9 0000 0000 eae5 56b8
00000240: 0000 0000 68f5 783b ca07 b0ba 0000 0000
00000250: 6363 9a39 06e9 83ba 06e6 623b 0000 0000
00000260: dc33 7139 ba43 373b aebc cbb9 0000 0000
00000270: 56fa a839 6a45 6d39 ec10 0f3b 0000 0000
00000280: 3cdf e238 1422 b3ba 3a61 773b 0000 0000
00000290: 7868 8239 c55f 5439 d80e 8f3a 0000 0000
000002a0: f5e2 4738 b67c 6738 4f18 993a 0000 0000
000002b0: c991 2239 0000 0000 b2fc 5039 baab 91b8
000002c0: 0000 0000 70a2 ab37 944a 58b6 fe87 0b39
000002d0: 0000 0000 1add 0938 b076 2a39 20a5 33b8
000002e0: 0000 0000 8c3c bb37 d8ea 8f35 ae3e 0239
000002f0: 0000 0000 f588 c937 aada 6739 4899 c8b8
00000300: 0000 0000 e5e1 3338 2ed7 0835 8c36 b0b9
00000310: 0000 0000 80d2 1cb6 2d12 18b7 b023 db37
00000320: 0000 0000 908a d838 0000 0000 aa6b 90b9
00000330: f8d4 4638 0000 0000 c835 9938 5280 4bb9
00000340: 1387 0eb8 0000 0000 7a38 d538 d715 fab8
00000350: 2cbc 2cb9 0000 0000 555e af38 4595 13b9
00000360: d2b1 efb8 0000 0000 016b 9338 c4d0 edb6
00000370: 5e61 81b9 0000 0000 089f 0639 3f5f 2bb9
00000380: 126d bbba 0000 0000 4045 7d36 f48c 1738
00000390: 7a66 72ba 0000 0000 90f0 9839 0000 0000
000003a0: ba9d f23a 2179 02ba 0000 0000 85d2 c538
000003b0: a82a a3b9 d62b da3a 0000 0000 68be b238
000003c0: 1422 c43a ad58 37b9 0000 0000 df7f da38
000003d0: 59c8 9238 80f8 a43a 0000 0000 4ddd 1a38
000003e0: 4c72 db39 8497 6e3a 0000 0000 d1d5 dc38
000003f0: b9da 6c38 9424 3c3a 0000 0000 a85f 7437
-0.0014192186 3.6121608e-05 0.0 -0.00014746672 0.00042106042 -0.0018041573 0.0 -0.00014426929
-0.0014620961 0.00011655873 0.0 -0.0001618806 0.0003807892 -0.0017563407 0.0 -0.000103171595
-0.0011124985 -0.00026452885 0.0 -0.00020264785 0.00044988026 -0.0014933413 0.0 -6.1954896e-05
-0.00018100766 -0.001312088 0.0 -0.00034305622 0.0 0.001595059 -0.0004961654 0.0
8.9411325e-05 -0.0003687069 0.0014676005 0.0 7.254456e-05 0.0011608275 -7.050657e-05 0.0
9.725649e-05 0.00040586252 0.00068372674 0.0 2.3644883e-05 -0.00014072593 0.0012292962 0.0
7.230746e-05 0.0003335 0.00030782935 0.0 6.33751e-06 7.0673996e-05 0.0002383154 0.0
4.670401e-05 0.0 0.0020897787 -0.00013091725 0.0 0.00023654483 -0.00016453577 0.0021233966
0.0 0.00013092963 0.0019575497 -4.6132454e-06 0.0 0.00024672697 0.00011048848 0.0018340455
0.0 3.6612244e-05 -0.0008100516 0.0027538228 0.0 0.00014662338 0.00010773566 0.0028516008
0.0 0.000101070844 5.9290072e-05 0.0013335596 0.0 -3.7562495e-05 0.0 0.00051738595
-0.00018882635 0.0 3.3314373e-05 -0.00010893377 0.0004374934 0.0 4.185875e-05 0.00041515302
-0.0001072248 0.0 3.958859e-05 -8.660196e-05 0.00040193426 0.0 3.512891e-05 0.00024207245
7.387786e-05 0.0 5.7034926e-05 -7.0597234e-05 -0.00010023828 0.0 1.6052218e-06 -9.200937e-06
0.0004430144 0.0 0.00012190012 0.0 0.0004241353 -0.00026533377 0.0 3.474078e-05
-8.880872e-05 0.00024761044 0.0 1.7102157e-05 0.00017271127 -2.5630117e-05 0.0 3.9306477e-05
0.00016874544 -2.0937354e-05 0.0 -9.4662755e-06 -0.0007773094 0.00092503644 0.0 5.737238e-07
0.0001583945 -3.6370475e-06 0.0 5.186561e-06 5.145608e-05 -0.00032106548 0.0 -5.12357e-05
0.0 0.003798807 -0.0013430056 0.0 0.00029447218 -0.0010063953 0.0034621968 0.0
0.0002300287 0.0027963952 -0.00038859755 0.0 0.00032229972 0.0002262794 0.0021830155 0.0
0.000108181004 -0.0013666772 0.003774716 0.0 0.00024873368 0.00020253572 0.0010914458 0.0
4.7656667e-05 5.5190838e-05 0.0011680218 0.0 0.00015503833 0.0 0.00019930562 -6.946125e-05
0.0 2.046043e-05 -3.2229918e-06 0.00013306734 0.0 3.2869262e-05 0.00016256678 -4.283071e-05
0.0 2.2320331e-05 1.0722679e-06 0.00012421116 0.0 2.4024843e-05 0.00022111335 -9.565294e-05
0.0 4.2887306e-05 5.0977076e-07 -0.00033609977 0.0 -2.3368339e-06 -9.064138e-06 2.6123453e-05
0.0 0.00010325492 0.0 -0.00027546036 4.740522e-05 0.0 7.305626e-05 -0.00019407392
-3.3981236e-05 0.0 0.00010167151 -0.00011924997 -0.00016473298 0.0 8.362221e-05 -0.0001407462
-0.0001142953 0.0 7.029437e-05 -7.087454e-06 -0.00024677342 0.0 0.0001283848 -0.00016343313
-0.0014299473 0.0 3.7740247e-06 3.613248e-05 -0.00092468376 0.0 0.00029170932 0.0
0.0018510141 -0.0004977156 0.0 9.432904e-05 -0.00031121564 0.0016645144 0.0 8.523167e-05
0.0014963769 -0.00017485274 0.0 0.00010418868 6.99914e-05 0.0012586266 0.0 3.6922564e-05
0.00041856093 0.0009101557 0.0 0.00010530244 5.6470486e-05 0.00071770814 0.0 1.4565805e-05

exp_avg_sq f4 [128, 29]
00000000: 5bb0 5839 0335 b238 0000 0000 d646 1636
00000010: f1de 8038 34d8 7639 0000 0000 e3c1 b235
00000020: d117 8539 be52 1f38 0000 0000 a541 2736
00000030: fd10 5638 7d84 8239 0000 0000 ad8c 3035
00000040: df4b 2d39 55e3 0139 0000 0000 07fd 3936
00000050: b411 5938 4a2c 8039 0000 0000 dee0 0a35
00000060: 0144 9338 b7b5 6839 0000 0000 c6f9 2236
00000070: 0000 0000 2d33 5539 3149 f237 0000 0000
00000080: 816b d135 3b76 d938 e54a 0239 0000 0000
00000090: 80cb 9f35 a4b7 6839 4cd5 2837 0000 0000
000000a0: e019 df35 b813 2d38 15d6 4739 0000 0000
000000b0: 6195 3c35 b415 0c39 8ffc c238 0000 0000
000000c0: dc30 d735 428d 0e38 af5c 5339 0000 0000
000000d0: 30af 2035 318d 5138 bc8c 4339 0000 0000
000000e0: 2a3d c735 0000 0000 b7f2 6239 693b 2d38
000000f0: 0000 0000 3db0 1736 a264 0038 267e 6739
00000100: 0000 0000 b227 c735 add2 8239 7866 f036
00000110: 0000 0000 8ac2 2536 839d 0d37 1987 8039
00000120: 0000 0000 d521 4735 cb96 ca38 9260 1b39
00000130: 0000 0000 d6a4 1e36 d9da fc36 90c7 8239
00000140: 0000 0000 becf 2435 d376 1238 7101 6339
00000150: 0000 0000 7f1a fe35 0000 0000 d77b c937
00000160: 8bbc 0a37 0000 0000 3690 8a34 568e 7537
00000170: 8132 8f37 0000 0000 3bcd 4c34 d4e6 af37
00000180: 5d3e 3a37 0000 0000 f779 8934 34c1 2037
00000190: fd69 c337 0000 0000 341f ee33 d50e 7e37
000001a0: 05a7 8737 0000 0000 b636 8e34 7cbd e136
000001b0: 1988 e437 0000 0000 a435 bd33 7d33 1b37
000001c0: b2dc c237 0000 0000 0948 7534 0000 0000
000001d0: 3c93 e838 26f2 8338 0000 0000 6329 9235
000001e0: e96d df38 a50f 8938 0000 0000 0f7a 5535
000001f0: 0c86 f138 0590 7838 0000 0000 3277 9e35
00000200: e76a 9338 1f71 db38 0000 0000 4ecb e834
00000210: 285e a438 9eae c038 0000 0000 b61b c635
00000220: 4edc 8438 0dbb e738 0000 0000 a956 b534
00000230: 2992 9138 1cf0 d838 0000 0000 9b71 9e35
00000240: 0000 0000 bcea 573a c408 0b39 0000 0000
00000250: 8405 1737 9457 8939 6d7d 303a 0000 0000
00000260: 8bf8 e036 991d 5c3a 2630 0039 0000 0000
00000270: 6d6e 1a37 a92a c538 ec8e 613a 0000 0000
00000280: 72e2 7336 be17 ae39 3534 213a 0000 0000
00000290: 5b67 0337 1e33 a538 b80c 673a 0000 0000
000002a0: 511f 4c36 252b 2339 c0af 533a 0000 0000
000002b0: 534e cb36 0000 0000 86b7 d137 ac02 f537
000002c0: 0000 0000 b1c2 9334 7828 ed34 aca9 6238
000002d0: 0000 0000 0ff6 2c34 8b2f 5c38 4b29 1d36
000002e0: 0000 0000 5cec b134 884e 0235 5253 6338
000002f0: 0000 0000 8d2a d133 ea55 3938 2b35 2437
00000300: 0000 0000 7cba af34 7646 c636 3d30 4f38
00000310: 0000 0000 5753 b933 39f5 2b38 2fec 5037
00000320: 0000 0000 7c33 e134 0000 0000 dcae 5538
00000330: 26eb 1638 0000 0000 2d68 3d35 c0aa 8c38
00000340: f24b b037 0000 0000 00df 2035 ad37 c737
00000350: 3f8e 8738 0000 0000 12f2 3a35 a49d 3c38
00000360: 62fb 3938 0000 0000 ece5 be34 740d dd37
00000370: b08b 8038 0000 0000 4fd9 2935 c3e3 3f38
00000380: e7ed 3f38 0000 0000 bcc3 8b34 ecb7 5038
00000390: 98c1 1e38 0000 0000 b61b 0b35 0000 0000
000003a0: 9a70 5039 6e49 0f38 0000 0000 7cfa 0636
000003b0: e5ae 1238 5056 4f39 0000 0000 f15a b235
000003c0: 26db 6039 80a0 ae37 0000 0000 542e 1036
000003d0: 9a33 5837 0540 6939 0000 0000 1298 3535
000003e0: 2071 e638 86c3 ff38 0000 0000 b1b1 0636
000003f0: db7e 8937 8ffb 6339 0000 0000 165a 1335
0.00020665063 8.4975756e-05 0.0 2.2392974e-06 6.145042e-05 0.0002354093 0.0 1.3318462e-06
0.0002538548 3.7985614e-05 0.0 2.492315e-06 5.1037397e-05 0.00024894244 0.0 6.576982e-07
0.0001652683 0.00012387086 0.0 2.771443e-06 5.175332e-05 0.0002444706 0.0 5.173623e-07
7.022173e-05 0.00022192938 0.0 2.4285268e-06 0.0 0.00020332327 2.888273e-05 0.0
1.5603001e-06 0.000103693885 0.00012425667 0.0 1.190565e-06 0.00022193656 1.0063242e-05 0.0
1.6622325e-06 4.126478e-05 0.0001905787 0.0 7.025283e-07 0.00013359525 9.2976836e-05 0.0
1.6032968e-06 3.3986995e-05 0.00020157055 0.0 5.9859576e-07 4.9960978e-05 0.00018649077 0.0
1.4844456e-06 0.0 0.00021643458 4.1301744e-05 0.0 2.2603338e-06 3.06113e-05 0.0002207687
0.0 1.4838208e-06 0.00024952498 7.1644863e-06 0.0 2.4700153e-06 8.4409285e-06 0.00024514718
0.0 7.418251e-07 9.660198e-05 0.00014817927 0.0 2.3639782e-06 7.5356625e-06 0.00024944218
0.0 6.1397066e-07 3.4919776e-05 0.00021648944 0.0 1.8932186e-06 0.0 2.4018735e-05
8.26934e-06 0.0 2.580943e-07 1.4636278e-05 1.7070446e-05 0.0 1.9073643e-07 2.0969113e-05
1.1100984e-05 0.0 2.560698e-07 9.581727e-06 2.3295166e-05 0.0 1.10884145e-07 1.5143033e-05
1.6171029e-05 0.0 2.6489369e-07 6.7275814e-06 2.7243093e-05 0.0 8.8107555e-08 9.250708e-06
2.3229371e-05 0.0 2.284361e-07 0.0 0.000110900466 6.2916704e-05 0.0 1.0889893e-06
0.00010653941 6.535583e-05 0.0 7.95263e-07 0.00011516744 5.9261936e-05 0.0 1.1806608e-06
7.029418e-05 0.00010463804 0.0 4.336129e-07 7.837667e-05 9.1877984e-05 0.0 1.4760215e-06
6.3352854e-05 0.00011049779 0.0 3.377693e-07 6.941363e-05 0.000103444065 0.0 1.1804981e-06
0.0 0.0008236577 0.00013259338 0.0 9.001586e-06 0.00026195927 0.0006732557 0.0
6.7046544e-06 0.00083967444 0.00012224968 0.0 9.204826e-06 9.401638e-05 0.0008604366 0.0
3.634163e-06 0.00033205556 0.0006149442 0.0 7.832273e-06 7.8773344e-05 0.0008813846 0.0
3.0416597e-06 0.00015560964 0.00080752 0.0 6.0589896e-06 0.0 2.5000201e-05 2.920752e-05
0.0 2.752254e-07 4.4174135e-07 5.4040618e-05 0.0 1.6108264e-07 5.2496365e-05 2.3418859e-06
0.0 3.3140793e-07 4.854305e-07 5.4198616e-05 0.0 9.740061e-08 4.418745e-05 9.787541e-06
0.0 3.2731975e-07 5.9090626e-06 4.939757e-05 0.0 8.629893e-08 4.099796e-05 1.2452757e-05
0.0 4.1946976e-07 0.0 5.0946008e-05 3.5981786e-05 0.0 7.055958e-07 6.707525e-05
2.10162e-05 0.0 5.992915e-07 2.3748575e-05 6.463797e-05 0.0 6.964266e-07 4.4969507e-05
4.4341556e-05 0.0 3.5557548e-07 2.6351518e-05 6.1295344e-05 0.0 6.327363e-07 4.575007e-05
4.5759512e-05 0.0 2.6033183e-07 4.9762355e-05 3.7850434e-05 0.0 5.182186e-07 0.0
0.00019878373 3.4162244e-05 0.0 2.0113357e-06 3.4971996e-05 0.00019773212 0.0 1.3288501e-06
0.00021443944 2.0817155e-05 0.0 2.1484639e-06 1.2886618e-05 0.0002224446 0.0 6.7649046e-07
0.00010988326 0.000121957666 0.0 2.0070986e-06 1.6390744e-05 0.0002174212 0.0 5.489286e-07

exp_avg f4 [128]
00000000: a904 00bc bcfc 1539 0a0c a0bb fcc4 6c3b
00000010: 5a7b 90ba 4d8f 493b d1d4 4c3b ff38 413c
00000020: 1f28 013b f730 193c cc42 67bb d568 353c
00000030: eef8 223c 57e1 44bc e46f f33a cd00 7bbb
00000040: 627f a4ba e0a1 1fbb c65b 9bbb bfb8 15bc
00000050: faf2 413b f5b0 f53b 228e 90bb 7e59 623c
00000060: bc33 30bc 9a94 a63a 632a 91bb 621f 14bc
00000070: 2289 033b a0e9 a23b a367 8dbc c5e8 da3b
00000080: 6436 1cbb 7aa4 3cbc 92f4 2aba a323 0b3c
00000090: 1630 4c3c 428e f83a 7aac 5fbb 5269 b6ba
000000a0: b9e4 85bb 39c9 183b ea74 1d3c a14a 1dbb
000000b0: bd44 7f3b 5426 af3a 390c 08bc 45cb 74bb
000000c0: e7bd 543b b754 eebb d2f9 3e3b 53c9 5d3c
000000d0: bebd ea3b d053 cab8 9977 173c b8cd 59bb
000000e0: 9f20 f43b c85b 0abc e98b c1bc 317a b13c
000000f0: e01b 673b 34fe 61bc 1ee6 f93b dced b93b
00000100: 54ca 8dbb 766d fdbb 22ff 683c 01b8 2cbb
00000110: 6cce cd39 4404 053b 0440 20bb 2cdb 61ba
00000120: fd6a 473b fc79 c83a affb 673a 6116 33bc
00000130: 8758 d6bb 0ef7 023a 3a69 a4bb a618 5b3a
00000140: f048 70bb f892 a43a e440 efba 40b8 753c
00000150: a465 ebbb c4f3 29ba 0490 973b e4c1 31bb
00000160: d4f2 6bbb 74e5 d6bb 000c 26bb 608a 9d3c
00000170: 0d93 9cbb 22c2 143c b078 1139 2d23 403a
00000180: 32f0 cdbb a8a1 e2bb c0b7 3cbc 5311 163b
00000190: 5c76 f53b 0218 b3bb c18b 40bc c720 293c
000001a0: 60a3 95ba 1f3e 4b3b 37a3 903b c1c9 f73a
000001b0: ba81 183b 87c8 9aba 7075 22bc baaf 6bbb
000001c0: 55c3 703b 6880 b1b9 31bd f5bb 083d 66b7
000001d0: 067a 2c3a 2442 4bba 406a 53bc 69c9 ffbb
000001e0: 868e a43c ce33 98bb ead1 04bc 1e31 7b3c
000001f0: c091 18b6 8809 223a 0a27 e5ba ba25 b2ba
-0.007813611 0.00014303898 -0.0048842477 0.0036128154 -0.001102309 0.003075558 0.0031254778 0.011793374
0.0019707752 0.009350053 -0.0035287617 0.011072357 0.009947045 -0.012016616 0.0018572775 -0.0038300038
-0.001255017 -0.002435796 -0.004741165 -0.009138285 0.0029594288 0.0074979016 -0.004411475 0.013815282
-0.010754522 0.0012709082 -0.0044301017 -0.009040685 0.0020070751 0.004971698 -0.017261332 0.0066805803
-0.002383613 -0.011513824 -0.0006521429 0.008492383 0.012462636 0.0018963295 -0.0034129904 -0.0013916886
-0.0040861038 0.0023313297 0.009610394 -0.002400078 0.0038950883 0.0013362863 -0.008303695 -0.0037352603
0.0032461823 -0.0072732824 0.0029140604 0.013536769 0.0071637323 -9.647722e-05 0.009244823 -0.003323419
0.007450178 -0.008444734 -0.023626285 0.02166471 0.0035264418 -0.013793517 0.007626309 0.005674107
-0.004327098 -0.007733996 0.014220985 -0.0026354792 0.00039254443 0.0020296732 -0.0024452219 -0.0008615728
0.003042876 0.0015295143 0.00088494545 -0.0109306285 -0.006541315 0.00049959205 -0.005017427 0.000835786
-0.0036664568 0.0012556007 -0.0018253592 0.014997542 -0.0071837474 -0.0006483162 0.0046253223 -0.0027123624
-0.003600289 -0.0065581147 -0.0025336742 0.019231021 -0.004778272 0.009079488 0.00013873237 0.00073294603
-0.006284737 -0.0069162436 -0.011518419 0.002289851 0.007490916 -0.0054655084 -0.01175207 0.010322756
-0.0011416487 0.003101237 0.004413988 0.0018904732 0.0023270682 -0.0011809029 -0.009915695 -0.0035962895
0.003673752 -0.0003385574 -0.00749936 -1.3723278e-05 0.0006579462 -0.0007753691 -0.01290375 -0.0078059924
0.020087492 -0.0046448475 -0.008106688 0.015331535 -2.2734603e-06 0.000618123 -0.0017482948 -0.0013591566

exp_avg_sq f4 [128]
00000000: 827a a539 56d7 7439 8dca 8c39 5b24 2038
00000010: d65d 3739 0a00 7c3a 9eca 7d38 374f 1039
00000020: c2a9 7b39 1b68 e739 fb9c 1539 968d 063a
00000030: ad6d 173a de8b 8039 9f82 ef39 614f 8839
00000040: 1b45 8138 f2b5 7338 fc62 043a 6275 c639
00000050: 257e fb38 9b7e 893b 36c8 2b38 ebc0 c539
00000060: 17c4 3039 cafa f637 b422 f339 1b07 a539
00000070: f0a2 9c39 1f2c 6239 0eda 5a3a c45b 493a
00000080: 03df c138 0e6e 1239 c0e8 183a c746 4e3a
00000090: 1ba5 2a3a 8116 ec39 d9c3 9039 5216 2039
000000a0: 4a30 9a39 c27e f338 0d0d e638 ce8b 4739
000000b0: 5a60 9b38 158c 6b3a 31a2 b539 dd67 9a38
000000c0: 2191 0839 aa3d c038 94ae cb38 dcdb c539
000000d0: ee8c 333a 9d9c c538 b609 ac3a 8498 ad39
000000e0: c0fe 7638 ec64 223a 51d1 323a ab80 1c3b
000000f0: 30d5 db39 f720 d43a 930f d539 9acd 7638
00000100: 45e7 1839 84a5 573a 41e4 133b 5760 3e3a
00000110: 07a5 b439 37b6 ac39 367d e538 5c58 bd39
00000120: b84d d138 ef3e 2039 0684 e138 1f62 073a
00000130: e539 0f3a 3677 5939 0885 6038 16c3 2239
00000140: d5a4 213a d699 6939 5327 6b39 9c4e 043a
00000150: 9ec7 1139 6b31 ba38 b361 3b39 2afe 0b39
00000160: 5031 0f39 6e39 5539 b58d 8538 a8b7 5e3a
00000170: add1 a838 18f0 8239 10ea 7b38 2041 6939
00000180: 61ac 9039 11f9 8a39 fd9f e139 d536 193a
00000190: 157a 5539 4ad7 5039 b544 383a d0fc 0639
000001a0: dbe2 ae39 d486 4038 3c85 9939 716c f238
000001b0: 43d3 f638 d5c9 1039 0269 823a bc79 9f39
000001c0: d51c f439 0215 4c3a 4ab8 193a 8ef0 8d39
000001d0: c457 ea37 05d8 a138 5aba 7838 21af 453a
000001e0: dcee 5139 5ee8 9239 3d75 2139 9999 1b3b
000001f0: 7a2d c539 da89 903a 32d1 5c38 f70c 4139
0.00031562528 0.00023349872 0.00026853793 3.818083e-05 0.00017487197 0.0009613043 6.0508602e-05 0.0001376242
0.00024000465 0.00044137318 0.00014268227 0.0005132792 0.0005776536 0.00024518272 0.00045682953 0.00025999083
6.164071e-05 5.8105164e-05 0.000505015 0.0003785296 0.00011992109 0.0041960008 4.0956038e-05 0.00037718503
0.00016857717 2.9442268e-05 0.00046374428 0.00031476546 0.00029876037 0.00021569476 0.0008348533 0.00076812156
9.244496e-05 0.00013964644 0.00058330223 0.0007868823 0.0006509588 0.00045030194 0.00027611738 0.00015267104
0.00029409147 0.000116107534 0.000109696855 0.000190302 7.408923e-05 0.00089854124 0.00034643852 7.362638e-05
0.00013024035 9.166759e-05 9.712312e-05 0.00037738576 0.0006849308 9.4228635e-05 0.0013125453 0.00033110764
5.8888225e-05 0.0006194848 0.00068213517 0.0023880403 0.00041929772 0.0016184141 0.0004063813 5.8842452e-05
0.00014582004 0.0008226263 0.002256647 0.00072622806 0.0003445523 0.00032942157 0.00010942893 0.00036114722
9.980373e-05 0.00015282234 0.00010753427 0.00051644625 0.0005463644 0.00020739142 5.3529657e-05 0.00015522199
0.00061662245 0.0002227792 0.00022425996 0.0005047114 0.00013902641 8.878376e-05 0.00017870106 0.00013350756
0.00013655913 0.00020334657 6.368329e-05 0.0008495995 8.0499194e-05 0.00024974416 6.006105e-05 0.00022244873
0.00027594253 0.0002650698 0.00043034545 0.00058446574 0.00020358742 0.00019916627 0.0007029281 0.00012873416
0.00033356887 4.5901936e-05 0.000292817 0.00011559658 0.00011769545 0.00013808098 0.0009949508 0.00030417542
0.00046560788 0.0007785113 0.0005863948 0.00027072843 2.7935843e-05 7.717315e-05 5.930136e-05 0.000754105
0.00020020775 0.00028020417 0.00015397831 0.0023742674 0.0003760865 0.0011027411 5.2646916e-05 0.00018410744
