results/ppo/Racing/Racing-1215.onnx (onnx, 88644 bytes, 9 tensors)

discrete_act_size_vector f4 [1, 2]
3.0 3.0
00000000: 0000 4040 0000 4040

network_body._body_endoder.seq_layers.0.weight f4 [128, 29]
-0.08382921 -0.07939208 0.4226678 0.15817422 -0.069311775 0.05875397 -0.02796644 0.219863
0.14620733 -0.36361334 0.29205608 0.063843146 -0.25092152 -0.17997117 0.1935005 -0.23575912
0.005124315 0.32147673 -0.1095705 0.2076187 -0.112908915 0.019213831 0.1085178 0.2242322
0.033163298 0.3522358 -0.37288675 0.12140471 0.14295293 -0.082196936 0.0051311213 -0.020296795
0.565936 0.34980813 0.07599493 -0.30327836 -0.088572726 0.116642386 0.238215 -0.027829649
3.764195e-05 -0.0913822 0.25452524 -0.13883445 0.007698987 -0.24857092 0.007230446 0.026123526
0.36861405 0.10777426 0.2990965 0.1920348 -0.43497202 0.36843666 -0.051601224 0.3138887
-0.041970413 0.03974862 -0.051186744 -0.31037164 0.29284564 -0.090115316 -0.41733515 0.53365064
0.2957635 0.18117075 0.08410031 0.039655797 0.1528379 -0.06528749 -0.11831147 0.36363178
-0.10157904 -0.06815565 0.27091527 0.007699815 -0.10145181 0.041277815 0.23617655 0.1603975
-0.22638807 -0.30144688 0.086647235 0.13997172 0.47242337 0.057354443 -0.025231792 0.06375411
0.1135777 -0.07942927 0.12222528 0.082950644 -0.073280826 0.2284947 0.15279704 0.042727914
0.25571847 0.23208049 -0.07469929 -0.048886932 0.06997995 -0.030495176 -0.005248755 -0.040652756
0.42413032 0.07094298 0.08427428 -0.6486316 -0.12351073 0.17387018 -0.27793095 -0.23542148
0.16812734 -0.17394963 0.33695155 0.18843928 0.030635329 0.09890043 0.0031183786 0.0019654979
-0.0662921 -0.004350585 -0.12819326 0.09442924 -0.10855125 0.04472587 0.03906805 0.01440981
0.06942772 0.12772837 0.18209323 0.04450888 -0.16872132 0.2914216 -0.036795788 -0.009576798
-0.1799897 0.3591577 -0.38700294 0.21513256 0.05637401 0.3529535 -0.32759932 0.20737125
-0.08628982 -0.4102815 -0.17620409 0.299535 0.3423954 -0.4328009 -0.0027730614 0.078920044
0.05451352 0.2993429 -0.19492547 0.11808667 -0.1991107 -0.55145544 -0.052959125 0.20530581
-0.03173115 0.115834095 -0.6377877 -0.18563569 -0.2854759 -0.5413145 0.076893836 -0.07574542
-0.051196765 0.17344555 -0.23147786 -0.12152296 -0.2754964 -0.15724596 -0.06893267 -0.05718612
0.19949973 0.08261656 -0.069442496 0.030272296 -0.024864664 0.36285222 -0.15057416 0.3816349
-0.117935725 -0.17685731 0.48268977 -0.17668813 -0.10812535 -0.11059095 0.16659825 0.17105843
0.17522332 0.08420409 0.0733904 -0.31660378 -0.10864979 0.091105245 -0.2989215 -0.40500554
0.21514842 -0.021498831 -0.08870494 0.22227702 -0.26788515 0.19489233 -0.1671528 -0.029954426
0.23026137 0.2921746 0.071072064 0.120015875 -0.23001546 0.09191699 0.016618524 0.17562824
0.20107467 -0.05856221 -0.12776051 0.15030673 -0.02210303 0.31127664 -0.4192819 0.12220189
0.022370812 0.042666655 -0.19637986 0.050485242 0.19468065 0.1965345 0.19274576 -0.102631055
-0.20159744 -0.34525558 0.12470858 -0.33813024 0.037190694 -0.19691387 -0.1996598 0.089498065
0.25931507 0.29684862 -0.06007919 0.13864547 -0.08541765 -0.011904362 0.1435201 -0.04954029
0.12892899 -0.1189851 0.00073229277 -0.017669527 -0.05424666 -0.091614485 -0.002960772 -0.09806108
00000000: a6ae abbd 5198 a2bd ea67 d83e 6cf8 213e
00000010: 55f3 8dbd 01a8 703d e019 e5bc c423 613e
00000020: 60b7 153e 872b babe 6088 953e 32c0 823d
00000030: c978 80be 5d4a 38be ff24 463e d76a 71be
00000040: dfe9 a73b 9998 a43e 8066 e0bd ff99 543e
00000050: ca3c e7bd 5366 9d3c 953e de3d 209d 653e
00000060: 3dd6 073d 4058 b43e 03eb bebe 08a3 f83d
00000070: 4162 123e de56 a8bd f722 a83b 7745 a6bc
00000080: 2fe1 103f 0d1a b33e 3ba3 9b3d 4d47 9bbe
00000090: 9e65 b5bd 34e2 ee3d a2ee 733e 01fb e3bc
000000a0: bce1 1d38 9726 bbbd 2251 823e 9e2a 0ebe
000000b0: c947 fc3b 6089 7ebe 61ed ec3b 0101 d63c
000000c0: fbba bc3e c0b8 dc3d 2d23 993e c5a4 443e
000000d0: a7b4 debe bba3 bc3e ce5b 53bd 05b6 a03e
000000e0: 2be9 2bbd 73cf 223d 31a9 51bd 08e9 9ebe
000000f0: ddef 953e 618e b8bd f4ac d5be 549d 083f
00000100: 506e 973e d384 393e c93c ac3d 1e6e 223d
00000110: 8a81 1c3e 73b5 85bd 494d f2bd f22d ba3e
00000120: ac08 d0bd 3095 8bbd 68b5 8a3e bb4e fc3b
00000130: f7c5 cfbd ed12 293d 44d8 713e 3e3f 243e
00000140: 46d2 67be 3f57 9abe 1b74 b13d bf54 0f3e
00000150: 7ae1 f13e 7eec 6a3d e7b2 cebc 8491 823d
00000160: 6d9b e83d d0ab a2bd 3f51 fa3d 07e2 a93d
00000170: 4214 96bd 84fa 693e d476 1c3e 7703 2f3d
00000180: 88ed 823e 82a6 6d3e f1fb 98bd aa3d 48bd
00000190: a651 8f3d 05d1 f9bc c0fd abbb 8183 26bd
000001a0: 9c27 d93e 8e4a 913d fe97 ac3d b80c 26bf
000001b0: 32f3 fcbd 060b 323e f74c 8ebe 5412 71be
000001c0: 9329 2c3e da1f 32be ea84 ac3e 3af6 403e
000001d0: f1f6 fa3c 4f8c ca3d b65d 4c3b 95cf 003b
000001e0: 27c4 87bd 5a8f 8ebb 1845 03be 1e64 c13d
000001f0: 1e50 debd 7932 373d d205 203d 2017 6c3c
00000200: 1f30 8e3d 3acb 023e a676 3a3e f14e 363d
00000210: 48c5 2cbe 3635 953e 2eb7 16bd 01e8 1cbc
00000220: 384f 38be 85e3 b73e 4025 c6be b64b 5c3e
00000230: 6fe8 663d 52b6 b43e 19bb a7be 2159 543e
00000240: b8b8 b0bd 6b10 d2be d86e 34be a75c 993e
00000250: 734e af3e 1498 ddbe 40bc 35bb d5a0 a13d
00000260: 9249 5f3d 7943 993e 8b9a 47be 6dd7 f13d
00000270: ade3 4bbe 2f2c 0dbf abeb 58bd b03b 523e
00000280: 86f8 01bd 6d3a ed3d 0e46 23bf 4817 3ebe
00000290: e629 92be 9693 0abf 847a 9d3d 6a20 9bbd
000002a0: b3b3 51bd b69b 313e 8808 6dbe 08e1 f8bd
000002b0: dd0d 8dbe 1605 21be 922c 8dbd fe3b 6abd
000002c0: a849 4c3e df32 a93d de37 8ebd 9bfd f73c
000002d0: fbb0 cbbc c4c7 b93e 1d30 1abe a665 c33e
000002e0: 4988 f1bd 151a 35be 1d23 f73e bced 34be
000002f0: d370 ddbd 827d e2bd bb98 2a3e f129 2f3e
00000300: be6d 333e 3273 ac3d b54d 963d e419 a2be
00000310: c883 debd 6395 ba3d 3d0c 99be e35c cfbe
00000320: de4f 5c3e 511e b0bc f0aa b5bd 969c 633e
00000330: 3e28 89be db91 473e 1b2a 2bbe fc62 f5bc
00000340: a3c9 6b3e e997 953e 3b8e 913d e2ca f53d
00000350: 2c89 6bbe fa3e bc3d 9223 883c e4d7 333e
00000360: 85e6 4d3e eede 6fbd a7d3 02be 02ea 193e
00000370: 6a11 b5bc a75f 9f3e 1eac d6be fc44 fa3d
00000380: fe42 b73c 3bc3 2e3d cd17 49be 9dc9 4e3d
00000390: 5d5a 473e 5740 493e 255f 453e 3b30 d2bd
000003a0: 8f6f 4ebe 57c5 b0be 3667 ff3d 681f adbe
000003b0: 4555 183d caa3 49be 9e73 4cbe c34a b73d
000003c0: f2c4 843e 8bfc 973e 9915 76bd 14f9 0d3e
000003d0: 73ef aebd 830a 43bc eff6 123e c2ea 4abd
000003e0: f605 043e 76ae f3bd 56f7 3f3a afbf 90bc
000003f0: bf31 5ebd 60a0 bbbd 8309 42bb 3fd4 c8bd

network_body._body_endoder.seq_layers.0.bias f4 [128]
0.028158303 0.015431241 0.026907386 0.051580433 0.039908174 0.05744244 0.021641677 0.011344969
-0.022485532 0.042769503 0.04240523 0.039395798 -0.015347535 -0.008273621 0.03567773 0.03410151
0.015129761 0.002070847 0.01896113 0.005204825 0.037375994 0.05932372 0.011761611 0.018049087
0.0018317827 0.019064551 -0.042981777 -0.0044294256 0.017276984 0.017301332 0.02898582 0.00951254
-0.029343862 0.027334403 0.012473981 -0.0058300146 0.009977288 0.024523886 0.016310826 0.039188042
0.040790513 0.0021794694 -0.00076116424 0.048820242 0.022340432 0.019141834 0.0045165466 0.037898187
0.03934362 0.029621173 0.016953304 0.018754289 0.024345828 0.03216499 -0.01922866 0.025174947
0.052289214 -0.030158106 0.031818967 0.009197173 0.026142513 0.015417928 -0.009398277 0.023626313
-0.042760227 0.021044321 -0.0033719514 -0.028211927 -0.009668702 0.03413309 0.02615359 0.013991405
0.017103638 0.042487804 0.02641786 0.062099703 -0.0220817 0.021206623 0.026456032 0.008093903
0.014611383 0.039610915 -0.001502962 0.014892045 0.025288347 -0.011634796 0.009257235 0.060991693
0.01585657 0.021260876 0.03347182 0.02321912 0.00057429203 0.012669476 0.01614176 0.020435633
0.017263643 0.057575382 0.030213645 0.0266541 0.038585845 0.042241003 -0.0023183268 0.028237967
0.027185537 0.026700012 -0.025739715 0.04158488 0.022595879 0.010520132 0.004332616 -0.021420555
-0.016850956 0.01396057 0.027588509 -0.025547009 0.027862893 0.017707527 0.016411556 -0.01673819
0.0079531735 0.018911842 0.02318676 0.016009327 0.036033876 0.0022036952 0.031355247 -0.008475239
00000000: 3eac e63c 51d3 7c3c e16c dc3c 0146 533d
00000010: c176 233d c448 6b3d e349 b13c 40e0 393c
00000020: 9433 b8bc 132f 2f3d 1bb1 2d3d 7d5d 213d
00000030: 3a74 7bbc 158e 07bc d022 123d 06ae 0b3d
00000040: d1e2 773c 0cb7 073b 5f54 9b3c 3d8d aa3b
00000050: 9217 193d 6efd 723d c6b3 403c aedb 933c
00000060: 6e18 f03a 432d 9c3c a90d 30bd b724 91bb
00000070: 7688 8d3c 86bb 8d3c ac73 ed3c 7cda 1b3c
00000080: 8a62 f0bc 66ec df3c ab5f 4c3c b509 bfbb
00000090: c777 233c 51e6 c83c 489e 853c a483 203d
000000a0: f413 273d 6ed5 0e3b de88 47ba bcf7 473d
000000b0: 4803 b73c 56cf 9c3c 8aff 933b 213b 1b3d
000000c0: c726 213d 1aa8 f23c a8e1 8a3c 98a2 993c
000000d0: e770 c73c 70bf 033d 6c85 9dbc b13b ce3c
000000e0: 372d 563d 220e f7bc 9b54 023d bdaf 163c
000000f0: d328 d63c 7a9b 7c3c 3bfb 19bc f88b c13c
00000100: 5925 2fbd 2465 ac3c f5fb 5cbb b31c e7bc
00000110: 7a69 1ebc 24cf 0b3d 0e40 d63c 353c 653c
00000120: ee1c 8c3c b107 2e3d 456a d83c 425c 7e3d
00000130: aee4 b4bc 83b9 ad3c 52ba d83c 4a9c 043c
00000140: 9564 6f3c 0e3f 223d 09ff c4ba c4fd 733c
00000150: 8229 cf3c df9f 3ebc a8ab 173c 6dd2 793d
00000160: a3e5 813c 4a2b ae3c bf19 093d 0636 be3c
00000170: 168c 163a a293 4f3c b93b 843c a168 a73c
00000180: 7c6c 8d3c 2ad4 6b3d 9b82 f73c b359 da3c
00000190: 310c 1e3d e704 2d3d 12ef 17bb 4f53 e73c
000001a0: 34b4 de3c fcb9 da3c 18dc d2bc e854 2a3d
000001b0: fe1a b93c a25c 2c3c 9ef8 8d3b 297a afbc
000001c0: 040b 8abc e0ba 643c 4c01 e23c f647 d1bc
000001d0: b940 e43c 600f 913c 8771 863c 871e 89bc
000001e0: 074e 023c 02ed 9a3c 29f2 bd3c fe25 833c
000001f0: 4298 133d df6b 103b 5c6e 003d bbdb 0abc

network_body._body_endoder.seq_layers.2.weight f4 [128, 128]
-0.17458309 -0.118823886 -0.1021714 0.016622389 -0.120857365 0.12548374 0.17286354 0.01540801
-0.11581358 -0.17697765 0.10677586 -0.06565345 -0.13892499 -0.15664284 -0.0932424 -0.041085508
0.1766194 0.03980256 -0.011178998 -0.026414605 -0.014778447 -0.12218976 0.028691864 0.2835291
0.12270831 -0.095774874 0.23983549 0.040792663 -0.093302146 -0.0669952 -0.19023405 -0.016809365
0.029553173 -0.09493793 -0.029698139 -0.07421367 0.13427207 -0.23103712 0.018055568 -0.06534697
0.07526875 -0.06362759 -0.13046093 0.18122199 -0.07065658 0.054838564 0.060545083 0.0012761649
0.18650165 0.14361067 -0.053776562 -0.1353885 0.21369086 0.08298059 0.13043268 0.09335908
-0.02388311 0.065124005 -0.009449792 0.017151672 -0.03678989 -0.12705262 0.22657932 -0.11710052
-0.02072558 0.18302001 -0.03149068 -0.14503752 0.10651444 0.050330997 -0.10813993 -0.30360004
0.11075613 0.006937957 -0.049151316 0.033374846 -0.27939525 -0.12739025 0.027889263 -0.13371825
-0.027219992 -0.077695034 -0.04018637 -0.21431202 0.073608615 -0.05223834 -0.22039533 0.19024876
0.11494166 0.09052088 -0.05504663 -0.13876097 0.09930934 0.06693095 -0.117626704 0.0034447007
-0.11821045 -0.01568776 -0.14808069 -0.086448975 0.07009372 -0.045192078 -0.16929403 0.08652747
0.094699614 0.027022101 0.007084501 0.20026678 0.055845812 -0.026920222 -0.09304312 -0.23019838
-0.1296412 -0.06443151 0.104550235 0.06842673 -0.03712718 0.06537157 0.19160752 -0.099853344
0.2282776 0.017791618 -0.055863936 -0.072982274 0.13165024 0.21567875 -0.02298704 0.10327736
0.028126087 -0.0535361 -0.08938223 -0.010910241 0.084634 0.0101394765 -0.17004849 0.12447495
-0.0019061808 -0.043607917 -0.022470962 0.12732247 -0.12549296 -0.19325735 -0.157087 0.012925852
0.054157447 -0.04190364 -0.061248276 -0.11844953 0.1728154 0.093286686 0.019798953 -0.038154624
0.0844548 0.10826056 0.10382778 -0.11564979 0.013495511 -0.07506304 0.25474134 -0.064495325
-0.1984228 0.056307245 -0.01565135 -0.056508698 -0.085584536 0.16994168 0.055368032 -0.03449903
0.01337893 -0.043725025 -0.042693127 0.094525315 0.025611741 -0.120627165 -0.08005258 0.10011482
-0.020943025 -0.020912275 0.17073259 -0.21999407 0.1354635 -0.022070048 0.018038608 0.14509036
-0.022231175 -0.14788204 0.11105551 -0.048870124 0.07171015 0.07189471 0.024239076 0.031759053
0.085174195 0.0549991 -0.01471614 -0.122619815 0.18716772 -0.009824523 0.1683509 -0.047276754
-0.019572392 0.011397619 -0.09676958 0.052467503 -0.14865296 0.059411 0.10285444 0.020361194
-0.19075972 0.12668979 0.08600374 0.0056760637 -0.08844074 -0.19971965 0.06077538 0.050673783
0.072661884 0.14112598 -0.005953037 -0.0013642197 -0.016541097 0.18117823 0.062129572 0.14396413
0.12817992 0.0678633 -0.071147636 0.24396463 0.13150148 -0.15996425 0.12650923 0.03798736
0.20615146 0.10124273 -0.1680722 -0.08199683 0.21624903 0.001587034 -0.088723175 0.059456546
-0.02891905 0.07900041 -0.09576934 0.005986273 -0.07887386 0.0883579 -0.10956182 -0.0033333302
0.0070087123 0.022498772 0.017520357 0.10735726 -0.01292873 -0.080312625 0.22500582 -0.021427713
00000000: e9c5 32be f059 f3bd 3d3f d1bd ad2b 883c
00000010: 1184 f7bd cf7e 003e 2403 313e e171 7c3c
00000020: ac2f edbd a139 35be 4dad da3d 5175 86bd
00000030: 5a42 0ebe fb66 20be dff5 bebd 4749 28bd
00000040: b7db 343e 0208 233d 1e28 37bc 7163 d8bc
00000050: 4d21 72bc a03e fabd 330b eb3c ba2a 913e
00000060: 7f4e fb3d 9e25 c4bd 6f97 753e 3516 273d
00000070: 3215 bfbd c834 89bd b7cc 42be cbb3 89bc
00000080: 7f19 f23c d16e c2bd 8349 f3bc 56fd 97bd
00000090: 9e7e 093e ff94 6cbe 45e9 933c a2d4 85bd
000000a0: 8126 9a3d 2f4f 82bd 8d97 05be 4292 393e
000000b0: 66b4 90bd 679e 603d 1ffe 773d fd44 a73a
000000c0: 4afa 3e3e ad0e 133e d044 5cbd 48a3 0abe
000000d0: c7d1 5a3e baf1 a93d 2590 053e 0c33 bf3d
000000e0: 83a6 c3bc bc5f 853d 4dd3 1abc aa81 8c3c
000000f0: ffb0 16bd 151a 02be 6904 683e 66d2 efbd
00000100: b1c8 a9bc 9969 3b3e 5ffc 00bd b784 14be
00000110: 3e24 da3d e027 4e3d 7878 ddbd 7771 9bbe
00000120: 1cd4 e23d cd57 e33b e452 49bd 10b4 083d
00000130: e50c 8fbe 9772 02be 0678 e43c 70ed 08be
00000140: 76fc debc 931e 9fbd 779a 24bd 9c74 5bbe
00000150: 1dc0 963d dff7 55bd 50af 61be 92d0 423e
00000160: 8866 eb3d 0363 b93d 9378 61bd 5b17 0ebe
00000170: b262 cb3d 1813 893d 45e6 f0bd 7dc0 613b
00000180: 5218 f2bd 9e83 80bc 77a2 17be 290c b1bd
00000190: 4c8d 8f3d 541b 39bd 6a5b 2dbe 5035 b13d
000001a0: dff1 c13d 745d dd3c 1a25 e83b bc12 4d3e
000001b0: 94be 643d cc87 dcbc 648d bebd 20b9 6bbe
000001c0: aac0 04be abf4 83bd 6f1e d63d 5023 8c3d
000001d0: ab12 18bd 88e1 853d c334 443e e97f ccbd
000001e0: 9ac1 693e babf 913c 95d1 64bd bb77 95bd
000001f0: 52cf 063e e4da 5c3e 514f bcbc 1583 d33d
00000200: ae68 e63c ab48 5bbd 080e b7bd dec0 32bc
00000210: 9754 ad3d 0c20 263c 3121 2ebe b9ec fe3d
00000220: d0d8 f9ba 379e 32bd 0615 b8bc d260 023e
00000230: 3a81 00be 41e5 45be 6adb 20be f4c6 533c
00000240: 33d4 5d3d 27a3 2bbd 79df 7abd ab95 f2bd
00000250: 85f6 303e 170d bf3d 6a31 a23c 0648 1cbd
00000260: a3f6 ac3d b6b7 dd3d a9a3 d43d ccd9 ecbd
00000270: 471c 5d3c a7ba 99bd 756d 823e 2016 84bd
00000280: 592f 4bbe 6da2 663d 4337 80bc aa75 67bd
00000290: f246 afbd 3105 2e3e 97c9 623d db4e 0dbd
000002a0: 4d33 5b3c 0319 33bd fdde 2ebd 7d96 c13d
000002b0: b7cf d13c 600b f7bd 9bf2 a3bd 0009 cd3d
000002c0: b590 abbc 3850 abbc 86d4 2e3e 2046 61be
000002d0: f2b6 0a3e 3fcc b4bc b4c5 933c 9192 143e
000002e0: 271e b6bc 646e 17be 1271 e33d 0a2c 48bd
000002f0: c5dc 923d 893d 933d 0791 c63c c815 023d
00000300: cf6f ae3d bc46 613d f71b 71bc 1920 fbbd
00000310: e5a8 3f3e 09f7 20bc 2e64 2c3e 45a5 41bd
00000320: 4856 a0bc 14bd 3a3c 212f c6bd 2ae8 563d
00000330: 7b38 18be f358 733d 59a5 d23d 85cc a63c
00000340: 8456 43be f8ba 013e bb22 b03d 46fe b93b
00000350: 6b20 b5bd 4f83 4cbe 9bef 783d 508f 4f3d
00000360: c1cf 943d 5483 103e b211 c3bb 9ecf b2ba
00000370: 3281 87bc c986 393e 947b 7e3d 556b 133e
00000380: 9941 033e eafb 8a3d dab5 91bd ddd1 793e
00000390: 53a8 063e abcd 23be a38b 013e a298 1b3d
000003a0: 5e19 533e 5958 cf3d 1e1b 2cbe f4ed a7bd
000003b0: 6370 5d3e 0604 d03a 7fb4 b5bd b588 733d
000003c0: a5e7 ecbc f8ca a13d b722 c4bd 7f28 c43b
000003d0: 9e88 a1bd fdf4 b43d f361 e0bd 0074 5abb
000003e0: 57a9 e53b 584f b83c da86 8f3c 20de db3d
000003f0: 06d3 53bc f27a a4bd ed67 663e 2c89 afbc

network_body._body_endoder.seq_layers.2.bias f4 [128]
0.010421338 0.033884842 0.01512258 0.01938466 0.02437373 0.012232935 0.020951213 0.023930518
-0.0018408863 0.010341389 0.021101765 -0.013342167 0.004835525 0.027705152 0.012871044 0.02868218
0.02386336 -0.023823084 0.03166167 0.024758933 -0.041424047 0.024512777 0.002342606 0.035070598
0.01393571 0.018809278 0.029571028 0.023006734 0.038712922 0.034455534 0.012978156 0.023281695
-0.022389384 0.0029371483 0.03845783 -0.024292072 -0.006628972 0.011036012 0.019161234 -0.01123378
0.018849941 0.020462807 0.020580648 0.009942989 0.016610174 0.016401423 0.040301967 0.024838744
0.032179054 0.018098162 0.05037267 0.054199688 0.03218667 0.026887495 -0.01445027 -0.0017370093
0.030711636 -0.007497792 0.02392739 0.00069397304 0.012044544 0.031628426 0.022768361 0.0036973355
0.028204255 0.01778937 0.04335388 0.01682122 0.025047585 0.0112144 0.02841485 0.025250196
0.023580438 0.015723933 0.042627856 0.0154447155 0.040016282 0.007379536 0.034217514 0.013146283
0.02794129 -0.011521773 0.014277884 -0.01208584 0.03404149 0.02672204 0.031460416 0.021805221
0.025804723 -0.0041603195 0.032321755 -0.032107946 0.017988587 0.012712007 0.027438777 0.0146125695
0.024140645 0.0071546813 0.012653258 0.012959637 0.031334683 -0.0059120446 0.03432265 0.015997479
-0.016653644 0.035255987 0.02368347 0.015036482 0.028363843 0.057203434 0.009544178 0.0038193385
0.024553753 0.014215457 -0.004824633 0.02458677 0.022923365 0.024126904 -0.03665298 0.027035274
0.020105481 0.000537374 -0.016731251 0.018989392 -0.0050779814 0.016098171 0.015809016 0.0070037926
00000000: 42be 2a3c d5ca 0a3d b3c4 773c 94cc 9e3c
00000010: 6bab c73c a66c 483c e1a1 ab3c ef09 c43c
00000020: e549 f1ba ee6e 293c 9cdd ac3c 1b99 5abc
00000030: 5373 9e3b eaf5 e23c 12e1 523c e4f6 ea3c
00000040: 187d c33c a128 c3bc abaf 013d 3fd3 ca3c
00000050: 43ac 29bd 05cf c83c 6886 193b 30a6 0f3d
00000060: 9b52 643c ea15 9a3c f13e f23c 9e78 bc3c
00000070: 7191 1e3d 3f21 0d3d 55a2 543c 41b9 be3c
00000080: f169 b7bc 2c7d 403b f585 1d3d 2b00 c7bc
00000090: d937 d9bb 64d0 343c 05f8 9c3c e30d 38bc
000000a0: 316b 9a3c 9ea1 a73c bf98 a83c ebe7 223c
000000b0: 0f12 883c 475c 863c ad13 253d 9f7a cb3c
000000c0: 2fce 033d 9942 943c 9353 4e3d 7e00 5e3d
000000d0: 2bd6 033d 2a43 dc3c d3c0 6cbc 5cac e3ba
000000e0: f896 fb3c 0ab0 f5bb 6003 c43c beeb 353a
000000f0: 7b56 453c cf8c 013d b784 ba3c ff4e 723b
00000100: 9c0c e73c 03bb 913c d793 313d a8cc 893c
00000110: 9830 cd3c 9abc 373c 42c6 e83c 80d9 ce3c
00000120: c32b c13c 7acf 803c 8c9a 2e3d d50b 7d3c
00000130: 1de8 233d 09d0 f13b aa27 0c3d 8263 573c
00000140: 22e5 e43c d2c5 3cbc c9ed 693c b003 46bc
00000150: 176f 0b3d 2ee8 da3c a3dc 003d dda0 b23c
00000160: 6d64 d33c 4a53 88bb d163 043d 9f83 03bd
00000170: cd5c 933c 0646 503c 49c7 e03c 8f69 6f3c
00000180: 9ac2 c53c d171 ea3b 9c4f 4f3c a854 543c
00000190: cc58 003d d3b9 c1bb e895 0c3d 250d 833c
000001a0: 396d 88bc 9568 103d d603 c23c 945b 763c
000001b0: 4a5b e83c 264e 6a3d 2f5f 1c3c de4d 7a3b
000001c0: f424 c93c f3e7 683c f417 9ebb 326a c93c
000001d0: c8c9 bb3c c9a5 c53c 6f21 16bd 1479 dd3c
000001e0: 40b4 a43c 8fde 0c3a fa0f 89bc a48f 9b3c
000001f0: 3265 a6bb 50e0 833c e981 813c 1280 e53b

action_model._discrete_distribution.branches.0.weight f4 [3, 128]
0.017371498 0.0053387634 -0.013749899 -0.020805558 -0.020357477 -0.025810234 0.07009822 -0.0275713
0.04197672 -0.00024785212 -0.023949888 -0.029877143 -0.03043651 -0.0054190434 -0.037245132 -0.015130592
-0.009588255 -0.010748706 -0.020343086 -0.027010849 0.017325774 -0.047576167 0.055288956 -0.011086337
-0.03575348 0.111115724 0.0047634663 -0.04218985 -0.007939103 -0.0221418 -0.029412525 -0.02966277
-0.020081611 0.07558331 -0.024625583 -0.0061025578 0.05358933 -0.04736722 -0.03326836 0.060513332
0.004091452 -0.037394714 -0.021177143 0.0838479 -0.012744618 0.07991686 0.00020819488 -0.015191935
-0.003420579 -0.03092782 0.07645583 0.0674024 -0.014905641 -0.0035886646 0.0016035073 0.008136513
-0.0183273 -0.06417461 -0.024514398 0.015459491 -0.05561985 -0.027072854 -0.035647146 0.058094755
-0.010574828 -0.03959487 -0.014892698 -0.014722914 -0.012166841 4.6457688e-05 -0.039134394 -0.047176257
-0.04772432 0.012891422 0.0022354766 -0.031099368 0.0051094675 -0.045368776 0.013014802 0.04523966
-0.03285071 -0.015123305 0.034915514 -0.05119932 -0.0372595 -0.036794197 -0.0089302715 -0.056619946
0.03712046 0.027066145 -0.05598142 0.01734687 -0.04843968 -0.0467864 -0.012498885 0.070384495
-0.04266674 -0.019973153 0.049930044 -0.057336375 -0.024140386 -0.013690649 0.013318596 -0.030312056
0.021321837 -0.027144512 0.019956214 -0.032730613 -0.024729926 0.054069854 0.06755877 0.037827775
-0.044436365 0.05090467 -0.0039833137 -0.020464085 -0.053276584 0.04434303 0.017926065 -0.032441523
-0.019961871 0.028462304 -0.021756267 -0.058475524 -0.015749106 -0.027048517 -0.053286795 0.089607246
-0.072296746 0.034737557 0.021735685 0.03949253 0.024572054 -0.022019764 -0.08542479 0.057882655
-0.071116276 -0.034575623 0.024079485 0.005175417 0.025700452 0.043626994 0.06072839 0.030469414
-0.0014385367 -0.04261356 0.06873292 0.0338976 -0.044105817 0.054167423 -0.061427597 0.036508024
0.032271236 -0.10602742 -0.01057744 0.061213937 0.040346827 0.027316019 0.03567668 0.06654002
-0.017931703 -0.093622044 0.048987105 -0.027107645 -0.054059822 0.0069444487 0.058147427 -0.053996753
0.017289989 0.040658467 0.02704561 -0.05530641 0.056011353 -0.09752019 0.03996491 0.04056427
0.039161537 0.019207878 -0.0994474 -0.04841605 0.034177225 0.045447886 -0.0514272 -0.04983682
0.046908494 0.036883805 0.04222176 -0.05382006 -0.0028624956 0.043136988 0.037856147 -0.0754867
0.024436347 0.040734176 0.034186248 0.032884955 0.01854346 -0.012529892 0.05828587 0.0581346
0.07793899 0.05412774 0.026074542 0.004719936 0.019169051 0.030118449 0.0047751344 -0.064820275
0.07068418 -0.02808004 -0.018597981 0.037491065 0.07364667 0.0713783 0.021906273 0.0821634
-0.022021012 -0.04679985 0.09192366 -0.02394503 0.06124175 0.055582467 0.025996376 -0.04910343
0.055957604 0.043316048 -0.02321803 0.08104762 0.051692285 -0.027707748 0.04131589 0.04076018
-0.03582059 0.06776947 -0.0016368416 0.04671254 0.04739451 -0.03273894 -0.07819365 -0.055605337
0.04168378 -0.067415886 -0.0031901675 0.03735079 0.08199132 -0.027380928 -0.057733186 0.059537183
0.05472612 -0.0799147 -0.004611404 0.025328027 -0.0074321516 0.06473078 0.049127486 -0.09346856
00000000: ac4e 8e3c cbf0 ae3b 4247 61bc 6b70 aabc
00000010: b9c4 a6bc fc6f d3bc a88f 8f3d 35dd e1bc
00000020: c8ef 2b3d 26f2 81b9 8e32 c4bc e9c0 f4bc
00000030: fd55 f9bc 3b92 b1bb 5a8e 18bd 4de6 77bc
00000040: 0e18 1dbc 571b 30bc 8ba6 a6bc db45 ddbc
00000050: c8ee 8d3c 3adf 42bd ac76 623d 78a3 35bc
00000060: 3e72 12bd a490 e33d da16 9c3b 44cf 2cbd
00000070: 0313 02bc b862 b5bc 89f2 f0bc 56ff f2bc
00000080: 3182 a4bc 6ccb 9a3d 97bb c9bc f7f7 c7bb
00000090: 7c80 5b3d 2104 42bd 6744 08bd d4dc 773d
000000a0: 9611 863b 332b 19bd b07b adbc 73b8 ab3d
000000b0: cdce 50bc 73ab a33d e34e 5a39 98e7 78bc
000000c0: cb2b 60bb 575c fdbc e094 9c3d 450a 8a3d
000000d0: ca36 74bc cd2f 6bbb c72c d23a 024f 053c
000000e0: 2223 96bc fa6d 83bd 6bd2 c8bc ce49 7d3c
000000f0: a4d1 63bd e4c7 ddbc be02 12bd c4f4 6d3d
00000100: 0b42 2dbc 3b2e 22bd 8100 74bc 6138 71bc
00000110: 6e57 47bc 90db 4238 634b 20bd e43b 41bd
00000120: 947a 43bd 8b36 533c 1381 123b 1ac4 febc
00000130: 526d a73b 9cd4 39bd 093c 553c 394d 393d
00000140: 778e 06bd bdc7 77bc 9203 0f3d 61b6 51bd
00000150: 6b9d 18bd 83b5 16bd 4650 12bc 51ea 67bd
00000160: a00b 183d d2b9 dd3c c64c 65bd 061b 8e3c
00000170: b068 46bd 19a3 3fbd 20c8 4cbc bf25 903d
00000180: 52c3 2ebd bd9e a3bc 7283 4c3d 8cd9 6abd
00000190: 0fc2 c5bc be4e 60bc 3e36 5a3c fd50 f8bc
000001a0: 22ab ae3c 2b5e debc 377b a33c 8910 06bd
000001b0: 6a96 cabc 5a78 5d3d 415c 8a3d 4cf1 1a3d
000001c0: e802 36bd 6a81 503d 7586 82bb 4ca4 a7bc
000001d0: 8c38 5abd 09a1 353d afd9 923c 67e1 04bd
000001e0: 1487 a3bc c729 e93c 333a b2bc 0884 6fbd
000001f0: 4504 81bc da94 ddbc 4143 5abd 0184 b73d
00000200: 5110 94bd f848 0e3d 090f b23c ebc2 213d
00000210: 554b c93c cb62 b4bc 31f3 aebd 5d16 6d3d
00000220: 69a5 91bd 2b9f 0dbd 5742 c53c 8b96 a93b
00000230: c189 d23c 38b2 323d 55be 783d fe9a f93c
00000240: 488d bcba 8e8b 2ebd d8c3 8c3d 36d8 0a3d
00000250: 4da8 34bd a9de 5d3d 819b 7bbd 7089 153d
00000260: d82e 043d e724 d9bd 004d 2dbc 77bb 7a3d
00000270: b742 253d d8c5 df3c b621 123d 2246 883d
00000280: 82e5 92bc eabc bfbd b4a6 483d da10 debc
00000290: d56d 5dbd 428e e33b ff2b 6e3d b32b 5dbd
000002a0: bca3 8d3c 7e89 263d c18e dd3c f988 62bd
000002b0: 296c 653d aab8 c7bd 3fb2 233d b826 263d
000002c0: d967 203d d759 9d3c 14ab cbbd e84f 46bd
000002d0: 6bfd 0b3d 9027 3a3d 54a5 52bd b221 4cbd
000002e0: 1f23 403d 7913 173d b9f0 2c3d 6c72 5cbd
000002f0: b598 3bbb 69b0 303d 0c0f 1b3d c598 9abd
00000300: bc2e c83c e1d8 263d e106 0c3d 60b2 063d
00000310: 74e8 973c 2d4a 4dbc 2abd 6e3d 8c1e 6e3d
00000320: 7a9e 9f3d 0db5 5d3d 479a d53c b1a9 9a3b
00000330: 6a08 9d3c f7ba f63c bb78 9c3b 7ec0 84bd
00000340: dec2 903d 1d08 e6bc cb5a 98bc 3b90 193d
00000350: 11d4 963d c92e 923d c974 b33c 4945 a83d
00000360: 6965 b4bc 33b1 3fbd 7942 bc3d 5e28 c4bc
00000370: a1d8 7a3d 71aa 633d 5af6 d43c ae20 49bd
00000380: cd33 653d 2b6c 313d bd33 bebc 4bfc a53d
00000390: 4abb 533d 5cfb e2bc da3a 293d 26f4 263d
000003a0: 9cb8 12bd b8ca 8a3d 4a8b d6ba a655 3f3d
000003b0: bf20 423d 4419 06bd fe23 a0bd 6cc2 63bd
000003c0: 9cbc 2a3d 5711 8abd 2112 51bb 24fd 183d
000003d0: 11eb a73d f84d e0bc a279 6cbd 43dd 733d
000003e0: 7f28 603d 51aa a3bd 431b 97bb b97c cf3c
000003f0: 6889 f3bb 9291 843d e739 493d 726c bfbd

action_model._discrete_distribution.branches.0.bias f4 [3]
0.007802249 0.01922526 -0.05319381
00000000: 02aa ff3b 4b7e 9d3c c1e1 59bd

action_model._discrete_distribution.branches.1.weight f4 [3, 128]
0.029140165 0.017517177 0.00026418315 0.029648818 0.02687265 -0.015519572 0.038728915 -0.013971137
-0.048761 0.005164957 0.018033857 -0.04603532 0.016959243 -0.009614233 0.0017143275 0.012494835
0.04674164 -0.050624117 0.027629638 0.020465955 -0.05127271 0.024049148 -0.010925775 0.016946383
0.035474773 0.088686906 0.056654535 0.012764846 0.018028153 0.021416377 0.0019682602 0.036553055
-0.034619365 0.012737864 0.022412356 -0.04886093 0.0003925389 -0.061357744 0.014824426 -0.024927841
0.016471852 0.028422607 0.027770497 0.0070220786 -0.021119101 0.0368519 -0.004298212 0.013504309
0.041969117 -0.00084199145 0.047876783 0.08014044 0.048512187 -0.012613453 -0.07127081 -0.028737707
0.014912877 -0.021081584 0.013369127 0.0057382667 0.0071822763 0.02604468 0.013298503 -0.027202662
0.024577413 0.022920312 0.034218557 -0.003746842 0.01795096 0.061409958 0.056871366 0.006010705
0.011810489 -0.0037994264 0.029989708 -0.0051526125 0.014303419 0.051654924 0.054303344 -0.0058898623
0.020530008 -0.01804005 0.02759763 -0.010003515 0.0030759994 0.0149191 0.02825957 0.017693464
0.04402794 4.8378242e-05 0.0127355475 -0.041037682 0.014803571 0.010923745 0.012433438 -0.02552464
0.03631235 0.016294075 0.046515618 0.008736052 0.001566931 -0.050593928 0.025814474 0.0084999995
-0.02002197 0.024529815 -0.029039873 0.0027610876 0.016220894 0.075363375 -0.009184621 -0.03823904
0.03445355 0.039953277 0.010518986 0.04037253 0.048322763 -0.01858233 0.007101462 0.057593163
-0.019653343 0.017568115 -0.0607955 0.029170498 -0.10386109 -0.002466957 -0.0060099065 0.015975643
0.097997494 -0.04126021 -0.0810133 0.005044841 -0.039973523 0.11548949 0.02822026 -0.031489827
-0.06641113 0.06972481 -0.05071543 0.07332375 -0.029804656 0.007137004 -0.01914393 -0.061568625
-0.10097985 0.05144544 -0.023726683 -0.064186744 0.015665356 -0.02628177 0.020055886 0.0782024
0.0015529699 -0.09496077 -0.0731435 -0.0279698 -0.060440186 -0.07635347 -0.08272408 -0.021817826
0.060621586 -0.05853261 -0.079211764 0.078341864 0.008026792 0.06601341 -0.086329505 0.06346889
-0.01663092 -0.07127454 -0.03456771 0.04251079 0.026805867 -0.029065454 -0.09664327 0.0145582305
-0.03324281 -0.059030354 -0.019749664 -0.019895926 0.08285829 -0.11146363 0.019076262 0.12751052
-0.034771275 0.12397063 -0.037671883 0.05916706 0.11286967 0.013036494 -0.03762324 -0.115179405
-0.017549625 0.009712285 -0.046050485 -0.07996375 -0.012608932 -0.020329218 0.05294662 -0.009705242
-0.032366935 -0.07715978 -0.075807154 -0.10489462 -0.070557766 0.023092719 0.037778895 -0.020763963
0.007544564 0.08520911 0.06441396 0.09002953 -0.04968314 0.025814757 -0.028099267 0.029816573
0.06873476 0.09866977 -0.0033392936 0.04858544 -0.016060282 -0.042333316 -0.060535952 -0.11174683
-0.07453274 -0.010886707 0.0120048225 -0.013770851 -0.065530516 0.07422799 -0.009648595 -0.08445776
0.0996619 -0.04259916 -0.07114751 -0.009794669 -0.038580485 -0.0037341558 -0.008191055 0.043503985
-0.028688997 0.054961786 0.100529 -0.044041865 -0.020000193 -0.1310029 0.031838376 0.0011903177
-0.06246903 -0.083191544 0.04899249 0.066421576 0.08932196 -0.039328802 -0.036065646 -0.0022798786
00000000: 5bb7 ee3c 2f80 8f3c 1082 8a39 14e2 f23c
00000010: 0824 dc3c ce45 7ebc 36a2 1e3d 32e7 64bc
00000020: 9db9 47bd cd3e a93b bdbb 933c 888f 3cbd
00000030: 1cee 8a3c 0485 1dbc 49b3 e03a 23b7 4c3c
00000040: 2974 3f3d 3c5b 4fbd 8d57 e23c 38a8 a73c
00000050: 5503 52bd b802 c53c 0602 33bc 24d3 8a3c
00000060: ff4d 113d 7ba1 b53d 960e 683d a523 513c
00000070: c7af 933c 6671 af3c edfd 003b a8b8 153d
00000080: 09cd 0dbd 79b2 503c 1e9a b73c 6622 48bd
00000090: aecd cd39 4252 7bbd 26e2 723c 7935 ccbc
000000a0: faef 863c 87d6 e83c f47e e33c 7719 e63b
000000b0: f701 adbc 05f2 163d 04d8 8cbb 2d41 5d3c
000000c0: cfe7 2b3d 17b9 5cba 721a 443d ac20 a43d
000000d0: b7b4 463d a8a8 4ebc 6ef6 91bd 576b ebbc
000000e0: 2455 743c 49b3 acbc 2f0a 5b3c 1208 bc3b
000000f0: 4d59 eb3b a75b d53c f7e1 593c 1ed8 debc
00000100: 9256 c93c 61c3 bb3c c228 0c3d 948d 75bb
00000110: e40d 933c 0289 7b3d f3f1 683d 73f5 c43b
00000120: c880 413c ccff 78bb faac f53c 3fd7 a8bb
00000130: e358 6a3c 1d94 533d 2f6d 5e3d bfff c0bb
00000140: 8c2e a83c bac8 93bc 6d14 e23c c8e5 23bc
00000150: b596 493b 3e6f 743c 9d80 e73c e2f1 903c
00000160: a456 343d bee9 4a38 c2a8 503c 2117 28bd
00000170: ad8a 723c 82f9 323c 9eb5 4b3c 0d19 d1bc
00000180: 42bc 143d 277b 853c 2987 3e3d a821 0f3c
00000190: 7b61 cd3a 943b 4fbd e078 d33c 9543 0b3c
000001a0: 1d05 a4bc c0f2 c83c 07e5 edbc 5df3 343b
000001b0: aee1 843c 1d58 9a3d 187b 16bc 8aa0 1cbd
000001c0: 2a1f 0d3d 0ca6 233d d357 2c3c ab5d 253d
000001d0: 17ee 453d f839 98bc 62b3 e83b cfe6 6b3d
000001e0: 0c00 a1bc 02eb 8f3c b404 79bd f8f6 ee3c
000001f0: 20b5 d4bd acac 21bb c0ee c4bb 5adf 823c
00000200: e9b2 c83d 7700 29bd 4dea a5bd 324f a53b
00000210: 47bb 23bd c185 ec3d 2d2e e73c 7afb 00bd
00000220: 8f02 88bd e2cb 8e3d fcba 4fbd c32a 963d
00000230: e528 f4bc 87dd e93b bbd3 9cbc 622f 7cbd
00000240: 86ce cebd 74b8 523d 765e c2bc 5774 83bd
00000250: a254 803c de4c d7bc 3e4c a43c 9428 a03d
00000260: 068d cb3a cb7a c2bd 42cc 95bd ec20 e5bc
00000270: 2190 77bd 355f 9cbd 3e6b a9bd 4cbb b2bc
00000280: 574e 783d e4bf 6fbd c739 a2bd b371 a03d
00000290: ce82 033c 0a32 873d 86cd b0bd fafb 813d
000002a0: 913d 88bc 63f8 91bd df96 0dbd cb1f 2e3d
000002b0: fa97 db3c ad1a eebc e8ec c5bd a585 6e3c
000002c0: 9d29 08bd d0c9 71bd 0cca a1bc c8fc a2bc
000002d0: 9bb1 a93d 0b47 e4bd d245 9c3c 1e92 023e
000002e0: 536c 0ebd 50e4 fd3d d54d 1abd 2959 723d
000002f0: 3728 e73d 0597 553c d41a 1abd 2ee3 ebbd
00000300: 3bc4 8fbc 4720 1f3c 6f9f 3cbd 09c4 a3bd
00000310: b295 4ebc 7689 a6bc 8ede 583d bc02 1fbc
00000320: 3193 04bd f205 9ebd c840 9bbd fed2 d6bd
00000330: 9780 90bd f12c bd3c 0bbe 1a3d 3019 aabc
00000340: 6438 f73b 1d82 ae3d 77eb 833d 6761 b83d
00000350: 8c80 4bbd 7879 d33c 6f30 e6bc e341 f43c
00000360: cfc4 8c3d 6013 ca3d 0dd8 5abb 8701 473d
00000370: da90 83bc b365 2dbd 8cf4 77bd 86db e4bd
00000380: 9fa4 98bd 295e 32bc e0af 443c 239f 61bc
00000390: dd34 86bd d804 983d 2415 1ebc 31f8 acbd
000003a0: 8a1b cc3d 757c 2ebd c9b5 91bd d279 20bc
000003b0: 9206 1ebd bdb8 74bb c633 06bc 3c31 323d
000003c0: 3005 ebbc 9c1f 613d 26e2 cd3d 3e65 34bd
000003d0: 72d7 a3bc a025 06be f568 023d 6f04 9c3a
000003e0: 87df 7fbd 5460 aabd 59ac 483d 0908 883d
000003f0: 6fee b63d 3d17 21bd 92b9 13bd 046a 15bb

action_model._discrete_distribution.branches.1.bias f4 [3]
0.022148233 -0.030824693 0.0034620722
00000000: 3670 b53c 1184 fcbc efe3 623b
