results/ppo/Racing/Racing-1327.pt (torch, 603118 bytes, 48 tensors)

discrete_act_size_vector f4 [1, 2]
000000 00 00 40 40 00 00 40 40
       3.0 3.0

network_body._body_endoder.seq_layers.0.weight f4 [128, 29]
000000 39 15 86 bc bc 26 c0 be 91 98 6c 3d e6 cc d9 bd
       -0.016367542 -0.37529552 0.057762686 -0.106347844
000010 c2 ed ea 3d 14 38 77 bc 3c 89 dd 3e 02 07 b9 3e
       0.1147113 -0.015089054 0.43268764 0.3613816
000020 23 9c 4c bd 29 07 19 3e 50 5a 06 be d4 b1 78 3e
       -0.04995359 0.14944138 -0.13120389 0.24286586
000030 b8 39 f8 3c a5 4c 59 bd b4 37 69 3d a5 2d 75 3e
       0.03030096 -0.05305161 0.05693789 0.23943193
000040 8a 6a fc 3e b7 84 95 3e af 27 45 bd df 0c a2 be
       0.49300033 0.29202816 -0.04813355 -0.31650445
000050 6d bf 5c be 59 31 d9 bd aa 82 1a 3e bc ea e6 be
       -0.21557398 -0.106051154 0.15088907 -0.45100963
000060 6f dd a6 ba 8c 58 0a 3d 69 15 7d bd e9 34 72 3e
       -0.0012730787 0.03377585 -0.061787996 0.23652996
000070 fb 25 9a 3d b2 9d b5 3d e6 41 85 bc 38 c4 2d bb
       0.075267754 0.088679686 -0.016266774 -0.002651466
000080 46 5b c7 3c 3d 24 70 3e 37 3c 88 bd 85 d2 92 3d
       0.024335515 0.23451324 -0.0665211 0.0716906
000090 6f 18 98 3d 64 e8 1c be 23 ac 4f bd 7f 69 e4 3d
       0.07426535 -0.15323025 -0.05070127 0.11152934
0000a0 82 61 0a be dd 60 cb be 45 6f 66 3e 12 63 4c 3d
       -0.13513759 -0.39722338 0.22503383 0.04989917
0000b0 12 56 33 be ce 98 09 3e 21 d1 0e be 1f 0c a6 3d
       -0.17513302 0.13437197 -0.13946964 0.08107781
0000c0 1b 92 01 bf 57 83 31 bf 63 6c 47 3d a1 ef 2b 3e
       -0.50613564 -0.69341034 0.04868735 0.1679063
0000d0 fc a0 47 3e 08 ce 85 3e f9 cf e1 be 28 3a 27 3e
       0.19495004 0.26133752 -0.44103983 0.16330779
0000e0 53 61 08 bf 34 c0 ee 3c 34 ae 25 be 37 2a 2e 3f
       -0.53273505 0.029144384 -0.16179734 0.68033165
0000f0 de 19 34 3e 18 34 e3 3d be bf db be 6a cc f9 bd
       0.17587993 0.110939205 -0.42919725 -0.12197192
000100 69 f1 77 3e 05 bf 39 3e a6 f3 1b bb 54 05 98 bd
       0.24213184 0.18139274 -0.0023796349 -0.07422891
000110 e9 00 76 3e 71 0c 92 bd 85 9d dd be 2a d8 f9 bc
       0.24023785 -0.07131279 -0.4328424 -0.030498583
000120 43 9f 1e 3e c7 ac e4 3e 8a e5 0c 3e d7 f0 7f 3d
       0.15490441 0.4466307 0.13759437 0.062485542
000130 9e f1 2f be 89 43 19 bd 30 f5 90 be b7 36 01 3d
       -0.17182013 -0.037417922 -0.28312063 0.03154632
000140 c4 30 a8 3e 7b bd a0 bd 62 d0 9a 3e 67 07 c6 3d
       0.32849705 -0.078486405 0.30237108 0.09669381
000150 c3 e5 c6 be 66 fd fc bc 7c a3 36 3e ee 91 6f bd
       -0.3884717 -0.030882549 0.17835802 -0.05848878
000160 8b 6b 01 bc 36 f7 5e be 97 e8 34 3e 8d 42 3f 3e
       -0.007899175 -0.21773991 0.17666851 0.18677731
000170 03 6c 1e be 6f d1 7c 3d 73 b9 b0 3e c0 5b 4d bd
       -0.1547089 0.06172317 0.34516487 -0.050136328
000180 0a 52 5e be bd b2 e2 3d 3b 62 fd bd 42 57 03 3d
       -0.21710983 0.11069248 -0.123722516 0.032065637
000190 86 c0 98 3e f1 23 52 3d e0 d2 0e be c8 4e c0 bd
       0.29834384 0.051303808 -0.1394763 -0.09390026
0001a0 0c 8a f8 3d cf 65 b5 3e 82 0e 3b 3e 31 70 64 3e
       0.12135705 0.35429236 0.18267253 0.22308423
0001b0 34 96 33 3e bb 93 be bd c0 cd 59 be a3 1e a3 bd
       0.17537767 -0.09305521 -0.21269894 -0.07964828
0001c0 15 97 19 3e aa ae 0d be 2a 1c e2 bc 96 8f 82 3e
       0.1499904 -0.1383616 -0.02760132 0.25500172
0001d0 55 5e 05 3e 8a cc d4 3d 3c 0e b9 be cd fd 91 bb
       0.13024266 0.10390575 -0.36143672 -0.0044553042
0001e0 90 6f 7e 3d ba c0 5a bd 41 2e 38 bd 84 47 eb be
       0.062118113 -0.053406455 -0.044965986 -0.45953
0001f0 32 90 85 3e 23 c3 ee 3d 8b 32 5a 3e 03 70 20 3d
       0.26086575 0.11658313 0.21308343 0.039169323
000200 f0 34 c0 be 5e 6f 2e 3e 7b 00 98 bd 4d 17 74 be
       -0.37540388 0.1703467 -0.07421967 -0.23837014
000210 d1 c3 8e 3e 31 2b 1b 3e 97 c6 5f be 0d 8b 26 3e
       0.2788377 0.15153195 -0.218531 0.16263981
000220 5d 0d 0e bd 55 e5 81 3e 73 fe 2c be 5a ce 34 3e
       -0.034680713 0.2537028 -0.1689394 0.17656842
000230 c2 8b 97 3e 7f ff 58 3d a5 72 8b 3d d0 f5 3f 3e
       0.29598814 0.052978035 0.06808976 0.18746114
000240 ce 1a 25 3c 84 0f ce bd a7 4d 23 3d 88 3b 61 bc
       0.0100771915 -0.10061553 0.039868977 -0.0137471035
000250 b6 a3 47 3e f7 80 47 3e 96 36 29 bd 1a 33 fd 3d
       0.19496045 0.1948279 -0.041311823 0.123632625
000260 c0 6f 5a bd 6c 07 73 3d 4e 55 19 be ff 2d 98 3b
       -0.05332923 0.05933325 -0.14973947 0.004644155
000270 01 cf 03 ba 40 f5 01 3c 9a f9 b6 bd 12 03 26 3e
       -0.00050280994 0.007932007 -0.089343265 0.16212109
000280 82 c5 15 3e df eb f3 bd 61 d9 b2 bd c0 bc b4 3e
       0.14626125 -0.11910223 -0.08732868 0.35300255
000290 00 5f fb 3d 7a 3b 13 bc 27 88 63 3d 9e 2f 5f bc
       0.12273979 -0.008986348 0.055549767 -0.013622193
0002a0 a9 51 45 3e 97 af 9a 3e 32 e2 14 be 92 07 32 3e
       0.19269432 0.3021209 -0.14539412 0.173857
0002b0 9d 19 90 3e 51 f6 ea 3d 2a 85 ff 3d 50 63 6f bd
       0.2814454 0.114727624 0.12476571 -0.05844432
0002c0 57 05 ba 3d b0 ad 51 bc 7b 8c 76 be 7b 79 d8 3d
       0.0908305 -0.012797758 -0.24077027 0.105700456
0002d0 c2 ac cb bd 38 46 6e 3c b5 df a7 3e 83 63 bf be
       -0.0994506 0.014543109 0.32787862 -0.3738061
0002e0 b5 c7 84 be 99 29 c2 3d 19 44 0f 3a 2d 64 15 bc
       -0.25933614 0.094805904 0.00054651644 -0.009118122
0002f0 61 5a d5 3d 43 c0 0c 3f fb 23 b5 bc 35 02 2a 3e
       0.10417629 0.5498087 -0.022111883 0.16602404
000300 19 38 20 bd 3a 1e 00 bc 79 49 66 3d d5 3f c6 bd
       -0.039116 -0.007819707 0.056222413 -0.09680144
000310 26 ce 05 3e 00 13 14 3e 26 0f 1b be 04 0e 03 be
       0.1306692 0.14460373 -0.15142497 -0.12798315
000320 fc 82 4a 3e b5 6b a6 3d 41 b8 9a bd ce bf 88 3e
       0.19776529 0.08126012 -0.07554675 0.26708835
000330 06 ef 08 bd 20 18 4c 3e 0b 8a a7 3d 1a 76 49 3e
       -0.033431076 0.19931078 0.081806265 0.19673958
000340 39 6d 26 bd 06 b9 96 bd 9b c2 5f be 0a 3e d8 bd
       -0.040631507 -0.07359509 -0.2185158 -0.10558708
000350 9c 1f 25 bb 38 5e d2 bd b0 2d 30 3d cf fe e2 3d
       -0.0025195843 -0.10271877 0.04301232 0.11083757
000360 42 9a 7d 3d 59 88 43 be da 73 30 3d ac 9a b7 3d
       0.06191469 -0.19094981 0.043079235 0.08965048
000370 66 c0 67 3b 00 eb d7 3e dc 11 60 be 52 69 49 3e
       0.003536248 0.42171478 -0.21881813 0.19669083
000380 b1 24 1d be 2d 21 90 3c 47 2b 2a be f3 4e 1c 3e
       -0.15346028 0.017593944 -0.16618071 0.15264492
000390 a1 06 ca 3e 7d 81 b6 3d 95 c4 53 bd ed 72 11 3d
       0.39458182 0.08911417 -0.051701147 0.035509992
0003a0 3e bd 1a be fe f8 6e be 00 00 f2 3d 79 54 95 be
       -0.15111253 -0.2333717 0.11816406 -0.2916601
0003b0 64 ae 73 be f7 f5 8f 3e 9b 43 a5 bc 0a f6 36 3e
       -0.23796993 0.28117344 -0.020173838 0.17867294
0003c0 36 b6 87 be a8 dd bb bd 76 5f 58 3e 17 fa d8 3b
       -0.26506203 -0.09173137 0.21130165 0.00662161
0003d0 d9 33 f6 be eb 12 3e be 45 3f ec bc d6 79 9f 3e
       -0.48086432 -0.18561904 -0.028838763 0.3114764
0003e0 f3 2a ae be 22 e2 3e be 28 da b6 3e 38 f2 22 bc
       -0.34017143 -0.1864095 0.35713315 -0.009945445
0003f0 3f d7 1d be 5a ab 28 3e db d6 67 be 65 ba 00 3e
       -0.15414141 0.16471615 -0.22640555 0.12571104

network_body._body_endoder.seq_layers.0.bias f4 [128]
000000 2c 4c 1e 3d 41 ff 27 3d da 60 96 3c fd e0 82 3c
       0.038646862 0.041014913 0.01835673 0.015976423
000010 ab d5 33 3d f1 0b 33 3c 92 0a 1e 3d 55 3a b2 3c
       0.04390494 0.01092814 0.0385843 0.02175633
000020 cc 3c 7c 3d 96 96 00 3d e6 d7 9e 3c 4e 19 1d 3c
       0.061581418 0.03139361 0.019390058 0.009588553
000030 ad 47 65 bc dd 3d 08 3d 16 7a a7 3c 52 7e ab 3b
       -0.01399414 0.033262122 0.020443957 0.0052335644
000040 96 32 17 3d 77 5e 23 3d f8 c1 cd 3c 8b 08 90 3b
       0.036913477 0.03988501 0.025116906 0.0043955497
000050 bb 2c 08 3d b3 59 92 3c 81 53 92 3c ba e7 87 3c
       0.033245783 0.017865038 0.017862083 0.016589988
000060 c9 2a a2 3c 53 bd 71 3c 98 a2 56 bc eb 7a 68 3d
       0.019795792 0.014754611 -0.013100289 0.05675785
000070 7b 4b 59 3c b1 4f 2f 3d 53 ee b0 3b 67 01 c0 3c
       0.013262625 0.04280061 0.005399504 0.023438169
000080 ae e8 29 3c a4 df 87 3c 18 75 10 3d 6e 82 bb 3c
       0.010370417 0.016586132 0.03526792 0.022889342
000090 77 a6 d2 bd a7 f6 92 3c ee 41 fc bc 15 f4 ae bb
       -0.10285657 0.017939879 -0.030793156 -0.0053391554
0000a0 80 77 91 3c a1 13 c0 bc dc 32 0a bb fd 6d 09 3d
       0.017757177 -0.02344686 -0.0021087443 0.03355216
0000b0 67 7d d0 3b f2 b1 24 3d 12 db 07 3d 0f 95 ac 3c
       0.0063626054 0.040208764 0.033167906 0.02106717
0000c0 d2 cd 2c 3b 4f e9 24 3d 37 88 34 3d 02 5d ef 3c
       0.0026367796 0.040261563 0.044075217 0.029219154
0000d0 35 45 e8 3c 40 55 b8 3c 94 c8 b6 3c 2a e3 0f 3d
       0.028353313 0.022501588 0.02231244 0.03512875
0000e0 6c 9e 15 3d 1f 14 32 3d c9 e2 21 ba 67 fc b3 3c
       0.036528036 0.04347622 -0.0006175456 0.02197094
0000f0 9c 35 a7 3c e7 c5 f0 3c 3d cb 43 3c d9 24 5c 3c
       0.020411305 0.029391242 0.011950311 0.01343652
000100 08 c0 9d 3c c2 9d 95 3c 1e 25 28 3c 16 26 0a bd
       0.019256607 0.018263701 0.010262756 -0.033727728
000110 5b ae 07 3d cb 96 04 bd d0 69 96 3c 77 8b 14 bc
       0.033125263 -0.03237037 0.018361002 -0.009066454
000120 0c 00 a8 3c a7 98 6a 3d 5b 15 2d 3d dc 2a 79 3d
       0.020507835 0.057274487 0.042256694 0.06083189
000130 77 49 49 3d 09 5c 5e 3c 1e 2b 9e 3b bf 33 19 3d
       0.049142327 0.013571748 0.0048269173 0.037402865
000140 32 53 d8 3c 1d 75 c0 3c 1d 56 0b 3d 2c 1f 47 3d
       0.026406858 0.023493344 0.03401767 0.048613712
000150 3f 87 5b 3d 3b 6f db 3c c2 44 46 bb 76 f4 9f 3c
       0.053595778 0.026786437 -0.0030253385 0.019525748
000160 5c 0a a7 3c 2a a0 66 3d 69 e6 23 3d 32 46 42 3d
       0.020390682 0.056305088 0.040014658 0.047430225
000170 ff 83 6f 3c ed a4 99 bc 47 cc f8 3c 97 50 d6 3c
       0.014618873 -0.0187554 0.030370845 0.026161475
000180 7c a8 cd 3c 21 43 dc 3c 04 0e 66 3d c5 73 b0 3c
       0.025104754 0.026887478 0.05616571 0.021539578
000190 76 c2 be 3c f2 1f 48 3d 48 ed bb 3c 7c 38 31 3d
       0.023286086 0.04885859 0.022940293 0.04326676
0001a0 86 d5 92 3c c7 aa 0a bd 8f b1 85 bc f8 89 7d 3c
       0.017924082 -0.033854272 -0.016320018 0.015474789
0001b0 12 0f 55 3d 3b 8a 81 3c 4c dd 9d 3c 26 92 94 3c
       0.052016325 0.015812984 0.019270562 0.018136095
0001c0 b8 9a f9 3c 6f bf 00 3d 9d 71 d1 3c d5 c6 2a 3d
       0.030469283 0.031432565 0.02556687 0.041693527
0001d0 b8 0d 33 3d 8c 58 2c 3c 65 15 1e bc 35 68 0a 3d
       0.043714255 0.010519158 -0.009648656 0.033790786
0001e0 61 c8 11 3d d3 2b d3 3c 71 69 03 3d e9 87 02 ba
       0.035591487 0.025777733 0.03208298 -0.00049793586
0001f0 09 db 7d 3c 79 09 87 3c 77 79 79 3c 42 4d af 3c
       0.015494117 0.01648401 0.015226713 0.021399144

network_body._body_endoder.seq_layers.2.weight f4 [128, 128]
000000 9c 39 14 3e a6 fb d4 bd 57 d7 ca bd 6f 45 45 3c
       0.14475101 -0.10399561 -0.09904354 0.01204048
000010 0c d3 81 3e e0 f3 10 bd 6c 53 24 bd 39 77 3a 3d
       0.25356328 -0.035388827 -0.04011862 0.045523856
000020 73 00 a3 3d b5 db 71 3e 51 57 44 3c f3 1d b2 bd
       0.0795907 0.23618968 0.0119837085 -0.086971186
000030 fa 6e 97 bd ac 8f 1c be 45 a4 2f bd fa a2 1b bd
       -0.07394214 -0.15289181 -0.04288127 -0.037997223
000040 0f 81 a3 bc 0f 40 23 be 1c c1 a6 3d 0b 15 61 3e
       -0.019959 -0.15942405 0.081423014 0.21980684
000050 83 92 18 3e 95 a0 08 be fc 26 f8 3a 3b e6 64 3d
       0.1489964 -0.13342507 0.0018932517 0.055883627
000060 cf 7e e6 bc 6b 09 02 bb e1 a5 41 3b 36 92 e4 3d
       -0.028136639 -0.001984204 0.0029548334 0.111607
000070 6d bb d6 bd 3a 95 68 be fd 62 de bd fb de db bd
       -0.104849674 -0.22713175 -0.10858724 -0.107358895
000080 f8 4e af bd aa 6a 10 bd c0 b5 a5 3d 0f 4a 33 3d
       -0.08559984 -0.035257973 0.08091307 0.0437718
000090 96 aa f3 bd f9 16 88 be 97 c0 a3 bc 0e 95 73 bb
       -0.11897771 -0.26580027 -0.019989295 -0.00371677
0000a0 5f dc b4 bd cb ee 4f bd 0f 71 92 bd cb f8 f7 3c
       -0.08831095 -0.05076484 -0.071504705 0.03027
0000b0 00 09 ac bd 4a 76 06 bc 47 7c 61 be e0 85 1c 3e
       -0.08400154 -0.008206913 -0.22020064 0.15285444
0000c0 d1 72 61 3d 59 eb 31 3d a8 10 d4 bd db 61 e3 bd
       0.055041138 0.043437336 -0.103547394 -0.11102649
0000d0 4e 0d 08 3c 8e 16 2e bc b0 4b e2 3d 89 ae d6 3c
       0.008303953 -0.010625495 0.110495925 0.026206272
0000e0 fe de d6 bd c8 05 aa bd 93 1e 3c be f9 7b b7 bc
       -0.10491751 -0.08301884 -0.18371038 -0.022397982
0000f0 5c d3 63 bd 14 e2 90 bd 91 d9 29 be c8 82 64 3d
       -0.05562149 -0.07074371 -0.16586901 0.055788785
000100 f2 4e e3 3d 0e 4a 6d 3d 5c 51 14 3e 84 f4 a8 bd
       0.11099042 0.057931952 0.14484161 -0.08249763
000110 09 e9 fb bd 20 c9 90 bd bc 09 0d bd e6 36 53 be
       -0.12300307 -0.070696115 -0.03443311 -0.20626411
000120 70 77 17 be 0d e3 f2 bd cd e9 0e be 53 64 a1 3b
       -0.14791656 -0.11859713 -0.13956375 0.0049252897
000130 f6 ce 2a bd 1c 46 82 bc fe 62 7c bd 09 33 86 bd
       -0.04170128 -0.015902571 -0.061617844 -0.06552703
000140 9a 37 e3 3d 3a 90 05 3d 77 d7 94 3d 86 e0 f4 3c
       0.110945895 0.03260825 0.07267659 0.029892217
000150 23 c4 31 3d 33 8b 34 bc 16 8b eb 3d 71 1f d8 3d
       0.04339994 -0.011019516 0.11501138 0.10552872
000160 e7 15 27 bc b1 61 41 3d 66 b5 2b 3e 8a 4b 47 be
       -0.010198093 0.047212306 0.16768417 -0.1946241
000170 70 50 18 be cf 1d 98 3d ec a0 95 bc 92 7f 19 bd
       -0.14874434 0.074275605 -0.01826521 -0.037475176
000180 e3 35 64 bd 26 3c 63 bd 4c 33 af 3d 9b 1b a3 bd
       -0.055715453 -0.055477284 0.08554706 -0.0796425
000190 6d 40 84 3d c2 13 3c 3e 58 a5 1a 3e 22 09 c9 3c
       0.06457601 0.18366912 0.15102136 0.024540488
0001a0 04 f6 95 bc 50 2b ee bd 65 c5 6d 3d 09 13 15 3c
       -0.018305786 -0.11629355 0.05804958 0.009098777
0001b0 05 65 0a bd 49 42 de 3b b2 47 05 bd ee 55 f9 bc
       -0.033787746 0.006782804 -0.032539077 -0.030436482
0001c0 e6 6a d2 3d 81 4f 95 3c d3 84 16 3e ae 30 e1 bd
       0.102742955 0.018226387 0.14699106 -0.10995613
0001d0 05 a0 1c 3e 28 78 06 bd 53 f5 31 3c 13 a6 f7 3d
       0.15295418 -0.032829434 0.0108617125 0.12092223
0001e0 16 70 65 be ca 72 7e bd de c9 ea bd ea 42 ce 3d
       -0.22406039 -0.06212119 -0.11464284 0.100713566
0001f0 28 a6 ec 3d 73 d7 95 3c 45 c9 47 bd 60 d2 d1 3d
       0.11555129 0.01829121 -0.04877593 0.10245204
000200 50 76 d9 bd 3a 15 1b 3e b6 4d 11 bd 89 be 4e bd
       -0.106182694 0.15144816 -0.0354745 -0.050474677
000210 30 44 d7 bd 14 9f 81 3d 3c 9d 0b 3e 03 96 71 3d
       -0.105110526 0.0632917 0.13634199 0.058980953
000220 48 b0 93 bd 37 cb 17 be e2 59 50 3d d4 7e 9b 3d
       -0.07211357 -0.14823614 0.05086697 0.0759255
000230 39 16 18 3d a0 8b 8a bd a8 f9 2a 3d f0 d2 f8 3c
       0.03713057 -0.067649126 0.041741997 0.03037402
000240 71 ca 0b 3d 9b 7e f8 bd 18 55 ca 3d e0 2c 0d 3d
       0.03412861 -0.12133523 0.098795116 0.034466624
000250 b8 d9 c6 bd 39 d3 49 bc 91 7b 11 bc 13 64 08 be
       -0.09709495 -0.012318426 -0.008879558 -0.13319425
000260 37 56 86 bc a4 7e 2c be 28 5b 3e bd 22 03 a9 bd
       -0.016398532 -0.16845185 -0.046473652 -0.08252551
000270 33 0f 36 3d cb 8b 2a bc 99 8e 9d bc b8 ce 80 bd
       0.04444809 -0.010409306 -0.019233035 -0.062894285
000280 f0 94 ee 3c a0 c8 d4 bd e9 e7 3b 3d 7a bf b7 3a
       0.029123753 -0.10389829 0.045875464 0.0014018856
000290 f5 25 8b bd 06 7e ea bb 5c 66 91 3d 8d 08 9a 3e
       -0.06794349 -0.0071561364 0.070996016 0.3008465
0002a0 8c 94 ee 3d 52 d2 11 3e 5f 35 30 be 5f 1b 2a bd
       0.11649427 0.14240387 -0.1720786 -0.04153001
0002b0 2d b6 00 be c7 49 b6 bd 5a c7 7f 3d 93 47 7f bd
       -0.12569495 -0.08900791 0.062445976 -0.062324118
0002c0 d1 f5 4d 3d 7f d4 17 3d ac 1d 41 3d c2 0d 43 be
       0.050283257 0.037067886 0.047147438 -0.19048217
0002d0 15 41 c4 bd 33 87 28 bd 52 34 89 bd 9f a8 6f bc
       -0.09582726 -0.04114456 -0.066994324 -0.014627605
0002e0 54 6a 59 3d 78 06 fc 3d 65 dc 26 3d 6e 9f 2c be
       0.053079918 0.12305921 0.04073753 -0.16857693
0002f0 66 5e dd 3d 9f d0 9c 3c c5 84 e5 bc b2 5d f2 3d
       0.10809021 0.019142447 -0.028017411 0.11834277
000300 39 8e a2 3e 13 15 a6 bc 86 c8 52 3d df d8 01 be
       0.31749132 -0.02027372 0.051460765 -0.12680386
000310 79 ae c8 bc c0 75 11 3c e2 ce 93 bc b0 ba 05 3e
       -0.024497258 0.008878171 -0.018042985 0.13059497
000320 9b 50 52 bc 06 ee 16 3c 32 2b 1c be c9 00 ac bb
       -0.012836601 0.009212023 -0.15250853 -0.005249117
000330 ae 00 5b bc c7 fa 3e 3d 67 48 46 3e 93 1c e1 bc
       -0.013366861 0.04662588 0.19363557 -0.027479446
000340 2b 1f ac 3c e0 79 79 bc 4d 33 46 3c a6 85 2c bd
       0.021010956 -0.015226811 0.012097192 -0.042119645
000350 0a b0 82 bd 9c 28 0f 3e 88 4c 56 bd cb eb 1c 3d
       -0.06381233 0.13980335 -0.05231908 0.038310807
000360 14 31 11 bd 6f 14 9b bc e8 b1 d4 bd 53 5a 63 3d
       -0.035447195 -0.018930642 -0.103854954 0.05550606
000370 90 8e 97 3d 9f 9f a0 bd 58 f8 6b 3d 0e a9 c2 3c
       0.074002385 -0.07842945 0.057609886 0.023762252
000380 e6 69 fd 3c df 80 b8 bd 9e 2e 82 bc 3d 3a 1e 3d
       0.030934285 -0.09008955 -0.01589137 0.03862976
000390 0d cb 15 bd ab 60 d4 3d ce 47 2b 3c 98 f2 e3 bd
       -0.036570597 0.103700005 0.010454131 -0.111302555
0003a0 80 15 8b bd 3a 8c 22 bd df c9 02 3e 1c b6 25 3e
       -0.0679121 -0.03968451 0.1277232 0.1618275
0003b0 8a ed 46 be b7 10 83 bd 9e da 85 3d 2e 14 c9 bd
       -0.19426551 -0.063996725 0.065358385 -0.09818302
0003c0 04 d8 04 bd c5 0d a0 3d 21 a0 fe bd 31 b7 e1 bd
       -0.03243257 0.07815126 -0.12432886 -0.11021269
0003d0 0e 83 28 be 83 94 da bd 36 d8 ef 3d b3 bf 8d bd
       -0.16456243 -0.106728576 0.11711161 -0.06921329
0003e0 60 b4 18 3d 78 6f e4 bd 29 92 e2 3d e6 75 4d 3c
       0.037281394 -0.111540735 0.11063034 0.012540316
0003f0 29 97 9a 3c 10 21 8d bd e1 35 50 bb b3 10 c4 3c
       0.018870907 -0.06891072 -0.0031770396 0.023933744

network_body._body_endoder.seq_layers.2.bias f4 [128]
000000 44 09 05 3d 75 d0 fa bc 60 61 76 3b d3 0a 51 3c
       0.03247954 -0.030616978 0.003759466 0.012758928
000010 87 7a 28 3d a8 00 85 3c d9 8a 3e 3d e3 e3 5f bc
       0.041132476 0.016235664 0.046519134 -0.013665172
000020 a4 a0 1e 3c 55 73 31 3c 1c b7 7b 3c 0e 38 80 3c
       0.009681854 0.01083072 0.015363481 0.015651729
000030 af 79 c3 3c 46 ca a3 3c b0 2d 81 3c 2c 08 b5 3c
       0.023861734 0.019993912 0.015768856 0.022098623
000040 d9 2e 8c bc bf b0 9a 3c f9 1f 36 3c dc f6 89 3c
       -0.017112182 0.018883107 0.011116021 0.016841345
000050 2a ee d8 3c e9 9f f1 3c 27 e1 06 3d ce 0e 19 3c
       0.026480753 0.029495196 0.032929566 0.009341909
000060 7b a3 64 bc 44 fe 9f 3c 69 fd b0 3c ec 01 66 3c
       -0.013954992 0.019530423 0.02160521 0.014038544
000070 78 0b 60 3b 80 4c c2 3c f5 97 dd 3c 39 77 a2 3c
       0.0034186523 0.023718119 0.027049998 0.01983224
000080 2b 04 01 3d 8d f5 af 3c a1 21 bf 3c ab 59 46 bb
       0.031498116 0.021479392 0.023331465 -0.0030265849
000090 7f d3 c1 bc 6a 97 6e 3c 7b 34 0e bc 81 ad 70 bb
       -0.02366042 0.014562467 -0.0086795045 -0.003672451
0000a0 c9 5c 82 3b 96 92 c6 3c 78 8b 95 3b 0e a1 60 3c
       0.003978346 0.02423982 0.004563745 0.013710273
0000b0 69 62 c3 3c 5b a7 1b bb 14 b3 81 3c 91 c0 45 3b
       0.023850637 -0.0023750875 0.015832461 0.0030174593
0000c0 2b ae c6 3c d9 88 dc 3c 32 2d c7 3c fd b1 a3 bc
       0.024252972 0.026920723 0.024313543 -0.019982332
0000d0 91 a5 6f 3c 4d d6 ed 3b db e7 b3 3c 73 3f b2 3c
       0.014626876 0.0072582127 0.021961143 0.02175877
0000e0 98 43 17 3d 9b d4 ce 3c 46 c8 1a 3d a8 db 07 3d
       0.036929697 0.025247863 0.037788652 0.033168465
0000f0 4a 1b 25 3d e0 ce 7e 3c 78 36 8f bc db b1 37 ba
       0.040309228 0.0155522525 -0.017482027 -0.00070073985
000100 75 f0 ac 3c 36 0f 0c 3d 81 29 ff 3c 06 9c 7d bb
       0.021110753 0.034194194 0.03114772 -0.0038697734
000110 b4 36 db 3c d3 20 4e 3c c1 a6 05 3d 31 52 80 3c
       0.026759483 0.012581068 0.032629732 0.015664192
000120 c9 64 e8 3c ee 3f a3 3c 6a 81 9f 3c ff 22 91 3c
       0.02836837 0.019927945 0.01947089 0.017716883
000130 58 a6 f2 3c 70 22 b5 bc 81 dd 5e bc 16 d8 08 3d
       0.029620335 -0.022111148 -0.013602615 0.0334092
000140 c9 6c 99 3c e2 22 df 3c dd 77 22 3c 47 17 06 3c
       0.01872863 0.027238313 0.009916273 0.008184261
000150 7a 7f e6 3c 78 46 71 3c d8 ac 3e bb 8f aa 36 3d
       0.028136957 0.014726274 -0.0029094722 0.04459625
000160 e3 59 93 3c 27 0e 32 bc 4b af 04 3d 1f 62 e3 3c
       0.017987197 -0.010867632 0.032393735 0.027756749
000170 62 c8 2c bc cf 4a ab 3c 08 f2 8c bb b7 38 e0 3b
       -0.010545822 0.020909695 -0.0043013133 0.0068426984
000180 0e eb 88 3c 45 6d 03 3d fe 05 7e 3c d0 c5 66 3c
       0.016713645 0.03208663 0.015504358 0.014085248
000190 ff 95 ab 3c f5 dc a6 3a 32 42 23 3d b1 69 86 3c
       0.020945547 0.0012730645 0.03985805 0.01640782
0001a0 00 92 f4 3c 38 1b a3 3c 46 3b 44 3c 48 24 04 3d
       0.029854774 0.01991044 0.0119770225 0.032261163
0001b0 97 7c fb 3c fa 91 9e bc 5a a8 8d bc 2d cc 25 3c
       0.030699058 -0.019356716 -0.01729219 0.01011948
0001c0 05 bc ae 3c 7d 11 bb 3c 7c d0 92 3b 15 ba ae 3c
       0.02132989 0.022835487 0.0044804197 0.021328965
0001d0 17 7e b3 3c f4 18 85 bc 06 4f 66 3c 95 35 b2 3c
       0.02191071 -0.01624725 0.014056927 0.021754066
0001e0 ed 4a ad 3c 52 c8 68 bb a8 4e df 3c 20 e9 34 3c
       0.021153891 -0.003551979 0.027259186 0.011041909
0001f0 86 de 1c 3d fb 91 cf 3b e5 a8 22 3d 6c bb da 3b
       0.038298152 0.006334541 0.03971185 0.0066751745

action_model._discrete_distribution.branches.0.weight f4 [3, 128]
000000 4f 2b 02 3d 0e c2 ff 3b da 60 06 bd da b5 e1 bc
       0.031779584 0.0078051155 -0.03280721 -0.027552534
000010 15 fb 25 3d 24 a6 0a bd d8 9b 28 3d d1 d1 9d 3b
       0.040522654 -0.03384985 0.04116425 0.004816272
000020 33 57 01 bd dd 61 08 bd 19 ec 7c 3d 50 6e 1c bd
       -0.0315773 -0.033296455 0.061748598 -0.03819114
000030 92 a9 cc bc ad 47 5e 3b 09 98 32 bd 2b 15 ad bc
       -0.024983201 0.0033917234 -0.043602023 -0.021128258
000040 a5 48 5f 3d c6 c1 6c 3d 48 30 8e bd 8e d7 1b bd
       0.05451264 0.057801984 -0.06942803 -0.038047366
000050 0c 84 ff 3c 0e 71 00 bd 95 91 a4 3d cd f6 d4 bc
       0.031190895 -0.031357817 0.0803558 -0.02599659
000060 bb 3b e8 3b 2e 31 57 3d 24 4f 06 bd f4 68 45 bc
       0.0070871986 0.052537136 -0.032790318 -0.012048949
000070 b5 41 f1 bc 13 99 69 3d 9d 82 ba 3b 37 dd b4 bc
       -0.029450277 0.05703075 0.00569184 -0.02207814
000080 07 eb 77 3d 9e ed 3f bd 9a 62 a5 ba fd d7 93 bd
       0.060526874 -0.04685747 -0.0012617887 -0.07218931
000090 ed 1e 2a 3b 05 05 0c bd 93 4a 30 bd 2e a0 ad bd
       0.0025958375 -0.034184474 -0.04303987 -0.084778175
0000a0 54 61 80 3d 3d d8 04 bc 2c 9e 52 3c 04 1b 91 bc
       0.06268564 -0.008108196 0.012855094 -0.017713077
0000b0 13 2f 5c bb 12 0e 9b 3c 9a 31 e4 bc bf fc 92 bc
       -0.0033597394 0.018927608 -0.027855683 -0.017942784
0000c0 a3 30 df ba 43 b8 31 bd 5c 3b 26 bd 24 ba 30 3c
       -0.0017028045 -0.043388616 -0.040583953 0.010786567
0000d0 4c 86 36 bb bf 3a 84 3d f0 96 93 bc bb a0 eb bc
       -0.0027851043 0.064565174 -0.018016309 -0.028763166
0000e0 7b c9 44 ba bb 37 ee 3c 23 79 1e 3d fb a1 e4 bb
       -0.00075068296 0.029079309 0.038689744 -0.0069773174
0000f0 1a 80 c4 3d 0c 8c a0 bc f6 fc a4 bc d9 ee 2f bc
       0.09594746 -0.01959803 -0.020140152 -0.010738098
000100 a7 51 83 bc 3a ca 1b bd f0 08 99 bc 53 a6 97 bc
       -0.016030146 -0.038034655 -0.01868102 -0.018511927
000110 d7 b1 11 bb 6f 07 a2 bd a7 b5 16 bd 47 68 04 bd
       -0.0022231245 -0.07911574 -0.03679433 -0.03232601
000120 da 10 c1 3d 87 6b 5d bd c8 0a e9 bc 31 54 f9 bc
       0.09427042 -0.054057624 -0.028447524 -0.030435653
000130 13 48 4c 3b bf df 73 bc 12 7e 22 3b 0f 69 a9 3d
       0.003117089 -0.014884888 0.0024794382 0.082719915
000140 6e d5 f2 bc 7a cb 2a bd d3 3a d1 bc b2 df 2a 3d
       -0.029642787 -0.041697957 -0.025540745 0.04171724
000150 c3 28 e2 bc 42 73 58 bd 40 3d 64 bd 79 a6 19 3d
       -0.027607327 -0.052844293 -0.055722475 0.037512276
000160 3e 79 38 bd b5 07 9e bb 08 6b 94 bc 6c 75 6c bc
       -0.0450375 -0.004822696 -0.018117443 -0.014432292
000170 ea 9a f0 3c c9 b2 df bc b7 7f 42 3d 4f 55 96 3d
       0.029370744 -0.027306931 0.04748508 0.0734049
000180 5b 88 9c 3d d8 fb de bc 2b 4e 13 bc 95 6b 29 bd
       0.07643195 -0.027219698 -0.008990805 -0.041362364
000190 37 f4 9e 3b a6 22 f6 3b 29 b4 99 bb e7 4f 5c bb
       0.00485089 0.0075114546 -0.004690666 -0.0033616961
0001a0 5c c1 91 bc c9 bd d3 bb 9a fb 8f 3d ec 16 52 3d
       -0.017792396 -0.006461833 0.07030411 0.05129139
0001b0 d0 7e 30 bd 28 97 01 3a fb 99 13 3c 0e 22 10 3b
       -0.043089688 0.00049434835 0.00900888 0.0021992954
0001c0 d8 bf 05 bd dd 9e 2c bd 72 8b 94 3d 64 44 d6 bc
       -0.03265366 -0.04214369 0.072531596 -0.026155658
0001d0 6c 50 12 bd 2a 10 b9 3c 88 76 d8 3c 98 ef 34 3d
       -0.035721228 0.022590715 0.026423708 0.044173807
0001e0 7a a1 bd bc d0 cd 81 bd f4 ea 9a 3c 2f bd 42 bc
       -0.023148287 -0.06338084 0.018910863 -0.011885925
0001f0 c3 9f 92 3b 0b c2 52 bd 32 7a 77 bc f7 4e 14 bd
       0.0044746115 -0.051454585 -0.015104817 -0.03620812
000200 a8 6d a5 bd 98 2a ec bc 58 80 85 3d cc 54 8b 3d
       -0.08077556 -0.028828904 0.0651862 0.06803283
000210 da 1d f6 bc 61 9e 3e 3d 4c c6 5c bd 83 53 f4 bb
       -0.030043531 0.04653776 -0.053900048 -0.0074562444
000220 e7 87 39 3d e7 e4 56 3d 4b 35 a2 bd 9f 4e 39 3d
       0.045295622 0.052464392 -0.07920321 0.045240995
000230 b3 a9 21 3d d7 d7 83 bc b1 6d 5f 3d 54 f8 e5 3c
       0.03946848 -0.016094131 0.05454797 0.028072514
000240 ef 43 91 bd 29 25 5f bd 6d 7e 9f 3d 78 7c 3f 3d
       -0.070930354 -0.054478798 0.07787786 0.046749562
000250 cb e2 d8 bc d2 71 95 3d 0a ca a9 bd af 2d c2 3c
       -0.02647533 0.072971 -0.08290489 0.023703424
000260 ae 41 23 bd ad 8d 5c bd b0 52 6d 3d 7e 12 a1 3c
       -0.03985756 -0.05384605 0.057940185 0.019662138
000270 13 ee 1a 3d 6d ef bd bd 97 b9 9d 3c e5 8f f1 3c
       0.0378247 -0.092741825 0.019253535 0.02948756
000280 17 fd d6 bd 33 fb 37 3d 39 3b 7d 3d 89 ae 25 3d
       -0.10497492 0.044917297 0.061824057 0.040449653
000290 c6 b4 14 bd 88 72 47 3d 09 4c c6 3a ad 28 a9 3d
       -0.03630521 0.04869321 0.0015128861 0.082597114
0002a0 bc 2a 85 bd 98 8f ca 3c 84 eb e2 3c 34 5f 68 3d
       -0.065022916 0.024726674 0.027700193 0.056731418
0002b0 00 0c b8 3c cc 2f 1e bd 06 f1 b8 3c 60 ee 89 3c
       0.02246666 -0.0386198 0.022575866 0.016837299
0002c0 62 ff ac 3b 9d 62 8f 3d 54 24 81 3d 10 0c 28 bd
       0.0052794674 0.07001231 0.06305757 -0.04102713
0002d0 a0 41 43 3c 68 08 97 bd e5 14 4e 3d 0f 14 22 3d
       0.011917502 -0.0737465 0.050312895 0.03956991
0002e0 3d 26 a2 3c f7 9f c7 3c dc 36 48 bd 9e 60 05 3d
       0.019793624 0.02436827 -0.048880443 0.032562844
0002f0 18 00 de bd 73 42 02 3d 03 99 08 bb 0b 2d 04 3d
       -0.10839862 0.031801652 -0.0020843155 0.03226952
000300 96 fc 38 3d 5e 2b 70 3d c5 22 74 3d 81 2f 2e bd
       0.04516276 0.05863511 0.05960347 -0.042525772
000310 c5 b2 1e 3d ae b5 3b 3d aa 64 8e 3d b9 b6 14 3d
       0.038744707 0.04582756 0.06952794 0.03630707
000320 a1 39 c1 bd 82 1e a3 3d 7a 04 dd 3c 4f 01 25 3d
       -0.0943482 0.07964803 0.026979674 0.04028445
000330 69 3a 52 3c 83 84 c3 39 d8 8a c7 bb 7d cc 76 bd
       0.012831309 0.00037292027 -0.0060895495 -0.06025361
000340 17 e3 2f 3d d0 ad 64 3d e0 c2 ec 3c 24 f5 a8 bd
       0.04294118 0.055829823 0.028901517 -0.08249882
000350 62 92 fd 3c 60 79 3f 3d 28 a9 06 3d 58 1c 48 bd
       0.03095359 0.04674661 0.032876164 -0.048855156
000360 6e f5 dd 3c b0 81 96 bd 6d 40 3b 3d 7a 4e 58 3d
       0.027094569 -0.07348955 0.045715738 0.052809216
000370 d6 41 e8 bc ef c7 63 3d 47 45 8b bd 20 1f 14 be
       -0.028351706 0.055610593 -0.06800323 -0.14464998
000380 60 54 ac bd 63 cb c4 3c 0b 7e 24 3d 14 db f9 3c
       -0.08414531 0.024022764 0.040159266 0.030499972
000390 14 5d f7 3c 70 9f 2b bc c4 5f a4 bb 05 2c ac 3c
       0.03019575 -0.010475025 -0.005016299 0.021017084
0003a0 16 a2 41 3d c0 e9 36 3d 94 8f a3 bd ea d0 a0 bd
       0.047273718 0.044656515 -0.0798637 -0.07852347
0003b0 3b f0 80 3d 3f 25 d0 bc 02 2d db bc 5c 19 1f 3d
       0.0629582 -0.025408385 -0.02675486 0.038842544
0003c0 07 78 18 3d fa 75 9f 3d c4 7d c8 bd d5 c0 5f 3d
       0.037223842 0.07786174 -0.09789613 0.05462726
0003d0 16 8c 30 3d d9 be 83 bd 90 8d 11 bd f9 d4 a5 bd
       0.043102346 -0.06432886 -0.035535395 -0.08097262
0003e0 8b a5 2d 3d d9 43 9a 3d 6b ff e9 bc 95 be b9 3c
       0.042394202 0.07532472 -0.028564176 0.022673884
0003f0 fe e3 6d 3c 19 02 49 3d cb f2 0c 3d 98 23 3e 3d
       0.01451969 0.049074266 0.034411233 0.046420664

action_model._discrete_distribution.branches.0.bias f4 [3]
000000 c6 44 32 3b 45 30 59 3c 13 31 40 bd
       0.0027201637 0.013256137 -0.0469218

action_model._discrete_distribution.branches.1.weight f4 [3, 128]
000000 26 83 d3 3a ba 83 42 bd 4a 6f 0f 3d 7f 9a 45 bc
       0.0016137108 -0.047488905 0.035018243 -0.0120607605
000010 2b 36 40 3d 0f a8 fc 3b 95 d9 2e 3d c1 86 91 bd
       0.04692666 0.007710464 0.04268797 -0.071057804
000020 a1 69 86 bb c9 c4 a2 3c c6 c3 b7 3b e7 e0 27 3c
       -0.0041019474 0.019869225 0.005608055 0.010246492
000030 2a 41 cf 3a d1 46 40 3d 62 8f 7a 3c 2a 2c d6 3c
       0.0015812267 0.046942536 0.015292974 0.026144106
000040 7c af f0 bc 7b a2 2f bd ff 43 3b bc 97 cb 5a 3c
       -0.029380552 -0.042879563 -0.011429786 0.013354204
000050 a9 0f 5d bc 70 05 9e 3c 3d 89 ac bc c6 59 2d 3d
       -0.013492503 0.019289702 -0.021061534 0.042321943
000060 eb d2 a9 bb 1b 43 a9 3d 8b b2 a2 3b b6 6a 9f 3c
       -0.005182614 0.082647525 0.0049651316 0.019460063
000070 17 0f 63 3c 5a 36 cf 3b 46 43 e2 3c 76 7b da 3c
       0.013858578 0.006323618 0.02761997 0.026670199
000080 5a 45 f7 3c d0 1f 20 3d d4 06 d3 3c ea db 5d bd
       0.030184437 0.03909284 0.025760092 -0.054164805
000090 19 d1 17 bd 5e 9b 8a 3c 7c 49 85 bb 6b 43 0a bd
       -0.037064645 0.016919788 -0.004067598 -0.0337557
0000a0 32 a7 de bb a8 61 19 3d b5 40 60 3d 78 ef 09 3b
       -0.0067948336 0.037446648 0.05474921 0.0021047276
0000b0 13 90 2a 3c a1 3b ad bb ea 69 1a 3d 3b 03 50 3d
       0.0104103265 -0.0052866493 0.037698664 0.05078433
0000c0 5a ac d2 3b 01 e5 93 3c 78 78 61 37 5e e6 4c bd
       0.0064292373 0.018053534 1.3439094e-05 -0.050024383
0000d0 8d b1 93 3c 68 70 a4 bc 68 7b 0f 3d 6d 9a 18 3d
       0.018028999 -0.02007313 0.0350298 0.037256647
0000e0 93 fb d4 3c fa cf 6c 3d b0 e2 2d 3d c3 07 03 3c
       0.025998866 0.05781553 0.042452514 0.007997456
0000f0 20 d0 a5 3d 6a ff 3e 3d 8f 0f cd 3c 41 07 f8 3c
       0.08096337 0.0466303 0.025031833 0.030276896
000100 ca 4a 04 3c 33 59 0b 3d 22 28 bf bc 32 14 5e bd
       0.008074472 0.034020614 -0.023334567 -0.05421848
000110 3a c0 2e 3b 77 32 8d bd e7 02 a0 3c 54 0c 32 bb
       0.002666487 -0.06894391 0.019532634 -0.0027167993
000120 29 78 8c 3b 89 ff 04 3d bb f4 07 3d 86 6d db bc
       0.004286785 0.03247026 0.033192378 -0.026785623
000130 e0 77 53 3d 19 46 8c bd 77 af 67 bd 2c b7 65 3d
       0.051627994 -0.068493076 -0.05656382 0.05608289
000140 1e 6c 4f 3c c1 d5 c2 3c 8b 33 c1 3c 1c e0 9d 3c
       0.0126600545 0.023783566 0.023584148 0.019271903
000150 37 4a 37 3d 48 50 4c 3c 93 b8 e8 3c 6f a1 ba 3d
       0.04474851 0.012470312 0.028408324 0.09112822
000160 ed 13 5c 3c 4e c3 9e bd 71 6c 46 3c 14 38 79 3c
       0.013432485 -0.07752095 0.012110815 0.015211124
000170 f0 94 4f bd a8 83 f5 3b 49 30 75 bd 18 6d 06 bd
       -0.050679147 0.0074925013 -0.0598605 -0.032818884
000180 29 5f 9d bd db 37 a2 3c ab dc c4 3c bd 70 93 3c
       -0.07684166 0.019802025 0.024031004 0.017998094
000190 cc 17 d5 3c eb 46 94 bd 0f 91 ed 3c 50 69 fa 3c
       0.026012324 -0.07240089 0.028999833 0.030567795
0001a0 4b 1e af 3b a1 e7 59 3c ec f7 fb 3c c5 96 09 3d
       0.0053441874 0.013299854 0.030757867 0.03359105
0001b0 c0 28 03 3d 46 d0 df bd 8e a3 b0 bd 78 21 d3 bc
       0.032021284 -0.10928397 -0.086249456 -0.025772795
0001c0 4a 5c f9 3a 7b 82 c9 bc 63 d8 95 bd aa d7 d7 3c
       0.0019024697 -0.02459835 -0.07316663 0.026347954
0001d0 f5 b7 17 3c bb 0a a4 bd 88 54 78 3c 99 58 2a 3d
       0.009260167 -0.08009859 0.015156873 0.0415884
0001e0 0a ae ee 3c e6 9f 8c 3a 60 4f 95 3d 0e 35 37 3d
       0.029135723 0.0010728806 0.0729053 0.04472833
0001f0 be d0 e1 3c 5f 54 0a 3b b6 89 70 3c 62 b9 5a 3d
       0.027565356 0.0021107418 0.01468127 0.05339945
000200 fb b8 91 bd 54 02 68 3d 9a 1e 4e 3b b4 25 ce bd
       -0.0711536 0.056642845 0.0031451345 -0.10065785
000210 d2 94 52 3d f1 fe 4c bd 38 76 1b be 3d 75 78 bb
       0.051411457 -0.05004782 -0.15181816 -0.0037911676
000220 4b 3c 43 bd 7f d9 ca bc 61 75 09 3a 1a 99 88 bd
       -0.04766492 -0.024761913 0.0005243626 -0.06669827
000230 4d b1 db bd 36 85 93 3d 4b 8d 8c 3c 29 c7 95 bd
       -0.10727177 0.07203142 0.017157217 -0.073133774
000240 ae cf b0 3c 75 11 00 be 2f 3a 85 bd c1 84 01 bd
       0.021583404 -0.1250666 -0.06505238 -0.031620745
000250 d6 2d cf bd 7d a6 6f 3a 12 87 60 bd 6f 10 d5 bb
       -0.101161644 0.0009141935 -0.054816313 -0.006502203
000260 3b 42 3f 3d 3a d6 59 bc 0f d5 6e b9 e7 16 0d bd
       0.04669402 -0.0132957045 -0.00022776819 -0.03444567
000270 91 18 d2 bb 59 d0 8a bc c2 fd 92 bc 03 46 04 bd
       -0.00641162 -0.016945051 -0.017943267 -0.03229333
000280 01 11 5b bd cb 8a f7 3c d6 c5 a2 bc dc 54 94 3d
       -0.053483013 0.030217549 -0.019869726 0.07242748
000290 f1 8d c3 3c bc c6 ac bd bd 36 6a 3d 26 ee 9f bc
       0.023871394 -0.08436343 0.05718111 -0.019522738
0002a0 85 29 b4 bc 66 f5 0d bd fc 02 d7 3c 52 8e f5 ba
       -0.021992454 -0.03465786 0.02624654 -0.0018734431
0002b0 16 11 5c bd 71 d1 88 3d be 51 c8 3d 4d 17 11 bb
       -0.053727232 0.06680573 0.09781216 -0.0022139132
0002c0 f6 f3 da bd 7d d7 84 3b 17 fc d5 bc 41 0e 85 3d
       -0.10691063 0.0040540085 -0.026121182 0.06496859
0002d0 42 86 f2 bc 01 08 23 bc f5 f6 a3 bc 34 73 6c bd
       -0.029605035 -0.009950639 -0.02001522 -0.057727054
0002e0 74 e1 96 bd cb bf 30 bc f9 4a b8 3c 59 68 59 bd
       -0.073672205 -0.0107879145 0.022496687 -0.05307803
0002f0 c2 58 83 bd e6 1d 71 bc be cc b5 3d 9b eb 61 3d
       -0.064134136 -0.014716601 0.08876942 0.05515633
000300 36 0f 68 bd 25 eb d1 bd f1 ff 61 bd 75 19 37 3e
       -0.05665513 -0.102499284 -0.055175725 0.17880805
000310 c2 a7 9e bd dd c0 df 3c b1 b4 a8 bc bd 0a 0f bd
       -0.07746841 0.027313644 -0.020593973 -0.03492235
000320 9c 0f 21 bc c5 fa 1b bb 2c 29 5f bd 89 6c 20 3d
       -0.009830382 -0.0023800593 -0.054482624 0.039166007
000330 b1 d5 83 bc 2f 62 ec 3d fd 45 8c 3d 1b 15 53 bb
       -0.016093107 0.115421645 0.06849287 -0.0032208625
000340 90 6b 0e bd 5e d6 c0 bd 22 9b 98 bc 12 88 b9 3c
       -0.03477055 -0.09415887 -0.01862866 0.022647891
000350 08 bb 43 bd 05 2a 09 bd ee fd e4 bb fe f9 0d 3d
       -0.04778579 -0.03348734 -0.0069882786 0.03466224
000360 21 af 2e bd 8c 36 d8 3d 4f 75 cc bd 76 f3 73 bc
       -0.042647485 0.10557279 -0.09983312 -0.014889589
000370 e5 37 81 3d 2e 18 34 bd 6e b6 a6 3d 05 b5 60 bc
       0.06309489 -0.043968372 0.081402645 -0.013715033
000380 2e 70 e8 bc 2c 3a e1 bd 9f 0c 43 bd ab 98 39 bd
       -0.028373804 -0.109974235 -0.04761946 -0.04531161
000390 9d 9b 92 bb d3 bf dd 3d d9 04 ea bd f8 fd 85 bc
       -0.004474117 0.10827603 -0.11426706 -0.016356453
0003a0 5e c4 00 be 55 d9 97 bd 96 f2 7f 3d 1d 06 77 bc
       -0.12574908 -0.074145 0.062487207 -0.015077141
0003b0 01 2a a9 bc 58 bc e6 3d 82 c5 ae 3d da 46 09 bc
       -0.020649912 0.112663925 0.085337654 -0.008378709
0003c0 70 8b db 3d a5 0c 2d bd 14 d7 ec 3c fb ea 28 bc
       0.10719955 -0.042248387 0.028911151 -0.01030993
0003d0 fa 43 83 bd 99 63 f9 3d e9 71 6f 3d 83 89 36 3d
       -0.0640945 0.121772 0.058458243 0.044564735
0003e0 ca ed 4e bd 96 f4 8b bc e8 03 47 bd 0e f9 0c bc
       -0.050519742 -0.017084401 -0.04858771 -0.008604301
0003f0 9b d7 52 bd d9 18 02 3c c4 73 98 bd 5b 40 6a 3d
       -0.05147515 0.007940494 -0.074439555 0.05719028

action_model._discrete_distribution.branches.1.bias f4 [3]
000000 b1 f8 ca 3c 6c 71 18 bd cb 6e e0 3a
       0.024776788 -0.037217543 0.0017122863

exp_avg f4 [128, 29]
000000 be d7 4f 39 22 82 80 b9 00 00 00 00 11 0a 34 37
       0.00019821429 -0.0002451102 0.0 1.073118e-05
000010 30 8a 1f b7 7e cf 1c b8 00 00 00 00 40 87 03 36
       -9.509313e-06 -3.738654e-05 0.0 1.9599247e-06
000020 5e df c3 b7 d4 68 b1 b7 00 00 00 00 e7 bf 57 37
       -2.3349825e-05 -2.1148859e-05 0.0 1.2859679e-05
000030 a2 02 d4 b7 c2 f5 b9 b7 00 00 00 00 e1 ff 91 36
       -2.5273595e-05 -2.2168158e-05 0.0 4.351125e-06
000040 4a de 07 38 53 fb 98 b8 00 00 00 00 f2 f2 b6 37
       3.239353e-05 -7.2947376e-05 0.0 2.1809221e-05
000050 cc 23 ab 39 03 f6 c1 b9 00 00 00 00 91 e3 00 b8
       0.00032642332 -0.00036995122 0.0 -3.0729516e-05
000060 a6 ce cb 39 b0 11 e1 b9 00 00 00 00 e0 77 fa 36
       0.00038873142 -0.00042928522 0.0 7.464536e-06
000070 00 00 00 00 3b fd be 3a 20 f3 e1 37 00 00 00 00
       0.0 0.0014571318 2.6935304e-05 0.0
000080 17 38 ef 37 10 de d6 3a 5e c8 22 b9 00 00 00 00
       2.8517139e-05 0.0016393084 -0.00015524167 0.0
000090 37 91 88 38 6b 73 df 3a 58 6d 67 b9 00 00 00 00
       6.512034e-05 0.0017047947 -0.0002207061 0.0
0000a0 86 10 7f 37 0a 30 f4 39 56 97 85 3a 00 00 00 00
       1.5203032e-05 0.00046575099 0.0010192196 0.0
0000b0 92 a3 62 38 23 82 b3 3a 8e 23 fc 38 00 00 00 00
       5.4034936e-05 0.00136954 0.00012022919 0.0
0000c0 7f 1d 36 37 d3 61 b0 ba 81 34 39 3b 00 00 00 00
       1.0854913e-05 -0.0013456888 0.0028260055 0.0
0000d0 b1 81 06 39 52 ac 06 3b 92 28 14 ba 00 00 00 00
       0.0001282755 0.0020549488 -0.00056517974 0.0
0000e0 c2 9f 78 38 00 00 00 00 ee 19 ab b7 95 24 bc 3a
       5.9276594e-05 0.0 -2.0396863e-05 0.0014354164
0000f0 00 00 00 00 08 57 54 39 2a bc dd b8 f1 53 c7 3a
       0.0 0.00020250317 -0.000105731495 0.0015207512
000100 00 00 00 00 2a 7a 18 39 f1 f8 dd 3a 8f a1 8f b9
       0.0 0.00014541359 0.0016935152 -0.00027395456
000110 00 00 00 00 50 4b 24 39 76 4a 9b b9 c2 49 e0 3a
       0.0 0.00015668315 -0.00029619382 0.0017111825
000120 00 00 00 00 28 95 04 39 44 e4 dd 3a cc 1c 8e b9
       0.0 0.00012644066 0.001692899 -0.00027105806
000130 00 00 00 00 ff bf 20 39 be 59 04 3b ff 6c 1c ba
       0.0 0.00015330313 0.0020195092 -0.00059671694
000140 00 00 00 00 58 42 7f 38 62 ae 5f 3a c0 0b 15 3a
       0.0 6.0858525e-05 0.000853276 0.000568565
000150 00 00 00 00 ae 23 0a 39 00 00 00 00 f5 17 65 ba
       0.0 0.00013173997 0.0 -0.00087392266
000160 e5 cd f3 39 00 00 00 00 82 8b 02 38 90 5a 13 ba
       0.00046501975 0.0 3.1124342e-05 -0.00056211
000170 35 a6 20 39 00 00 00 00 c7 c0 f6 37 ea 6b 45 b9
       0.00015320706 0.0 2.9415254e-05 -0.00018827585
000180 f7 a8 61 b9 00 00 00 00 08 78 0d 37 c5 0d 11 ba
       -0.00021520616 0.0 8.432202e-06 -0.0005533363
000190 f4 5e 18 39 00 00 00 00 3a c9 30 38 7c bc 8e b9
       0.00014531222 0.0 4.2149077e-05 -0.00027224782
0001a0 42 11 01 b9 00 00 00 00 0b 51 10 37 b8 eb b0 b9
       -0.00012308828 0.0 8.601938e-06 -0.0003374496
0001b0 10 ad 86 b8 00 00 00 00 4e ef c4 37 db 68 0c ba
       -6.421853e-05 0.0 2.3476456e-05 -0.0005356201
0001c0 36 19 13 39 00 00 00 00 90 a1 05 37 00 00 00 00
       0.00014028404 0.0 7.9650345e-06 0.0
0001d0 7d c3 26 3b 39 d7 81 b9 00 00 00 00 72 b1 d9 38
       0.002544611 -0.0002476515 0.0 0.00010380418
0001e0 ad 47 a2 3a 7d c9 8a 3a 00 00 00 00 4e cd 7e 38
       0.001238098 0.0010588613 0.0 6.0749524e-05
0001f0 be 59 a5 3a 63 7e 86 3a 00 00 00 00 19 4d f2 38
       0.0012615246 0.0010261055 0.0 0.0001155382
000200 a4 2c 06 3b c1 eb 81 39 00 00 00 00 a0 12 d7 38
       0.0020473385 0.00024780448 0.0 0.00010255468
000210 47 a5 46 3b 09 45 4b ba 00 00 00 00 33 52 03 39
       0.0030310915 -0.00077541225 0.0 0.00012523755
000220 a9 b8 da 3a fc d1 23 3a 00 00 00 00 a0 d1 85 b5
       0.0016687113 0.00062492467 0.0 -9.970281e-07
000230 b4 92 4b 3a b6 de c1 3a 00 00 00 00 2d c1 0e 38
       0.0007765696 0.0014791104 0.0 3.4035347e-05
000240 00 00 00 00 14 90 78 39 33 5e 73 3a 00 00 00 00
       0.0 0.00023704796 0.0009283751 0.0
000250 5c 3a 0d 39 a0 92 8a 39 e9 38 6c 3a 00 00 00 00
       0.00013468548 0.00026430655 0.0009011166 0.0
000260 41 44 e2 38 c3 d8 ac 3a ae d2 1e b9 00 00 00 00
       0.00010789233 0.0013187159 -0.00015146538 0.0
000270 c5 e3 df 38 21 06 8c b9 04 f6 bb 3a 00 00 00 00
       0.00010675894 -0.00026707447 0.0014340286 0.0
000280 38 b2 bb 38 97 c3 9c 3a f6 c1 0e b8 00 00 00 00
       8.950051e-05 0.0011960146 -3.403608e-05 0.0
000290 8c 8b cf 38 01 2b c1 39 97 8c 51 3a 00 00 00 00
       9.896522e-05 0.0003684387 0.0007993667 0.0
0002a0 65 89 a4 38 fc a8 57 3a 21 e4 b1 39 00 00 00 00
       7.845721e-05 0.000822678 0.0003393004 0.0
0002b0 4e 20 d5 38 00 00 00 00 53 0c fe 39 8c ec 09 3b
       0.00010162649 0.0 0.00048455838 0.0021045534
0002c0 00 00 00 00 73 de 92 39 f7 8f 1c 3a 19 8a 02 3b
       0.0 0.00028013028 0.000597238 0.0019918738
0002d0 00 00 00 00 39 4e 65 39 dc d9 2e 3b 19 35 99 b8
       0.0 0.00021868282 0.0026680147 -7.305499e-05
0002e0 00 00 00 00 d8 ad 5d 39 12 31 af 38 71 4d 24 3b
       0.0 0.00021140964 8.35379e-05 0.0025070573
0002f0 00 00 00 00 3e 89 5d 39 18 aa 3f 3b 50 2b aa b9
       0.0 0.00021127329 0.002924567 -0.00032457197
000300 00 00 00 00 e0 dc 5b 39 91 5b 0c 3b 85 7b ee 39
       0.0 0.0002096775 0.0021416883 0.00045486927
000310 00 00 00 00 a2 2d 1c 39 9f 97 b1 3a bb 31 a3 3a
       0.0 0.00014894319 0.0013549215 0.0012450734
000320 00 00 00 00 b2 a9 42 39 00 00 00 00 dd 95 7e 3a
       0.0 0.00018564498 0.0 0.00097116624
000330 16 1e f8 3a 00 00 00 00 f8 0e d6 39 d0 8e 53 38
       0.0018929865 0.0 0.00040828413 5.0439325e-05
000340 48 66 38 3b 00 00 00 00 b0 af ab 39 32 d5 32 3b
       0.0028137136 0.0 0.0003274656 0.002728772
000350 93 3f 16 39 00 00 00 00 f7 6c 9c 39 6a f4 52 b8
       0.00014328798 0.0 0.00029835824 -5.029553e-05
000360 80 1c 3f 3b 00 00 00 00 cb 1c b0 39 6e 1e 59 3b
       0.0029161274 0.0 0.00033590788 0.003312971
000370 ae aa e4 b9 00 00 00 00 42 e6 9b 39 ac 15 4d 3b
       -0.00043614715 0.0 0.0002973546 0.0031293435
000380 58 b8 84 b9 00 00 00 00 fa ba 1f 39 51 7c 22 3a
       -0.0002531435 0.0 0.00015233076 0.0006198334
000390 02 ea 13 3b 00 00 00 00 60 69 32 39 00 00 00 00
       0.00225699 0.0 0.00017014658 0.0
0003a0 70 80 7c 38 d0 32 bc 39 00 00 00 00 e4 e0 9e 38
       6.02011e-05 0.00035896013 0.0 7.575916e-05
0003b0 9e 31 ff b8 a1 c7 0d 3a 00 00 00 00 d0 58 4a 38
       -0.000121685895 0.000540847 0.0 4.8243266e-05
0003c0 c4 f6 35 3a 61 76 90 b9 00 00 00 00 1d eb 78 38
       0.0006941373 -0.0002755402 0.0 5.9346774e-05
0003d0 d0 82 8d b8 0c f0 ff 39 00 00 00 00 5e 1c 1e 38
       -6.74777e-05 0.0004881624 0.0 3.7696555e-05
0003e0 24 3c 59 3a 82 06 e2 b9 00 00 00 00 58 42 7f 38
       0.0008286855 -0.00043110928 0.0 6.0858525e-05
0003f0 4d db 1f 3a 65 d5 46 b9 00 00 00 00 80 30 50 b5
       0.0006098047 -0.00018962247 0.0 -7.7556615e-07

exp_avg_sq f4 [128, 29]
000000 11 e5 ac 35 fc dd 57 35 00 00 00 00 c0 80 1c 32
       1.2881666e-06 8.041677e-07 0.0 9.1096695e-09
000010 6a 7e ea 35 e0 f6 df 34 00 00 00 00 52 a2 3d 32
       1.747115e-06 4.1716612e-07 0.0 1.1038155e-08
000020 0d 10 66 35 47 02 bd 35 00 00 00 00 07 74 ba 31
       8.5705034e-07 1.408226e-06 0.0 5.4265032e-09
000030 d5 28 23 36 35 ce d3 34 00 00 00 00 0d 7b 57 32
       2.431266e-06 3.9451848e-07 0.0 1.2542626e-08
000040 9a 03 18 35 fe 2e 40 36 00 00 00 00 87 4a b3 31
       5.6629653e-07 2.8637583e-06 0.0 5.2180584e-09
000050 03 b1 41 36 ef 49 74 35 00 00 00 00 c3 69 83 32
       2.8862275e-06 9.100467e-07 0.0 1.5298502e-08
000060 bf a7 c6 34 e1 68 5b 36 00 00 00 00 d6 82 13 32
       3.7002425e-07 3.269459e-06 0.0 8.586275e-09
000070 00 00 00 00 cc 12 7e 36 24 cb 20 36 00 00 00 00
       0.0 3.785989e-06 2.3960101e-06 0.0
000080 2a 20 c4 32 47 64 52 36 93 16 45 36 00 00 00 00
       2.283203e-08 3.1350808e-06 2.9368427e-06 0.0
000090 be 42 c2 32 f5 58 aa 36 36 66 83 35 00 00 00 00
       2.2614923e-08 5.0767508e-06 9.790008e-07 0.0
0000a0 44 07 89 32 62 c2 d7 35 c2 f0 9f 36 00 00 00 00
       1.5952203e-08 1.6075321e-06 4.766597e-06 0.0
0000b0 ea c5 b8 32 1d fa 9f 36 a0 94 a0 35 00 00 00 00
       2.151042e-08 4.7676863e-06 1.1964185e-06 0.0
0000c0 f7 e1 7b 32 bf 8a 2b 35 da 43 b8 36 00 00 00 00
       1.4661501e-08 6.3904366e-07 5.4915263e-06 0.0
0000d0 11 a0 9f 32 ba 8a a0 36 61 75 c1 35 00 00 00 00
       1.8582826e-08 4.7845215e-06 1.4413782e-06 0.0
0000e0 08 ce a6 32 00 00 00 00 8e 59 91 34 b1 00 20 36
       1.9418636e-08 0.0 2.7073514e-07 2.384226e-06
0000f0 00 00 00 00 9b dd bc 32 d6 b6 a3 34 de 39 2a 36
       0.0 2.1986855e-08 3.0494147e-07 2.5365657e-06
000100 00 00 00 00 f9 99 90 32 93 1c 1c 36 ef 46 20 35
       0.0 1.6833825e-08 2.3262444e-06 5.9707867e-07
000110 00 00 00 00 eb 7f 89 32 94 e6 81 35 89 cd 0b 36
       0.0 1.600707e-08 9.678356e-07 2.0832251e-06
000120 00 00 00 00 70 db 84 32 db 8b 15 36 a3 6b 88 35
       0.0 1.5466611e-08 2.2284137e-06 1.0164116e-06
000130 00 00 00 00 a8 6a 64 32 42 a0 1c 36 ed d4 84 35
       0.0 1.32955975e-08 2.3339094e-06 9.896736e-07
000140 00 00 00 00 16 b5 2c 32 6e 87 c2 35 da 32 ef 35
       0.0 1.0052892e-08 1.4493542e-06 1.7821687e-06
000150 00 00 00 00 51 25 77 32 00 00 00 00 2d 19 9d 35
       0.0 1.4385777e-08 0.0 1.1704739e-06
000160 5a 18 ac 34 00 00 00 00 bb 73 a5 31 e4 01 a6 35
       3.2055215e-07 0.0 4.815289e-09 1.2368514e-06
000170 19 45 64 34 00 00 00 00 42 6b c5 31 34 8b 47 35
       2.1259292e-07 0.0 5.7456484e-09 7.4335844e-07
000180 f0 9a 5f 35 00 00 00 00 7a fe 59 31 33 31 de 35
       8.329944e-07 0.0 3.172231e-09 1.6554608e-06
000190 07 db ab 34 00 00 00 00 be 1b f1 31 32 e6 b8 34
       3.2010595e-07 0.0 7.017177e-09 3.444016e-07
0001a0 22 a4 1a 36 00 00 00 00 b3 a5 6e 31 b7 b2 0e 36
       2.3043326e-06 0.0 3.4727747e-09 2.1263675e-06
0001b0 db 0c 27 35 00 00 00 00 0e 2f 25 32 5d 86 9d 34
       6.2231055e-07 0.0 9.614963e-09 2.934129e-07
0001c0 4c 32 2b 36 00 00 00 00 22 11 d6 31 00 00 00 00
       2.5510262e-06 0.0 6.2301675e-09 0.0
0001d0 a6 54 0b 37 17 da 51 37 00 00 00 00 51 4f 19 34
       8.304754e-06 1.2508149e-05 0.0 1.427809e-07
0001e0 6e 13 07 37 e8 9c 37 37 00 00 00 00 6d b3 01 34
       8.051151e-06 1.0944183e-05 0.0 1.2079336e-07
0001f0 2f 40 71 37 ac d7 c2 36 00 00 00 00 b0 e1 cf 33
       1.4379663e-05 5.806758e-06 0.0 9.680241e-08
000200 e2 c3 4e 37 2a 85 1f 37 00 00 00 00 42 7f fa 33
       1.2324164e-05 9.508143e-06 0.0 1.166468e-07
000210 d5 b7 47 37 d4 0c 38 37 00 00 00 00 b8 54 a2 33
       1.1904126e-05 1.0970241e-05 0.0 7.559123e-08
000220 d7 2c 7f 37 6e 45 f8 36 00 00 00 00 e2 eb c7 33
       1.52096245e-05 7.3990586e-06 0.0 9.3095665e-08
000230 2d 6e 0e 37 90 3d 84 37 00 00 00 00 2d ef ab 33
       8.489512e-06 1.5764293e-05 0.0 8.006314e-08
000240 00 00 00 00 20 3b e3 35 36 91 27 36 00 00 00 00
       0.0 1.6930026e-06 2.4969463e-06 0.0
000250 33 ed 96 32 0e 15 dc 35 3e 93 25 36 00 00 00 00
       1.7570164e-08 1.6397405e-06 2.4672622e-06 0.0
000260 e7 9d 76 32 60 a7 50 36 02 bd 2d 35 00 00 00 00
       1.4354987e-08 3.109184e-06 6.4722565e-07 0.0
000270 16 1e 86 32 a2 0f 66 36 e6 4f 10 36 00 00 00 00
       1.5613335e-08 3.428177e-06 2.150418e-06 0.0
000280 f9 99 5f 32 dd 7a 3d 36 d7 24 46 36 00 00 00 00
       1.3015318e-08 2.823471e-06 2.9525743e-06 0.0
000290 6e 34 84 32 3b 92 97 36 c9 bf 3a 36 00 00 00 00
       1.5390665e-08 4.517174e-06 2.7827793e-06 0.0
0002a0 41 3f 65 32 d8 a9 44 36 1f a8 84 36 00 00 00 00
       1.3343937e-08 2.9305138e-06 3.9534784e-06 0.0
0002b0 ce 09 f7 32 00 00 00 00 1e 75 40 35 80 01 95 35
       2.8759043e-08 0.0 7.1696e-07 1.1101802e-06
0002c0 00 00 00 00 98 05 82 32 fe 91 04 35 fd b6 c4 35
       0.0 1.5136536e-08 4.938628e-07 1.4656395e-06
0002d0 00 00 00 00 31 65 46 32 9f f5 d5 35 41 a3 b2 34
       0.0 1.1548125e-08 1.5941222e-06 3.3273867e-07
0002e0 00 00 00 00 36 9b 35 32 bf ac 52 35 86 16 a9 35
       0.0 1.05708775e-08 7.8482475e-07 1.2598036e-06
0002f0 00 00 00 00 38 43 35 32 06 ae ab 35 53 a6 54 35
       0.0 1.055087e-08 1.279114e-06 7.921819e-07
000300 00 00 00 00 1b af 0f 32 60 37 df 35 00 f9 1d 35
       0.0 8.36351e-09 1.6630911e-06 5.88494e-07
000310 00 00 00 00 95 2b ed 31 97 64 21 35 41 f4 cb 35
       0.0 6.9025625e-09 6.012355e-07 1.5195766e-06
000320 00 00 00 00 c1 e3 0e 32 00 00 00 00 29 cc a9 36
       0.0 8.317273e-09 0.0 5.06036e-06
000330 39 b5 dc 36 00 00 00 00 21 fa bb 33 ee a3 97 36
       6.577608e-06 0.0 8.753364e-08 4.5192346e-06
000340 83 05 f1 36 00 00 00 00 6e 4f 9d 33 c6 31 01 37
       7.1830013e-06 0.0 7.3253304e-08 7.700588e-06
000350 40 5d 84 36 00 00 00 00 63 38 81 33 d1 00 2a 37
       3.9447623e-06 0.0 6.017287e-08 1.013298e-05
000360 f7 ae b7 36 00 00 00 00 57 6b 85 33 c1 77 e6 36
       5.4741936e-06 0.0 6.21282e-08 6.8684753e-06
000370 ff 9c 2f 37 00 00 00 00 66 9d 61 33 59 01 89 37
       1.0467366e-05 0.0 5.2530048e-08 1.63323e-05
000380 62 80 7c 36 00 00 00 00 d1 32 51 33 64 f3 97 36
       3.7625655e-06 0.0 4.870782e-08 4.528485e-06
000390 aa 4b 7c 37 00 00 00 00 5e b4 81 33 00 00 00 00
       1.5037987e-05 0.0 6.039839e-08 0.0
0003a0 da 8c 96 34 1d fb bc 34 00 00 00 00 74 f0 fd 31
       2.804216e-07 3.5200438e-07 0.0 7.3906055e-09
0003b0 e0 c1 6c 34 a0 a5 cd 34 00 00 00 00 0b d2 db 31
       2.2049744e-07 3.8304734e-07 0.0 6.397618e-09
0003c0 87 ef b8 34 73 26 c5 34 00 00 00 00 24 71 8c 31
       3.444695e-07 3.6722085e-07 0.0 4.087399e-09
0003d0 8c 0b 37 35 e0 ad 02 35 00 00 00 00 47 d2 ea 31
       6.8189615e-07 4.8681795e-07 0.0 6.834202e-09
0003e0 51 a4 9b 34 be b1 8f 35 00 00 00 00 67 50 5e 31
       2.8990556e-07 1.070606e-06 0.0 3.2350955e-09
0003f0 5e 77 b0 35 1f 95 db 34 00 00 00 00 6d cd aa 31
       1.3147762e-06 4.090043e-07 0.0 4.9710054e-09
