results/ppo/Racing/Racing-5584.onnx (onnx, 88644 bytes, 9 tensors)

discrete_act_size_vector f4 [1, 2]
0	0x40400000	3.0
1	0x40400000	3.0

network_body._body_endoder.seq_layers.0.weight f4 [128, 29]
0	0xbcb15eac	-0.021651588
1	0xbde5f662	-0.112286344
2	0xbe1061ef	-0.14099859
3	0xbe416fea	-0.18890348
4	0x3da38232	0.07983817
5	0x39cafb8b	0.00038715856
6	0x3de9002a	0.113769844
7	0x3d5aadfe	0.053388588
8	0xbb843a1a	-0.0040352466
9	0x3dccb4a7	0.09995394
10	0xbe1acbf9	-0.15116872
11	0xbbf9b154	-0.007620016
12	0x3e1a1a84	0.15049177
13	0x3e227d18	0.15868032
14	0x3e0db76e	0.13839504
15	0x3e197895	0.14987405
16	0xbe1f39fa	-0.1554946
17	0x3ee4f4a7	0.44717905
18	0xbe7648f4	-0.24051267
19	0xbd5230cf	-0.05131608
20	0x3d7572c0	0.059923887
21	0xbdda9686	-0.10673241
22	0x3eb5f50f	0.35538527
23	0x3dcb18db	0.0991685
24	0x3d512206	0.051057838
25	0x3d403776	0.04692789
26	0x3dc12716	0.09431283
27	0xbda1e4fa	-0.07905002
28	0xbe7dc6db	-0.24782889
29	0xbe04b157	-0.12958275
30	0x3e0ba3ff	0.13636778
31	0x3e4bc996	0.19901118
32	0xbcc98b0f	-0.024602441
33	0x3e729780	0.23690605
34	0xbe97af8c	-0.2962612
35	0xbeda8fc2	-0.42687804
36	0xbdabd224	-0.083896905
37	0x3c5e336d	0.013562066
38	0x3ead1f87	0.33813116
39	0x3da2037d	0.079108216
40	0x3e13b22e	0.14423439
41	0x3d0521cf	0.032502946
42	0xbe942969	-0.28937843
43	0x3df11c13	0.11772933
44	0xbe363fcc	-0.17797774
45	0x3c998afb	0.018743029
46	0x3f03d315	0.5149396
47	0x3e11f7e6	0.14254722
48	0x3ddf6437	0.10907786
49	0x3c834854	0.0160257
50	0x3c3a5035	0.011371662
51	0xbe90bc6b	-0.28268752
52	0xbdaf77f7	-0.08567803
53	0xbd84d9d7	-0.06486862
54	0xbe78e71b	-0.2430691
55	0x3eccd0e8	0.40003133
56	0x3e60eda6	0.21965656
57	0xbde297de	-0.110641226
58	0xbe88b798	-0.2670257
59	0xbdddb965	-0.10826377
60	0x3d8d342a	0.06894715
61	0x3e169395	0.14704736
62	0xbf167401	-0.5877076
63	0x3ed5022e	0.41603225
64	0xbdcf7a5a	-0.101307586
65	0x3d36a269	0.04458848
66	0xbe863844	-0.26214802
67	0xbe88138a	-0.26577407
68	0x3e949447	0.29019377
69	0x3ec091f0	0.3761134
70	0xbf0e06ac	-0.5547893
71	0x3d8a0f3c	0.06741187
72	0xbcc64384	-0.024202116
73	0x3ded2cdd	0.115808226
74	0xbea768ad	-0.3269705
75	0xbd70d245	-0.05879428
76	0x3e8797b4	0.26482928
77	0x3c913d57	0.017729444
78	0xbec84b9e	-0.3912019
79	0x3e8bebe2	0.27328402
80	0xbdb1dd6f	-0.08684813
81	0x3e154082	0.14575389
82	0xbee3f52b	-0.44522986
83	0x3ceb6ff3	0.028739905
84	0x3e9a9a86	0.30196017
85	0xbe24fba9	-0.16111626
86	0xbe833d05	-0.25632492
87	0xbe9da61e	-0.307908
88	0x3a7189e8	0.000921397
89	0xbd7b40de	-0.06134116
90	0xbe3b8bcc	-0.18315047
91	0x3cd14046	0.025543343
92	0x3e8938c4	0.2680112
93	0xbd9854a1	-0.07438017
94	0x3dc66ce3	0.09688737
95	0xbe77951c	-0.24177974
96	0x3d459c70	0.048244894
97	0x3de6fb3a	0.112783864
98	0xbe463c74	-0.19358999
99	0x3ea43b3c	0.32076442
100	0xbd595225	-0.053056855
101	0xbec014fa	-0.37516004
102	0x3e1fe652	0.15615204
103	0x3d846e2f	0.06466328
104	0x3d09f700	0.033682823
105	0xbe9211a7	-0.28529093
106	0x3de187ee	0.11012255
107	0x3e2c6108	0.1683389
108	0x3e84fcc1	0.25974086
109	0xbe8a1fcf	-0.26977393
110	0xbd9b6762	-0.07588078
111	0x3cf1d37f	0.029519795
112	0x3ea7ec9d	0.3279771
113	0x3e3af6e1	0.1825824
114	0x3d92f8cf	0.07176363
115	0xbe73fc8c	-0.23826808
116	0x3e82ebbf	0.25570485
117	0xbe0781f6	-0.1323317
118	0xbdd44376	-0.1036443
119	0x38a05b38	7.646385e-05
120	0xbeb7f058	-0.35925555
121	0x3f3af6dc	0.7303293
122	0xbe7f4950	-0.2493031
123	0x3e9b6f96	0.3035857
124	0x3e25d719	0.16195334
125	0xbea1150c	-0.3146137
126	0x3ddd23e4	0.10797861
127	0x3eb6d922	0.35712534
128	0xbe712685	-0.2354985
129	0x3e93021d	0.2871255
130	0xbd5cedba	-0.05393765
131	0x3e9a0002	0.3007813
132	0x3e87274c	0.2639717
133	0xbe7724be	-0.2413511
134	0xbe1a1486	-0.15046892
135	0xbe7e10dc	-0.24811119
136	0x3e674267	0.22583924
137	0xbc5fd871	-0.0136624435
138	0x3ea881f1	0.32911637
139	0xbda8e1f3	-0.082462214
140	0xbd844f00	-0.064603806
141	0xbe85cfb2	-0.2613502
142	0xbc8142e0	-0.015778959
143	0xbe798f59	-0.24371089
144	0xbeb43570	-0.3519702
145	0xbe672757	-0.225736
146	0x3e3b72f7	0.18305574
147	0xbe4b2d1b	-0.19841425
148	0xbe0362ac	-0.12830609
149	0xbee6d6c0	-0.45085716
150	0x3d97184d	0.07377682
151	0x3e9da18d	0.30787316
152	0x3e351fa5	0.17687853
153	0xbdec5ecc	-0.115415186
154	0x3f07f4b1	0.53107744
155	0xbd597530	-0.053090274
156	0xbdf8c2a6	-0.12146501
157	0x3c033477	0.008008114
158	0x3da1604b	0.078796946
159	0x3e2b6a15	0.16739686
160	0xbdb8eb84	-0.09029296
161	0xbe79583b	-0.24350064
162	0xbeb89412	-0.3605047
163	0xbed43dbe	-0.41453356
164	0x3e43c472	0.19117907
165	0x3db71eb4	0.08941403
166	0x3e07b64a	0.13253132
167	0xbda0fcdd	-0.0786073
168	0xbc8209e3	-0.015873855
169	0x3e87d21b	0.26527485
170	0xbed9c5ae	-0.4253363
171	0x3e5b0e70	0.21392226
172	0x3e9699bc	0.29414165
173	0xbb9087cc	-0.0044107195
174	0xbd0b90bb	-0.034073573
175	0xbe68ee2f	-0.2274711
176	0x3e54a389	0.20765509
177	0xbd8fbf9f	-0.07018971
178	0xbe9de1d9	-0.3083637
179	0xbe86c197	-0.26319572
180	0x3ead6601	0.33866885
181	0xbd8d4272	-0.06897439
182	0xbe97f22b	-0.29676947
183	0x3daf297c	0.085528344
184	0xbd3d05c1	-0.046148065
185	0xbd1d74b1	-0.038441364
186	0xbe9b5e02	-0.3034516
187	0x3d9b2478	0.07575315
188	0x3db9e1f1	0.09076298
189	0xbdb3414f	-0.08752691
190	0x3b39b580	0.0028336942
191	0xbdd9f1e2	-0.106418386
192	0xbe1dab08	-0.15397274
193	0x3d504472	0.050846525
194	0xbebb4a24	-0.36580002
195	0x3e86a7f0	0.263
196	0x3ea4cec1	0.3218899
197	0xbe331f26	-0.17492351
198	0x3df3ab2a	0.11897881
199	0xbefc1798	-0.4923675
200	0x3e540ead	0.20708723
201	0xbe1d6c05	-0.15373237
202	0x3ec350f8	0.38147712
203	0x3ea09f2e	0.31371444
204	0xbd9c7997	-0.07640379
205	0xbe5bbc79	-0.21458615
206	0x3e6409b3	0.22269325
207	0x3e2f39a6	0.17111835
208	0xbe0a74ca	-0.13521114
209	0x3e27324a	0.16327778
210	0xbd4da59f	-0.050206777
211	0x3def0f08	0.11672789
212	0x3e907f94	0.28222334
213	0x3e8a0ef2	0.26964527
214	0x3e1c21c7	0.1524726
215	0x3e192421	0.14955188
216	0x3e307242	0.17231086
217	0xbca68b35	-0.020330051
218	0xbd73d474	-0.059528783
219	0xbe73c1f2	-0.23804453
220	0x3d03daa0	0.03219092
221	0x3e223d07	0.15843593
222	0xbde6e636	-0.11274378
223	0x3e29d3f3	0.16584758
224	0x3d6f017c	0.058351025
225	0xbd7fa840	-0.062416315
226	0xbe80650e	-0.250771
227	0xbe1a0866	-0.15042266
228	0x3d892995	0.06697384
229	0xbda4745e	-0.08030008
230	0x3ecc6d58	0.39927173
231	0xbde253c4	-0.11051133
232	0xbdc34edd	-0.09536526
233	0x3d3a50f2	0.04548735
234	0x3e9de037	0.30835125
235	0x3e1f6faf	0.15569948
236	0xbe898496	-0.26858968
237	0x3e2d0dc1	0.16899778
238	0xbe2101aa	-0.15723291
239	0x3e171cb4	0.14757043
240	0x3e557d4d	0.2084858
241	0xbe3ca3f1	-0.18421914
242	0x3c583a7b	0.013197537
243	0xbe291b72	-0.16514376
244	0xbece4ea2	-0.40294367
245	0x3e81e147	0.25367185
246	0x3ed8e6d7	0.42363617
247	0x3d4754e4	0.048664942
248	0xbe33e6f5	-0.17568572
249	0xbe76dcfa	-0.24107733
250	0xbe6bf408	-0.2304231
251	0xbd71fdda	-0.059079982
252	0xbe6ad3fc	-0.22932428
253	0xbe1536f8	-0.1457175
254	0x3d2afcec	0.04174511
255	0xbe26a2af	-0.16272996

network_body._body_endoder.seq_layers.0.bias f4 [128]
0	0x3cbcf3ce	0.023065474
1	0x3d69a730	0.057044208
2	0x3c80949a	0.015695859
3	0x3dcd1637	0.10014003
4	0x3cc6e447	0.024278773
5	0x3bbce867	0.005765009
6	0xbc8b8f66	-0.017036151
7	0x3ccb66a7	0.024829222
8	0xbcd7356b	-0.026270589
9	0x3d9bf1f7	0.076145105
10	0x3bb5416d	0.005531481
11	0x3daf8292	0.08569826
12	0x3d1e2920	0.03861344
13	0x3d5f8470	0.05456966
14	0x3d07be60	0.03314054
15	0x3dad534b	0.084631525
16	0x3c8d36fc	0.017238133
17	0x3d36248a	0.04446844
18	0x3d961315	0.07327858
19	0x3da4e53d	0.08051536
20	0x3d03b911	0.032158915
21	0x3cacfda1	0.021117033
22	0x3d82a615	0.06379334
23	0x3cf4a5fe	0.029864307
24	0xb98f6fce	-0.00027358386
25	0x3d905139	0.07046742
26	0x3c2519d0	0.010076955
27	0x3d230699	0.039801214
28	0x3d07b500	0.0331316
29	0xbd9bbbd9	-0.076041885
30	0x3dbdb448	0.092629015
31	0x3ae967e3	0.001780745
32	0xbde22c83	-0.11043646
33	0x3ce59c2e	0.028028574
34	0x3d9a3879	0.075303026
35	0x3d599546	0.053120874
36	0xbd2c78eb	-0.042107504
37	0x3d0f974c	0.035056397
38	0x3d1b360a	0.037893333
39	0xbca5c1b9	-0.020233976
40	0xbcd8387a	-0.026394118
41	0x3ca4d6d2	0.020121966
42	0x3d40ce8f	0.04707199
43	0xba3bb0e5	-0.0007159843
44	0x3cc5b50e	0.024134185
45	0xbce15512	-0.027506385
46	0x3d5ee075	0.054413278
47	0x3db5e875	0.08882228
48	0x3b0fdfd6	0.0021953485
49	0x3d294021	0.041320924
50	0x3bb9ec71	0.005673938
51	0x3cf19b20	0.029492915
52	0xbb50e22d	-0.0031873093
53	0x3d24973f	0.040183302
54	0x3da6bedd	0.08141873
55	0x3d0972b1	0.033556644
56	0x3c5c732c	0.0134551935
57	0x3bbfece5	0.0058570975
58	0x3d37cae5	0.04487123
59	0x3c461905	0.012090926
60	0x3d59b53f	0.053151365
61	0x3d4e9110	0.05043131
62	0x3cdef16a	0.027214725
63	0x3d7c38be	0.06157755
64	0x3e01df58	0.12682855
65	0x3cf22e02	0.029562954
66	0x3c9deaf6	0.019277077
67	0x3cb7541b	0.022378972
68	0xbbf51bea	-0.0074801343
69	0x3d5de19f	0.054170247
70	0x3b002c11	0.0019557516
71	0x3d13a276	0.036043607
72	0xbdabdf1c	-0.08392164
73	0xbd7c090c	-0.061532065
74	0xbd035530	-0.032063663
75	0x3cc423f1	0.02394292
76	0xbcabd933	-0.020977592
77	0xb9fde78f	-0.00048428445
78	0x3d47c8ac	0.04877536
79	0x3d42d63d	0.047567595
80	0x3d11230a	0.035433806
81	0x3ca0b48c	0.019617341
82	0x3d6a9333	0.057269286
83	0x3cdc978a	0.026927728
84	0xbcb2c987	-0.021824611
85	0xbd6cb5fc	-0.05779074
86	0x3c525cbd	0.012839493
87	0x3d6b7ddc	0.057493076
88	0x3d504e3b	0.050855856
89	0x3b14d581	0.0022710266
90	0x3cdfa1bd	0.027298803
91	0xbc96d51e	-0.01841217
92	0xbcc43a4a	-0.023953576
93	0x3dc0ad3f	0.09408044
94	0x3d6d6e5b	0.05796657
95	0x3cd83162	0.026390735
96	0x3c52c514	0.01286437
97	0x3db8d6ff	0.09025382
98	0xbcd0662e	-0.025439348
99	0x3ca52e45	0.020163665
100	0xbca28f3a	-0.019843686
101	0x3d5458d4	0.051842526
102	0xbcf01bce	-0.029310133
103	0x3d316e12	0.04331786
104	0x3c6d8165	0.014496182
105	0xbe15050f	-0.14552711
106	0x3df33d94	0.118769795
107	0x3cb0e859	0.021595167
108	0x3d317ab1	0.0433299
109	0xbd3a3597	-0.045461264
110	0x3dd74c0a	0.1051255
111	0x3d19f085	0.037582893
112	0x3d19857b	0.037480813
113	0xbd850267	-0.06494599
114	0x3c9a087f	0.01880288
115	0x3df1526c	0.11783299
116	0x3d31b788	0.04338792
117	0x3c27a631	0.010232494
118	0x3d0f315e	0.03495919
119	0x3c9ae47e	0.018907782
120	0x3cd6bfb7	0.026214464
121	0x3c171ed1	0.009223656
122	0x3ce4c7be	0.027927276
123	0x3d2356c7	0.03987768
124	0x3d23c864	0.03998603
125	0x3b612245	0.0034352702
126	0xbcf6d608	-0.030131355
127	0x3dbcd989	0.09221179

network_body._body_endoder.seq_layers.2.weight f4 [128, 128]
0	0x3c1c8e37	0.009555391
1	0x3d909f6c	0.07061657
2	0xbd1cddb9	-0.03829739
3	0xbdf4d0a8	-0.119538605
4	0x3d44a65f	0.048010226
5	0xbe0e9d19	-0.13927115
6	0xbd6b50bf	-0.057450052
7	0x3c82ce2e	0.015967455
8	0x3e75d5c4	0.24007326
9	0x3d73038d	0.05932956
10	0x3d1bfdd2	0.03808386
11	0x3c8d98e7	0.017284824
12	0x3d3de505	0.04636099
13	0xbe6375b2	-0.22212866
14	0xbdfec4f3	-0.12439909
15	0xbd222067	-0.039581683
16	0x3d96cc1e	0.07363151
17	0x3d94cf11	0.07266057
18	0xbda5255d	-0.08063767
19	0xbc739237	-0.014866403
20	0xbdcee64f	-0.10102522
21	0x3ba482c3	0.005020471
22	0xbe93925e	-0.28822607
23	0x3df9835f	0.1218326
24	0xbdfaa619	-0.12238712
25	0xbdae7085	-0.08517555
26	0x3e10eca0	0.14152765
27	0x3e485d4f	0.19566844
28	0xbde781da	-0.11304064
29	0xbda18f0f	-0.078886144
30	0xbd31da69	-0.043421183
31	0xbe71eebb	-0.23626225
32	0xbdb1efb9	-0.086883016
33	0x3d4433ff	0.04790115
34	0x3d8b048e	0.06787978
35	0xbe239345	-0.15974148
36	0xbdbfad8e	-0.09359275
37	0xbd1e6e89	-0.038679633
38	0xbe1bf54a	-0.15230289
39	0x3d002d63	0.031293284
40	0x3e411afe	0.18857953
41	0x3e147780	0.1449871
42	0xb91abf04	-0.00014757743
43	0xbe0f491b	-0.13992731
44	0xbd5e7948	-0.05431488
45	0x3e2f32ed	0.1710927
46	0x3e04637f	0.1292858
47	0xbe8c690f	-0.27423903
48	0x3dc0f23e	0.09421204
49	0xbb98406a	-0.0046463506
50	0xbd33402f	-0.043762382
51	0x3d82e318	0.06390971
52	0x3e248aa2	0.16068509
53	0x3e4fbc40	0.20286655
54	0xbe2261d4	-0.15857631
55	0x3d03a096	0.03213557
56	0x3cb7de7d	0.022444958
57	0xbde9e91c	-0.11421415
58	0x3d8773c2	0.06613876
59	0xbe0725e9	-0.13198055
60	0x3d6a2016	0.057159506
61	0x3a9e4de5	0.0012077658
62	0xbdbc04dd	-0.09180615
63	0xbe007fe5	-0.12548788
64	0xbc9c360a	-0.019068737
65	0xbdd64d85	-0.104640044
66	0x3c30f77a	0.0108011905
67	0xbdbddfff	-0.092712395
68	0x3e34ed62	0.1766868
69	0xbdba7a79	-0.09105391
70	0xbd187489	-0.03722051
71	0xbd8310ff	-0.06399726
72	0xbd86f154	-0.065889984
73	0xbc2e05a6	-0.010621464
74	0xbd7cf762	-0.06175936
75	0xbd958298	-0.073002994
76	0x3e234759	0.15945186
77	0xbcf8040c	-0.030275367
78	0x3e5227c6	0.20522985
79	0xbc68ed62	-0.014216753
80	0xbdcfe9cf	-0.10152017
81	0x3c06db80	0.008231044
82	0xbe02f4a7	-0.1278864
83	0xbdd76657	-0.10517567
84	0xbc7eef94	-0.01556005
85	0xbdc43313	-0.09580054
86	0xbd92e682	-0.07172872
87	0xbe13c608	-0.14431012
88	0x3e17c888	0.1482259
89	0x3e11f180	0.14252281
90	0x3dedae3e	0.116055
91	0xbe12eb76	-0.14347634
92	0x3c68a6c6	0.014199918
93	0x3d32178c	0.043479487
94	0xbc213cd1	-0.00984116
95	0xbe474aae	-0.19462082
96	0xbd146e08	-0.036237746
97	0xbd4a3a15	-0.049371798
98	0x3e37c20d	0.17945118
99	0x3e951d7f	0.29124066
100	0x3da89dac	0.082331985
101	0xbc4be31c	-0.012444284
102	0x3e02c796	0.12771448
103	0xbde32371	-0.11090744
104	0xbd353e25	-0.04424872
105	0x3da18a3f	0.078876965
106	0xbe026e98	-0.127375
107	0xbe04f490	-0.12983918
108	0x3dac7438	0.084206045
109	0x3e95d2c0	0.29262352
110	0x3e2893ef	0.16462682
111	0xbd46e80d	-0.048561145
112	0xbcca87cc	-0.024722956
113	0xbd8a7fc2	-0.06762649
114	0xbdbc9dc2	-0.092097774
115	0xbda18fb4	-0.07888737
116	0xbe7bd834	-0.24594194
117	0x3d0f4441	0.0349772
118	0x3bc04302	0.005867363
119	0x3d48847f	0.048954483
120	0xbd330744	-0.0437081
121	0x3e03a3da	0.12855473
122	0x3d468df5	0.048475225
123	0xbdc5624f	-0.096378915
124	0xbd5114b4	-0.051045135
125	0xbd79f7e8	-0.061027437
126	0xbd7209f0	-0.05909151
127	0xbe13f705	-0.14449699
128	0xbbc4f09b	-0.0060101277
129	0xbd9ca7cb	-0.076491915
130	0x3d84c990	0.064837575
131	0xbd7d6d80	-0.061872005
132	0x3d54590c	0.051842734
133	0xbd9c827b	-0.07642075
134	0x3d064c07	0.03278735
135	0xbe14ded1	-0.14538123
136	0x3cd4e1cd	0.025986576
137	0xbd645ae4	-0.055750743
138	0xbe0940bf	-0.13403605
139	0xbd39893f	-0.045296904
140	0x3d330b1b	0.043711763
141	0xbd863db4	-0.06554738
142	0xbda547f2	-0.08070363
143	0x3caf9c03	0.021436697
144	0x3d6667cb	0.05625133
145	0x3dc5e92e	0.09663616
146	0x3d5599e8	0.05214873
147	0x3dcce9e7	0.10005551
148	0x3d97e540	0.07416773
149	0xbdb186c2	-0.08668281
150	0xbde364fb	-0.11103245
151	0x3d9b87a8	0.07594234
152	0xbdb9d405	-0.09073643
153	0xbcb69b24	-0.022290774
154	0x3d81c5e2	0.06336571
155	0x3c36b5fb	0.011151786
156	0x3d7f5d9f	0.062345143
157	0x3cc83e72	0.024443839
158	0x3e0aadfa	0.1354293
159	0x3dfd89d9	0.12379808
160	0xbe57c3ee	-0.21070835
161	0xbd0155ad	-0.031575847
162	0xbd94e9ac	-0.07271132
163	0xbba2306d	-0.0049496205
164	0xbd3126b5	-0.043249805
165	0xbe2d69f2	-0.16934946
166	0xbb5d6843	-0.0033784069
167	0xbdd6a873	-0.10481348
168	0xbe295ac5	-0.16538532
169	0x3d1a01ac	0.03759925
170	0xbd80c823	-0.06288173
171	0x3e11d57d	0.14241596
172	0xbe782764	-0.24233776
173	0xbe41227c	-0.18860811
174	0xbe632a76	-0.22184166
175	0x3ba249a7	0.0049526277
176	0x3e02d841	0.12777807
177	0xbcaabc55	-0.020841757
178	0x3d9860f5	0.07440368
179	0x3dbbc358	0.09168118
180	0x3e28f3c8	0.16499245
181	0x3db39a62	0.087696806
182	0xbd10cfcd	-0.035354424
183	0xbdbebd9b	-0.09313508
184	0x3da76995	0.08174435
185	0xbd001bf3	-0.031276654
186	0x3e5e7f1c	0.21728176
187	0xbd9975d9	-0.07493181
188	0x3e0ae945	0.13565548
189	0xbd3f67dc	-0.046729907
190	0x3e20c4ab	0.15700023
191	0x3d1028b3	0.035195064
192	0x3c968e6f	0.018378465
193	0x3c12be2a	0.008956471
194	0x3dd5bd64	0.10436514
195	0xbe8052fe	-0.25063318
196	0xbdb01543	-0.08597805
197	0x3d183837	0.037162986
198	0x3e08259a	0.13295594
199	0x3de73464	0.112892896
200	0x3d20abd1	0.039226357
201	0xbd932e12	-0.071865216
202	0xbd91cf9d	-0.07119677
203	0x3d825875	0.06364528
204	0xbddaa3f0	-0.106758
205	0xbd19625e	-0.037447326
206	0xbda59c15	-0.08086411
207	0x3d99794a	0.07493837
208	0xbc49cc18	-0.012316726
209	0x3e36a405	0.17836006
210	0x3d2ae74d	0.041724492
211	0xbd613ae5	-0.054987807
212	0xbdcad168	-0.09903222
213	0x3de9c368	0.11414224
214	0xbd8fa0cf	-0.07013094
215	0xbe4a5f85	-0.19763
216	0x3b37d963	0.0028053157
217	0xbdc9554d	-0.09830723
218	0x3dbbcd92	0.09170069
219	0xbdde618c	-0.10858449
220	0x3d03f911	0.03221995
221	0x3e06a195	0.13147576
222	0x3e030cd6	0.12797865
223	0x3c4fafb2	0.012676166
224	0xbddb5556	-0.10709636
225	0x3e136c06	0.14396676
226	0xbdcf11a5	-0.10110787
227	0x3d408d9a	0.04701004
228	0xbe1dec01	-0.1542206
229	0xbbb2b59b	-0.005453778
230	0xbde65526	-0.112467095
231	0xbce141bf	-0.02749717
232	0xbdc310c8	-0.09524685
233	0xbb2dc743	-0.0026516474
234	0x3e80f01f	0.25183198
235	0x3cdbb694	0.026820458
236	0xbd7ad0c9	-0.06123427
237	0x3c883670	0.01662752
238	0x3c918067	0.017761422
239	0xbe35580a	-0.17709365
240	0x3dd83498	0.105569065
241	0xbc54debd	-0.012992558
242	0xbd06ae19	-0.032880876
243	0x3cf8f5e6	0.030390691
244	0x3e18e2ff	0.14930342
245	0xbc83041e	-0.015993174
246	0xbd3f613d	-0.046723593
247	0x3cc3d236	0.023903947
248	0x3c7b8b6a	0.015353063
249	0xbe3ea05f	-0.18615864
250	0x3d832f5a	0.06405516
251	0xbd7f29e9	-0.062295828
252	0x3d4d128a	0.05006651
253	0xbdaa8cf8	-0.08327669
254	0x3de2576b	0.1105183
255	0x3e03de19	0.12877692

network_body._body_endoder.seq_layers.2.bias f4 [128]
0	0xbc926e28	-0.017874792
1	0x3d5c8777	0.053840127
2	0x3d569cc6	0.052395605
3	0x3d096d1b	0.033551317
4	0xbceaee12	-0.028677974
5	0xbda60f49	-0.08108384
6	0xbd26af93	-0.040694784
7	0x3c1bbd85	0.009505634
8	0xbc62f3f6	-0.01385211
9	0x3d528c4e	0.051403336
10	0x3d99083e	0.07472275
11	0xbc5c3915	-0.013441344
12	0x3d2fbc47	0.042904165
13	0x3d860109	0.06543166
14	0xbce5bb82	-0.028043512
15	0x3d8b0385	0.06787781
16	0xbd1db7fd	-0.038505543
17	0xbcb53278	-0.022118792
18	0xbd8400e6	-0.06445484
19	0x3cf2f529	0.029657917
20	0xbcac68f6	-0.021046143
21	0x3d42d773	0.04756875
22	0x3d85d987	0.06535631
23	0xbd2c1183	-0.042008888
24	0x3d7ff0bf	0.062485453
25	0xbadb1038	-0.0016713208
26	0x3d429e1c	0.047514066
27	0x3d5d02b6	0.053957663
28	0xba38844d	-0.00070387573
29	0x3d6aada5	0.057294507
30	0xbd3364e1	-0.043797377
31	0x3d18aca3	0.037274014
32	0x3d0192e1	0.031634215
33	0x3da06a8d	0.07832823
34	0xbc2c8652	-0.010530071
35	0x3d1fed49	0.039044652
36	0x3d265d60	0.040616393
37	0x3d9ef06d	0.07760701
38	0x3d0faae9	0.035075102
39	0x3d833536	0.064066336
40	0x3c34705e	0.011013119
41	0xbd29f387	-0.04149201
42	0x3d76bc01	0.06023789
43	0xbd125bb0	-0.03573197
44	0xbc1d87aa	-0.009614864
45	0x3d9f4352	0.07776512
46	0x3d82fb42	0.0639558
47	0xbc36a516	-0.011147758
48	0x3d95f5fd	0.07322309
49	0x3c9dc598	0.01925926
50	0x3c1a8f34	0.009433556
51	0xbc73e466	-0.014885997
52	0xbdb6d559	-0.089274116
53	0x3c611454	0.013737757
54	0xbba9e5b5	-0.005184854
55	0x3d554e4c	0.052076623
56	0xbd7947bc	-0.060859427
57	0x3cad9127	0.021187378
58	0x3b2973a1	0.0025856274
59	0x3bc1a1cd	0.0059091807
60	0x3d7ba82e	0.061439686
61	0xbc94730c	-0.018121265
62	0x3cef371d	0.029201085
63	0xbde8b240	-0.113621235
64	0xbd89aba3	-0.0672219
65	0x3d7afcaa	0.061276115
66	0xbd350275	-0.044191796
67	0x3d332168	0.04373303
68	0x3d6fc79b	0.058539968
69	0x3d88252b	0.06647714
70	0x3ce28ac9	0.027654069
71	0xbcb66103	-0.022263056
72	0x3d1a0136	0.03759881
73	0x3d320703	0.04346372
74	0x3d530581	0.05151892
75	0x3c47b200	0.012188435
76	0x3d4325a3	0.047643315
77	0xbd2854a2	-0.041096337
78	0x3d514c31	0.051098052
79	0xbd550c95	-0.052013952
80	0x3dc9afd0	0.09847987
81	0x3d1ed5bf	0.038778063
82	0x3d2c0b75	0.042003114
83	0x3d641998	0.05568847
84	0x3c526efa	0.012843842
85	0x3d6ff42c	0.05858247
86	0x3d3a586b	0.04549448
87	0x3d5e3f5d	0.054259647
88	0x3ce9686d	0.028492177
89	0xbd5f4314	-0.05450733
90	0xbdd0b32d	-0.10190425
91	0xbd45f06a	-0.04832498
92	0x3c7fcf91	0.0156134525
93	0xbc8d37e9	-0.017238574
94	0xbd1e23ea	-0.03860847
95	0x3d2dc378	0.04242274
96	0xbd488a5a	-0.048960067
97	0x3c6c6f13	0.014430779
98	0x3d0bce90	0.03413254
99	0x3d66583b	0.056236487
100	0xbda29107	-0.07937818
101	0x3d64de4b	0.055876058
102	0x3cb3e66c	0.02196046
103	0xbcb1411c	-0.021637492
104	0xbdb5b05e	-0.0887153
105	0xbcfa79f2	-0.030575726
106	0x3d739eeb	0.059477728
107	0xbd757072	-0.05992169
108	0xbcbb6f89	-0.022880333
109	0x3d29d490	0.04146248
110	0x3ce3fed5	0.027831474
111	0x3ce96cb9	0.028494226
112	0x3d82fa6e	0.06395422
113	0x3c1a6171	0.009422646
114	0x3d828244	0.063725024
115	0x3c1a66e7	0.009423948
116	0xbcc1c4ed	-0.023653472
117	0x3d801a8d	0.06255064
118	0xbc8b1151	-0.01697603
119	0x3d7ba3ef	0.061435636
120	0xbc340525	-0.010987555
121	0xbd4f86e2	-0.050665744
122	0x3c546120	0.0129626095
123	0x3ca073a3	0.01958639
124	0xbad4b2f1	-0.0016227645
125	0x3d5f86ff	0.0545721
126	0xbdb84e3b	-0.08999296
127	0x3c865719	0.016398953

action_model._discrete_distribution.branches.0.weight f4 [3, 128]
0	0x3de09689	0.10966212
1	0xbc08fb80	-0.0083607435
2	0xbde226cb	-0.110425554
3	0x3d73c638	0.059515208
4	0xbda8f4fd	-0.08249853
5	0x3e231b52	0.1592839
6	0x3d2abb9f	0.041682836
7	0x3dd69360	0.10477328
8	0xbdebff82	-0.115233436
9	0xbc940728	-0.018069819
10	0xbd7fc45d	-0.062443126
11	0x3d94d459	0.072670646
12	0xbd01fd12	-0.031735487
13	0xbd8dfd41	-0.0693307
14	0xbc8f75e7	-0.017512275
15	0xbd72c5a6	-0.059270523
16	0xbdc89a00	-0.09794998
17	0x3e478b14	0.19486648
18	0x3ca15f9d	0.019698912
19	0xbcb20ce1	-0.021734657
20	0xbdfa032a	-0.12207635
21	0xbce4c590	-0.027926236
22	0xbdd78cce	-0.10524903
23	0xbdc8c92b	-0.09803995
24	0xbd74c8aa	-0.05976168
25	0x3dc85f6e	0.09783827
26	0xbd0040a0	-0.03131163
27	0xbde859d6	-0.1134526
28	0xbd968cd1	-0.07351077
29	0xbda9c168	-0.082888424
30	0xbdc78dc2	-0.09743835
31	0xbd000c31	-0.031261627
32	0x3cb01e6f	0.021498887
33	0xbc70d594	-0.0146993585
34	0x3d81edd7	0.063441925
35	0xbd788522	-0.06067384
36	0xbe4683e5	-0.19386251
37	0xbb5aafe7	-0.0033369006
38	0xbde0cf15	-0.10976998
39	0x3cf80264	0.030274577
40	0x3e06daab	0.13169353
41	0x3d9d0d70	0.076685786
42	0xbe032986	-0.12808809
43	0x3d217ebf	0.039427515
44	0x3deb82de	0.1149957
45	0x3b5484b1	0.0032427723
46	0xbe070a44	-0.1318751
47	0x3d899bfb	0.06719204
48	0xbc714c7c	-0.014727708
49	0x3c39b4a2	0.01133457
50	0xbd5f03d3	-0.054447006
51	0x3cb57acb	0.022153279
52	0x3d9699dd	0.07353566
53	0xbdf71153	-0.12063851
54	0x3da4919a	0.08035584
55	0xbc9819a7	-0.01856692
56	0x3e0dd84c	0.13852042
57	0xbc7ee3b7	-0.015557221
58	0xbe2dbbbc	-0.16966146
59	0xbd1051b3	-0.035234164
60	0xbd1b9c4a	-0.037990846
61	0xbcd71f36	-0.02626
62	0x3c8731f0	0.016503304
63	0x3c83c11f	0.016083298
64	0x3daa1a7b	0.08305832
65	0xbcf6acb9	-0.030111657
66	0xbdaca090	-0.08429062
67	0xbd8cb846	-0.06871085
68	0xbdd71c50	-0.10503447
69	0xbd028ede	-0.03187453
70	0x3dca4b56	0.098776504
71	0x3d31335c	0.04326187
72	0xbd1aa92a	-0.037758984
73	0xbd6a060f	-0.057134684
74	0xbd9104c0	-0.07080984
75	0x3d562f3d	0.052291144
76	0xbd1c3276	-0.03813406
77	0x3d683fc8	0.05670145
78	0xbd426770	-0.047461927
79	0x3e2839b2	0.16428259
80	0xbcd6e563	-0.026232427
81	0xbc8ec8d7	-0.017429752
82	0xbb57e148	-0.0032940675
83	0xbdaa292f	-0.083086364
84	0xbcb43d2e	-0.022001829
85	0xbcfea1c2	-0.031082992
86	0xbda1aa92	-0.07893862
87	0xbd162f97	-0.03666648
88	0x3c07bd23	0.00828484
89	0x3ce70c80	0.028204203
90	0xbb68bade	-0.0035511772
91	0x3e38fd32	0.18065336
92	0xbdc7fdfd	-0.09765241
93	0xbdb2fcdc	-0.08739635
94	0x3d4209f8	0.04737279
95	0x3c049342	0.00809175
96	0x3b72591e	0.0036979388
97	0x3d435ad8	0.047694057
98	0xbd28d08e	-0.04121452
99	0x3de2b3a9	0.11069424
100	0x3e07fbbf	0.13279627
101	0xbd076e37	-0.033064093
102	0xbd489d57	-0.048978176
103	0x3d9687f2	0.07350148
104	0x3db23b99	0.087027736
105	0x3d88bab3	0.06676235
106	0xbc84a51b	-0.01619201
107	0x3d8126cc	0.06306228
108	0x3e0a58e9	0.13510479
109	0x3bc9d27e	0.006159126
110	0x3e07e27b	0.13269989
111	0xbd9a8bf7	-0.075462274
112	0xbdc2e32d	-0.095159866
113	0x3e05e69d	0.13076253
114	0x3ceedcfc	0.029158108
115	0x3dda48c5	0.10658411
116	0xbcb45289	-0.022012012
117	0xbd3dc216	-0.046327673
118	0x3dc88e8e	0.09792815
119	0xbd414a35	-0.04718991
120	0x3dfd6e94	0.12374607
121	0xbdde0798	-0.10841292
122	0x39a39df8	0.0003120748
123	0xbc119e4c	-0.008887839
124	0x3e3012f1	0.17194726
125	0xbda02dee	-0.078212604
126	0xbcf29b11	-0.029614957
127	0x3e0944d3	0.1340516
128	0xbd0f5c51	-0.03500015
129	0x3d0f279a	0.034949876
130	0x3e030be0	0.12797499
131	0xbd139540	-0.036031008
132	0x3d7c2bf3	0.06156535
133	0xbe5679dd	-0.20944925
134	0xbda22db2	-0.07918872
135	0xbe2ae180	-0.16687584
136	0x3e1981fb	0.1499099
137	0x3d0f93a2	0.035052903
138	0x3de43faa	0.111449555
139	0xbdeb383b	-0.114853345
140	0x3d9dd017	0.077057056
141	0x3d578c25	0.052623887
142	0xbcc12277	-0.023576004
143	0x3da2344a	0.079201296
144	0x3db3fdb8	0.087886274
145	0xbe85d4d0	-0.26138926
146	0xbe408441	-0.18800451
147	0x3d8459fd	0.064624764
148	0x3d3764df	0.044773933
149	0x3d3a63b4	0.04550524
150	0x3de4a831	0.111648925
151	0x3d81f887	0.06346231
152	0x3daee7b5	0.08540288
153	0xbe10fe08	-0.14159405
154	0x3d8c2f16	0.068449184
155	0x3e04df32	0.12975767
156	0x3dc98180	0.09839153
157	0x3dd3a3da	0.103339866
158	0x3d8126e2	0.063062444
159	0x3d4e5ebc	0.050383314
160	0xbc2f1327	-0.010685719
161	0x3d6eeca6	0.058331154
162	0xbd4dfc80	-0.05028963
163	0x3db35b32	0.087576285
164	0x3e500959	0.20316066
165	0x3d8e1ae8	0.06938726
166	0x3dc6cdaa	0.09707196
167	0x3b9eb4b5	0.0048433193
168	0xbe391d18	-0.18077505
169	0xbde3939a	-0.11112137
170	0x3e2c1254	0.16803867
171	0xbd7c932f	-0.061663803
172	0xbe10271e	-0.14077422
173	0x3d2a0cf6	0.041516267
174	0x3e12db75	0.14341529
175	0xbe04af91	-0.12957598
176	0x3d5075eb	0.050893705
177	0xbd36a46f	-0.04459041
178	0x3d67d246	0.056597017
179	0x3c8df08d	0.017326618
180	0xbe0889fe	-0.1333389
181	0x3dacf40f	0.08444988
182	0xbda7ec59	-0.081993766
183	0x3d6bb273	0.05754323
184	0xbe2447d4	-0.16043025
185	0x3d020d7b	0.031751137
186	0x3dfe7e55	0.1242644
187	0x3cff7b4d	0.031186724
188	0x3dba4018	0.09094256
189	0x3c12f86f	0.008970364
190	0x3be33bbf	0.0069346125
191	0xbd95fab7	-0.07323211
192	0xbdf2c1ba	-0.11853357
193	0x3d5ba4dd	0.053624023
194	0x3d497034	0.04917927
195	0x3dace0e8	0.08441335
196	0x3e0f5e57	0.14000832
197	0x3db5640a	0.088569716
198	0xbdbad644	-0.09122899
199	0xbd5a6207	-0.053316142
200	0x3d6e74e1	0.058216933
201	0x3d0ee37b	0.03488491
202	0x3db1d136	0.08682482
203	0xbc795d79	-0.0152200395
204	0x3d8b77ba	0.068099454
205	0xbe038a24	-0.12845665
206	0x3d87c281	0.066288956
207	0xbe27047a	-0.16310301
208	0x3d8e7aed	0.0695704
209	0x3d5477e3	0.051872145
210	0x3d895e16	0.067073986
211	0x3dbe552b	0.09293588
212	0x3d68ecf9	0.05686662
213	0x3d5d5cc2	0.05404354
214	0x3d8f1953	0.06987252
215	0x3daa7bd6	0.08324401
216	0x3cb418d8	0.021984503
217	0xbd9dc7dd	-0.077041365
218	0xbd4cb937	-0.049981322
219	0xbe69f855	-0.22848637
220	0x3de23b06	0.11046414
221	0x3da8a969	0.082354374
222	0xbd2b79eb	-0.041864317
223	0x3c3cfbcd	0.011534643
224	0xbd1ba6ef	-0.038000997
225	0xbcb1a895	-0.021686831
226	0x3db4ac08	0.08821875
227	0xbe0d8c99	-0.13823165
228	0xbe286908	-0.16446316
229	0x3d95a2a6	0.07306413
230	0x3d87e1d9	0.06634874
231	0xbe04ecd0	-0.12980962
232	0xbe503a44	-0.20334727
233	0xbda5be2a	-0.080929115
234	0x3d054439	0.032535765
235	0xbe059d88	-0.13048375
236	0xbe200873	-0.15628223
237	0x3c8351e6	0.016030263
238	0xbde27b8f	-0.11058723
239	0x3d8c4592	0.06849207
240	0x3e10132b	0.14069812
241	0xbdeb3bc1	-0.114860065
242	0x3c452aa7	0.012034095
243	0xbe39b70d	-0.18136235
244	0x3d1257b8	0.035728186
245	0x3d9c4007	0.076294
246	0xbe288e54	-0.16460544
247	0x3d8b9cf3	0.06817045
248	0xbe3a3d1a	-0.18187371
249	0x3d84c65a	0.06483145
250	0xbccc67f8	-0.02495192
251	0x3d54b1ec	0.051927492
252	0xbdec146f	-0.11527335
253	0x3da1434a	0.078741625
254	0xbdbc476b	-0.091933094
255	0xbe1fdad3	-0.15610819

action_model._discrete_distribution.branches.0.bias f4 [3]
0	0xbcde27a2	-0.027118508
1	0x3da10697	0.07862585
2	0xbde46165	-0.11151389

action_model._discrete_distribution.branches.1.weight f4 [3, 128]
0	0x3cae5433	0.021280384
1	0x3cedd7ef	0.02903363
2	0xbc9dc436	-0.0192586
3	0x3d5b599f	0.053552266
4	0xbd5093b9	-0.05092213
5	0x3da99269	0.08279879
6	0xbd94eff3	-0.07272329
7	0x3d7d8752	0.06189663
8	0xbdcaf197	-0.09909361
9	0x3c06f482	0.008237006
10	0x3c5c670c	0.013452303
11	0x3db4f108	0.088350356
12	0x3cdaa39a	0.02668934
13	0x3d0433eb	0.032276075
14	0x3e04713c	0.1293382
15	0x3cf3372b	0.029689392
16	0xbdad2d56	-0.08455913
17	0x3cdc092d	0.026859844
18	0x3cdd877d	0.027042145
19	0x3baea603	0.0053298487
20	0xbd67135c	-0.056414947
21	0x3c75fc6a	0.0150137935
22	0x3ccc55e6	0.024943303
23	0xbd70a4a7	-0.058750775
24	0x3cffbb86	0.031217348
25	0x3d9d5e7d	0.07684038
26	0x3cc87061	0.024467649
27	0x3b859bb8	0.004077401
28	0xbd325bf7	-0.043544736
29	0x3cbcc5a3	0.02304346
30	0xbe2656a0	-0.16243982
31	0x3d870562	0.065928236
32	0x3caed949	0.021343844
33	0x3b43ac93	0.00298575
34	0x3d9e4690	0.077283025
35	0x3cb96b45	0.022634158
36	0xbc4ffe89	-0.012694963
37	0x3c4da54e	0.012551619
38	0x3c97d4fa	0.018534172
39	0x3c9eba85	0.019376049
40	0x3da7d740	0.081953526
41	0xbd38caeb	-0.045115393
42	0x3cab9df2	0.020949338
43	0xbdb127d8	-0.08650178
44	0xbdb54fd4	-0.08853117
45	0x3cd5f85d	0.026119405
46	0x3cc84bc7	0.024450196
47	0x3d3eb757	0.046561565
48	0x3c79d93e	0.0152495485
49	0x3d862677	0.06550305
50	0xbe001bde	-0.1251063
51	0xbd9a6ceb	-0.07540306
52	0xbc04da50	-0.00810869
53	0x382d485a	4.1313797e-05
54	0xbcd4627f	-0.025925873
55	0x3c03eed0	0.008052543
56	0x3d4d45c1	0.05011535
57	0x3bc1d2dd	0.0059150294
58	0xbdeb17a2	-0.11479117
59	0x3d5dcdcc	0.05415134
60	0xbb324881	-0.002720386
61	0x3dee88f1	0.11647213
62	0x3d5bb54c	0.053639695
63	0xbcdceba1	-0.026967825
64	0xbcf4e937	-0.029896362
65	0x3be1b41f	0.006887927
66	0xbdb6284d	-0.088944055
67	0x3c79b403	0.015240672
68	0x3c8bbfec	0.017059289
69	0xbb007b1f	-0.0019604636
70	0x3cd179ca	0.025570769
71	0xbdefb16f	-0.11703765
72	0x3cf06ef7	0.029349787
73	0x3d0999a4	0.03359379
74	0x3b4c1549	0.0031140617
75	0x3d645b47	0.05575111
76	0x3c8ca33f	0.017167686
77	0x3c9791ee	0.018502202
78	0x3c33012a	0.0109255705
79	0x3d124ee5	0.03571977
80	0x3c9b2d29	0.018942432
81	0xba631a6b	-0.00086632994
82	0x3ca028d6	0.019550722
83	0x3cc620c8	0.024185553
84	0xbd6f08fd	-0.05835818
85	0x3686ecd0	4.02108e-06
86	0x3ce7e98f	0.028309612
87	0xbcc68390	-0.024232656
88	0x3cd8f261	0.026482763
89	0xbc95fdc9	-0.01830949
90	0x3db7a666	0.08967285
91	0x3c84bb62	0.016202632
92	0xbd3efae6	-0.046625994
93	0xbd146e32	-0.036237903
94	0xbe0c6e20	-0.13713884
95	0x3bb39c15	0.005481253
96	0xbd882403	-0.06647494
97	0xbb22c691	-0.0024837593
98	0x3dbd450e	0.09241687
99	0x3ddd23b4	0.107978255
100	0x3bfd3135	0.007726813
101	0xbbdbecc9	-0.0067115766
102	0xbc40f298	-0.011776589
103	0x3dd8bb68	0.1058262
104	0x3bcfaf6a	0.0063380497
105	0x3dc7969f	0.097455256
106	0x3c92c1b9	0.01791464
107	0x3d98d78f	0.074629895
108	0x3d37702c	0.04478471
109	0x3c5e224d	0.013557983
110	0x3da6353b	0.08115622
111	0x3bbfc9d2	0.0058529163
112	0x3cb38003	0.021911627
113	0x3ce2ecef	0.02770087
114	0x3cd77961	0.026302995
115	0x3d8eb8c1	0.06968833
116	0xbdaa9c14	-0.08330551
117	0x3c8c756b	0.017145833
118	0x3d8fcb9e	0.07021259
119	0x3cd06c53	0.025442278
120	0x3d5322ba	0.05154679
121	0xbdb23012	-0.08700575
122	0xbda4e019	-0.08050556
123	0xbced93f5	-0.029001215
124	0x3d210a57	0.0393165
125	0x3d02a120	0.031891942
126	0xbd8fd133	-0.070223235
127	0x3dc7a712	0.09748663
128	0x3da0a666	0.07844238
129	0xbd856e55	-0.06515185
130	0xbd36899a	-0.04456482
131	0xbd20f04e	-0.039291672
132	0x3e1f2cce	0.15544435
133	0x3d618b6d	0.055064607
134	0x3b304171	0.0026894475
135	0xbe12221b	-0.14270823
136	0x3db7497d	0.08949564
137	0xbd9e5b55	-0.07732264
138	0xbc7fbd86	-0.015609151
139	0x3d76a6c7	0.060217645
140	0xbc308f84	-0.010776404
141	0xbe038327	-0.12843
142	0x3e128fef	0.14312719
143	0xbd781821	-0.060569886
144	0x3def5839	0.11686749
145	0xbd2fa279	-0.042879555
146	0x3cd21304	0.025643833
147	0x3d472a2e	0.04862421
148	0x3d9c2456	0.07624118
149	0xbda737ce	-0.08164941
150	0xbdadd898	-0.084885776
151	0xbdc4239c	-0.095771044
152	0xbcc54786	-0.024081957
153	0xbda151c3	-0.07876923
154	0xbc87f931	-0.016598316
155	0xbc222287	-0.009895927
156	0xbd4ec1a7	-0.05047765
157	0xbce8f7f5	-0.028438548
158	0x3d79ded2	0.061003514
159	0x3d5c38c3	0.05376507
160	0xbdd2ccf4	-0.10292998
161	0xbd06b1f2	-0.032884546
162	0x3def4d29	0.11684639
163	0xbc2be09a	-0.010490561
164	0xbb672585	-0.0035270166
165	0xbc1e28a0	-0.00965324
166	0xbcd1a9c1	-0.02559364
167	0xbd83c5b1	-0.06434191
168	0xbd68e9ed	-0.056863714
169	0x3c4ff578	0.012692802
170	0x3ce5eb73	0.028066372
171	0x3cfc5191	0.030800613
172	0xbd3e744e	-0.046497636
173	0xbddcdd7f	-0.107844345
174	0xbcf88b9b	-0.030340007
175	0xbe52d5f3	-0.20589428
176	0xbda49299	-0.08035774
177	0xbdbba6b5	-0.09162656
178	0xbdb8be3d	-0.0902066
179	0xbd92bd03	-0.071649574
180	0x3dbbfe59	0.09179372
181	0x3e114cae	0.14189407
182	0xbd31ad18	-0.043377966
183	0xbcf8e2d1	-0.030381592
184	0x3d90e883	0.07075598
185	0xbe05ad2c	-0.13054341
186	0x3dbc9b85	0.092093505
187	0x3d9adc62	0.07561566
188	0xbbfbb433	-0.0076813935
189	0x3dd86e04	0.10567859
190	0x3a977a4c	0.0011556833
191	0x3c8a2964	0.01686544
192	0x3e1f5dd2	0.15563133
193	0xbd4d41c1	-0.050111536
194	0x3d858ca0	0.06520963
195	0xbd068c23	-0.03284849
196	0x3d0995c4	0.033590093
197	0xbc991f49	-0.018691676
198	0xbde8d958	-0.1136958
199	0xbdf1dfc5	-0.11810259
200	0xbbfdf2ae	-0.007749877
201	0xbe14fcd1	-0.14549567
202	0x3c9e7703	0.019343859
203	0x3d69bfc8	0.057067662
204	0xbdb8aebe	-0.090177044
205	0xbdb52de7	-0.08846646
206	0xbd6ce394	-0.057834223
207	0x3cb43b85	0.022001037
208	0xbd187344	-0.0372193
209	0xbdbc3777	-0.091902666
210	0xbb3b07a0	-0.002853848
211	0xbc2b9824	-0.010473285
212	0xbdf17856	-0.117905304
213	0xbd38a658	-0.045080513
214	0xbcc3912c	-0.023872934
215	0xbe525428	-0.20539916
216	0xbcac63a0	-0.021043599
217	0x3e33cb2f	0.17557977
218	0x3de52d54	0.11190286
219	0xbde535b4	-0.11191884
220	0xbd993867	-0.07481461
221	0x3ca1f42e	0.019769754
222	0x3b18f39d	0.0023338564
223	0xbe14e411	-0.14540125
224	0x3e54415e	0.2072806
225	0xbe201d1f	-0.15636109
226	0x3e1a4342	0.1506472
227	0xbcbcc91a	-0.023045111
228	0x3dba8981	0.09108258
229	0xbdc96bb3	-0.09834995
230	0xbddd1769	-0.10795481
231	0x3cebad05	0.028769026
232	0x3d37b15b	0.044846874
233	0x3dce4d8a	0.10073383
234	0xbe1dc89f	-0.15408562
235	0x3e1c752a	0.1527907
236	0xbcf3d84b	-0.029766222
237	0xbd81191b	-0.063036166
238	0x3c428725	0.011873041
239	0xbe2d2b16	-0.16910967
240	0xbe555020	-0.20831347
241	0xbc414e0f	-0.011798396
242	0xbda2619e	-0.07928775
243	0xbe15c98b	-0.14627664
244	0xbdcb7062	-0.09933545
245	0xbcb8abda	-0.022542883
246	0x3d05679d	0.032569516
247	0xbdf6eca9	-0.12056858
248	0xbddc5bc8	-0.107596934
249	0x3db13bc5	0.08653978
250	0xbbd71171	-0.0065633585
251	0xbdc08a0d	-0.09401331
252	0x3d38ff5d	0.04516541
253	0xbdddf6fe	-0.10838126
254	0x3df8b5e6	0.121440694
255	0xbd1d34fc	-0.038380608

action_model._discrete_distribution.branches.1.bias f4 [3]
0	0x3d117ed3	0.03552134
1	0xbdadd17b	-0.08487221
2	0x3bbfbdb1	0.0058514704
