results/ppo/Racing/Racing-3841.onnx (onnx, 88644 bytes, 9 tensors)

discrete_act_size_vector f4 [1, 2]
000000 00 00 40 40 00 00 40 40
       3.0 3.0

network_body._body_endoder.seq_layers.0.weight f4 [128, 29]
000000 64 3c d3 bc 20 dd 6b 3e 40 8f b7 3d c5 c3 82 3e
       -0.025785632 0.23033571 0.0896287 0.25539985
000010 71 cb ba be f7 07 c9 3d 15 7b ef 3e 91 ea 7b 3e
       -0.36483338 0.09815972 0.46773592 0.24601199
000020 4c 96 6c 3e 93 49 29 be ec 6a 9e 3e 84 53 0f 3e
       0.23104209 -0.16531973 0.3094095 0.13996702
000030 b1 0c aa 3d f4 66 28 3b 23 81 30 be ee 98 ad 3e
       0.08303202 0.002569613 -0.17236762 0.3390574
000040 c3 00 c7 bd 72 aa 37 3e 28 e6 f6 bc a8 c0 11 3e
       -0.09716942 0.17936113 -0.030139044 0.14233649
000050 1c 16 bb bd 5f 47 9f 3e b9 35 bd bd 28 49 25 be
       -0.091350764 0.3110914 -0.092387624 -0.16141188
000060 b0 da 9c be a0 e6 37 3d 95 d1 a9 3e c9 fe db bd
       -0.30635595 0.044897676 0.3316771 -0.10741956
000070 24 a2 9b bd e7 ec 31 3e 80 67 e8 be a8 37 1a 3e
       -0.07599285 0.17375527 -0.45391464 0.15060294
000080 40 89 7e 3e 2d 3a 33 3d 49 44 51 3e d5 cf 2b bd
       0.24857044 0.043756653 0.20436205 -0.04194625
000090 aa 47 4d 3e 67 b3 00 be 7f 9b 58 be 24 86 93 3e
       0.20046869 -0.12568437 -0.21153067 0.2881328
0000a0 77 88 1f 3e 84 84 05 bd b5 fb 2c 3d 78 8b a0 be
       0.15579401 -0.03259708 0.042232234 -0.31356406
0000b0 7b 38 63 bd 23 93 33 bf 62 17 6a 3e ef 1d a8 bd
       -0.055473786 -0.7014639 0.22860482 -0.082088344
0000c0 25 e6 91 3d 92 21 9a be 3d 8c 08 be c5 7d 65 be
       0.07123975 -0.30103737 -0.13334747 -0.22411259
0000d0 4c 9f 26 bd 9f 6d 8e be b5 b8 31 3e 5d b7 91 bd
       -0.04067926 -0.2781801 0.17355616 -0.07115052
0000e0 56 36 8c 3e c8 f4 ed 3d 09 e5 88 3e e3 48 8f bd
       0.27385205 0.11618954 0.2673724 -0.06996324
0000f0 df 32 29 be 41 77 d1 be 16 b0 d1 3d 1b db 9b be
       -0.16523312 -0.40911296 0.10238664 -0.30440602
000100 9b 95 31 bd 17 f4 90 be 8c 69 f7 3e 58 a4 75 bd
       -0.043355566 -0.28311226 0.48322713 -0.059971184
000110 70 39 cd 3d e2 45 a7 bd 73 0d dc bc 5d b4 88 3e
       0.10020721 -0.08167626 -0.026861882 0.26700106
000120 17 32 45 bd c0 e3 9d be 66 be 4e 3e 4d a6 37 be
       -0.048143473 -0.30837822 0.20189819 -0.17934532
000130 48 67 14 bf 43 c9 3a bd d0 17 b1 bd 43 2b e5 3d
       -0.57970095 -0.045602094 -0.0864712 0.11189892
000140 45 d6 88 bd 35 45 f0 bd 9b f5 69 3e 83 c9 bf bd
       -0.06681494 -0.1173195 0.22847597 -0.09364607
000150 2b 3d ac 3d e8 3b b1 3e 50 19 5a 3d d5 67 3f be
       0.08410104 0.34616017 0.053246796 -0.18691953
000160 33 4d 19 3d 71 ac 19 3e f9 5c 5a be 2c 64 c2 bd
       0.03742714 0.15007187 -0.21324529 -0.094917625
000170 a6 bc 8c 3d 99 b9 83 3e 05 3d f4 3d f2 d9 b1 3e
       0.06871919 0.25727537 0.11925701 0.34736592
000180 86 7b dd bd e6 62 35 bd a0 b0 97 be 4a d9 df be
       -0.10814576 -0.04428377 -0.29626942 -0.43720466
000190 03 4a c7 3d c1 6e dd 3e bf 7d cc 3d ee 7b 48 be
       0.097309135 0.4324856 0.09984922 -0.19578525
0001a0 16 27 e9 3e 25 77 9e be d4 96 5a be b3 5c b7 be
       0.45537633 -0.30950275 -0.21346599 -0.3581291
0001b0 f3 ad 85 3d eb a8 9e be ff 0f aa bc 97 68 11 3e
       0.06527319 -0.3098825 -0.02075958 0.14200054
0001c0 31 25 57 bd 64 14 b3 be 40 ce c7 bd 72 5a 68 be
       -0.052525703 -0.34976494 -0.09756136 -0.22690752
0001d0 af 26 85 be 3c 99 95 3e fe 29 60 3e 3c da 0c 3f
       -0.26006076 0.2921847 0.21891019 0.550205
0001e0 92 72 fa 3e 7d 99 b3 bd 24 95 f6 bc b5 a3 8d 3e
       0.48915535 -0.0876951 -0.030100413 0.2766396
0001f0 28 bb 0d be 36 59 82 3d b9 ea 37 3b 62 88 61 3e
       -0.13840926 0.06364672 0.002806349 0.22024682
000200 5f f1 6f 3d e5 e1 17 3e f8 7c 16 3e 2d fb ac 3e
       0.0585798 0.14832266 0.1469611 0.33785382
000210 45 b8 f8 bd 3a 70 5d ba 08 ef 45 be ce 86 65 bd
       -0.121445216 -0.0008447204 -0.19329464 -0.056036763
000220 87 21 8b 3d dd 6b d9 bd 52 7f 84 3e 72 a9 09 3e
       0.06793504 -0.106162764 0.25878388 0.13443545
000230 4d de a6 3e b5 b1 56 be fc e1 3e bd 59 a9 e6 3d
       0.32591477 -0.20966227 -0.046602234 0.11262769
000240 17 ff eb bd 4f 7e c7 3e d9 d8 87 3e c2 a9 09 bf
       -0.11523264 0.38963553 0.2653263 -0.53774655
000250 1f 76 45 3e 37 94 16 3e 81 ca 09 bf 68 7f b4 3b
       0.19283341 0.14704977 -0.5382462 0.005508352
000260 92 57 4c bd 1a e8 41 3e 0c 79 8e be 38 45 bb be
       -0.0498882 0.18936196 -0.27826726 -0.36576247
000270 c0 44 91 be 26 c0 7d 3c f5 52 91 3c 59 6f 9f bd
       -0.28372765 0.015487706 0.017739752 -0.0778491
000280 fe 84 3e 3e 5f e6 16 3e 3b a1 22 be bb 03 93 3b
       0.1860542 0.14736317 -0.15881817 0.0044865287
000290 99 ba 32 3d 71 b8 d9 3c ec 5d e3 3d 8a 95 cb be
       0.043634985 0.026577206 0.111018986 -0.39762527
0002a0 7e 52 98 be 88 12 35 3e 5b c6 d0 bd 6f 70 d5 3d
       -0.29750437 0.1768285 -0.10194083 0.10421836
0002b0 4b a5 a0 bd 1c 0e 13 3e 87 1f 9b 3d 2b 84 71 3d
       -0.07844027 0.14360851 0.07574373 0.058963936
0002c0 a6 a4 27 bc 81 bf 4c 3d 0c 0b 55 be b3 18 05 3e
       -0.010232126 0.04998732 -0.20804995 0.12997703
0002d0 19 0d f1 3d 55 e6 9b 3b b1 79 e4 3e cb d4 84 be
       0.11770076 0.0047576823 0.44624093 -0.25943598
0002e0 6c 3c 16 bd 20 b4 f1 bd dd 6e 2c 3e 8b 1c 3d 3e
       -0.036678717 -0.11801934 0.16839166 0.1846792
0002f0 b1 c3 9c bb ab cf 1e bd f5 41 e4 3d dd 9a 3f be
       -0.0047840704 -0.038772266 0.11145393 -0.1871142
000300 61 11 c0 bd 1a b9 74 be b5 30 4b be 7b 93 35 be
       -0.09378315 -0.23898736 -0.19842799 -0.1773204
000310 b4 71 a8 3d 80 36 ca 3d a5 78 d7 3d ac 29 9c 3e
       0.08224812 0.09873676 0.10521058 0.30500543
000320 7c cd af be c5 a8 09 bf bc cd 7e 3d 79 3c 98 bd
       -0.3433646 -0.53773147 0.062207922 -0.07433409
000330 56 c7 d1 3d 28 88 82 3d 09 a0 0a 3e 64 aa f5 3d
       0.102430984 0.06373626 0.13537611 0.1199539
000340 99 3d c0 bd a7 b0 4f 3e 92 fd 45 be d8 65 1d 3e
       -0.09386749 0.20282231 -0.1933501 0.15370882
000350 68 72 20 3e d8 87 4e be 94 20 34 3e 80 42 5b bc
       0.15668643 -0.20169008 0.17590553 -0.013382554
000360 25 37 43 3d 61 60 1a 3e 68 0f 16 be 2c 6e 9f 3d
       0.04766001 0.15075828 -0.14654315 0.077846855
000370 0b 50 b6 3e a2 7d 09 bf f9 55 0b be de 00 4c 3e
       0.35607943 -0.53707325 -0.13607015 0.19922206
000380 83 02 20 be 01 b9 16 3e 3b cb 9a 3e 35 0c ae 3a
       -0.15625958 0.14719011 0.30233178 0.0013278784
000390 77 a4 16 3e f9 61 5f 3e 1b 3d 59 3c b3 03 93 3d
       0.14711176 0.21814717 0.013259198 0.0717844
0003a0 69 53 6a be 20 75 e8 3e 1d be 0b bc 81 8d 0c be
       -0.22883381 0.4540186 -0.008529213 -0.13725854
0003b0 86 9c c5 be 65 c2 73 be 73 ea 2e be 22 5f 5d 3e
       -0.3859598 -0.23804624 -0.17081623 0.21618322
0003c0 36 65 c8 bd d7 86 93 3c 35 48 5e bd e9 25 ae 3d
       -0.097849295 0.018008633 -0.05426808 0.085033245
0003d0 15 9e 28 bd f0 ae e5 3d 97 55 e1 3d 15 97 23 3e
       -0.041166384 0.11215007 0.11002653 0.15975602
0003e0 de f3 46 3d d9 a2 50 3e ac d2 90 be 7c cf 38 bd
       0.048572414 0.20374621 -0.2828573 -0.045119748
0003f0 79 36 c3 bd 31 9b 8e bc 4f 98 7f bb 32 d6 0a 3e
       -0.09531874 -0.017407985 -0.0039000695 0.13558272

network_body._body_endoder.seq_layers.0.bias f4 [128]
000000 49 67 e7 3c de 9e 5e 3d ed b0 98 3d e4 00 24 3d
       0.028247492 0.054350726 0.07455621 0.040039912
000010 b5 42 08 3d 1c f9 b6 3d 42 14 8b 3c 0c cb ba 3c
       0.03326674 0.089342326 0.016977433 0.022801898
000020 50 aa 1b 3c 1f d2 e6 bc cb 5d 71 bc 7f f3 67 3c
       0.009501055 -0.028176365 -0.014731835 0.014157175
000030 3a 50 f4 3b 29 02 e2 bc a8 de b5 3c 7d 1e 14 bd
       0.007455853 -0.02758892 0.022200897 -0.03616189
000040 8f e6 92 3c c6 c2 f7 3c 5b 57 8f 3d 79 bf 92 3d
       0.017932205 0.030244242 0.069990836 0.07165427
000050 07 91 80 3d b3 d4 f9 3c 55 fd 27 3d a6 53 ea 3b
       0.06277662 0.03049693 0.04101308 0.007151085
000060 09 86 13 bb ed df 4c 3d 57 fd 4a 3d 41 5a 1c 3d
       -0.002251031 0.05001824 0.04955801 0.03817201
000070 aa 1c 8d bd 54 5c c2 3c 1d e8 3a bc 47 f1 33 3d
       -0.06890233 0.023725666 -0.011407879 0.043931272
000080 4d 52 52 3c 65 c5 ae 39 85 99 8b 3d e3 cd f2 bc
       0.012837005 0.00033334937 0.06816391 -0.02963919
000090 0a ae d8 bc 4c 4f 70 3d d5 b6 3c 3d f5 bb 1e 3c
       -0.026450176 0.058669373 0.0460728 0.009688367
0000a0 40 d7 7c 3c 93 a5 c1 bc 0b 1b 27 3d 3d 0e 43 3d
       0.015432179 -0.023638522 0.040797275 0.047621
0000b0 a6 c9 11 3d 7e 53 2f 3d 9b 7b ce 3c 43 b6 d3 bc
       0.035592698 0.042804234 0.025205424 -0.025843745
0000c0 b0 c9 a5 3c 4f ab 75 3c b6 de b7 3c b4 63 cd 3c
       0.020237774 0.014994456 0.022445064 0.025071956
0000d0 da 51 7c 3d 5b 40 71 3c a6 2d e9 3c 65 61 10 bb
       0.061601497 0.014724816 0.02846415 -0.0022030708
0000e0 a0 e0 2b 3d f2 2d bc 3c cc 82 69 3b f0 83 2a bd
       0.041962266 0.022971127 0.003563094 -0.04162973
0000f0 99 f0 39 3d 6f c1 26 3d 20 19 a3 3d bd 74 be 3c
       0.045395467 0.040711816 0.079637766 0.023249025
000100 f9 e9 bd bc 87 8e 1b 3d bb 1e 4a 3d 1b cf e0 3c
       -0.023182856 0.03797772 0.049345713 0.027442506
000110 2c a1 c4 3c da 43 56 3a e4 bf 00 be ee 7e 16 3c
       0.024002634 0.0008173563 -0.125732 0.009185536
000120 20 7d fe 3c 44 cf 33 3d 9f 4e 08 3d 00 9d 06 3b
       0.031065524 0.043898836 0.033278104 0.0020540357
000130 a2 09 4c 3d 09 f2 1a 3d 1c ba d6 bd b7 b9 20 3d
       0.049813874 0.03782848 -0.10484716 0.03923961
000140 b9 5d c4 bd 22 b4 0e bd c1 bd 19 bd ed 26 12 3d
       -0.09588189 -0.034839757 -0.03753448 0.035681654
000150 df 82 aa 3c 24 a0 65 bb b8 08 47 3d 47 72 5a 3d
       0.020814357 -0.0035038078 0.0485923 0.05333164
000160 05 03 35 bc 17 7a 7e bc 85 a5 7b 3d c5 21 09 bd
       -0.011048083 -0.015532038 0.06143715 -0.03347947
000170 de 88 2e bd f9 ce 30 3d f3 39 20 3d d5 7a 04 3d
       -0.042610995 0.043166135 0.039117765 0.032343704
000180 8e 46 6f 3d 94 33 db 3c d3 15 04 3d a0 81 5e 3d
       0.058416896 0.026757993 0.032247376 0.05432284
000190 2d c3 d9 bc e0 21 80 3d e8 a1 cc 3d 0c 25 a3 3d
       -0.026582325 0.06256461 0.09991819 0.079660505
0001a0 f4 3b 16 3d 73 76 29 3c 3a 5e 42 bc 56 2e b7 bb
       0.03667827 0.010343182 -0.011863286 -0.0055902405
0001b0 2b 7a c9 3d 39 35 40 3d f2 5f a4 3d d2 d6 bb 3c
       0.09837755 0.046925757 0.080261126 0.022929583
0001c0 4f 8f 74 bd 6a b6 85 3d a4 d0 30 3d 2f 18 8f 3d
       -0.059706982 0.06528933 0.043167725 0.069870345
0001d0 98 28 7d bb 00 a1 19 3d c3 1b ee bc 4b 78 45 bc
       -0.0038628932 0.037507057 -0.029065972 -0.012052606
0001e0 2e d3 2c 3d e4 5d 7b 3d d0 cc 30 3d 9d f1 04 3d
       0.042193584 0.061368838 0.043164074 0.032456983
0001f0 60 ba bf bc 6b 87 05 3d 02 6a 09 bc 7d eb b2 3c
       -0.0234043 0.032599848 -0.008387091 0.021840805

network_body._body_endoder.seq_layers.2.weight f4 [128, 128]
000000 06 29 ed 3d f8 86 97 3d b9 2d c3 3d d3 ca 98 bc
       0.1158009 0.0739879 0.09530205 -0.018651402
000010 02 bd 06 3e de 5d 37 3e 7a 17 81 bd f4 56 4e be
       0.13158038 0.17906901 -0.06303306 -0.20150357
000020 32 90 ff bd a3 f9 c3 bc c2 ee 13 3e 93 ae e6 bc
       -0.12478675 -0.023922747 0.14446548 -0.028159415
000030 ed 8c 78 bd e8 2e 91 bd 01 84 59 3d 7e 1a 2a bd
       -0.060681272 -0.07089025 0.053104404 -0.04152917
000040 30 6b bf bc 77 51 81 be 1a 8c 40 be a4 24 7b 3d
       -0.02336654 -0.25257465 -0.18803445 0.06131424
000050 e0 64 15 3e fb 5e cb 3d e0 bb 3d bd 7c 73 5f 3b
       0.14589262 0.099302255 -0.04632175 0.0034095934
000060 02 60 c7 bd e8 e7 24 bd 76 75 10 3d 68 b8 7c bd
       -0.09735109 -0.040260226 0.03526827 -0.0616993
000070 04 10 42 bd a5 c2 e3 3b 61 b0 93 bd db ea bb bd
       -0.047378555 0.0069506937 -0.07211376 -0.091756545
000080 ce 71 dd bc 5f 9c 1c 3e 2e 63 a9 3d 5d f4 1d be
       -0.027031805 0.15294026 0.0827087 -0.15425248
000090 29 c2 60 bd f4 29 a6 bc 5c b6 2c bc 7b 73 02 bd
       -0.054872666 -0.020283677 -0.010541525 -0.031848412
0000a0 e7 3e 88 3d 7e 91 0c be f9 d5 07 be 56 39 c9 3c
       0.06652623 -0.13727376 -0.13265218 0.024563473
0000b0 ea 96 0a bd 64 70 0c 3e df 37 50 3e 8a 67 84 3c
       -0.03383533 0.13714749 0.20333813 0.016162653
0000c0 7b 36 f3 bd e3 90 d7 bd 00 be 91 bd b0 f8 14 be
       -0.11875626 -0.10525682 -0.07116318 -0.14547992
0000d0 ee e7 a8 3c 7d c0 43 be 20 6f cb 3d 1f 9b 0f be
       0.020618405 -0.19116397 0.09933305 -0.14024018
0000e0 30 d3 fc 3c c7 74 47 3d 3b 9f 95 bd 7e 93 ca bd
       0.03086242 0.048695352 -0.073057614 -0.09891413
0000f0 dd b6 67 bd 81 72 af 3c 29 42 aa 3d cc 63 27 be
       -0.056570876 0.021416904 0.083134 -0.16346663
000100 31 9c 8d bd 7d 36 01 3e 03 04 2a 3e a0 33 a3 bd
       -0.06914557 0.12618442 0.16603093 -0.07968831
000110 a8 ff 46 3d b4 ae 90 be a4 30 e5 bd d9 bc a9 bd
       0.048583657 -0.28258288 -0.11190918 -0.08287973
000120 9b 0d 00 bd ba 52 00 3e 02 1e bf 3d 3e f9 5f bc
       -0.031262975 0.12531558 0.093318954 -0.013670264
000130 89 18 2a 3e 34 14 40 3d 54 aa 6b be 5a eb ae bd
       0.16610922 0.046894267 -0.23014194 -0.085409835
000140 d9 61 bc bd 7f 8f 10 3e 5c 4c f2 bb b8 63 a4 bd
       -0.091983505 0.1411724 -0.0073943567 -0.08026832
000150 28 e3 2b bd bc e6 3f be 16 69 2a bb bc e3 03 3e
       -0.04196468 -0.18740362 -0.0026002578 0.12879843
000160 3f 6a 06 be 2f ff 24 3d 5f 82 06 3d d7 f8 93 bd
       -0.13126467 0.040282425 0.032839175 -0.07225197
000170 d7 a4 8e be 0e a6 90 3d 66 95 07 3e eb e1 e5 bb
       -0.27860138 0.070629224 0.13240585 -0.007015457
000180 d8 c3 d3 bb 1b a9 f7 bc f2 44 cf 3d 92 73 a7 3d
       -0.0064625554 -0.030232003 0.10120572 0.0817634
000190 e4 97 25 3d 62 eb 82 bd c9 79 4b 3e fd 04 fd 3d
       0.040428057 -0.06392552 0.19870676 0.12354467
0001a0 36 c3 2b bd 86 7d 20 bd 95 7d 12 3c e3 4b 45 bd
       -0.041934215 -0.03918221 0.008941074 -0.048168074
0001b0 53 96 5c 3d e7 88 0b 3e 54 aa 9b 3c a5 91 fe bd
       0.053854298 0.13626443 0.019002117 -0.12430123
0001c0 df 76 26 bd 7b 5d 45 3e a8 68 04 3e 6f 51 46 bd
       -0.040640708 0.19273941 0.12930548 -0.048417505
0001d0 97 fb 18 3d 83 e6 99 3d a5 c2 59 bd 22 01 8a 3d
       0.03734931 0.0751467 -0.053164143 0.06738497
0001e0 e6 05 a8 bd 10 0f 72 3d 51 50 e1 3d 65 9e 24 3e
       -0.0820425 0.059096396 0.11001647 0.16076048
0001f0 11 56 26 3d 86 4f c0 3d 91 d7 e6 bd 70 1c 95 bd
       0.040609423 0.09390168 -0.11271585 -0.07280815
000200 d9 c3 71 bb a3 92 30 bd 27 c1 aa 3e d1 2a 84 be
       -0.0036890416 -0.043108594 0.3335049 -0.25813916
000210 34 3c 21 3c 9c ec e6 3c 0c e6 05 be 91 e5 7e 3c
       0.009841014 0.028188996 -0.13076037 0.015557663
000220 df 8b eb bd 8d 86 5f 3d 17 8f 02 3e a4 6d f4 3d
       -0.11501288 0.054571677 0.12749897 0.11934975
000230 5b 30 e8 bd 19 fd 58 bd cf 0b ac 3d 08 10 17 3d
       -0.11337348 -0.052975748 0.0840069 0.036880523
000240 1d 21 81 bd f5 c1 b2 bd 24 4a b4 3d 75 46 3c 3e
       -0.06305144 -0.087284006 0.08803204 0.18386252
000250 e3 29 9c bc 99 0e 11 3e bb b2 94 bc 35 e8 56 bd
       -0.019062942 0.14165725 -0.018151632 -0.052467544
000260 a7 7d 9d bd 15 3f 5f 3d b7 3a c6 bd 29 c3 e6 3c
       -0.07689982 0.05450352 -0.09679168 0.028169231
000270 c6 48 50 bd 1a d4 30 3d 5b 8f 53 3e 8e 9c 58 3e
       -0.050850652 0.043171026 0.20660155 0.21153471
000280 e4 f1 a1 bd 49 fa f6 3d c4 14 d7 bc 34 77 13 3d
       -0.07907465 0.12059457 -0.026255019 0.036002353
000290 e8 92 f6 bd ec 81 7c be eb 5f 77 3d 50 bd 74 3e
       -0.12039739 -0.24658936 0.06039421 0.23900342
0002a0 93 8b cf 3c ea 76 3e bd 3a 27 88 3d 72 8d 87 3d
       0.025335109 -0.046500124 0.06648107 0.066187754
0002b0 8a a5 50 bd ee 17 05 bd 27 6b 40 bd 00 0e 11 3e
       -0.05093912 -0.032493524 -0.04697719 0.14165497
0002c0 98 63 d9 3d 5c 60 7a bd bc ea a7 3d 90 30 22 3c
       0.10614699 -0.06112705 0.08199069 0.0098992735
0002d0 55 00 ef bc f4 97 06 bd 4b ac 06 3e 91 f6 be 3c
       -0.029174963 -0.032859758 0.13151662 0.023310931
0002e0 ff b1 ef 3d 48 dd ac bd 57 eb df bd 24 c5 3d bc
       0.11703872 -0.084406435 -0.109335594 -0.0115826465
0002f0 9b a7 e1 3d 2e 34 ad bd 88 76 1b 3d e7 74 64 bd
       0.11018296 -0.08457218 0.037954837 -0.05577555
000300 e5 29 0f be ea 6e 88 bb 33 03 6a 3e 6f db 2d 3d
       -0.13980825 -0.0041636126 0.22852783 0.042445596
000310 8b 1b 10 3e ca 9c 36 be b9 ca 25 be 16 71 81 bd
       0.14073007 -0.17833248 -0.16190614 -0.063203976
000320 5a b8 fc bd c0 b0 a9 bd 2a 40 be 3d 4f ba 68 bd
       -0.1233985 -0.082856655 0.09289582 -0.056818303
000330 93 15 07 3d 7a 5f 52 bd 42 3a f3 bd 71 99 08 be
       0.03297956 -0.051360585 -0.11876346 -0.13339783
000340 ab 37 bf bd 62 3b 55 be 0e 03 af 3c a8 5f 9e bd
       -0.0933679 -0.20823434 0.021363761 -0.07733089
000350 5f f4 11 3e 80 92 c1 bb 36 93 3e 3e c6 55 37 3e
       0.14253376 -0.0059073567 0.18610844 0.17903814
000360 87 dd ba 3d 1b e8 f8 bd a6 aa e3 3d 52 86 25 3e
       0.09124284 -0.121536456 0.11116533 0.1616452
000370 fd 98 8d be c3 37 5e bd a9 53 84 3d 5a f0 7f bd
       -0.27655783 -0.054252397 0.064612694 -0.062485076
000380 c7 49 3c 3c 55 2f d4 3c fc 3c 88 bd dc ce cf bc
       0.011492199 0.025901476 -0.06652257 -0.025367193
000390 8f 96 86 bc 79 8f 45 bd be 8a 4b bd da c3 0c 3d
       -0.016429214 -0.04823253 -0.04969286 0.034366466
0003a0 48 e6 82 3d c8 c5 07 bd e3 cd 6e bd 41 f6 34 3d
       0.06391579 -0.033147603 -0.058301818 0.04418016
0003b0 56 f9 4e 3d 34 db df bd ea 25 ab bb 5d 49 d3 3d
       0.050530754 -0.109304816 -0.0052230256 0.10316727
0003c0 b4 2a 6b be 59 86 52 3d 41 b9 72 3d 5a e4 03 3e
       -0.22965509 0.051397655 0.059258703 0.12880078
0003d0 48 99 bc bd 98 c3 3d bd e6 b8 18 be 7b f1 6e 3d
       -0.092089236 -0.04632911 -0.14914283 0.058335762
0003e0 9d b3 17 bd 9b 9c 79 3c 1c f3 83 be 73 58 89 bc
       -0.037036527 0.015235092 -0.25771415 -0.016765809
0003f0 2f 5c 5b be cd 67 38 bd 5b ce c9 3d ac a9 a0 3d
       -0.21421884 -0.045020867 0.09853812 0.07844862

network_body._body_endoder.seq_layers.2.bias f4 [128]
000000 03 3b 62 3d 54 d1 4b 3d 8c ca 34 3d 5a bc 16 bd
       0.05523206 0.049760178 0.044138476 -0.03680072
000010 c2 a8 23 3d 7d 7c e5 3b c6 c9 20 3d 80 43 1e 3b
       0.039955862 0.0070033656 0.039254926 0.002414912
000020 29 ff 4d 3d 2b fa 43 3d cf 54 a4 bc 22 3d 62 bd
       0.050292168 0.047846 -0.020059971 -0.055234082
000030 8e 7b 8a 3d 35 83 35 3d d0 7b 3e 3d a9 ce 69 3d
       0.067618474 0.044314582 0.046504796 0.057081852
000040 43 de 5e 3c 67 c3 30 3d 39 70 03 bd 9c 77 08 bc
       0.013602796 0.0431551 -0.032089446 -0.008329298
000050 5a d2 ff bc 7e ab 96 3d 61 c0 cf ba 91 bf 54 3d
       -0.031228233 0.07356928 -0.001585018 0.051940504
000060 aa c5 4e 3b 57 de 10 3b f6 80 ec 3b e2 72 3f bc
       0.0031550922 0.002210518 0.007217522 -0.011685105
000070 e1 a0 b0 3c cc 46 46 3c 68 c1 4f 3d 98 95 3d 3d
       0.021561088 0.01210184 0.050721556 0.04628524
000080 d8 2c 97 bc b8 d5 15 3d 97 a7 20 3c b0 a9 81 3d
       -0.018454 0.03658077 0.0098055815 0.063311934
000090 85 e6 20 3d f1 a4 2f 3c fd 38 13 3d d9 c6 25 3d
       0.03928234 0.010720477 0.03594302 0.04047284
0000a0 6a f2 4e 3d a1 04 33 3d 46 f0 b1 bd 1a cd 66 3c
       0.050524153 0.043705586 -0.08688407 0.014086986
0000b0 e4 63 3b 3d d7 05 ff 3c dd 3e 7a 3d 57 7a a9 bd
       0.04574956 0.031130714 0.061095107 -0.082752876
0000c0 49 1f 7c bc e4 26 b1 bc 87 0d 3f 3d 32 66 f4 3a
       -0.015388318 -0.02162499 0.04664376 0.0018646179
0000d0 5b 54 67 3d 9f ce ad bc 31 0f 7b 3d 59 ed c7 3c
       0.056476932 -0.021216689 0.061293785 0.024405168
0000e0 c4 68 5a 3d e0 02 32 3d 80 16 e2 3c c1 a9 15 3d
       0.05332257 0.043459773 0.02759862 0.036538843
0000f0 1b 20 7f 3d f4 2b 32 bd de 6b 0f 3c d6 d1 61 bd
       0.062286478 -0.04349895 0.008753745 -0.055131756
000100 40 d0 83 3d ec 16 23 bd 81 9f 22 3d b4 28 fe 3b
       0.06436205 -0.039816782 0.039702896 0.007756317
000110 61 8f 5c 3d 55 ae 13 3d f5 7e 8c 3c 5f 9f 73 3d
       0.053847674 0.036054928 0.017150382 0.05947816
000120 5b db c6 3a 92 05 d9 bc 88 f2 38 3d 4d 1e 17 3d
       0.0015171574 -0.026491914 0.04515317 0.03689413
000130 dc d1 9d 3c e9 34 be bc 95 77 88 3d ff 67 cf 3c
       0.019265108 -0.023218589 0.066634335 0.025318144
000140 26 8c 20 bd 7b 0c 7e 3d df 24 4d 3d ea c6 da bc
       -0.039196156 0.06202362 0.05008399 -0.026706178
000150 c3 63 8c 3d 1b ed 55 bd a7 f7 51 3d 3f 16 31 3d
       0.068549655 -0.052228075 0.05126157 0.043234106
000160 7e 67 cb 3c f4 d9 07 bc 8e f9 7e 3d a3 cd 90 3c
       0.024829622 -0.00829171 0.062249713 0.01767618
000170 2e ef 24 3d 53 6d c0 3c ad 0a 22 3d 76 b5 28 bd
       0.040267162 0.02348963 0.039560962 -0.04118868
000180 c7 50 6f bc 65 10 12 3d c8 66 a4 3c ac 40 12 3c
       -0.014606661 0.035660166 0.020068541 0.008926552
000190 3c a0 bd ba b8 dc 4b 3d fc 8e 29 3c 49 89 0d bc
       -0.0014467309 0.04977104 0.010349032 -0.008638688
0001a0 a2 4e 69 3c ac 68 ae 3c 9e e6 c5 3c fc 0b 80 bb
       0.014239939 0.021290146 0.024157818 -0.0039076786
0001b0 cc 8b 63 b9 3e e1 6c 3d 98 3a e9 3c b2 6a aa 3b
       -0.00021700485 0.057831995 0.028470322 0.0052007074
0001c0 fa 5e 5a bc f3 13 52 3d a3 03 07 3d 95 07 66 3d
       -0.013328308 0.051288556 0.032962453 0.056159575
0001d0 60 94 96 bc 91 db 1f 3d 60 ac 61 3c 1f 63 a1 3d
       -0.018381298 0.039027754 0.013774008 0.07880234
0001e0 ea f2 ae bc db b6 11 bd 4b 16 91 3d 25 0b 43 3d
       -0.021356065 -0.035574775 0.0708433 0.04761805
0001f0 87 93 98 3b 0d 1a 59 3d de 0b 4f 3d b8 b2 94 3d
       0.0046562585 0.05300336 0.050548427 0.072606504

action_model._discrete_distribution.branches.0.weight f4 [3, 128]
000000 26 22 8e bd 39 c9 bd 3c 76 cd cf bd ee 27 b0 3d
       -0.06940107 0.02316724 -0.101466104 0.08601366
000010 92 4d 7b bd 51 f2 e3 3d 7f 3e 71 bc e6 1f 03 3e
       -0.061353274 0.111302026 -0.014724373 0.12805137
000020 0c 7e 8f bc 40 4c 56 bd 90 45 03 3e 38 36 2b bd
       -0.017516159 -0.05231881 0.12819505 -0.041799754
000030 39 32 95 b9 ad d1 e3 bd 1c 31 b8 ba 8b 91 7a bd
       -0.00028456913 -0.11123977 -0.0014052722 -0.061173957
000040 d0 ac dc bc a5 8f 75 bc bc c7 11 3c 4f d1 80 bd
       -0.026937872 -0.014987861 0.008897718 -0.062899224
000050 a1 e4 03 3d 0f 99 58 3c 12 2c 30 be 29 cc a5 bc
       0.03220046 0.013220086 -0.17204311 -0.020238953
000060 6c 1f a8 bd 61 39 65 3d b9 92 8a 3d 76 7d c2 3d
       -0.08209118 0.055962924 0.067662664 0.09496586
000070 fa 68 40 bd 0e 9c b8 3d 04 9f dc bb e1 89 34 bc
       -0.046975113 0.0901414 -0.0067328233 -0.011019201
000080 a0 80 1b bd 0b 7e c7 bb 08 a5 38 be e1 32 9d bd
       -0.037964463 -0.0060880235 -0.18031704 -0.0767572
000090 1d 9d fe bc 75 27 1c 3e dc af 5e bd e1 5b 5a bd
       -0.031080777 0.15249427 -0.05436693 -0.05331028
0000a0 13 e2 35 bd e7 f2 90 bb a1 e4 09 3d ad 96 b9 3c
       -0.044405054 -0.0044234875 0.033665303 0.022654856
0000b0 61 bc 96 bd 87 c5 f9 bc 9c 23 eb bc b9 5c b8 bc
       -0.07360149 -0.030489696 -0.028703503 -0.022505151
0000c0 9b 92 49 be 2d 53 91 bd 35 50 64 3c 7b 15 7f bd
       -0.19684832 -0.07095943 0.0139351385 -0.062276345
0000d0 5e 1f b9 bc ae 64 83 3d 8b 22 6c 3d fe 56 e3 3b
       -0.022597965 0.064156875 0.05765013 0.0069378605
0000e0 91 bc a2 bc fd 32 2d bd e0 89 c4 bd 65 b4 90 bd
       -0.019865306 -0.042284954 -0.0959661 -0.070656575
0000f0 8a b8 be bd ac 98 0e bd 3c 6e 55 3d c5 94 20 3d
       -0.09312542 -0.034813568 0.05210708 0.039204378
000100 ef 7a ba bc c5 14 d4 bc 30 9a 47 bd 0f fc 1a 3d
       -0.022763697 -0.02588881 -0.04873103 0.037838038
000110 61 45 75 bd af 4a 0c bd 7e 7d 94 bd 31 91 ae bc
       -0.059880618 -0.03425091 -0.07250498 -0.021309467
000120 0c d8 ab 3d 01 b0 63 bb 8c 0d 11 bd a0 82 24 bd
       0.08390817 -0.0034742358 -0.03541331 -0.040163636
000130 12 20 c0 3d bc de d1 3d ee 0c 40 3c 47 54 c2 ba
       0.09381117 0.10247561 0.011721833 -0.0014826142
000140 42 f3 10 bd 1e 25 78 bd 3f bc 9d bd 17 bd 6a 3d
       -0.03538824 -0.060582273 -0.07701921 0.057309236
000150 ea 75 4e bd 5e b3 f5 3c 4f c4 b0 bc be 20 b7 bd
       -0.05040542 0.029992756 -0.021577982 -0.08941792
000160 e2 57 58 3b 38 1e 09 be 1b a2 d6 bb 97 6b 6c 38
       0.0033011367 -0.13390434 -0.006550086 5.6366986e-05
000170 19 e1 5d bd a9 1a 90 3d 84 c9 88 bc 2f db 87 3c
       -0.054169748 0.07036335 -0.016697653 0.016584007
000180 c4 9a d8 3d 87 74 04 3d 15 08 a0 bb aa b9 41 bd
       0.10576394 0.03233769 -0.004883776 -0.047296204
000190 be 01 d0 3d cc 0a b4 3c cb 1a 14 3e 1f ac 3f 3e
       0.10156582 0.021977805 0.14463346 0.18718003
0001a0 43 e2 99 3d 6e 9e dd 3d 38 38 04 3c a1 b7 ee 3c
       0.07513859 0.10821234 0.008070044 0.029140295
0001b0 94 e4 07 be bf b8 58 bc 70 44 a8 3d 6a 8e cb 3d
       -0.1327079 -0.013227641 0.082161784 0.09939273
0001c0 be 96 ba bd 81 08 d0 bc 38 f0 31 3d 8d 56 5b bd
       -0.09110783 -0.02539468 0.04344198 -0.053549338
0001d0 09 24 e0 3d 99 25 50 bd d6 b2 8f 3a 86 e6 48 bd
       0.10944373 -0.050817106 0.0010963331 -0.04904797
0001e0 90 0b af 3b e6 8b 03 3e f9 8b a2 3c ac 95 85 bd
       0.0053419545 0.12846336 0.019842135 -0.06522688
0001f0 a5 d8 c9 3d 8b 05 88 bd d5 25 ec ba 12 a0 6b bd
       0.09855775 -0.06641682 -0.0018016646 -0.0575257
000200 8c 1d 93 3d 3e 50 0b 3c 61 42 09 3e fd e4 bd bd
       0.0718337 0.008503018 0.13404228 -0.09272192
000210 01 a0 53 3d cc a3 36 be d7 5b 08 3d c2 cb 24 be
       0.051666263 -0.17835921 0.03329071 -0.16093352
000220 98 ca 36 3d ae 54 88 3d c1 af 50 be bc 91 8c bc
       0.044626802 0.06656776 -0.20379545 -0.017159335
000230 88 4c 83 3d 7b 0a b9 3d f8 a7 ef 3c 2e 55 fd 3d
       0.064110816 0.09035202 0.029254898 0.12369762
000240 0a cc 38 3d 5e 8e 0e 3d 74 cb 52 bd 24 9b 64 3d
       0.04511646 0.03480374 -0.05146356 0.055812016
000250 3a 60 6c bd 8b 1f da 3c 01 31 f4 3d f2 7a 83 3d
       -0.057708956 0.026626369 0.11923409 0.06419934
000260 d4 66 f2 3c c4 f9 8c bd e9 50 8f bd ee 9f c4 bd
       0.029590048 -0.068835765 -0.06997854 -0.09600817
000270 b9 88 6b 3d 02 dd fc bd f7 23 5e 3d f7 2a 3d 3d
       0.057503436 -0.123468414 0.054233517 0.046183553
000280 9c 71 30 bc 03 ea 00 3d f7 d9 59 3e 35 8a e1 3d
       -0.010769274 0.03147317 0.21274553 0.11012689
000290 06 d2 4c 3d 04 12 14 be 9f 25 1a 3d ff 72 be 3d
       0.05000498 -0.14459997 0.037633535 0.092992775
0002a0 1a 00 94 3d 4c b9 e2 3c f4 b0 7d bd e2 eb 2b ba
       0.07226582 0.027676247 -0.061936334 -0.00065582816
0002b0 c4 0e da 3d f4 bd 94 3d a6 a8 a5 3d c1 a3 a8 bc
       0.106473476 0.07262793 0.08088808 -0.020585896
0002c0 f8 79 69 3e 4c ee 21 bc fa cf be 3c fd 18 48 3d
       0.22800434 -0.009883475 0.02329253 0.048851956
0002d0 70 4a 4e 3d 8d 4e 0c be 1a d5 42 bc bc a2 fc 3c
       0.050363958 -0.1370184 -0.011891628 0.030839317
0002e0 9a a6 5f 3d 2f da a8 3d 14 a6 57 3d bb 11 e4 3d
       0.054602243 0.0824474 0.05264862 0.11136194
0002f0 90 9a f3 3d ad 66 71 3b 20 32 aa bd 3b d0 a9 bd
       0.11894715 0.0036834881 -0.08310342 -0.0829167
000300 25 a0 80 3d de 67 58 bc b4 67 8f 3d 8a 35 9f bd
       0.06280545 -0.013208358 0.07002202 -0.07773884
000310 15 5f 8a 3d e0 f5 57 3d 3b e9 7a 3d 91 6a 38 3d
       0.06756417 0.05272472 0.061257582 0.045023505
000320 87 57 1b be 0c 0c 75 bd 4c 9e 9c 3d fa 17 1f 3d
       -0.15170108 -0.059825942 0.0764738 0.038841225
000330 e4 09 41 bd 48 9e 03 be 00 a7 5d 3d dc db 13 3d
       -0.047128573 -0.12853348 0.05411434 0.036098346
000340 f4 af ce bc ef 68 ae 3d 55 8f cf 3d 75 26 0f bd
       -0.025230385 0.08516108 0.1013476 -0.034948785
000350 f6 e3 cf 3d ff 3c 83 bd af 2a 93 3d 36 bd d5 3d
       0.10150902 -0.064081185 0.071858756 0.1043648
000360 bc 9e 1d 3d c1 f6 a0 3d 0d 12 64 3d ac 4f 8e bc
       0.03848146 0.078595646 0.055681277 -0.017371975
000370 86 f9 a7 3d ab 69 c2 bd d3 70 a5 3d 87 98 76 bd
       0.0820189 -0.09492811 0.0807816 -0.060204055
000380 fa 3a 0f be 3a 15 00 bb 4c 9e aa 3c 65 d1 57 3d
       -0.13987342 -0.0019543902 0.020827435 0.05268993
000390 eb 13 0b be 3c 49 60 3c c6 f1 37 be 96 06 69 be
       -0.13581817 0.013689335 -0.17963323 -0.22756419
0003a0 71 a3 7a bd ba c6 14 be fc e1 6a bc e2 f9 4e bc
       -0.061191026 -0.14528933 -0.014336105 -0.012632819
0003b0 1d 2f 17 3e 68 54 8d 3d c2 c9 08 be 7d 75 1b be
       0.14764066 0.06900865 -0.13358214 -0.15181537
0003c0 01 b4 73 3d 67 64 34 3d 1e e6 99 bc eb a9 ca 3d
       0.059497837 0.044041064 -0.018786486 0.098956905
0003d0 b5 60 f6 bd 48 9c a4 3d 05 b8 c2 3c ef b5 aa 3d
       -0.12030164 0.08037621 0.023769388 0.08335482
0003e0 30 25 09 bd f9 98 1c be 17 7b ce 3c c5 fb b6 3d
       -0.03348273 -0.1529273 0.025205178 0.0893474
0003f0 b2 7b 1f be 38 ac bc 3d c0 93 e3 3c 5e a6 ef 3d
       -0.1557453 0.092125356 0.027780414 0.11701654

action_model._discrete_distribution.branches.0.bias f4 [3]
000000 f5 d9 16 bc 7c be 5c 3d 7d 63 d0 bd
       -0.009207238 0.053892598 -0.10175226

action_model._discrete_distribution.branches.1.weight f4 [3, 128]
000000 11 a2 f2 3c 98 e5 05 3d 67 a7 24 3d 6a a2 bf bd
       0.029618295 0.03268966 0.04019871 -0.0935715
000010 d9 ef 03 3d 19 7f 6a 3d 6b 81 84 3c 56 e0 83 3d
       0.03221116 0.057250116 0.016174993 0.06439273
000020 da d9 c8 3c 27 38 87 3a be c2 09 3d da 9c 94 bd
       0.024517942 0.0010316417 0.033632986 -0.072564796
000030 d4 5c 7c 3c 5b e2 dd 3c c0 2f 92 3c 39 8a 80 3c
       0.015402991 0.027085474 0.017845035 0.01569091
000040 d3 5c 06 bd b3 ee 1e 3c c4 93 5b bd 0e 07 16 be
       -0.032803368 0.009700465 -0.053607717 -0.14651129
000050 7b df 99 3c ab b3 e5 3c 07 03 e5 bd 21 13 21 3c
       0.018783322 0.028039774 -0.11182218 0.009831221
000060 d8 ce fe ba f2 7a ad 3c cc aa 91 3d ba 53 70 3d
       -0.0019440306 0.021176789 0.07112655 0.058673598
000070 21 bc 56 3c 11 34 af 3d 11 50 08 3d e1 64 16 3d
       0.013106377 0.08554853 0.033279482 0.0367173
000080 36 a0 49 3d 4e 70 50 3d 27 85 f0 bd a0 a6 6c 3d
       0.049225055 0.050888352 -0.11744147 0.057776093
000090 a2 fe bb 3a 56 da ce 3d ad f5 f6 3c 29 48 01 3a
       0.0014342854 0.10100238 0.030146444 0.0004931712
0000a0 f9 3d 15 3d f1 5f 33 3d a4 39 e2 bc eb 9a 13 be
       0.036436055 0.04379267 -0.027615376 -0.14414565
0000b0 6f 91 d6 3c 3a b9 08 3d 34 73 8c 3d f3 2a d2 3d
       0.026192395 0.03337977 0.06857911 0.10262098
0000c0 6d 90 0a be 58 8d 3d bd 22 59 73 3d 3b b8 16 3d
       -0.13531657 -0.046277374 0.059411176 0.03679679
0000d0 6d 8c bd 3b 6b a1 3c 3d b9 97 8c 3c 0a af 7c 3c
       0.0057845623 0.046052378 0.01716219 0.015422592
0000e0 25 79 37 3d 14 55 ff bb 78 3e a2 3c c2 fb 33 3c
       0.044793267 -0.0077921245 0.019805178 0.010985317
0000f0 6f 87 d3 3b 38 e7 8a bd ff 2f e4 3d 5b bb c1 bc
       0.006455354 -0.06782383 0.11141967 -0.023648908
000100 09 48 de 3b f5 5b 88 bd 09 8f 11 3c 9e e8 b9 bc
       0.0067834896 -0.066581644 0.0088842 -0.022693928
000110 80 05 4c 3c 36 07 44 3d 75 0b 29 be 2f 59 ea 3c
       0.012452483 0.04785844 -0.16508277 0.02860698
000120 6e 22 aa 3d 85 1c af 3b 16 6d 04 bc 15 31 a0 3c
       0.08307348 0.005343976 -0.008082649 0.019554654
000130 8a 44 b9 3c 07 16 97 3d f8 f9 12 3c a8 07 31 3d
       0.02261569 0.07377248 0.00897073 0.043220192
000140 cd 47 20 bc 81 43 36 3c ce 5f a6 3c 63 35 52 bd
       -0.009782744 0.011124493 0.020309355 -0.051320445
000150 8b 24 93 3c be 2b 56 bb e3 54 5e 3b 5c 12 c3 3a
       0.017961761 -0.003267988 0.0033925108 0.0014882791
000160 9c f5 40 3d 89 82 f9 bd f4 40 b3 3c dc 02 15 3d
       0.04710923 -0.12183101 0.021881558 0.03637968
000170 86 a2 d5 3c 1f 30 97 3d d4 17 a4 3b be c6 da bc
       0.026078474 0.07382225 0.0050077233 -0.026706096
000180 19 be d2 3c de df f7 3c 6a de 87 3a 1d f2 41 bc
       0.025725411 0.030258115 0.0010365967 -0.011837509
000190 61 d5 00 3d d2 25 93 b9 c6 71 cb 3d 8f 5b 53 3d
       0.031453494 -0.00028066203 0.0993381 0.05160099
0001a0 a7 ee c2 3d 0b 6c b8 3d 17 30 20 3d 9c 09 e1 3c
       0.095181756 0.090049826 0.039108362 0.027470402
0001b0 2d 5c be bd 4d 3c dd 3c d6 bd 04 3e b1 ce 7a 3d
       -0.09294925 0.027006293 0.12963042 0.061232273
0001c0 3d 94 8f bd 3e b8 ec 3c 5c 79 ac 3d 41 3a 6b 3c
       -0.07010696 0.028896447 0.08421585 0.0143571505
0001d0 1c 9a 15 3d 70 c2 28 ba aa be 4c 3c 99 4e 17 3d
       0.036523923 -0.0006437665 0.01249663 0.03694019
0001e0 01 ce b4 bd 19 19 c2 3c 44 32 ad 3c c2 b6 3d 3c
       -0.088283546 0.023693608 0.021142133 0.011579217
0001f0 5b 08 3f 3d 5b 55 a8 3c 95 8c 4e 3c c2 93 a1 3c
       0.046638828 0.020548513 0.01260676 0.019723777
000200 85 41 bb bc cf 41 ad bd 40 45 3e 3d 21 b2 ea 3a
       -0.02285839 -0.084598176 0.04645276 0.001790587
000210 e8 c0 30 bd 4f 4d 10 bd 52 b4 12 bd 99 c1 5f bc
       -0.04315272 -0.035229977 -0.035816498 -0.013656997
000220 37 e7 47 bd b0 f7 ce bd ea 96 34 3d 2d 48 c1 3d
       -0.048804488 -0.101058364 0.044089235 0.094375946
000230 80 61 0d be 32 be cd bc 75 6d 00 bd 61 6e c8 3c
       -0.13806725 -0.025115106 -0.031354386 0.024466695
000240 55 7a 52 be 1b 97 85 bd e6 20 47 bc f7 d1 fb bc
       -0.20554478 -0.06522962 -0.01215384 -0.030739767
000250 8c 8e f9 3d 37 d9 02 be e2 85 b9 3d a6 85 9c bd
       0.12185392 -0.12778173 0.09058739 -0.07642679
000260 a2 fe f3 3d 8a 78 a8 3c 39 9e b7 3d f9 e0 5d bc
       0.11913802 0.02056529 0.089657255 -0.013542407
000270 6d 6c ec bc f6 cb da 3c 3d a5 46 3c c1 c8 52 bd
       -0.028860295 0.026708584 0.012124357 -0.051460985
000280 cc 0a e6 3d 2c 84 28 bc 9f ca a2 3d c9 df 8b 3c
       0.11232528 -0.0102854185 0.07948803 0.017074483
000290 c3 64 3f bd b3 ce 43 bc 8c a9 86 bd b9 3c 1e bd
       -0.046726953 -0.011951136 -0.06575307 -0.03863213
0002a0 5f 23 52 bd 6b 4e c8 3b 60 5c f8 3c 18 91 03 bd
       -0.051303264 0.006112864 0.030317485 -0.032120794
0002b0 ca 36 db bb f5 2a 99 3d 68 1d 9e 3d 37 10 29 3e
       -0.006689881 0.074788965 0.077204525 0.16510092
0002c0 30 84 db 3d cb b0 37 3e 6c 4c 37 be f5 a2 e4 3d
       0.10718572 0.17938535 -0.17900246 0.11163894
0002d0 e0 76 98 bd f7 c0 60 3d 99 18 97 bd c1 4e 6d 3d
       -0.074445486 0.054871526 -0.073777385 0.057936434
0002e0 c4 18 23 bc 24 8c 98 bd 70 4c 9a bd 21 ac 3c 3d
       -0.009954635 -0.07448605 -0.075341105 0.046062592
0002f0 6b 63 91 bd e9 48 3a 3e 2e bb 93 3c 58 65 b0 bb
       -0.070990406 0.18191876 0.01803359 -0.005383175
000300 86 14 90 bd c1 64 8f 3d 3a 0b 01 bd 75 00 3d be
       -0.070351645 0.07001639 -0.031504847 -0.18457206
000310 b2 5a b9 bd e9 1b 9b bc ab c7 15 bd 60 b8 f2 bd
       -0.09050502 -0.018934207 -0.03656737 -0.11851573
000320 eb 71 b5 bd c6 cb 21 3e cb c9 c6 bd 23 f6 8a bd
       -0.08859619 0.1580039 -0.09706458 -0.06785228
000330 b1 39 27 3d 63 6b a7 3d ec f1 aa bd c0 b1 5e 3d
       0.040826503 0.08174779 -0.08346924 0.054368734
000340 c6 7f 16 3e 83 c3 1b be fd 61 fd bd 6b 35 3a bd
       0.14697179 -0.152113 -0.123722054 -0.0454611
000350 b5 0a d1 3c 4a c5 d0 3d 13 35 33 bc 3e 6d 31 bd
       0.0255178 0.1019388 -0.010937947 -0.043317072
000360 63 4d 86 3d b1 d6 a0 3d 04 9e 91 bd 6a 4d 7b bd
       0.06557729 0.07853449 -0.07110217 -0.061353125
000370 90 30 9b bb f3 c0 4b bd 4d 41 57 3d 99 81 ec bc
       -0.0047360137 -0.049744558 0.05255251 -0.02887039
000380 c8 b5 42 bd 94 98 42 bd 3d 36 99 bd 59 69 b9 3d
       -0.04753664 -0.04750879 -0.07481048 0.090532966
000390 f1 c4 11 bd 13 94 5d be b2 b6 32 3c 57 b8 13 3d
       -0.03558821 -0.21638517 0.010907816 0.036064472
0003a0 9d 46 b9 3c 2e b6 11 be a9 21 66 3d b1 b6 02 3e
       0.022616679 -0.14229652 0.056184445 0.12765004
0003b0 73 60 11 3e e4 36 1d 3c 8d 79 5e bd b7 9d ad 3d
       0.14196949 0.0095956065 -0.05431514 0.08477347
0003c0 bf 57 6f 3c a4 bf 85 bd 7e 36 02 3e ea 93 c1 bd
       0.014608323 -0.06530693 0.127161 -0.094520405
0003d0 69 8a 5c bc 71 49 74 bd 2c d6 c9 3d 14 fe 59 be
       -0.013460734 -0.05964035 0.09855303 -0.2128833
0003e0 33 88 ff bc d6 18 a6 3d 9e dc 94 bd 6e 2e 1f bd
       -0.031192875 0.08110206 -0.07268642 -0.03886264
0003f0 8b 16 88 bd 03 62 2c bd a2 e6 b9 bd 05 3a 4f bd
       -0.06644925 -0.04208566 -0.09077193 -0.05059244

action_model._discrete_distribution.branches.1.bias f4 [3]
000000 e0 74 08 3d 1e 9b 88 bd 3d 3f 8f bb
       0.033314586 -0.06670211 -0.0043715523
