results/ppo/Racing/Racing-2320.pt (torch, 603118 bytes, 48 tensors)

discrete_act_size_vector f4 [1, 2]
0	0x40400000	3.0
1	0x40400000	3.0

network_body._body_endoder.seq_layers.0.weight f4 [128, 29]
0	0x3e8307ae	0.25591797
1	0xbe52f22b	-0.20600192
2	0x3e53c2a3	0.20679717
3	0x3daf2dc7	0.08553653
4	0x3dc3bead	0.09557853
5	0xbd90f64d	-0.07078228
6	0xbd618417	-0.05505761
7	0xbd6c2ae3	-0.057658087
8	0x3e6f1ce2	0.23350862
9	0xbe6a5957	-0.22885643
10	0xbde295f1	-0.11063755
11	0xbda16dc6	-0.07882266
12	0xbda11a4b	-0.07866343
13	0x3d181461	0.03712881
14	0x3d6c1504	0.05763723
15	0x3c2d8132	0.010589885
16	0x3e2b09a5	0.16702898
17	0x3e32ffb7	0.1748036
18	0x3ddb877e	0.107192025
19	0x3e68e54b	0.22743718
20	0x3de74d2a	0.11294015
21	0xbe00674a	-0.12539402
22	0xbe4a8035	-0.1977547
23	0x3d6143e4	0.054996386
24	0xbe763e7d	-0.24047275
25	0xbbc1132a	-0.005892177
26	0xbdfa4e9c	-0.12222025
27	0xbda6f4b4	-0.08152142
28	0x3bf93baa	0.0076059895
29	0x3de91680	0.11381245
30	0x3d2d3c73	0.042293977
31	0xbdcd8ec6	-0.100369975
32	0xbe02ea31	-0.1278465
33	0x3e2ba630	0.16762614
34	0xbdcfcde5	-0.10146693
35	0xbecf0a91	-0.4043775
36	0xbd1099f0	-0.035303056
37	0x3cced97b	0.025250187
38	0xbd79eb42	-0.061015375
39	0xbd37fa7f	-0.044916626
40	0xbee6febc	-0.45116222
41	0x3e2c9df2	0.16857126
42	0xbd6e7f87	-0.05822709
43	0x3e661b5c	0.22471374
44	0x3edbcd1f	0.42929932
45	0xbe89c765	-0.26909938
46	0xbea7d67e	-0.32780832
47	0x3d849e6a	0.064755276
48	0xbe61ef72	-0.22063997
49	0x3daa26ae	0.08308159
50	0x3e3e279f	0.18569802
51	0x3e5c7dab	0.21532314
52	0x3e6a4f6b	0.22881858
53	0x3dae26f0	0.085035205
54	0x3cc277ed	0.023738826
55	0xbd47ea02	-0.04880715
56	0x3ec068d2	0.37579972
57	0xbe245703	-0.16048817
58	0x3db6ed07	0.08931928
59	0xbe240fdd	-0.16021676
60	0xbcbae0d2	-0.02281228
61	0xbc848eb0	-0.01618132
62	0xbe8c8698	-0.27446437
63	0x3e1e3023	0.1544805
64	0xbe2cefed	-0.168884
65	0x3e0ae234	0.13562852
66	0x3e55d3f7	0.2088164
67	0xbec6a8ac	-0.3880056
68	0x3b4b3bee	0.0031011063
69	0x3e8e0993	0.2774168
70	0xbe928815	-0.28619447
71	0xbcaab5f1	-0.02083871
72	0xbcf49787	-0.02985741
73	0xbd979872	-0.074021235
74	0xbe9f47c6	-0.31109446
75	0x3d9dda50	0.077076554
76	0x3e7164b5	0.23573573
77	0x3ee838a8	0.45355725
78	0xbe5792ad	-0.21052046
79	0x3e5f8e2d	0.2183158
80	0x3cd2d588	0.025736585
81	0xbd747ba5	-0.05968823
82	0xbe492e53	-0.19646578
83	0x3d81b31a	0.06332989
84	0x3d7f23da	0.06229005
85	0xbdd5e918	-0.1044485
86	0x3e565722	0.20931676
87	0xbd21e30b	-0.039523166
88	0xbf0d5899	-0.55213314
89	0xbe069b85	-0.13145263
90	0xbe0856f7	-0.13314424
91	0xbe85c86e	-0.26129478
92	0xbef6cde2	-0.4820395
93	0x3daf188d	0.085496046
94	0x3e99ed3a	0.30063802
95	0xbe72cca6	-0.2371088
96	0xbe9ffecd	-0.31249085
97	0x3c33dfb4	0.010978628
98	0xbea29284	-0.31752408
99	0xbe588e7a	-0.211481
100	0x3e7924a6	0.24330387
101	0x3e162e04	0.14665991
102	0x3e9dd992	0.30830055
103	0x3e394799	0.18093719
104	0xbf09fdc7	-0.5390286
105	0x3d97c167	0.074099354
106	0x3db08d82	0.086207405
107	0x3c92117a	0.0178306
108	0xbeba3948	-0.36371827
109	0x3e9a6060	0.30151653
110	0x3dce00a0	0.10058713
111	0x3cf5329f	0.029931365
112	0xbe278067	-0.16357575
113	0x3d7b2984	0.06131889
114	0xbd1186b1	-0.035528842
115	0x3dfdf597	0.12400358
116	0x3e411fc5	0.18859775
117	0x3e60f4b6	0.2196835
118	0x3d51430a	0.051089324
119	0x3cac4303	0.021028047
120	0x3e08b303	0.13349538
121	0x3dbc2400	0.09186554
122	0x3d95b3cf	0.073096864
123	0x3da6809d	0.0813
124	0x3d812c85	0.063073196
125	0x3e28de4a	0.16491047
126	0xbda03fa2	-0.07824637
127	0xbe7cb6e7	-0.24679147
128	0xbeda346c	-0.4261812
129	0x3d9f802a	0.07788117
130	0x3dd1725d	0.10226891
131	0x3eaccf46	0.33751887
132	0x3dcfc3c0	0.10144758
133	0x3d4121dc	0.04715143
134	0x3ca8bb9a	0.020597268
135	0x3e0fd485	0.14045914
136	0x3c9aa12b	0.018875679
137	0xbef4694d	-0.47736588
138	0x3ece16fb	0.40251908
139	0x3ca812d1	0.020516785
140	0xbdfd8ea2	-0.12380721
141	0x3e007f4b	0.12548558
142	0xbe801898	-0.25018764
143	0xbeab094f	-0.3340554
144	0x3eb75d52	0.35813385
145	0x3ea6d838	0.32586837
146	0x3c41e91f	0.011835366
147	0x3db9a98d	0.09065542
148	0xbe513860	-0.20431662
149	0x3eb238ee	0.3480906
150	0xbec22fcc	-0.3792709
151	0x3e533d23	0.2062879
152	0x3d85db63	0.06535985
153	0x3dfb063d	0.12257049
154	0x3b8b604e	0.004253424
155	0xbda7202c	-0.08160433
156	0xbd49517e	-0.049149983
157	0x3eb7b560	0.35880566
158	0x3d13bb13	0.03606708
159	0xbd9379f0	-0.07200992
160	0xbddba794	-0.10725322
161	0x3d815ad4	0.06316152
162	0xbdba0eef	-0.090848796
163	0xbe83dcdb	-0.25754437
164	0x3da7d533	0.081949614
165	0x3dbb431c	0.091436595
166	0xbe858fff	-0.26086423
167	0x3e4c84cc	0.19972533
168	0x3e525961	0.20541908
169	0x3df71c65	0.12065963
170	0x3e9b615a	0.3034771
171	0xbe955d61	-0.29172805
172	0xbdbc1ca8	-0.09185153
173	0xbe717b03	-0.23582081
174	0x3d1442b9	0.036196444
175	0xbcbf4523	-0.023348397
176	0xbe829435	-0.25503698
177	0x3e5b26d6	0.21401533
178	0x3dee50b7	0.11636489
179	0xbe38a2e1	-0.18030883
180	0xbe108ce2	-0.14116243
181	0x3cef3581	0.029200317
182	0xbe474675	-0.19460471
183	0xbc95db23	-0.01829297
184	0x3e020710	0.12698007
185	0x3cec17ea	0.028819997
186	0x3ec60c18	0.38681102
187	0x3dffa6fd	0.12483022
188	0x3e5a7747	0.21334563
189	0x3d5ce3ef	0.053928312
190	0x3e8df619	0.2772682
191	0xbdc44466	-0.095833585
192	0x3e2334e8	0.15938151
193	0x3e9e509e	0.3092088
194	0xbd7e09b2	-0.062020965
195	0x3d901f42	0.07037212
196	0xbe9b96d5	-0.30388513
197	0xbd457c64	-0.04821433
198	0xbd96bd71	-0.07360352
199	0x3c4892ad	0.0122420015
200	0x3e57ffca	0.2109367
201	0x3e900735	0.281305
202	0xbe35ec33	-0.17765884
203	0xbde2ce25	-0.11074475
204	0x3e119735	0.14217837
205	0xbcb70c44	-0.022344716
206	0x3e33a1c4	0.17542177
207	0xbdc6b8a4	-0.09703186
208	0x3ec3520f	0.38148543
209	0xbe6c4d32	-0.23076323
210	0x3ec3e2ce	0.38258976
211	0x3d2a3148	0.041550905
212	0xbe2f131f	-0.17097138
213	0x3eabe9a6	0.33576697
214	0x3df947f9	0.12171931
215	0xbec2dd65	-0.38059536
216	0x3dfcaaa6	0.12337236
217	0x3dd4d39b	0.10391923
218	0x3d674754	0.05646451
219	0x3dadff97	0.084960155
220	0x3ec7cb7c	0.39022434
221	0xbeecaf5f	-0.46227548
222	0xbe336d2d	-0.17522116
223	0xbe290e6a	-0.16509405
224	0x3dbfba38	0.0936169
225	0xbe8be443	-0.27322587
226	0x3e5553bf	0.20832728
227	0x3eb3d25c	0.3512143
228	0xbe248a53	-0.16068392
229	0x3f018cfb	0.50605744
230	0x3c35698c	0.011072528
231	0x3c9ae44e	0.018907692
232	0xbd309046	-0.04310634
233	0x3d92b985	0.07164291
234	0x3e166086	0.14685258
235	0x3e979bcc	0.2961105
236	0xbdb42c9e	-0.087975726
237	0x3e1c7bc4	0.15281588
238	0xbe00316b	-0.12518851
239	0x3ea749ea	0.3267358
240	0x3efffd20	0.49997807
241	0x3d0c63d2	0.034274884
242	0xbf13500d	-0.5754402
243	0x3e0c2089	0.13684286
244	0x3ec2427d	0.37941352
245	0xbc1cc25f	-0.009567826
246	0xbdd001ec	-0.101566166
247	0xbe6e980c	-0.23300189
248	0xbdd6c172	-0.104861155
249	0x3dc6bc19	0.097038455
250	0x3df4e4cd	0.11957703
251	0xbf1002dd	-0.5625437
252	0x3e7339d1	0.23752524
253	0x3d50f683	0.051016342
254	0xbdd4f16b	-0.10397609
255	0x3dd496e8	0.103803456

network_body._body_endoder.seq_layers.0.bias f4 [128]
0	0x3d05bb32	0.032649226
1	0x3d052aaa	0.03251139
2	0x3d0719cf	0.032983597
3	0x3d0e2f58	0.03471312
4	0x3d5b2bc0	0.05350852
5	0x3d4a4335	0.0493805
6	0x3d2c7c91	0.042110983
7	0x3d888e63	0.06667783
8	0x3d270249	0.040773664
9	0x3b835be0	0.004008755
10	0x3bd679ed	0.0065452964
11	0x3d1498ea	0.036278643
12	0x3d390704	0.045172706
13	0x3dac4d15	0.0841314
14	0x3c7948e3	0.015215131
15	0xbc967528	-0.018366411
16	0x3ce04564	0.027376838
17	0x3cc9c1ea	0.024628598
18	0x3cf98240	0.030457616
19	0x3d61dc7d	0.055141915
20	0x3d687d74	0.056760266
21	0x3d5dca01	0.054147724
22	0xbcc33d28	-0.023832873
23	0x3cbb658d	0.022875572
24	0x3d73391a	0.05938063
25	0x3d950b69	0.07277567
26	0x3d511fcb	0.05105571
27	0x3bf47aa0	0.007460907
28	0x3d1b5a39	0.03792784
29	0xbc88caf5	-0.01669834
30	0x3d136076	0.035980664
31	0x3d68dfbe	0.056854002
32	0x3cdb05f3	0.026736235
33	0x3d0931ff	0.033494946
34	0x3d379085	0.04481556
35	0x3d83c0cb	0.06433257
36	0x3c30a5d6	0.010781726
37	0xba270576	-0.0006371358
38	0x3cdde57f	0.027086971
39	0x3d1fd256	0.03901895
40	0x3c803984	0.015652426
41	0xbb80e6b8	-0.003933754
42	0x3ca96125	0.020676205
43	0x3d6a7893	0.057243895
44	0x39ebd6bb	0.0004498268
45	0x3d5bd2bd	0.053667773
46	0x3d239b4e	0.039943032
47	0x3c850392	0.016237054
48	0x3d2176e0	0.03942001
49	0x3d80b54f	0.06284582
50	0xbd7d66c6	-0.06186559
51	0x3d2b83d4	0.041873768
52	0xbd0a7834	-0.03380604
53	0x3c003bd5	0.007826765
54	0xbc9c4cdf	-0.019079624
55	0x3d1303d1	0.03589231
56	0x3d004829	0.031318817
57	0x3d1f679b	0.038917165
58	0x3d306b5c	0.043071136
59	0x3cee8244	0.02911485
60	0x3d2f9244	0.0428641
61	0x3cd737b1	0.026271673
62	0x3ca1421e	0.019684847
63	0x3cd09989	0.025463836
64	0x3cde5f94	0.027145185
65	0xbd6aeaac	-0.057352707
66	0x3d0ec85b	0.034859043
67	0x3d4d4cbd	0.05012201
68	0x3d6886a4	0.05676903
69	0x3cc352bf	0.023843167
70	0x3db8a52f	0.09015881
71	0x3d5955e8	0.053060442
72	0x3dae6966	0.08516197
73	0x3d3c7dd1	0.046018425
74	0x3c0ad876	0.00847446
75	0x3d616ba8	0.05503431
76	0x3d43d187	0.047807243
77	0x3d1429b6	0.03617259
78	0x3c8763be	0.016527053
79	0x3a9d5740	0.0012004152
80	0x3c57bd4b	0.01316769
81	0x3ce0574e	0.02738538
82	0xbb09462c	-0.0020946367
83	0x3bbaae46	0.0056970445
84	0x3d0e2802	0.034706123
85	0x3d392282	0.045198925
86	0x3d0dde87	0.034636047
87	0x3d5441c6	0.05182054
88	0x3cb2a6f3	0.021808123
89	0x3cc3dfd6	0.023910444
90	0x3d8e7486	0.06955819
91	0xbb96dd83	-0.004604043
92	0x3d05ba6a	0.03264848
93	0x3d4d49de	0.050119273
94	0x3cd7373c	0.026271455
95	0x3d0623e4	0.03274907
96	0x3c8f4ab2	0.017491672
97	0x3cee41c8	0.029084101
98	0x3cff63eb	0.031175574
99	0x3cf71c9d	0.030165011
100	0x3cf4d3b8	0.029886112
101	0x3c9ffd51	0.01952997
102	0x3d8dd82d	0.06925998
103	0x3d31e5f7	0.043432202
104	0x3d2f7153	0.042832684
105	0x3d263fe4	0.040588275
106	0x3d2267cf	0.03964978
107	0x3d47986e	0.048729353
108	0x3d1c8ded	0.03822129
109	0x3db41908	0.08793837
110	0x3d3bff26	0.045897625
111	0x3cb7e960	0.022450149
112	0xbcf85c14	-0.030317344
113	0x3ce6a2c5	0.028153786
114	0x3d738993	0.059457373
115	0x3d7fdebc	0.062468275
116	0x3cd9d98b	0.02659299
117	0x3c3fcd04	0.011706594
118	0x3c86087c	0.016361468
119	0x3d1fcedd	0.03901564
120	0x3d845fa0	0.064635515
121	0x3d80adad	0.06283126
122	0x3db1d426	0.08683042
123	0x3cb6dc2f	0.022321789
124	0x3c2f406f	0.0106965145
125	0x3d6be1f6	0.05758854
126	0x3d01e122	0.031708844
127	0xbcaae730	-0.020862192

network_body._body_endoder.seq_layers.2.weight f4 [128, 128]
0	0xbe10d93c	-0.14145368
1	0x3d98c101	0.074586876
2	0x3d41d18e	0.047318988
3	0xbe2cf88a	-0.16891685
4	0x3d0b47d0	0.034004033
5	0x3d5d9b43	0.054103147
6	0x3dd76287	0.105168395
7	0xbdc91c35	-0.09819833
8	0xbdb896b2	-0.09013118
9	0xbc4aa7ff	-0.012369155
10	0x3d1e907d	0.038712014
11	0x3e76bbb5	0.24095042
12	0xbda2e111	-0.07953084
13	0x3e423e1b	0.18969004
14	0xbdca781d	-0.09886191
15	0xbd4ed300	-0.050494194
16	0xbd3e4f70	-0.046462476
17	0x3d9e09c9	0.0771671
18	0x3e2a316a	0.16620412
19	0xbdb1de34	-0.0868496
20	0x3d7b1f10	0.06130892
21	0x3d9ff7b2	0.07810916
22	0xbd233016	-0.03984078
23	0x3d5a7ce9	0.05334178
24	0x3d05a7fe	0.032630913
25	0x3e14bf56	0.14526114
26	0x3d8a0c15	0.06740586
27	0xbdb82f8e	-0.08993445
28	0xbd3a2e91	-0.045454565
29	0xbdabfa8e	-0.08397399
30	0x3d10dbb2	0.035365768
31	0xbe05f18e	-0.13080427
32	0xbd702198	-0.058625787
33	0xbdcc3af4	-0.09972182
34	0x3ddeb5af	0.10874497
35	0xbd49985a	-0.04921756
36	0xbc9a3517	-0.018824143
37	0xbdb0749b	-0.08615991
38	0xbd3dfabf	-0.04638171
39	0xbdb381ad	-0.08764968
40	0xbd8878c7	-0.066636615
41	0x3e5d1dd7	0.21593414
42	0xbd0046b2	-0.03131742
43	0x3c5869cf	0.0132088205
44	0xbe3d8736	-0.1850861
45	0x3d27fe3e	0.04101395
46	0x3d88b3f3	0.066749476
47	0xbe364a29	-0.17801727
48	0xbe2af228	-0.16693938
49	0xbc235b64	-0.00997052
50	0x3d0d60d2	0.034516163
51	0x3dd5ef4b	0.10446032
52	0xbd8496ab	-0.0647405
53	0xbe3d0fc3	-0.18463044
54	0xbde10d20	-0.109888315
55	0xbcb9dd90	-0.022688657
56	0xbe7b42fa	-0.24537268
57	0xbb9410d7	-0.004518609
58	0xbccee4cc	-0.025255583
59	0x3c9f4b7e	0.019445177
60	0x3db0ca01	0.08632279
61	0xbd95c18b	-0.07312306
62	0xbd936b74	-0.071982294
63	0x3abd292b	0.0014431825
64	0x3d9cd7b0	0.076583266
65	0xbd09c425	-0.033634324
66	0x3b817bee	0.003951541
67	0x3e5b3922	0.21408513
68	0x3d9e0ece	0.077176675
69	0xbd16d86a	-0.036827482
70	0x3e074fdf	0.13214062
71	0x3e7b2ecd	0.24529572
72	0x3e706eab	0.23479716
73	0x3e1bff01	0.15233995
74	0x3ca5bab8	0.020230636
75	0x3e434ab4	0.19071466
76	0xbbf5f726	-0.007506269
77	0xbdac8df5	-0.08425514
78	0xbbfd89a3	-0.007737355
79	0x3c1aa0df	0.009437769
80	0x3d6713b9	0.056415293
81	0x3d20ef5e	0.03929078
82	0x3dab8488	0.08374888
83	0xbdc1d445	-0.09464315
84	0xbdefab14	-0.117025524
85	0x3d556cd3	0.052105736
86	0x3d7c8ee6	0.061659716
87	0x3d8ed0bb	0.06973406
88	0x3db798c0	0.089646816
89	0xbd15292a	-0.03641621
90	0xbe0f660c	-0.14003772
91	0xbe347a7f	-0.17624854
92	0x3e034de6	0.12822685
93	0x3dcd17f0	0.10014331
94	0xbe1b10e8	-0.15143168
95	0x3d81398b	0.063098036
96	0xbd07f0f1	-0.033188764
97	0x3d4033ec	0.046924517
98	0x3d0d484b	0.034492772
99	0x3d418902	0.0472498
100	0x3e32bd20	0.17454958
101	0xbe20be2d	-0.15697546
102	0x3dfbff48	0.123045504
103	0xbe3ca913	-0.18423872
104	0x3e000f0a	0.12505737
105	0xbd6ae877	-0.057350602
106	0xbc48d6fd	-0.012258288
107	0x3cdf1b7d	0.027234787
108	0x3e1e2ac5	0.15446003
109	0x3d5cb5f1	0.05388445
110	0xbcf1a5e5	-0.02949805
111	0x3b92c411	0.0044789393
112	0xbdce4dfb	-0.10073467
113	0x3d8471dd	0.0646703
114	0xbd977244	-0.07394841
115	0x3e0424d5	0.12904675
116	0xbd97e45d	-0.07416604
117	0x3e0ff914	0.1405986
118	0xbdf4bf7f	-0.119505875
119	0x3d3d81fb	0.046266537
120	0x3de68fd4	0.11257902
121	0x3d594a73	0.053049516
122	0x3e35aa37	0.17740713
123	0xbdefccc6	-0.11708979
124	0xbcdd369d	-0.02700358
125	0xbd2712bc	-0.04078935
126	0x3e480189	0.19531836
127	0xbdb61898	-0.0889141
128	0xb9f80b1a	-0.00047310517
129	0xbe47445a	-0.19459668
130	0xbe60a5ed	-0.21938296
131	0x3e32de8e	0.1746771
132	0x3d10b1b1	0.03532571
133	0xbdd5baac	-0.104359955
134	0xbc41c09d	-0.011825708
135	0x3e3ebafb	0.18626015
136	0xbcc8bca5	-0.024504015
137	0x3c4ffefd	0.012695071
138	0x3dc5900f	0.096466176
139	0xbc9492ea	-0.01813646
140	0x3bb679c3	0.0055687143
141	0xbe8a5f48	-0.2702582
142	0x3d43e6bd	0.04782747
143	0xbd11eecf	-0.035628136
144	0xbcd9753e	-0.026545163
145	0x3ba7ccd2	0.005120852
146	0x3c96fc2d	0.018430794
147	0x3e68bcc2	0.22728255
148	0x3da26ea7	0.079312615
149	0xbd0e5d29	-0.034756813
150	0x3d919ca8	0.07109958
151	0xbe248aca	-0.16068569
152	0xbe2f3f45	-0.17113979
153	0xbefc3bdf	-0.49264428
154	0xbe053ceb	-0.1301152
155	0x3e449ccc	0.19200438
156	0xbe9ae3c3	-0.30251893
157	0x3c6db215	0.01450779
158	0xbdea6392	-0.11444773
159	0xbe55c82d	-0.20877142
160	0xbcf39dee	-0.029738393
161	0x3e8fdb7e	0.28097147
162	0x3c3671af	0.011135503
163	0xbe29c7ba	-0.16580096
164	0xbd79bc67	-0.06097069
165	0xbdf83f45	-0.12121443
166	0x3d26995d	0.040673602
167	0x3c69e734	0.0142763145
168	0xbda73579	-0.08164496
169	0xbd97a3d3	-0.07404294
170	0xbd3e698e	-0.046487384
171	0x3d499dae	0.04922264
172	0x3e4c80ac	0.1997096
173	0xbe5d1afa	-0.21592322
174	0x3d314b5a	0.04328475
175	0x3e4280f4	0.18994504
176	0xbea8a575	-0.32938734
177	0xbd91497c	-0.07094094
178	0x3cc0d5d1	0.023539456
179	0xbe29c905	-0.16580589
180	0x3e13c719	0.14431418
181	0xbc0e07a7	-0.008668817
182	0xbd681c87	-0.05666783
183	0x3dc18013	0.09448256
184	0x3d9b0cc3	0.075707935
185	0x3df8979d	0.12138293
186	0xbd8929d5	-0.06697432
187	0x3d4d76d2	0.050162144
188	0x3df4f0c8	0.11959988
189	0x3d5daee9	0.054121885
190	0xbd2a9863	-0.041649234
191	0xbc8b5eee	-0.01701304
192	0x3e6b2d3c	0.22966474
193	0xbe3bb6e2	-0.18331483
194	0x3dad9afe	0.08476828
195	0x3db0650b	0.086130224
196	0xbdcbd783	-0.09953215
197	0x3d98c073	0.07458582
198	0xbe370cc2	-0.1787596
199	0x3dc8f6c2	0.0981269
200	0x3e1cd275	0.15314658
201	0xbe83c0e0	-0.2573309
202	0x3ed5e835	0.41778722
203	0xbe85720d	-0.26063576
204	0xbda30897	-0.07960623
205	0xbdecfe46	-0.11571936
206	0x3e0454de	0.12923
207	0x3ce6c7de	0.028171476
208	0xbd898790	-0.067153096
209	0xbd86830e	-0.065679654
210	0x3d91150e	0.07084094
211	0xbda1f247	-0.07907539
212	0x3e86b4a4	0.26309693
213	0x3dc553f8	0.096351564
214	0xbe95f122	-0.29285532
215	0xbe37f643	-0.17965035
216	0x3d0eea9c	0.03489171
217	0xbd310cd1	-0.043225113
218	0x3e856732	0.26055294
219	0x3eb384a6	0.3506214
220	0xbe2e6887	-0.17032062
221	0x3dbcd584	0.092204124
222	0x3e6fb23e	0.23407838
223	0x3e42e0ca	0.19031063
224	0x3d0039dd	0.031305183
225	0x3d61f7d6	0.055167995
226	0x3e02a5c4	0.12758547
227	0x3d8384b1	0.06421793
228	0xbe08e67e	-0.13369176
229	0x3e7112d5	0.2354234
230	0xbe330151	-0.17480971
231	0x3dbba934	0.09163132
232	0xbd2c0d71	-0.042005006
233	0xbd6faf33	-0.058516692
234	0x3e1ad218	0.15119207
235	0xbc654f8a	-0.013996014
236	0xbd0b5feb	-0.03402702
237	0xbde6790e	-0.11253558
238	0xbd98cd0e	-0.07460986
239	0xbd26dfcc	-0.040740773
240	0xbd5a319d	-0.05326997
241	0xbd9fb615	-0.07798401
242	0x3df735df	0.12070822
243	0xbdc9cfd3	-0.098540924
244	0x3deacbc9	0.1146465
245	0xbe06f725	-0.13180216
246	0xbde8cc58	-0.113671005
247	0xbde2286f	-0.11042868
248	0xbe017b9b	-0.12644808
249	0xbda0198f	-0.07817375
250	0xbe2b4894	-0.16726905
251	0x3d9682f0	0.07349193
252	0xbdf3dda6	-0.119075105
253	0xbdcc3fbf	-0.09973096
254	0x3dd2a25d	0.102848746
255	0x3d89073f	0.06690835

network_body._body_endoder.seq_layers.2.bias f4 [128]
0	0x3d5e5d74	0.054288343
1	0xbca918eb	-0.020641765
2	0x3c0812bd	0.008305249
3	0xbc26a269	-0.010170558
4	0xbd15c7ce	-0.0365675
5	0x3c9b45bc	0.01895415
6	0x3d03c0ab	0.032166164
7	0x3b83d806	0.0040235547
8	0xbc836dcc	-0.016043566
9	0x3ce8af12	0.028403793
10	0x3cb232c6	0.021752726
11	0x3d20c5ae	0.039251022
12	0xbc9e4e11	-0.019324334
13	0xbc7b9ea3	-0.015357646
14	0xbcd4df8b	-0.0259855
15	0x3cd45002	0.025917057
16	0x3d0820ae	0.03323429
17	0x3d29218b	0.041291755
18	0x3ce74793	0.028232371
19	0xbad78cde	-0.001644518
20	0x3bc67425	0.006056326
21	0xbc33a279	-0.0109640295
22	0x3c71ec88	0.014765866
23	0x3a8d8050	0.0010795686
24	0xbc77f51a	-0.01513412
25	0x3d3fce71	0.046827737
26	0x3d190a2b	0.037363213
27	0x3cd2c136	0.025726896
28	0x39dd159d	0.00042168508
29	0xbd2a48fe	-0.041573517
30	0x3cecc6fb	0.028903475
31	0xbcf7f96f	-0.030270306
32	0x3d118ba1	0.03553355
33	0x3d1da6eb	0.038489264
34	0xbc8b6377	-0.017015202
35	0x3d2e4a7b	0.0425515
36	0xbd037920	-0.032097936
37	0x3d5fd502	0.0546465
38	0x3c64a8c5	0.013956253
39	0x3b50184c	0.0031752763
40	0x3cf6bb12	0.030118499
41	0xbc7c397b	-0.015394564
42	0x3ccd1b75	0.025037507
43	0xbd55dc9e	-0.05221235
44	0x3cf64490	0.03006199
45	0x3cd2fbf4	0.025754906
46	0x3cd2fa15	0.025754014
47	0xbce3fb48	-0.027829781
48	0x3d4a2497	0.0493513
49	0x3ccd92bd	0.025094384
50	0x3badbba8	0.0053019114
51	0xbcbd245c	-0.023088627
52	0x3d4c7b79	0.04992244
53	0x3c456971	0.012049065
54	0x3d015321	0.03157342
55	0xbd915b8e	-0.07097541
56	0x3d60f675	0.05492254
57	0xb9c3a817	-0.00037318535
58	0x3c48630b	0.012230645
59	0x3cd9773f	0.026546119
60	0x3d0c0cb6	0.03419181
61	0x3c21f5ec	0.0098852925
62	0x3cf96bdd	0.030446941
63	0x3d1eabe1	0.038738135
64	0x3cdd8c6f	0.027044503
65	0xbc09bc2c	-0.00840668
66	0x3caaeb57	0.020864172
67	0x3cfa3139	0.03054105
68	0x3cf3f246	0.02977861
69	0x3d2f94b8	0.04286644
70	0xbd060897	-0.032723036
71	0x3c57f62e	0.013181252
72	0x3d60f28e	0.05491882
73	0x3d13bd8a	0.03606943
74	0x3d20a26e	0.039217405
75	0x3d012f50	0.03153926
76	0x3d14a907	0.03629401
77	0x3d4f764a	0.05064992
78	0x3cc58d63	0.02411527
79	0xbc478d1a	-0.012179637
80	0x3d00e25e	0.03146588
81	0x3b93a4c3	0.004505725
82	0xbd373e00	-0.044736862
83	0xbc1045b9	-0.008805686
84	0x3d2dfde5	0.04247846
85	0x3d3094bc	0.043110594
86	0xbcc4dc24	-0.024030752
87	0x3d35165a	0.04421077
88	0x3d336ce3	0.043805014
89	0xbd53f906	-0.05175116
90	0x3cde1ee0	0.027114332
91	0x3d6727cd	0.05643444
92	0x3d3aec05	0.045635242
93	0xbd241342	-0.04005743
94	0x3cc601b4	0.024170734
95	0xbc5aa56b	-0.013345103
96	0x3d1e4d58	0.03864798
97	0x3d246b95	0.04014166
98	0xbd0e3f94	-0.0347286
99	0x3cf3a619	0.029742287
100	0xbb53232f	-0.0032217016
101	0x3d68c1ef	0.056825574
102	0x3c9b4b85	0.018956909
103	0x3c9a8e3c	0.01886665
104	0x3d4aa834	0.049476817
105	0x3d1b6450	0.037937462
106	0x3d212a03	0.039346706
107	0x3c022618	0.007943653
108	0xbd5a1f72	-0.053252645
109	0x3d29c73e	0.041449778
110	0xbbee0ab6	-0.0072644604
111	0x3d576223	0.052583825
112	0xbd237911	-0.03991038
113	0xbd112464	-0.035435095
114	0x3bfed303	0.0077766194
115	0xbd9701f1	-0.07373417
116	0xbca0cd7a	-0.019629229
117	0xbd01a224	-0.03164877
118	0xbd07efba	-0.033187605
119	0x3d21c53a	0.03949473
120	0x3d247b32	0.04015655
121	0x3d255462	0.040363677
122	0xbd02217b	-0.03177021
123	0x3c240fb2	0.010013508
124	0x3c65ad9c	0.0140184425
125	0x3d3f4f3e	0.04670643
126	0xbcbfb565	-0.023401925
127	0xbcf1e4d0	-0.029528052

action_model._discrete_distribution.branches.0.weight f4 [3, 128]
0	0xbcf8d02c	-0.030372702
1	0x3bb1e961	0.0054294323
2	0xbc69068a	-0.01422275
3	0x3d0d40ff	0.034485813
4	0xbdaabfb0	-0.08337343
5	0x3c1a733d	0.009426889
6	0xbc9e4762	-0.019321147
7	0xbda14b44	-0.07875684
8	0x3e12c668	0.14333498
9	0xbc625db5	-0.013816287
10	0xbd300613	-0.042974543
11	0xbd1ed983	-0.038781654
12	0xbd96949a	-0.07352562
13	0xbcb7bce2	-0.022428934
14	0xbda3c789	-0.07997043
15	0x3dd371e5	0.10324458
16	0xbccab0df	-0.024742542
17	0xbb586792	-0.0033020717
18	0xbcfb079a	-0.030643273
19	0xbc0f1df9	-0.008735173
20	0x3b517e87	0.0031966285
21	0x3d3f842a	0.0467569
22	0xbbc0dae8	-0.0058854707
23	0x3d454501	0.04816151
24	0x3df2b5a7	0.11851054
25	0xbd0dd021	-0.034622315
26	0xbc201c7a	-0.009772414
27	0x3dcef759	0.101057716
28	0x3c556701	0.013025046
29	0x3e115bf4	0.14195234
30	0x3dfaa90b	0.12239274
31	0x3caa12cb	0.020760914
32	0xbd707999	-0.058709715
33	0xbcbe7415	-0.023248712
34	0xbde4e3a4	-0.111762315
35	0xbcd1f177	-0.025627835
36	0x3c064e9c	0.008197453
37	0x3caf1044	0.02137006
38	0x3d57052d	0.05249517
39	0xbdbae6f9	-0.09126086
40	0x3c1d4731	0.009599493
41	0xbd6756ad	-0.056479145
42	0xbc2ada5e	-0.010428039
43	0x3d2c07bf	0.041999575
44	0xbd671476	-0.056415997
45	0xbcaeb122	-0.021324698
46	0x3c8728a7	0.016498877
47	0x3dbd990e	0.092577085
48	0xbcd25bb4	-0.025678493
49	0xbd309cbc	-0.043118224
50	0x3de05a42	0.10954715
51	0xbcf3b7f7	-0.029750807
52	0xbbf630d1	-0.0075131436
53	0x3da695f4	0.0813407
54	0xbbbbb684	-0.0057285447
55	0x3c92c67c	0.01791691
56	0xbb512d9a	-0.003191805
57	0x3d780f0a	0.060561217
58	0x3d657f80	0.056029797
59	0xbc8172a5	-0.015801737
60	0xbcbd237a	-0.023088206
61	0x3bf44a7a	0.0074551674
62	0xbd572bd9	-0.05253205
63	0xbc8b67fa	-0.017017353
64	0xbb9152a1	-0.004434899
65	0x3dc09018	0.09402484
66	0xbd1e534f	-0.038653668
67	0xbc1a7b79	-0.009428852
68	0x3bbd82ba	0.005783406
69	0xbd76b4c0	-0.06023097
70	0x3da45964	0.080248624
71	0x3d917b19	0.07103557
72	0xbd29165b	-0.041281085
73	0xbd2ca04f	-0.04214507
74	0xbd172c26	-0.036907338
75	0x3a9b5041	0.0011849479
76	0xbd384a4a	-0.044992723
77	0xbda1adbe	-0.07894467
78	0x3c544f10	0.012958303
79	0x3e2e52c1	0.17023756
80	0xbcf15c20	-0.029462874
81	0x3cede824	0.029041357
82	0x3b938103	0.0045014634
83	0xbbdccc9e	-0.0067382595
84	0xbc8c27e2	-0.017108861
85	0xbc9f6b05	-0.01946021
86	0x3d1fd277	0.039019074
87	0xbc513ba6	-0.012770569
88	0xbd233c3d	-0.03985237
89	0xbc7f4865	-0.015581225
90	0xbbc4ad95	-0.006002138
91	0xbd2eced6	-0.042677723
92	0x3bf74879	0.007546481
93	0xbd1fea08	-0.03904155
94	0x3d7f89f1	0.06238741
95	0xbe15ce0f	-0.14629386
96	0xbd33726e	-0.0438103
97	0xbc924e43	-0.017859584
98	0x3d6a4d9f	0.05720293
99	0xbc6c6faa	-0.01443092
100	0x3df3da1d	0.11906836
101	0x3c6ef98a	0.014585862
102	0x3da7e6c6	0.081983134
103	0xba6834a6	-0.0008857943
104	0xbd36d76b	-0.044639032
105	0xbcd404ec	-0.025881253
106	0xbc73e35f	-0.014885752
107	0x3d8df825	0.069320954
108	0x3d125fae	0.03573578
109	0xbc3ca015	-0.011512776
110	0x3cc59b28	0.024121836
111	0x3c227fd8	0.009918176
112	0x3d9dfd49	0.07714326
113	0x3b8f815d	0.004379435
114	0x3d68d883	0.056847107
115	0x3cdfff44	0.0273434
116	0x3daf7c68	0.085686505
117	0x3dd7af18	0.10531443
118	0x3d02136c	0.031756803
119	0xbcf197b3	-0.029491281
120	0xbd6c2319	-0.05765066
121	0xbd79c70a	-0.060980834
122	0x3d488bdf	0.048961516
123	0x3cd35ba4	0.025800534
124	0x3d36a452	0.0445903
125	0xbd20d86d	-0.0392689
126	0x3d93b69e	0.07212566
127	0xbccb991c	-0.024853282
128	0x3d50b74d	0.05095606
129	0xbc726cae	-0.014796419
130	0x3af80ce4	0.001892474
131	0xbdeecff4	-0.11660758
132	0x3bc47323	0.0059951707
133	0x3b92cdc1	0.004480094
134	0x3c31639b	0.01082697
135	0x3d1283eb	0.035770338
136	0xbe477b86	-0.19480714
137	0x3d44b224	0.04802145
138	0x3d3f49ae	0.046701126
139	0x3d697bb7	0.05700275
140	0x3cff715e	0.031181987
141	0x3c738a85	0.014864569
142	0x3d1df86a	0.038566984
143	0xbe2872d2	-0.1645005
144	0x3d66eafa	0.056376435
145	0x3d2bce66	0.041944884
146	0x3d25f9f5	0.04052158
147	0xbc6ff9cc	-0.014646959
148	0xbbc54542	-0.006020219
149	0xbdf48972	-0.11940278
150	0xbc88d98d	-0.016705299
151	0xbcdf41f9	-0.027253138
152	0xbe29c24f	-0.16578029
153	0x3d3f6ea9	0.046736393
154	0x3d03187b	0.03200577
155	0xbe293354	-0.16523486
156	0xbd116a91	-0.03550202
157	0xbe26c1f3	-0.16284923
158	0xbe262f03	-0.16228871
159	0xbd2c4446	-0.042057298
160	0x3d500cc9	0.050793443
161	0x3c96ff3d	0.018432254
162	0x3dbefcd1	0.09325565
163	0x3d387e53	0.045042347
164	0xbd4c0345	-0.049807806
165	0x3caeee35	0.02135382
166	0xbd5dd3af	-0.054156955
167	0x3db605ff	0.088878624
168	0x3d0a9937	0.033837523
169	0x3d03aa12	0.032144614
170	0x3b977625	0.004622238
171	0xbde319d1	-0.110889085
172	0x3d9d4985	0.07680038
173	0x3d21ad13	0.039471697
174	0x3b92c1da	0.0044786753
175	0xbe0d7853	-0.13815431
176	0x3d4b5a46	0.04964664
177	0xbc7a14be	-0.015263734
178	0xbdfa9199	-0.12234802
179	0x3cb33398	0.021875188
180	0x3d6af492	0.057362147
181	0xbd8b608e	-0.06805526
182	0x3c3f015c	0.011658039
183	0xbd11d75f	-0.035605785
184	0x3d3bf217	0.04588517
185	0xbd9081f7	-0.07056039
186	0xbd7c0a1a	-0.06153307
187	0x3d4bf119	0.049790476
188	0x3d103bea	0.03521339
189	0x3d3c6728	0.045996815
190	0x3d5512e7	0.05201998
191	0x3d5661bd	0.052339304
192	0x3ca02da1	0.019553008
193	0xbe514460	-0.20436239
194	0x3d8a14d3	0.06742253
195	0x3d40d695	0.04707964
196	0x3d0e1cc9	0.03469542
197	0x3d9ee634	0.077587515
198	0xbdeb2dcb	-0.11483344
199	0xbdcbfac9	-0.09959943
200	0x3d8f3dc6	0.06994204
201	0x3d9a4b53	0.07533898
202	0x3d8e0cd1	0.06936038
203	0x3c5914b6	0.013249567
204	0x3d73d3e8	0.05952826
205	0x3dac01d3	0.083987854
206	0x3b133e52	0.0022467566
207	0xbe300546	-0.17189512
208	0x3d00243c	0.031284556
209	0xbb923a81	-0.0044625406
210	0xbd9a1ed2	-0.0752541
211	0xbd41f44f	-0.04735213
212	0x3d1a63ca	0.037692823
213	0x3d8339c7	0.064075045
214	0xbd669e2b	-0.056303184
215	0x3d857082	0.065156
216	0x3d3eddbf	0.046598192
217	0xbcbe26ff	-0.023211954
218	0x3d5dc63b	0.054144125
219	0x3dbbd142	0.09170772
220	0x3d04e0e2	0.032441027
221	0x3caec549	0.021334307
222	0xbdaa0ee3	-0.08303621
223	0x3e090ce5	0.13383825
224	0x3d38b70b	0.04509644
225	0x3d72996a	0.05922834
226	0xbd972fce	-0.07382165
227	0x3d273a33	0.040826987
228	0xbe011cd5	-0.12608655
229	0x3d174cfb	0.03693865
230	0xbd2d5202	-0.042314537
231	0xbcec0355	-0.028810183
232	0x3db38212	0.08765043
233	0x3d56465c	0.052313194
234	0x3d60c5df	0.054876205
235	0xbdbab5b0	-0.091166854
236	0xbd85f9b2	-0.06541766
237	0x3cca19cb	0.024670502
238	0x3a81ea68	0.0009911777
239	0x3c677637	0.014127306
240	0xbe03154d	-0.12801094
241	0xbcf7dddb	-0.030257156
242	0xbda79cf3	-0.081842326
243	0xbd94d7ed	-0.07267747
244	0xbdba39cc	-0.09093055
245	0xbe033cd6	-0.12816176
246	0xbd1baa26	-0.038004063
247	0x3d0e3e66	0.034727477
248	0x3d8d3fed	0.068969585
249	0x3d652222	0.055940755
250	0xbdadd563	-0.08487966
251	0x3c69513c	0.014240559
252	0xbd8246bc	-0.06361148
253	0x3d73d42c	0.059528515
254	0xbe19d932	-0.1502426
255	0xbcc30c60	-0.023809612

action_model._discrete_distribution.branches.0.bias f4 [3]
0	0xbc465581	-0.012105347
1	0x3d2fbe4e	0.042906098
2	0xbd85b8e4	-0.06529406

action_model._discrete_distribution.branches.1.weight f4 [3, 128]
0	0x3ac095c3	0.001469307
1	0x3cc1c80a	0.023654956
2	0x3d5a302e	0.053268604
3	0x3c858f32	0.016303632
4	0xbd93329a	-0.07187386
5	0x3d815dce	0.0631672
6	0x3c33236e	0.01093374
7	0x3ca700da	0.020386148
8	0x3d30c6ea	0.04315845
9	0x3d206cfa	0.03916643
10	0x3c8fbc29	0.017545776
11	0x3cf7dd7a	0.030256975
12	0xbe1df3c1	-0.15425016
13	0xbd95bb0c	-0.07311067
14	0xbded5470	-0.11588371
15	0x3d85faf5	0.06542007
16	0x3c05bf8e	0.008163346
17	0x3d3588a8	0.04431978
18	0x3d260de0	0.040540576
19	0x3dce453b	0.100717984
20	0xbd0ca8eb	-0.03434078
21	0x3d0559be	0.032556288
22	0x3cc9c526	0.02463014
23	0x3ce37309	0.027764814
24	0x3ca8ec6e	0.020620551
25	0x3d250eab	0.04029719
26	0x3cf70ee1	0.030158462
27	0x3cd50a71	0.026005955
28	0xbe20da72	-0.1570833
29	0x3b6c0aaa	0.0036017098
30	0x3d3ebae2	0.046564944
31	0xbda89bda	-0.08232851
32	0x3c80eaaa	0.015736897
33	0x3ad1199b	0.0015953066
34	0xbd95f601	-0.07322312
35	0x3c283d39	0.010268503
36	0xbde77f1a	-0.113035396
37	0x3cabe5bb	0.020983567
38	0x3dff1621	0.12455393
39	0xbcaf543a	-0.021402467
40	0x3d81247d	0.06305788
41	0x3d416ab0	0.047220886
42	0x3d22f3fe	0.03978347
43	0x3cd885e5	0.026431033
44	0xbb9c9e13	-0.004779586
45	0x3d20e0e5	0.039276976
46	0xbbb2643f	-0.005444079
47	0xbc8c8b69	-0.01715632
48	0x3cd3ddc5	0.025862584
49	0x3d84a2cc	0.064763635
50	0x3d070b53	0.032969784
51	0xbd7ff6b6	-0.06249114
52	0x3ce74df7	0.028235419
53	0xbc89bdb2	-0.016814087
54	0x3b21eeef	0.0024709066
55	0x3cb0fbbc	0.021604411
56	0x3c4b12ad	0.012394589
57	0x3d1f1a67	0.03884354
58	0x3da3bfff	0.07995605
59	0x3cc34fdd	0.023841793
60	0x3d0396ca	0.032126226
61	0x3c9fd6f9	0.019511687
62	0x3c6e0895	0.014528413
63	0xbafde9c0	-0.0019372031
64	0xbc3f8c9c	-0.011691239
65	0x3c341bfa	0.010992998
66	0xbc1b36e0	-0.009473532
67	0xb7ec974d	-2.8203847e-05
68	0x3b798f8e	0.003807995
69	0x3c2d7d9b	0.010589029
70	0x3cd75416	0.026285212
71	0x3dc101f2	0.09424199
72	0x3cb769a4	0.02238924
73	0x3c8e2fd8	0.017356798
74	0x3c3d7e83	0.011565807
75	0x3cf984f0	0.030458897
76	0x3ccb2712	0.024798904
77	0x3d376484	0.044773594
78	0x3c823fd8	0.015899584
79	0x3d52f859	0.051506374
80	0x3aff06b3	0.0019456953
81	0x3d9396a1	0.072064646
82	0xbc0ee9a8	-0.0087227
83	0x3d3fb18a	0.046800174
84	0x3c71090c	0.01471163
85	0x3bf4ade7	0.00746702
86	0xbd80c409	-0.06287391
87	0x3ca61b12	0.02027658
88	0x3d068ac9	0.0328472
89	0x3bb92c27	0.0056510153
90	0x3d6bf4c8	0.05760649
91	0x3b1c4149	0.0023842624
92	0x3c47b686	0.012189513
93	0xbd526159	-0.05136237
94	0x3d417f77	0.0472407
95	0xbdfa23b7	-0.12213843
96	0xbaf4222a	-0.0018625904
97	0x3be32f34	0.0069331173
98	0xbd027a25	-0.031854767
99	0x3c6cb140	0.014446557
100	0x3cf992d6	0.030465525
101	0x3b3c76b9	0.0028757288
102	0x3da9a9e6	0.08284359
103	0xbcef10e2	-0.029182855
104	0xbba3d4d3	-0.004999736
105	0x3c82d71b	0.01597171
106	0x3d027a14	0.031854704
107	0xbba66dfa	-0.005079028
108	0xbd286a45	-0.04111697
109	0x3cb2b6ea	0.021815736
110	0x3d3dec06	0.046367668
111	0xbc176eb9	-0.009242707
112	0xbc763590	-0.015027419
113	0xbd8233d3	-0.06357541
114	0x3d28a59f	0.041173574
115	0xbd16c936	-0.036812983
116	0x3b3cf60a	0.0028833174
117	0x3cf53dee	0.029936757
118	0x3c40e720	0.0117738545
119	0x3cf50d52	0.029913578
120	0x3c810352	0.015748654
121	0x3c883040	0.01662457
122	0xbc3a1dca	-0.011359641
123	0x3be967b2	0.007122957
124	0x3cedb110	0.029015094
125	0x3ca3ccb4	0.019995071
126	0x3c2c1505	0.010503058
127	0xbdb0f5a4	-0.08640602
128	0xbd33e762	-0.043921836
129	0x3dc24aa5	0.094868936
130	0x3c948df9	0.018134104
131	0xbd45c381	-0.04828215
132	0x3de8bcd8	0.11364144
133	0x3bef424a	0.0073016034
134	0xbdea8717	-0.114515476
135	0x3db7b0b7	0.089692526
136	0xbd980982	-0.074236885
137	0xb912c80c	-0.00013998168
138	0x3c165101	0.009174586
139	0xbd03fd13	-0.032223772
140	0x3bda7c79	0.0066676703
141	0x3ddfd4ea	0.10929282
142	0xba8ae21d	-0.0010595951
143	0xbe1fdf0e	-0.15612432
144	0xbd3c9628	-0.046041638
145	0x3bd397fa	0.006457326
146	0xbc4794d0	-0.012181476
147	0x3d9e1c86	0.07720284
148	0xbd8a5091	-0.06753648
149	0x3de91974	0.11381808
150	0x3e217bd3	0.15769891
151	0x3d34172d	0.043967415
152	0xbcbfbb37	-0.0234047
153	0xbde945e6	-0.11390285
154	0xbd030e87	-0.031996276
155	0xbda45c4a	-0.08025415
156	0x3c8d9074	0.017280795
157	0xbc56a57e	-0.01310098
158	0xbdd24c72	-0.10268487
159	0x3c866572	0.016405795
160	0xbd400ec9	-0.0468891
161	0xbddbccfc	-0.10732457
162	0x3d84b772	0.06480302
163	0xbdb42454	-0.087959915
164	0x3d92d8f8	0.0717029
165	0xbd765d7e	-0.060147755
166	0x3d65b76e	0.056083135
167	0x3dbbc3f0	0.091682315
168	0x3c3cf341	0.011532606
169	0x3e130066	0.1435562
170	0xbd8d77fa	-0.06907649
171	0x3d44191e	0.047875516
172	0xbd147032	-0.03623981
173	0x3c9ddee5	0.019271323
174	0xbdb53481	-0.08847905
175	0x3d89fc9e	0.06737636
176	0xbd931a07	-0.07182699
177	0xbe0f36a8	-0.13985693
178	0xbdaf8ceb	-0.085718
179	0x3e110136	0.14160618
180	0xbc2c30de	-0.010509698
181	0xbdd295f5	-0.10282508
182	0xbd16dfcf	-0.036834534
183	0x3e02967e	0.1275272
184	0xbdbe450d	-0.09290514
185	0x3d2c3d10	0.04205042
186	0x3c9a335d	0.01882332
187	0xbc2b7046	-0.01046378
188	0xbd5fba32	-0.05462093
189	0x3c4a5b27	0.012350834
190	0xbd7cb3af	-0.061694797
191	0xbd33272c	-0.04373853
192	0xbd6927eb	-0.056922834
193	0xbd1453fb	-0.036212903
194	0xbc9295a2	-0.017893616
195	0xbdf5cbbf	-0.12001752
196	0xbd53aa80	-0.051676273
197	0xbcee3100	-0.0290761
198	0x3d9d420e	0.076786146
199	0xbd6d0cd8	-0.057873577
200	0xbd05c09e	-0.032654397
201	0xba58f6b8	-0.000827651
202	0xbc9ead56	-0.019369762
203	0xbc2b1029	-0.010440865
204	0xbc45a010	-0.012062088
205	0xbd33767d	-0.04381417
206	0xbe462ec5	-0.19353779
207	0xbd8dec03	-0.06929781
208	0xbddbd788	-0.10734469
209	0x3d559781	0.05214644
210	0x3e2d96ed	0.16952105
211	0x3d7c1f9c	0.061553583
212	0xbd81953c	-0.06327292
213	0xbdadfce5	-0.084955014
214	0x3daa7cbc	0.083245724
215	0xbb985179	-0.004648384
216	0xbd8282fd	-0.0637264
217	0x3d6c31db	0.057664733
218	0x3d06ec4c	0.032940194
219	0xbd8582e8	-0.06519109
220	0xbc6af577	-0.01434075
221	0x3dc6698c	0.096881
222	0xbdcfb04e	-0.10141049
223	0x3d8220d5	0.063539185
224	0xbd9a183f	-0.07524156
225	0xbcdd1b98	-0.026990697
226	0x3d00802f	0.031372245
227	0xbca07f5e	-0.019591983
228	0xbccf48be	-0.02530324
229	0xbb834be8	-0.0040068515
230	0x3caf5b17	0.02140574
231	0xbe40bbcc	-0.18821639
232	0xbcefd248	-0.029275075
233	0xbd8eeb01	-0.06978417
234	0xbcec2854	-0.028827824
235	0xbd180be6	-0.037120722
236	0x3d1f99d1	0.03896505
237	0xbd70b12b	-0.05876271
238	0x3d8105c5	0.062999286
239	0xbdf13205	-0.117771186
240	0xbc1996be	-0.009374319
241	0x3d528de1	0.051404838
242	0x3da670c2	0.081269756
243	0x3decb7e0	0.11558509
244	0x3decd6da	0.11564417
245	0xbc296aa1	-0.010340364
246	0x3da33309	0.079687186
247	0xbdbb116a	-0.09134181
248	0xbda83dbe	-0.082149014
249	0xbd1d6741	-0.03842855
250	0x3c48d708	0.012258299
251	0x3dc1f150	0.09469855
252	0x3bcbe0d5	0.0062218704
253	0xbd4eba7e	-0.05047082
254	0x391cba1e	0.00014946653
255	0x3d8a90ad	0.06765876

action_model._discrete_distribution.branches.1.bias f4 [3]
0	0x3cd4acba	0.025961269
1	0xbd6531d0	-0.055955708
2	0x3c3ec78d	0.011644256

exp_avg f4 [128, 29]
0	0xba110690	-0.0005532289
1	0x3a6fc89c	0.00091470196
2	0x00000000	0.0
3	0xb7b3da63	-2.1440157e-05
4	0x3a07631c	0.000516461
5	0xb9466b26	-0.00018922667
6	0x00000000	0.0
7	0xb8bfa8cd	-9.139031e-05
8	0xba433fc1	-0.000744816
9	0x3a8ba010	0.0010652561
10	0x00000000	0.0
11	0x37913e9f	1.7314507e-05
12	0x3a507944	0.00079526403
13	0xba009dd2	-0.00049063296
14	0x00000000	0.0
15	0xb8bf2803	-9.1150425e-05
16	0xb997c634	-0.00028948637
17	0x3a1fbf1a	0.0006093845
18	0x00000000	0.0
19	0x37ff4663	3.0431145e-05
20	0x3a94c3b3	0.0011349827
21	0xba56c416	-0.0008192671
22	0x00000000	0.0
23	0xb741e880	-1.155783e-05
24	0xb940d6be	-0.00018390545
25	0x3a0411b2	0.0005038037
26	0x00000000	0.0
27	0x382f637d	4.1815907e-05
28	0x00000000	0.0
29	0xb9375046	-0.00017482144
30	0x39f2ee02	0.00046335167
31	0x00000000	0.0
32	0x37bb258d	2.2309623e-05
33	0x39a58ae4	0.00031574734
34	0xb8801771	-6.107882e-05
35	0x00000000	0.0
36	0xb7191a4b	-9.1256325e-06
37	0x389c48e8	7.4522395e-05
38	0x39255ac1	0.00015769435
39	0x00000000	0.0
40	0x3783861a	1.5678863e-05
41	0x38132ab4	3.50873e-05
42	0x3958ec24	0.00020687334
43	0x00000000	0.0
44	0xb5aac310	-1.2722758e-06
45	0xb9f5b190	-0.00046862336
46	0x3a37abf1	0.0007006517
47	0x00000000	0.0
48	0xb7beb852	-2.2735596e-05
49	0x3993e15e	0.00028205937
50	0xb869d8c8	-5.5753422e-05
51	0x00000000	0.0
52	0x387364ce	5.8029596e-05
53	0x39f0412e	0.0004582493
54	0xb96d35b6	-0.0002262209
55	0x00000000	0.0
56	0x368da37d	4.22116e-06
57	0x00000000	0.0
58	0xba97fb6d	-0.0011595316
59	0x3aa63834	0.0012681545
60	0x00000000	0.0
61	0xb8b57f51	-8.654467e-05
62	0xba422c23	-0.00074070896
63	0x3a52430a	0.0008020854
64	0x00000000	0.0
65	0xb8c0d878	-9.195594e-05
66	0xba93b624	-0.0011269492
67	0x3a9f0c77	0.0012134452
68	0x00000000	0.0
69	0xb8c3b3d6	-9.331822e-05
70	0xb9759e34	-0.00023423956
71	0x3991905b	0.00027764108
72	0x00000000	0.0
73	0xb8683b84	-5.536854e-05
74	0x380f6848	3.4190976e-05
75	0x38598d1c	5.186825e-05
76	0x00000000	0.0
77	0xb8c0e982	-9.198768e-05
78	0x3a2f7591	0.0006693239
79	0xba1a59d2	-0.0005888018
80	0x00000000	0.0
81	0x389dc9e1	7.523946e-05
82	0xba71f730	-0.0009230254
83	0x3a844345	0.0010090849
84	0x00000000	0.0
85	0xb742f4cc	-1.1620297e-05
86	0x00000000	0.0
87	0x391bb880	0.00014850684
88	0xb93145fe	-0.0001690611
89	0x00000000	0.0
90	0x36fec7fc	7.593071e-06
91	0x3960c0ae	0.00021434083
92	0xb9863692	-0.0002559913
93	0x00000000	0.0
94	0xb50ed280	-5.320544e-07
95	0xb7c936a0	-2.3986504e-05
96	0xb8859e7a	-6.371453e-05
97	0x00000000	0.0
98	0xb79d4a56	-1.8750474e-05
99	0x38f343ed	0.00011599795
100	0xb933e1dc	-0.0001715491
101	0x00000000	0.0
102	0x36f5e150	7.327799e-06
103	0x3825ae30	3.950129e-05
104	0xb9056278	-0.00012720551
105	0x00000000	0.0
106	0xb84a9bd4	-4.830568e-05
107	0x3921e261	0.00015438489
108	0xb9829f50	-0.0002491423
109	0x00000000	0.0
110	0xb5f22c80	-1.8043356e-06
111	0x3a4d8c55	0.00078410405
112	0xba648a0e	-0.00087180815
113	0x00000000	0.0
114	0xb7f8cc5b	-2.9659064e-05
115	0x00000000	0.0
116	0x36a84920	5.015303e-06
117	0x3a3479ec	0.0006884623
118	0x00000000	0.0
119	0x382f9334	4.1860345e-05
120	0x3a86fd57	0.001029889
121	0xb9acb4fe	-0.00032941246
122	0x00000000	0.0
123	0xb8b16949	-8.4596286e-05
124	0xb9fa5252	-0.0004774505
125	0x3a9889b4	0.0011637718
126	0x00000000	0.0
127	0x38bfc05c	9.1434194e-05
128	0x3a9c3337	0.0011917119
129	0xba032342	-0.0005002507
130	0x00000000	0.0
131	0xb8f6a9dd	-0.000117618336
132	0xba09b1fd	-0.00052526576
133	0x3a9ec9b6	0.0012114558
134	0x00000000	0.0
135	0x38ff8029	0.00012183219
136	0x3a2fc7da	0.00067055004
137	0x37839a4f	1.5688272e-05
138	0x00000000	0.0
139	0xb8a11032	-7.680095e-05
140	0x3a93f19e	0.0011287217
141	0xb9e8039c	-0.00044253177
142	0x00000000	0.0
143	0x388e734a	6.792562e-05
144	0x00000000	0.0
145	0x39d0aa88	0.00039799907
146	0x3b15173b	0.0022749442
147	0x00000000	0.0
148	0x38757502	5.8521524e-05
149	0x3b0e2b70	0.0021693371
150	0x39f2861e	0.00046257762
151	0x00000000	0.0
152	0xb96cb680	-0.000225747
153	0xba136722	-0.0005622973
154	0x3b51df25	0.0032023874
155	0x00000000	0.0
156	0x3977e573	0.00023641232
157	0x3b346003	0.0027523048
158	0xb9160cc4	-0.0001430987
159	0x00000000	0.0
160	0xb9905639	-0.0002753006
161	0xb882e7f4	-6.242088e-05
162	0x3b310c64	0.0027015442
163	0x00000000	0.0
164	0x39a31109	0.00031102475
165	0x3b9d4e1d	0.0048005716
166	0xbb0e067e	-0.002167135
167	0x00000000	0.0
168	0xb880e5fe	-6.146355e-05
169	0x3b279f62	0.0025577177
170	0x38aab8a0	8.140621e-05
171	0x00000000	0.0
172	0x3990b825	0.0002760302
173	0x00000000	0.0
174	0xba1d9256	-0.00060108805
175	0x37ab77e0	2.044061e-05
176	0x00000000	0.0
177	0xb50ba380	-5.201946e-07
178	0xb9f045d7	-0.00045828402
179	0xb91430e4	-0.00014132593
180	0x00000000	0.0
181	0xb6b2d1e2	-5.329247e-06
182	0xb7e71dde	-2.7551254e-05
183	0xba168cb7	-0.0005743014
184	0x00000000	0.0
185	0xb82cef7c	-4.1231033e-05
186	0xb9d698a8	-0.00040930999
187	0xb956b9d4	-0.00020477857
188	0x00000000	0.0
189	0x35eb06b0	1.7510811e-06
190	0xb9916491	-0.00027731483
191	0xb9aa425e	-0.00032474374
192	0x00000000	0.0
193	0xb83feaa1	-4.5756464e-05
194	0xba3176a2	-0.0006769692
195	0x38957b98	7.127895e-05
196	0x00000000	0.0
197	0x375090e0	1.2431497e-05
198	0xba97d82e	-0.0011584812
199	0x3a11dce4	0.00055642263
200	0x00000000	0.0
201	0xb7442d58	-1.1693068e-05
202	0x00000000	0.0
203	0x399ed218	0.0003029264
204	0xba57b004	-0.00082278275
205	0x00000000	0.0
206	0xb7813f7c	-1.540756e-05
207	0x38bbcba4	8.954786e-05
208	0xba24fddc	-0.00062939315
209	0x00000000	0.0
210	0x37e2ed9a	2.7051941e-05
211	0x38f5ccd8	0.000117206655
212	0xba259b84	-0.0006317424
213	0x00000000	0.0
214	0xb806f7b5	-3.2178785e-05
215	0xb7e33514	-2.7085225e-05
216	0xba06454d	-0.0005122021
217	0x00000000	0.0
218	0x38158868	3.5651407e-05
219	0x3a0cd7be	0.0005372724
220	0xba89d502	-0.0010515752
221	0x00000000	0.0
222	0xb889de0d	-6.574029e-05
223	0xb986e40c	-0.0002572838
224	0xb987e2e3	-0.0002591825
225	0x00000000	0.0
226	0xb820555a	-3.8226462e-05
227	0x3a1c54cd	0.0005963564
228	0xba919388	-0.001110659
229	0x00000000	0.0
230	0xb8970c48	-7.202529e-05
231	0x00000000	0.0
232	0x3a3876c0	0.0007036738
233	0xbaa7fab6	-0.0012815807
234	0x00000000	0.0
235	0x3747b728	1.1903969e-05
236	0x39a01edd	0.00030540573
237	0xba5af22a	-0.00083521253
238	0x00000000	0.0
239	0x3782d8f3	1.5598232e-05
240	0x3a4a5148	0.00077178003
241	0xbaa543bb	-0.0012608686
242	0x00000000	0.0
243	0x38a23984	7.735475e-05
244	0x39df40cc	0.00042582152
245	0xba73ef16	-0.0009305341
246	0x00000000	0.0
247	0xb82d0522	-4.1251194e-05
248	0x3a5ea33a	0.00084929506
249	0xbaaf6381	-0.0013381095
250	0x00000000	0.0
251	0x390cd13d	0.00013429388
252	0xba8b3fbc	-0.0010623853
253	0x3a1a2a94	0.00058809784
254	0x00000000	0.0
255	0xb98021c0	-0.00024439208

exp_avg_sq f4 [128, 29]
0	0x378117a2	1.5389003e-05
1	0x36e55bcb	6.835418e-06
2	0x00000000	0.0
3	0x33beaa2b	8.878518e-08
4	0x37574390	1.2830729e-05
5	0x370805fd	8.107626e-06
6	0x00000000	0.0
7	0x33b8bc7f	8.602455e-08
8	0x37a25737	1.9352517e-05
9	0x36e0823f	6.690883e-06
10	0x00000000	0.0
11	0x33f1e7df	1.1264614e-07
12	0x36cdcffb	6.133688e-06
13	0x379d8937	1.8779754e-05
14	0x00000000	0.0
15	0x33e377c2	1.0592295e-07
16	0x378110f7	1.5385898e-05
17	0x372b806a	1.0222293e-05
18	0x00000000	0.0
19	0x33c06bac	8.960282e-08
20	0x366fd815	3.5739552e-06
21	0x37c12438	2.3024259e-05
22	0x00000000	0.0
23	0x33ce1738	9.596846e-08
24	0x3767bfeb	1.3813357e-05
25	0x3751c4a7	1.2503157e-05
26	0x00000000	0.0
27	0x33b02494	8.202292e-08
28	0x00000000	0.0
29	0x36d83691	6.443654e-06
30	0x368a604c	4.123931e-06
31	0x00000000	0.0
32	0x32ff4025	2.9715077e-08
33	0x36ef526a	7.1323493e-06
34	0x3655607d	3.1795637e-06
35	0x00000000	0.0
36	0x331c1a10	3.6345284e-08
37	0x3716cece	8.988847e-06
38	0x364ad1aa	3.0222386e-06
39	0x00000000	0.0
40	0x32fcf863	2.9449614e-08
41	0x36623464	3.370712e-06
42	0x36f8c882	7.414318e-06
43	0x00000000	0.0
44	0x333eba87	4.4407468e-08
45	0x370a7e3e	8.254834e-06
46	0x3660ab08	3.3478154e-06
47	0x00000000	0.0
48	0x32ea07ee	2.7244791e-08
49	0x35d29c33	1.5691679e-06
50	0x372cc1f3	1.0297156e-05
51	0x00000000	0.0
52	0x332d27f0	4.0316024e-08
53	0x3705c6d0	7.973707e-06
54	0x3680b8d9	3.8362164e-06
55	0x00000000	0.0
56	0x32f7bc04	2.8840084e-08
57	0x00000000	0.0
58	0x370611f0	7.991199e-06
59	0x365b7026	3.2698822e-06
60	0x00000000	0.0
61	0x3382988c	6.081345e-08
62	0x3630cdca	2.6345829e-06
63	0x36f639b3	7.3380884e-06
64	0x00000000	0.0
65	0x332fd5a6	4.0939675e-08
66	0x3757c045	1.2859765e-05
67	0x35cf0adc	1.5425862e-06
68	0x00000000	0.0
69	0x33d16a7d	9.751691e-08
70	0x35d4662a	1.5824965e-06
71	0x37470b8a	1.1864011e-05
72	0x00000000	0.0
73	0x33507922	4.8538944e-08
74	0x3706e8dc	8.041239e-06
75	0x36c68ac6	5.917015e-06
76	0x00000000	0.0
77	0x33b0a27f	8.2251965e-08
78	0x3573aaa3	9.0772863e-07
79	0x376ad33a	1.3996667e-05
80	0x00000000	0.0
81	0x334e8d4a	4.8091614e-08
82	0x36a99849	5.054321e-06
83	0x3720f707	9.594259e-06
84	0x00000000	0.0
85	0x3393a2e7	6.874853e-08
86	0x00000000	0.0
87	0x367c6e19	3.7615011e-06
88	0x349afb0a	2.886739e-07
89	0x00000000	0.0
90	0x31932c49	4.2832977e-09
91	0x36655fd5	3.417944e-06
92	0x34963a81	2.7982244e-07
93	0x00000000	0.0
94	0x319dcc35	4.592517e-09
95	0x36987321	4.5433558e-06
96	0x34ac2491	3.2064102e-07
97	0x00000000	0.0
98	0x3200d295	7.498461e-09
99	0x3581b624	9.664259e-07
100	0x3661f193	3.3668227e-06
101	0x00000000	0.0
102	0x3204f6fa	7.739567e-09
103	0x36982d82	4.535251e-06
104	0x34ca41df	3.767336e-07
105	0x00000000	0.0
106	0x322c3500	1.00237685e-08
107	0x3544488c	7.312126e-07
108	0x36924685	4.3593486e-06
109	0x00000000	0.0
110	0x320b19ff	8.096776e-09
111	0x367395a5	3.6296926e-06
112	0x35af78ad	1.3073637e-06
113	0x00000000	0.0
114	0x3239c935	1.08141665e-08
115	0x00000000	0.0
116	0x363da29d	2.8257848e-06
117	0x370ddb32	8.45529e-06
118	0x00000000	0.0
119	0x3367799d	5.3894485e-08
120	0x36fcc434	7.5330263e-06
121	0x3665a826	3.4221534e-06
122	0x00000000	0.0
123	0x339e5ba0	7.374115e-08
124	0x365c9768	3.2870685e-06
125	0x3724420d	9.79054e-06
126	0x00000000	0.0
127	0x33542fda	4.9403617e-08
128	0x36e0d855	6.7009046e-06
129	0x36baa339	5.5622336e-06
130	0x00000000	0.0
131	0x33d01193	9.6889515e-08
132	0x363412a9	2.6832952e-06
133	0x3729c973	1.01200885e-05
134	0x00000000	0.0
135	0x33206c76	3.7351548e-08
136	0x36aab294	5.087184e-06
137	0x370738d9	8.059863e-06
138	0x00000000	0.0
139	0x33c6b7b4	9.253509e-08
140	0x36a51533	4.919851e-06
141	0x36ff3e9b	7.6068804e-06
142	0x00000000	0.0
143	0x3305b829	3.113397e-08
144	0x00000000	0.0
145	0x379a9a5f	1.8430115e-05
146	0x38307d9f	4.2078664e-05
147	0x00000000	0.0
148	0x34ada210	3.2341677e-07
149	0x3856ef5f	5.1244508e-05
150	0x36b4a0d2	5.38314e-06
151	0x00000000	0.0
152	0x34f4535f	4.5509202e-07
153	0x377b3467	1.4972967e-05
154	0x38540b15	5.055506e-05
155	0x00000000	0.0
156	0x34804039	2.3888586e-07
157	0x3847522d	4.752183e-05
158	0x377f3579	1.52116345e-05
159	0x00000000	0.0
160	0x351efa09	5.9223436e-07
161	0x373f7377	1.1411371e-05
162	0x38617e8d	5.376204e-05
163	0x00000000	0.0
164	0x344c04cd	1.9000727e-07
165	0x37b166eb	2.114797e-05
166	0x38414354	4.607749e-05
167	0x00000000	0.0
168	0x350b39bc	5.186555e-07
169	0x37ffb0e7	3.0480745e-05
170	0x380f1716	3.4115357e-05
171	0x00000000	0.0
172	0x341609e0	1.3973431e-07
173	0x00000000	0.0
174	0x36af0a6c	5.2166197e-06
175	0x3685d34e	3.988308e-06
176	0x00000000	0.0
177	0x33197848	3.5732484e-08
178	0x36bdeba4	5.660071e-06
179	0x36377eeb	2.7343e-06
180	0x00000000	0.0
181	0x331f1221	3.703656e-08
182	0x36b30d9b	5.3361996e-06
183	0x369ce33d	4.6756163e-06
184	0x00000000	0.0
185	0x3309f335	3.2118994e-08
186	0x369c7362	4.6625946e-06
187	0x3699f501	4.5882775e-06
188	0x00000000	0.0
189	0x33497a86	4.6910394e-08
190	0x36a19dbe	4.8165375e-06
191	0x36ab91ae	5.1131565e-06
192	0x00000000	0.0
193	0x32fce81a	2.9442209e-08
194	0x3612579f	2.1806698e-06
195	0x36f1d9c6	7.207712e-06
196	0x00000000	0.0
197	0x334028ad	4.4740478e-08
198	0x36aa84aa	5.081839e-06
199	0x36b52460	5.398455e-06
200	0x00000000	0.0
201	0x32fa6c20	2.9153e-08
202	0x00000000	0.0
203	0x36194039	2.283616e-06
204	0x3652bf61	3.1403836e-06
205	0x00000000	0.0
206	0x32bf7342	2.228774e-08
207	0x366b6955	3.507904e-06
208	0x35d6d1cb	1.60053e-06
209	0x00000000	0.0
210	0x32eb0381	2.7359194e-08
211	0x3653a6e2	3.1538589e-06
212	0x3659ecd8	3.247338e-06
213	0x00000000	0.0
214	0x32b5ac00	2.114939e-08
215	0x3608a531	2.0361733e-06
216	0x36799c0a	3.7194718e-06
217	0x00000000	0.0
218	0x331f3701	3.7070098e-08
219	0x3622d5b9	2.4264284e-06
220	0x367f924d	3.808312e-06
221	0x00000000	0.0
222	0x3284ac53	1.5445186e-08
223	0x350360df	4.894227e-07
224	0x36bb0a81	5.574257e-06
225	0x00000000	0.0
226	0x331a3b3d	3.5909796e-08
227	0x3655afb8	3.1841755e-06
228	0x3642986c	2.8996974e-06
229	0x00000000	0.0
230	0x325306e7	1.2283386e-08
231	0x00000000	0.0
232	0x37795ba0	1.486289e-05
233	0x37aac031	2.0355075e-05
234	0x00000000	0.0
235	0x33d5a6c4	9.94892e-08
236	0x372f0626	1.0432244e-05
237	0x37c6e828	2.3711546e-05
238	0x00000000	0.0
239	0x33a6d4ae	7.7686636e-08
240	0x3810d871	3.4533852e-05
241	0x36d06a81	6.2112817e-06
242	0x00000000	0.0
243	0x34079c9c	1.2629829e-07
244	0x3702c53d	7.794527e-06
245	0x37f65eb5	2.9369587e-05
246	0x00000000	0.0
247	0x33badf06	8.701868e-08
248	0x3807d04c	3.23805e-05
249	0x36f67136	7.344551e-06
250	0x00000000	0.0
251	0x340148ed	1.2040591e-07
252	0x370bbc85	8.328939e-06
253	0x38033547	3.1282452e-05
254	0x00000000	0.0
255	0x33e102db	1.04778984e-07
