results/ppo/Racing/Racing-1088.pt (torch, 603118 bytes, 48 tensors)

discrete_act_size_vector f4 [1, 2]
000000 00 00 40 40 00 00 40 40
       3.0 3.0

network_body._body_endoder.seq_layers.0.weight f4 [128, 29]
000000 a8 2b 86 be aa f1 24 3e c8 d6 be bd a1 9c 10 be
       -0.26205182 0.16107813 -0.0931831 -0.14122249
000010 06 4a 65 be dd 3c f4 3c ff c2 04 be 2b c0 22 3e
       -0.22391519 0.029814178 -0.1296501 0.15893619
000020 ca 90 a2 bc cb b5 70 3e 30 70 d8 bc 31 31 04 3e
       -0.019844431 0.23506849 -0.026420683 0.1290939
000030 6e 1f 92 3e 38 a1 bd be 31 1d 52 3d 11 85 37 bd
       0.28539604 -0.37037063 0.05129737 -0.044804636
000040 1a b6 97 bc 56 f8 46 bd 76 45 c1 bd 84 3c b0 3d
       -0.01851945 -0.048576675 -0.09437077 0.086052924
000050 c3 51 de 3b 69 60 e2 bc 83 c3 52 be 80 08 9b bd
       0.006784649 -0.027633863 -0.20582394 -0.075699806
000060 7b 51 b3 bd 9b 0c a5 be 41 c8 dc 3e 3e 92 4f bc
       -0.087557755 -0.3223618 0.43121532 -0.012669144
000070 d4 28 67 bc 63 9a c2 3d 2f fa 0a 3e 4e 1f 8c be
       -0.014108855 0.09502103 0.13572 -0.27367634
000080 17 bb d4 3e b0 b2 d7 bd 80 af 8d b9 00 3c 17 be
       0.41548988 -0.10532129 -0.00027024373 -0.14768982
000090 a3 84 72 3e 28 45 fe bd b2 28 48 3d 07 c5 44 3e
       0.2368341 -0.12415534 0.048866935 0.19215785
0000a0 c0 5b d7 bd b9 4e bd 3d 91 05 94 be 42 76 12 3e
       -0.10515547 0.09243531 -0.28910497 0.14302924
0000b0 e3 00 82 3c fa 4b 34 be 6c 12 88 3e 5a a7 a5 be
       0.015869563 -0.17607108 0.26576555 -0.32354242
0000c0 39 1c 87 bd 71 66 6c bd 33 e2 56 3a 6f cf ee 3d
       -0.0659718 -0.057714883 0.00081971585 0.116606586
0000d0 63 56 4b be e2 1d 00 3e c7 a9 9c bd 86 e6 96 be
       -0.19857173 0.125114 -0.0764957 -0.2947275
0000e0 71 5e a3 3e 1b cb 44 be f0 6b 96 bd 11 c7 97 3d
       0.3190799 -0.19218104 -0.07344806 0.07411016
0000f0 d7 52 a6 3d 9d e7 ec bd d2 f6 98 bc 8b 10 83 be
       0.08121269 -0.11567614 -0.01867238 -0.2559856
000100 13 50 d3 3d 18 15 53 3d 26 ce 6f 3c f6 c2 2c 3e
       0.10318007 0.05153379 0.014636552 0.16871247
000110 34 dd 6f be 75 2b 33 be 94 6a 79 bd 4a 14 9d bb
       -0.23424226 -0.17497046 -0.060892656 -0.0047936784
000120 45 fa 7d 3c ab 21 dc 3c 4a 08 fe 3d d8 5c 92 3e
       0.015501563 0.026871523 0.12403925 0.2858646
000130 6d 7b 8b be 79 73 87 be 21 e1 8d 3e f8 ad 5c be
       -0.27242604 -0.26455286 0.27710822 -0.21550739
000140 e6 39 05 be 9c 1f 70 3d ad 5a 79 3e 71 47 f5 3d
       -0.13010368 0.058623895 0.24350996 0.11976517
000150 89 b7 3f bd 9e 90 65 be 57 0e 8b 3e 0a b7 7b 3e
       -0.046805892 -0.22418448 0.27159378 0.24581543
000160 b0 33 12 bd 47 e2 82 be f5 1f da bd c2 84 26 3d
       -0.035693824 -0.2556326 -0.106506266 0.04065395
000170 da b6 8b bc 5d eb a0 3e 34 6b 0a be 2a b7 f3 3d
       -0.017054964 0.31429568 -0.13517457 0.1190017
000180 62 23 e8 3e 55 2e 9b 3a dc b2 82 3d 7d 18 4d 3d
       0.45339495 0.001183937 0.06381771 0.050072182
000190 49 28 14 3e d9 4d 06 3e ca b8 98 3e a6 22 74 3d
       0.14468493 0.13115634 0.29828483 0.059603356
0001a0 7e 95 86 3e 2e d6 f6 3c e9 31 0e be 11 84 97 3e
       0.26285928 0.030131426 -0.13886227 0.29592946
0001b0 5f 15 b9 3e ce 7b 31 3e 8d 1e 10 3e c1 e8 03 3e
       0.36149117 0.17332384 0.14074154 0.12881757
0001c0 5d 10 b1 3e 50 fd d8 bd 46 1f 74 be 30 e7 0a 3e
       0.34582797 -0.105951905 -0.23840055 0.13564754
0001d0 b1 20 a0 3e 6a b4 6d 3e 39 8b 21 bd b9 ee ff 3c
       0.31274942 0.23213354 -0.039439414 0.031241762
0001e0 71 b8 c5 bd ed f3 49 3d 05 cb 81 be 80 ee 00 3e
       -0.0965432 0.04930489 -0.25350204 0.1259098
0001f0 6c 99 c7 3e c9 3f 20 bd 3c 7e 18 3e 26 13 79 3e
       0.3898424 -0.03912333 0.14891905 0.24323711
000200 0b cf 5a 3d ae ac b0 3d f4 70 87 bd f7 41 4a 3d
       0.053420108 0.08626686 -0.06613341 0.049379315
000210 1c f1 b5 3e 7d 15 19 3e 4b a2 d6 be b5 23 d8 3d
       0.35535514 0.14949603 -0.41920695 0.105536856
000220 43 7a a6 3c f6 24 a5 3e e6 f3 a1 bd e2 2e c7 be
       0.02032197 0.3225476 -0.07907848 -0.38902956
000230 e6 55 ca bd d1 dc c2 3d 75 c0 89 3e 86 7f c6 bd
       -0.09879665 0.09514774 0.26904646 -0.09692292
000240 7d ae 9b ba d1 bc 9b bd 3d 7e 8e be cf 92 3c 3e
       -0.0011877563 -0.07604373 -0.27830687 0.18415378
000250 c6 6c 85 3e c4 70 8b 3d 8c 98 09 3e 6b 15 c9 be
       0.2605955 0.06808618 0.13437098 -0.39274153
000260 5f 69 48 be 6e 3d e5 3b 76 7f b0 3d 2e 72 85 bc
       -0.19571446 0.0069958484 0.08618061 -0.016289797
000270 4c 9e 1c 3e 09 84 6a 3d a0 3d 97 3e 93 5b a2 be
       0.1529476 0.057254825 0.29539204 -0.3171049
000280 3f 70 93 3d 81 22 5a 3e 6a 8a 86 bd 1d 90 ce 3e
       0.071991436 0.21302225 -0.06569369 0.40344325
000290 c1 6a 61 be 20 7e 28 3c d8 a8 9d 3d d5 5d 11 be
       -0.2201338 0.010283977 0.0769822 -0.1419595
0002a0 fc 72 30 3d f0 64 df 3d 5d 11 ea be 94 e5 bc 3d
       0.043078408 0.10907924 -0.45716372 0.09223476
0002b0 7a b6 a6 3e 30 c9 35 3e a4 05 67 bd af de 8d 3d
       0.32561094 0.17752528 -0.056401864 0.06927239
0002c0 9c 40 e7 bd 4f 6d 0d 3e 11 b6 34 bd e0 1b f5 3d
       -0.1129162 0.13811229 -0.044118945 0.11968207
0002d0 53 4b 0c be e8 67 d9 3d f9 01 52 3d 22 2c fb bc
       -0.13700609 0.10615522 0.051271413 -0.030660693
0002e0 9a 85 45 be 37 e2 2a be 6e a3 ac 3e 0a 84 67 be
       -0.19289246 -0.16687857 0.33718437 -0.22608963
0002f0 5d ba 77 bc 5e 15 9d 3d 8d 2a d2 bc d9 e3 7c 3c
       -0.015120116 0.07670091 -0.025655055 0.0154351825
000300 0c 5c c6 3c 9f e0 0f 3b 4d 0d 68 3c 24 25 15 be
       0.024213813 0.0021953953 0.014163327 -0.1456495
000310 01 09 8a be f5 fc 4b bc ef c1 7e be aa 06 d1 3c
       -0.26959994 -0.012450446 -0.24878667 0.025515873
000320 f2 c0 d5 3b 12 cf dc 3c cf 6d 95 bd e5 e4 33 3c
       0.006523245 0.026954208 -0.07296335 0.010979866
000330 b0 c7 0f be 9b bc b6 3e 45 1d 8a be 8d 91 7b be
       -0.14041018 0.3569077 -0.26975456 -0.24567242
000340 94 b0 be bd 02 78 e5 3b 7f d7 a3 bc 83 9c b9 bd
       -0.09311023 0.0070028314 -0.020000217 -0.09063055
000350 30 d3 98 be 01 e6 aa 3d 33 ca fd bd c6 f9 7c be
       -0.29848623 0.08344651 -0.12392082 -0.24704656
000360 75 1e 77 bb 16 83 46 bd fb 16 90 bd 7b 84 75 be
       -0.0037707363 -0.048464857 -0.07035633 -0.23976319
000370 bf 02 c8 be 47 d3 1b 3d 8a 09 e2 3d 79 25 af be
       -0.39064595 0.038043287 0.11036976 -0.34208277
000380 51 da 3a 3c ae 4e 0c 3d 0e dc 38 3e 5f 73 57 3d
       0.01140459 0.034254722 0.18052694 0.05260026
000390 22 67 72 be 7d ab 9a be ea 8e 3f bd 63 3e b6 3e
       -0.23672155 -0.3020896 -0.046767153 0.35594472
0003a0 cf e1 16 bc cc 2d 85 be 3e 7a af 3e a8 9d 15 3e
       -0.00920911 -0.26011503 0.3427295 0.14610922
0003b0 d5 92 91 be c8 32 ae 3d 64 81 a4 3d e6 9f e1 bc
       -0.28432336 0.085057795 0.08032492 -0.027542066
0003c0 a3 ca 6d 3d 13 5a 14 be 80 8b 90 bc 14 5c e7 3d
       0.058054578 -0.14487486 -0.017644644 0.112968594
0003d0 19 98 1c be 0b b4 a3 bc 1c 8b 9b be 70 49 8c bd
       -0.15292396 -0.019983312 -0.3037957 -0.068499446
0003e0 9d ff 96 be 8d 96 4e 3d 8d f9 94 3e c0 99 84 bb
       -0.29491892 0.050436545 0.29096642 -0.0040466487
0003f0 a2 e0 d9 bd 91 17 ad 3d ad 04 c5 bd 36 67 46 3e
       -0.106385484 0.084517606 -0.096200325 0.1937531

network_body._body_endoder.seq_layers.0.bias f4 [128]
000000 a7 3e 96 bc a7 fa 97 3c 4c f2 de 3c 16 5f 26 3d
       -0.018340422 0.018552138 0.027215146 0.040618025
000010 4f fe e4 3c 54 f3 12 3d 04 43 d7 bc d3 54 e5 bc
       0.027953295 0.035876587 -0.026277073 -0.027994549
000020 c2 7f 16 3d c3 70 4f 3d d5 d9 58 3d f8 25 9c 3c
       0.036742933 0.050644647 0.052942116 0.019061074
000030 ed a8 28 3d fe dd d6 bc 34 cd 4b 3c 09 29 bf 3b
       0.041176725 -0.026228901 0.012439061 0.005833749
000040 36 1a 7f 3a 2d f5 79 3c d6 93 cb bb d1 5d 6d 3a
       0.0009731384 0.015256208 -0.006212692 0.0009054812
000050 00 9b 90 3c 34 2f 02 3d c3 f5 02 3d 64 a5 86 bc
       0.017652035 0.031783298 0.031972658 -0.016436286
000060 00 a8 41 3d 27 16 4e 3c 4f b1 52 3d c4 86 4b 3d
       0.047279358 0.012578524 0.051438626 0.04968907
000070 b8 59 7d 3c 57 27 24 bc 14 85 a0 3c d7 70 fe 3c
       0.015463285 -0.010019145 0.019594707 0.031059666
000080 46 b1 10 3d de 53 e7 3c b0 b7 95 3c 39 8d 81 3b
       0.03532531 0.028238233 0.018276066 0.0039536026
000090 a4 8b 03 39 c2 84 b1 3c 4f 1e 3b bc 39 d2 02 3d
       0.00012545154 0.02166975 -0.0114208 0.031938765
0000a0 a3 55 de 3c 36 07 aa 3c 20 01 23 3d b0 33 17 3d
       0.027140444 0.020755392 0.039795995 0.036914527
0000b0 db d3 a5 3c f5 e2 2e 3d 6c fa 51 3d d4 a0 4a 3c
       0.020242622 0.04269691 0.05126421 0.012367446
0000c0 cd 0e 63 3c ce c3 32 3d 13 c2 e6 bb 01 a2 21 3c
       0.013858509 0.043643765 -0.0070421784 0.009865285
0000d0 34 ff 85 3b 48 84 04 3d d6 5b 25 3d 03 65 87 3d
       0.0040892605 0.032352716 0.040370785 0.06611063
0000e0 96 bb 2f 3d a3 d7 f7 3c be 92 ac 3b 2f 99 91 bc
       0.042903505 0.03025419 0.0052665165 -0.017773239
0000f0 a6 9f a6 3c a3 20 ec bb 06 12 ef 3c 69 0f d5 bc
       0.020339798 -0.007206039 0.029183399 -0.026008325
000100 f3 76 54 3b fe 77 d3 3c 78 1a 87 bc d0 ef 1c 3d
       0.0032419532 0.025814053 -0.016492113 0.03831464
000110 86 c6 e8 3c db bc a7 3c 76 35 5b 3d 74 a3 0e 3d
       0.028414976 0.020475795 0.05351778 0.03482385
000120 90 79 9e 3b c0 b2 3c bb b2 96 40 3d cc 49 da 3c
       0.0048362687 -0.0028793067 0.047018714 0.026646517
000130 14 56 5c 3b ae d0 96 bb 7a 05 66 bc b9 9e 8a bc
       0.0033620642 -0.0046025133 -0.014039392 -0.016921388
000140 fa dd 43 3b 4c d9 48 3d 46 e6 86 3c d2 a9 f9 bb
       0.0029886947 0.049035355 0.016467225 -0.007619121
000150 59 c1 14 bc 64 6b 08 bc 10 07 d4 3c 4b 91 ed 3c
       -0.009079301 -0.008326385 0.025882274 0.028999945
000160 a5 e9 4e 3d 8d cd c0 3b 47 f6 42 3d 4f a9 58 3d
       0.05051579 0.0058838786 0.04759815 0.05289584
000170 e3 4e 01 bc 7c d0 17 3d 13 aa 8e 3c 76 e3 16 3d
       -0.007892343 0.03706406 0.017415082 0.036838017
000180 a0 66 a0 3c 5f 01 e7 3c 27 b7 3c 3d 66 8f 4e 3d
       0.019580185 0.028198896 0.046073105 0.050429724
000190 c1 55 e2 3c 5d 5d af bc 25 0a 58 3d 27 52 1c 3d
       0.027628781 -0.021406824 0.05274405 0.038164284
0001a0 27 0d 99 bc c9 4b 4d 3c 27 6b 1c bd 26 1d 99 bb
       -0.01868303 0.012530276 -0.038188126 -0.004672664
0001b0 08 d5 aa 3c 46 9c 53 3d a8 6c 16 3d 8d f7 38 3d
       0.020853534 0.051662706 0.036724716 0.045157958
0001c0 03 0a 01 3d 12 51 ba 3c 05 25 d8 bb 68 3b 07 3d
       0.03150369 0.022743735 -0.00659621 0.03301564
0001d0 e6 31 58 bd fb d7 f4 3c b5 88 ad 3b d7 6b 28 bc
       -0.05278196 0.029888144 0.0052958378 -0.010279617
0001e0 ff ad 95 3c 6a b9 ba 3c 5b 19 eb 3c 50 f3 aa bc
       0.018271444 0.02279349 0.028698614 -0.020867974
0001f0 8c 5a c2 3c 41 c9 35 3d ff 5c c6 3c 9d b5 24 3d
       0.023724817 0.044381384 0.024214266 0.040212262

network_body._body_endoder.seq_layers.2.weight f4 [128, 128]
000000 c3 5f 08 3e 62 6e 00 be 33 3d 0c be 96 74 41 3c
       0.1331778 -0.12542108 -0.1369522 0.011807581
000010 2a 81 a0 3c 7a 7c 63 3d 80 72 ac 3c 53 e2 86 3d
       0.01959284 0.055538632 0.021050692 0.06586137
000020 f7 38 cc 3d f9 1a f3 bd 01 93 95 bd c2 8d 69 3e
       0.09971803 -0.11870379 -0.073034294 0.22807983
000030 a4 33 c2 3d 84 fb 4e be a2 7c 00 be 2e b2 d0 3d
       0.09482506 -0.20213133 -0.12547544 0.10190235
000040 b1 5d 0f bd 8e ec a2 bc 06 5b a4 bd be d4 c5 3d
       -0.03500146 -0.019888189 -0.08025174 0.09659718
000050 99 2a b7 bd 3b d3 10 be 18 d7 f4 bd 4c 0c a8 bd
       -0.08943672 -0.14143078 -0.119550884 -0.082054704
000060 76 84 e8 3d f9 87 82 bd fc e9 47 be 00 1b ef 3d
       0.1135339 -0.06373591 -0.19522852 0.11675072
000070 55 4a 0c 3e 73 41 18 3c 24 1f 11 3e 78 e0 7f bd
       0.1370023 0.009292948 0.14172035 -0.06246993
000080 a8 2c 86 bc 90 1c ea 3d c2 89 ce bd 52 29 70 bc
       -0.016378716 0.11431229 -0.10084869 -0.014658289
000090 1e f0 ba 3c 3b 1d de 3c 69 65 28 bd ba ee 9e bc
       0.022819575 0.027113548 -0.041112337 -0.019400943
0000a0 7d 62 a4 3d e4 69 b6 3d 7d 26 c0 bd 64 89 dc bc
       0.08026598 0.08906916 -0.09382341 -0.026920982
0000b0 67 e8 a0 bd a3 1c 8a be 54 26 c5 bd ff 57 d7 3d
       -0.07856827 -0.26974973 -0.09626451 0.10514831
0000c0 28 39 43 bc 3d 5e 98 bd ae 74 b8 bd 2c 02 64 bd
       -0.011915483 -0.074398495 -0.0900663 -0.055666134
0000d0 a4 f9 8a 3d 61 71 f5 3d 89 97 02 bc d6 31 20 be
       0.067858964 0.11984516 -0.007970699 -0.15644011
0000e0 43 1d 2d bc 5c cc ae bd 15 e2 d6 bd 3d 31 b5 be
       -0.010566059 -0.08535072 -0.104923405 -0.35389128
0000f0 12 09 96 3c af 46 0c bd 03 0b 09 be 50 26 20 be
       0.018314872 -0.034247097 -0.13383107 -0.15639615
000100 fd fe 3f bb d3 e8 bb 3c c3 a2 80 bd 90 7a 0c 3e
       -0.0029296272 0.022938168 -0.06281044 0.13718629
000110 6a 63 92 3d 6b cf 97 bd a1 21 07 bd 39 e5 81 3c
       0.07147868 -0.07412609 -0.032991055 0.015856372
000120 47 6e 92 bb 2a 62 53 be 5b 9d 79 be 3e 98 66 3d
       -0.0044687125 -0.20642915 -0.24376433 0.056297533
000130 3f 59 91 3d 6d e4 04 be 18 06 1c 3e ea d2 99 3d
       0.070971005 -0.12977763 0.152367 0.07510932
000140 8b 74 3c 3d 12 5c 23 bd 6e a4 3a 3d 96 32 f1 bd
       0.04600958 -0.039882727 0.04556697 -0.117772266
000150 c3 dc c2 3b 27 28 91 bc d6 d2 0c 3e 45 7c 01 be
       0.005946727 -0.017719341 0.13752303 -0.12645061
000160 f5 a5 77 be 69 8e e4 3a b0 c0 21 be 37 2c fb 3d
       -0.24184401 0.0017437461 -0.1579616 0.12264293
000170 62 f3 00 3e 21 6c 57 3d f5 59 0f 3e 70 da 2e bc
       0.12592843 0.052593354 0.1399916 -0.010672197
000180 0f f0 85 3c c5 d7 41 b9 62 7e c9 bd 89 8e 86 3b
       0.01634982 -0.00018486295 -0.09838559 0.004106347
000190 8e 82 cc 3d da ff 6f bd 8a db 17 3e 40 84 5e bb
       0.09985839 -0.05859361 0.14829841 -0.003395334
0001a0 23 a9 10 be f2 03 56 3c 06 13 7d 3d fb c3 b6 bc
       -0.1412702 0.013062464 0.06178572 -0.022310248
0001b0 a8 3b 93 bd 39 b6 2b bd 59 b9 26 be 35 60 3e 3e
       -0.07189113 -0.041921828 -0.16281642 0.18591388
0001c0 52 f2 2d be 19 2e ba 3d 69 2c 21 be 0a 39 81 bd
       -0.16986969 0.09090824 -0.15739597 -0.063097075
0001d0 a5 00 1b 3d 34 0e 2d bd c4 bd bd 3c f7 c4 a7 3d
       0.03784241 -0.042249873 0.023161776 0.08191865
0001e0 48 d6 a0 3d 3c 31 f8 bd 42 6d 20 3a b7 ff 1a 3e
       0.07853371 -0.12118766 0.00061197963 0.1513661
0001f0 7d e8 b2 3d 04 01 6c 3e 30 3a b9 bd 31 4d 1f 3e
       0.0873575 0.23047262 -0.090443015 0.1555679
000200 43 6f c7 bd b1 07 1a be 5b 7e 18 bc 7c f7 60 3d
       -0.09738018 -0.15041997 -0.009307469 0.05492352
000210 ae 87 5c 3c aa 93 6e bd 63 9c 31 3d 7f d7 23 bd
       0.013460083 -0.058246292 0.043362033 -0.040000435
000220 46 57 09 3e 20 58 92 bc bd 5e 7d 3e ce 40 b5 3d
       0.13412198 -0.017864287 0.24743171 0.08850251
000230 8c b8 9f bc aa a0 50 be f4 4d 8f 3e d8 8f 82 3d
       -0.019497178 -0.20373788 0.2798916 0.06375092
000240 9f 1a e9 bb 85 b1 73 3d 2e bc 30 3e 59 d7 38 3e
       -0.007113769 0.059495468 0.17259285 0.18050899
000250 b4 1d 84 be 9e 2e e5 3c e7 07 45 be 26 dc 99 3d
       -0.25803912 0.02797633 -0.19241296 0.07512693
000260 f2 98 59 3d d9 a0 02 be 9f 8b d6 bd 11 43 00 3d
       0.053124376 -0.12756671 -0.10475849 0.03131396
000270 80 58 01 bc 8c 2c 02 3e 64 80 78 bd 2d fa 7b bd
       -0.007894635 0.12712306 -0.060669318 -0.061517883
000280 84 a0 1d be a3 79 84 3d 68 00 f1 3d 74 b1 96 bd
       -0.15393263 0.06468513 0.117676556 -0.07358065
000290 1c ee f5 3c 91 e0 25 3e 92 77 0c bc 44 06 73 bc
       0.030020766 0.16198947 -0.00857343 -0.014833037
0002a0 2e 82 f6 bd 91 49 8f bc 1d 6c 87 bd 4f 35 8c bd
       -0.120365486 -0.017491134 -0.06612418 -0.06846105
0002b0 b3 bf 44 be e6 82 9c bd 3a 82 ac 3d b6 33 29 3d
       -0.19213752 -0.076421544 0.08423276 0.04130908
0002c0 88 cb eb bc 2b 80 75 3c 04 f9 b6 3d e3 bf 18 be
       -0.028783575 0.014984171 0.08934215 -0.14916949
0002d0 70 9a 99 3b 0d 45 f6 3d 28 90 19 be 13 c5 51 3d
       0.0046876 0.12024889 -0.14996397 0.051213335
0002e0 c6 65 85 be ca 53 c7 bc f1 81 01 3e 1a 6c a3 bd
       -0.2605421 -0.024331946 0.12647225 -0.07979603
0002f0 02 fb b9 3c 4e b0 e3 bd 3d 8d a1 3d 72 99 4f bd
       0.022702698 -0.11117612 0.07888267 -0.050683446
000300 41 06 48 3a 77 03 d0 bd 18 e5 17 3d a7 5f a2 3e
       0.00076303264 -0.10156911 0.037083715 0.31713602
000310 14 00 ff 3d b4 74 4b bd 6b 37 82 bc 0b 96 9d bd
       0.12451187 -0.049671844 -0.015895566 -0.07694634
000320 f8 8e e9 3d f9 2e 6b bc ba b5 9a 3a 40 18 3a bc
       0.11404222 -0.014354461 0.0011803426 -0.011358321
000330 8c fb 33 3d 95 4a cf 3d e5 9f f9 3d d3 70 08 bd
       0.043941066 0.10121647 0.121887006 -0.033310723
000340 a3 1c 39 be a8 0c 72 3d aa f9 33 3e 2a bc 3d 3d
       -0.1807733 0.0590941 0.17575708 0.046322025
000350 37 4a 95 3c f2 b5 dc bd 0d b8 61 bd 17 48 9f bd
       0.018223865 -0.10776891 -0.055107165 -0.07777422
000360 65 41 99 bd 1d 61 cc 3c ba 58 0b 3d 59 3f b2 bd
       -0.07483176 0.024948651 0.034020163 -0.08703489
000370 ba 62 e2 bb 88 b3 02 be c9 43 38 3c 45 21 15 3d
       -0.006908742 -0.12763798 0.01124663 0.03640868
000380 59 73 2d 3e f3 1b b6 3c 4f 64 51 bb 36 29 cb bc
       0.16938533 0.022230124 -0.0031950658 -0.024799924
000390 17 0a 47 be 99 e1 fa bd d9 81 a3 3e 27 da 4a bb
       -0.19437443 -0.122500606 0.31935003 -0.0030952783
0003a0 45 0d 6a bc 65 95 6d bd 94 b3 23 3d 96 9a d8 3d
       -0.01428539 -0.0580038 0.03996618 0.1057636
0003b0 d6 6d 2a be a7 77 52 3c 52 f5 71 be 3b be a1 3d
       -0.16643462 0.01284591 -0.23628739 0.07897612
0003c0 2d be 28 3d 6c 97 9f 3d dd 58 bb bd 24 e8 ed bc
       0.04119699 0.07792553 -0.09147809 -0.029041357
0003d0 c1 08 46 be 3c 11 4c 3e 81 8e dc 3d 75 3d 0a 3e
       -0.19339277 0.1992845 0.10769368 0.13500006
0003e0 46 0e aa 3d 30 85 91 bd 55 14 4c bd b7 61 9e 3d
       0.08303504 -0.071054816 -0.049824078 0.077334814
0003f0 7f 06 89 3d 0e 6e 81 bc 1c 5c a4 bd 9f af f9 3d
       0.06690692 -0.015799548 -0.08025381 0.121917

network_body._body_endoder.seq_layers.2.bias f4 [128]
000000 88 a1 c6 3c 9d 5a fb 3c 73 ea 0c 3d c4 b2 e9 3c
       0.024246946 0.030682856 0.034403276 0.028527625
000010 80 e3 95 3c 9d b8 87 3c 0c c1 c2 3c c0 67 f0 3c
       0.018296957 0.016567523 0.023773693 0.029346347
000020 44 c4 91 3c b8 48 fc 3b 2b 6a 35 3d 0c 87 bc bb
       0.017793782 0.0076990984 0.044290703 -0.0057534035
000030 7d 10 6e 3b 06 8b 8f 3b 53 62 49 bc ed 06 10 3d
       0.0036325746 0.0043805866 -0.012291509 0.035162855
000040 db ab e0 3b 26 5a d6 3c dd 00 1a 3d 6c e9 c5 bc
       0.0068564243 0.026166033 0.03759848 -0.024159156
000050 47 d5 06 3d f0 6a de 3c 4d 70 32 3d f8 dc 2b 3c
       0.03291824 0.027150601 0.04356413 0.010489695
000060 bb 1d ca 3c bb c6 60 3c 55 7a b8 3a 5a 03 65 3c
       0.02467238 0.013719256 0.0014074544 0.01397785
000070 a6 31 06 3d 19 68 ee 3c b6 a2 a6 3c 25 51 fd 3c
       0.032762192 0.029102372 0.020341258 0.030922482
000080 88 f2 42 bc 15 6e 92 bb 86 bf 88 bc 9e 50 a8 bb
       -0.011898644 -0.004468689 -0.016692888 -0.0051365634
000090 bc 24 d7 bc f5 1e c4 3c 0a 77 d9 3c 09 9c 2f ba
       -0.026262634 0.023940543 0.02654602 -0.0006698971
0000a0 6e 46 54 bc b0 d2 ab bc d9 27 95 3c d7 f0 c8 3c
       -0.012956245 -0.020974487 0.018207477 0.024528904
0000b0 99 54 9d bc 07 e8 61 3c 16 56 c9 3c 5d 95 cc 3c
       -0.019205378 0.01378823 0.024577182 0.024973566
0000c0 70 2b 07 bc 22 22 14 3d b4 3b b8 3c 8c 40 ea 3c
       -0.008250102 0.036165364 0.022489406 0.028595231
0000d0 8e b9 e9 3c 5c 21 6f 3c 55 2f 02 bb 96 0c a0 3c
       0.028530862 0.014595356 -0.0019864638 0.019537251
0000e0 f9 83 9a bb dc 86 cf 3c d7 86 0b 3d 0b 3b 03 3d
       -0.0047154394 0.02533286 0.03406414 0.03203873
0000f0 95 5b 7a bd 1b fb 5f bb eb df 89 3c a8 41 f8 3c
       -0.061122496 -0.003417677 0.016830405 0.030304745
000100 92 13 98 3c 81 38 dd 3c a1 a9 18 3d ee 40 4e 3c
       0.01856402 0.027004482 0.037271146 0.012588723
000110 9e 6e 0a bc f3 4f 2f 3d a9 7c 1c 3d ae 4c 2e bc
       -0.008449225 0.042800855 0.038204823 -0.010638399
000120 dd 0b ca bc 51 04 63 3c db a1 ed 3c bb cd 05 3d
       -0.02466386 0.01385601 0.029007843 0.032666903
000130 10 a9 ff 3c a3 cb d8 3c 83 a3 da 3c e5 5b a9 3c
       0.031208545 0.026464289 0.026689297 0.020673702
000140 e4 8f 85 3c 7c e8 fc 3c e6 43 a0 bc c5 62 2c 3d
       0.016303964 0.030872576 -0.019563626 0.04208638
000150 4b 02 12 bc 98 f5 e8 3c fa ec cd 3c da d8 38 3c
       -0.0089116795 0.02843742 0.025137413 0.01128217
000160 01 ca f2 3c 86 32 7b 3c 2a b3 06 3d 29 0c ce 3c
       0.029637339 0.01533187 0.032885708 0.025152283
000170 27 a9 6b 3c 8d 87 6d bd bf ae c1 3c b9 8f 99 3c
       0.014383591 -0.0579906 0.023642896 0.01874529
000180 68 72 95 bc 5c 51 2f 3c f0 06 2b bc aa 09 49 3c
       -0.01824303 0.01070055 -0.010438666 0.0122703705
000190 e1 3f be 3c 53 7a c5 3c 13 78 37 bb 27 0e f7 3b
       0.02322382 0.02410618 -0.0027995154 0.007539529
0001a0 d7 95 05 3c 38 1a ab 3c 77 9b 9e 3c be 17 c9 3c
       0.0081534 0.020886526 0.01936124 0.024547454
0001b0 8b 0a cc bb e1 de d2 3c 51 a3 52 bc 47 8b c3 3c
       -0.0062268428 0.025741043 -0.0128563205 0.023870124
0001c0 65 e1 80 3c 8b b2 ca 3b 68 dd f0 bc b7 7b f6 3c
       0.015732476 0.0061858348 -0.02940245 0.030088289
0001d0 5e 9f 0f 3d 69 fa 9f 3c f9 35 ea 3c a3 b6 9c bc
       0.035064094 0.019528585 0.02859019 -0.019130057
0001e0 d2 25 c6 3c 84 2e 26 3c ef 53 a1 3c 9e 52 64 bb
       0.024187956 0.010142926 0.019693343 -0.0034839283
0001f0 b2 48 74 3d b0 b6 9b bc 55 00 e2 3c 7d ea d9 3c
       0.05963964 -0.01900801 0.027588049 0.02660107

action_model._discrete_distribution.branches.0.weight f4 [3, 128]
000000 16 0a 19 3d 39 98 99 3d a8 05 87 bd 53 89 03 bd
       0.037363134 0.07499737 -0.06592876 -0.032113384
000010 6a 6e 95 3d bd 3a ed bc 5b ea a4 bc 70 65 2a bc
       0.072964504 -0.028958673 -0.02013128 -0.010400161
000020 29 7d 97 bc e2 d7 44 3c ea 72 23 b9 94 b0 90 bc
       -0.018492298 0.012014361 -0.000155877 -0.017662324
000030 b5 62 18 bd e2 f3 9b 3c ac 7d 1a bd 44 82 be 3d
       -0.03720351 0.01903719 -0.037717506 0.0930219
000040 9a 0d 09 3b 9c bc c7 bb 8c ad 12 3d 75 18 19 3d
       0.0020912648 -0.006095482 0.03581004 0.03737684
000050 a5 e0 51 bc 43 a7 0f bd 04 d6 bb bc 7e 69 a4 bc
       -0.012809907 -0.035071623 -0.022929199 -0.020069834
000060 9d 8b 4a 3d 9e 7a 12 3d e6 1b a7 3b a3 ce 11 3c
       0.04944955 0.035761468 0.0050997613 0.008899364
000070 6b 76 6c bd 39 fa a8 bc 03 49 90 bc e9 d7 d4 3c
       -0.05773012 -0.020627128 -0.01761294 0.02598186
000080 ea 8d 35 ba 0a 84 ac bc 96 7b 04 3d fb 66 9c 3d
       -0.0006925749 -0.021059055 0.032344423 0.076368295
000090 7f b2 56 3d 96 1c 35 3c d7 22 ab bc f8 ff 8b 3c
       0.05241632 0.011054179 -0.020890636 0.017089829
0000a0 5f c7 f0 3c e8 1d 27 3c d7 e1 15 3d 2d 05 2d bd
       0.029391943 0.010200001 0.03659233 -0.042241264
0000b0 23 2b 38 3b ca 11 f9 bc f0 63 14 39 40 c6 1b 3d
       0.0028101883 -0.03040399 0.0001415161 0.038030863
0000c0 dd dd f7 3c 95 0c 46 3c 1f 91 87 bb 85 be 76 bc
       0.03025716 0.012087961 -0.004137173 -0.015060072
0000d0 c4 35 07 bc 1a 83 5d 3d 44 40 5d 3d e2 e7 fd bc
       -0.008252565 0.054080106 0.054016367 -0.03099436
0000e0 96 af c1 3d c8 47 ba bc 88 bc 15 bd 02 80 c2 bc
       0.094573185 -0.022739306 -0.03655675 -0.02374268
0000f0 e6 58 af bc 95 f2 67 3d a4 ac 75 bc 1b 18 8d bc
       -0.021404695 0.05662783 -0.014994774 -0.017223408
000100 27 d1 9e bc 65 a9 b7 bc 71 a0 00 bc b4 1c f1 bc
       -0.019386841 -0.02241964 -0.007850752 -0.029432632
000110 d8 4e 51 3d 0b 4b 0f bc a8 e7 86 3b cb 23 50 3c
       0.051100582 -0.008745919 0.004116971 0.012703846
000120 2f 45 4d 3d e8 fd 88 3c 35 20 28 bd 2d c7 e7 bc
       0.050114807 0.016722634 -0.04104634 -0.028293217
000130 8f 15 e1 3a 16 d9 b0 bc fd 3b 27 bd 3d be 27 3c
       0.0017172563 -0.02158789 -0.040828694 0.010238227
000140 51 5a 1e bd 0c c2 47 bd 7c 5b 4e 39 ad da 83 3d
       -0.03866035 -0.048769042 0.00019679772 0.064381935
000150 c8 6a ec 3c 8d d5 4d bd 86 1b 13 bd 40 bd 25 bd
       0.028859511 -0.050252486 -0.03591492 -0.040463686
000160 00 3a 38 3d 36 68 00 ba 8f 83 9f 3b 2a fe f8 bc
       0.044977188 -0.0004898341 0.004867978 -0.030394632
000170 a0 15 7c b9 4c 73 09 3c 1f 19 57 bd c8 f5 1c bd
       -0.00024040649 0.008389305 -0.05251419 -0.038320333
000180 11 43 1f 3c 61 94 0f bd d3 7a 3e 3d 2f 47 5a 3c
       0.00972058 -0.035053615 0.046503853 0.013322636
000190 0f 7a 72 bd 7a 67 70 3c 0e 6f 83 3c e1 cf b2 bd
       -0.059198435 0.014673108 0.016044166 -0.08731056
0001a0 f1 40 2f 3d cb e8 d2 3b 0e 0a 6d 3d 45 e5 83 bc
       0.042786542 0.0064364425 0.057870917 -0.016100535
0001b0 5e a6 2a 3c 61 11 b6 bc 6e 03 6f 3d 0c ca 35 bd
       0.010415642 -0.022225084 0.05835288 -0.04438214
0001c0 f8 6d 7c bc 97 23 48 3d a7 fb 59 3c ce 6e fe bc
       -0.015407078 0.048862066 0.0133046275 -0.031058695
0001d0 20 3d ca bc b2 c9 fb bc 3c 52 2f bd aa ae cb 3c
       -0.02468735 -0.030735824 -0.042803034 0.02486356
0001e0 56 f3 6b bc 4d 82 29 3d d8 04 88 bd b8 00 3e 3d
       -0.0144012775 0.04138403 -0.06641549 0.046387404
0001f0 56 a2 87 3c 97 2d 9f 3d 0b 6e 73 3d 03 09 61 bb
       0.0165569 0.077723674 0.059431117 -0.0034337647
000200 53 34 40 bd d9 99 c5 bd ce cf a1 3d 81 ae 13 3d
       -0.0469249 -0.09648485 0.07900964 0.03605509
000210 c3 ff d6 bd a3 2c 35 3d 15 38 27 3d fd 54 22 3d
       -0.104980014 0.044232022 0.04082497 0.039631832
000220 04 02 41 3d dd f4 36 bd 49 ca 0b 3d 1b 7c 1e bc
       0.047121063 -0.044667114 0.03412846 -0.009673144
000230 5d 07 12 3d 44 5b 99 bd cd 23 8f 3a 3f ed cb bd
       0.035651553 -0.07488111 0.0010920704 -0.099573605
000240 99 c0 ee bc 78 85 0b 3d 15 29 05 3c 0d 19 3e bd
       -0.029144572 0.034062833 0.0081274705 -0.04641061
000250 27 70 0c 3d 52 6b 4d 3d 2f b4 62 3d e4 02 24 3c
       0.034286644 0.050151177 0.055347618 0.010010455
000260 0b ab 11 bd e7 b0 24 bd ca 1b 43 bd 11 52 ae bd
       -0.03556351 -0.04020777 -0.047633924 -0.08511747
000270 5f 6e 92 3d b7 be 27 3d b7 26 01 3d f2 09 33 bd
       0.07149958 0.040953364 0.031531062 -0.043710656
000280 78 c0 ab bc ad 0c c6 3c 04 90 81 bd ec 94 be bd
       -0.0209658 0.024175966 -0.06326297 -0.09305748
000290 4b df 80 bd cf 3d 4f 3c b0 0c 1e 3b 2f 65 6c bd
       -0.0629259 0.012649014 0.002411645 -0.057713684
0002a0 3b a7 87 bd f9 be 6f bd 2c 0e aa bc 53 c4 16 3d
       -0.066236936 -0.058531735 -0.02075871 0.036808323
0002b0 c5 ea ee bc ef 8f c2 3c 05 8d cb 3c 67 58 45 bd
       -0.029164681 0.023750274 0.024847517 -0.04818001
0002c0 88 76 85 bd b2 a1 d1 3c a8 46 05 3d fd 30 f2 3c
       -0.06516749 0.025589798 0.032538086 0.029564375
0002d0 7f 07 41 3d fb 24 a2 bd 83 a9 b7 bd 1e 1e 4d 3d
       0.04712629 -0.0791721 -0.08967879 0.05007755
0002e0 e3 43 bd bd 36 09 01 3d f8 df 52 3d a6 21 45 3d
       -0.09241464 0.031502925 0.051483124 0.048127793
0002f0 4e 4a 22 bc 32 23 aa bd 6c dc 22 3d 7e a5 19 3d
       -0.009905411 -0.08307494 0.039760992 0.03751134
000300 2e 8c 13 3d c2 5b 8f 3c 45 5d a6 3c 0f 61 46 3d
       0.036022358 0.017499808 0.020308146 0.048432406
000310 86 6e 4c bd f4 c7 1f 3d 8b 93 7f 3d d4 d0 db bc
       -0.04991009 0.03900905 0.062396567 -0.026832975
000320 79 4c 2f bd b5 f4 dc bb 60 a4 61 3d 56 0f 2e 3d
       -0.04279754 -0.0067430385 0.0550884 0.042495094
000330 06 a9 0c 3d 06 f4 a1 3b 93 d6 16 3d 72 83 8a 3c
       0.03434088 0.00494242 0.036825728 0.016908381
000340 37 a6 37 3d ab 49 ac 3d 8a e5 68 bd bd bc 3e bd
       0.04483625 0.084124885 -0.05685953 -0.046566714
000350 4d 8c 6a bd 61 a1 23 3d 74 9d 39 3d 68 e5 0e 3d
       -0.057262708 0.039948825 0.045316175 0.034886748
000360 28 b5 f1 bc 4e c4 32 bd 25 ff 6f 3c d9 9f 26 3d
       -0.029505327 -0.043644242 0.014648234 0.040679786
000370 c1 76 45 3c af 99 da bc 7d 34 46 3d 51 dc 0e 3d
       0.012052239 -0.02668461 0.0483899 0.03487808
000380 5f 87 c2 bc b5 77 c1 3c 15 6e 8f bd 7b 46 44 bc
       -0.02374619 0.023616651 -0.07003418 -0.0119796945
000390 d2 b6 84 3d 5a b1 be 3c 9f e0 af bc db 15 bb 3d
       0.06480183 0.023277927 -0.021469412 0.09135028
0003a0 90 06 b2 bd a5 65 33 3c 47 6c ad bd 94 f2 23 3d
       -0.08692658 0.010949527 -0.08467918 0.040026262
0003b0 98 79 5e bc f6 b0 a8 3c 19 8e d0 bd 5d de 78 3d
       -0.013578795 0.020592194 -0.10183353 0.060758937
0003c0 9f 99 18 3d 40 51 2d bd 2a 3a be bc 40 89 ce 3c
       0.03725588 -0.042313814 -0.023221094 0.02521193
0003d0 c8 33 28 3d 84 e7 57 3d 22 c8 6c 3d 7c 8e 37 bd
       0.041065007 0.052711025 0.05780805 -0.044813618
0003e0 4c 73 4d 3d 18 d8 73 bd a7 58 8f 3d 74 eb 89 bd
       0.050158784 -0.059532255 0.06999331 -0.06734362
0003f0 3b 89 9e 3c 3d 7b 92 bd b1 fe 2d bd 9c a7 db 3c
       0.019352546 -0.07152412 -0.04247922 0.02681332

action_model._discrete_distribution.branches.0.bias f4 [3]
000000 04 51 2f bb 91 0a 8f 3c 01 c3 26 bd
       -0.002675117 0.017461093 -0.040713314

action_model._discrete_distribution.branches.1.weight f4 [3, 128]
000000 cb 02 13 bc 1e a1 15 3d f2 66 00 3c 76 b7 f9 3c
       -0.008972834 0.036530606 0.007837044 0.030482989
000010 b6 8f 86 3d d4 5e a2 3c 59 b5 dd 3c aa 7d 0c 3c
       0.065703794 0.019820608 0.027064012 0.0085748825
000020 77 38 80 bc 6b 19 eb 3c 75 2c a3 3c fb 3f f3 3b
       -0.015651925 0.028698644 0.01991866 0.0074233986
000030 da ff 31 bb 64 5f 0b 3a 9a 33 7d bd 33 32 1d 3d
       -0.0027160556 0.00053166435 -0.06181679 0.03837795
000040 83 7a 05 3d 07 04 1a bb a0 a9 92 3c d7 2e 59 bd
       0.03258754 -0.0023500936 0.01790315 -0.053023186
000050 66 cf 3a 3c 37 bd 8c 3b b9 af e5 3c b2 5b 87 bb
       0.011401987 0.004295017 0.028037893 -0.004130804
000060 c4 20 84 3d 37 48 f1 bc 87 dc ae bd e9 6e 09 3d
       0.06451562 -0.02945338 -0.08538156 0.033553038
000070 25 3a e8 3c 55 80 3b 3d 6e e7 87 bc 1a ae 47 3d
       0.028348038 0.045776684 -0.016589846 0.04875002
000080 50 67 e3 bd bc fd db bb df e4 87 bd df dc 15 3d
       -0.1110369 -0.006713597 -0.066354506 0.036587592
000090 ae 61 ad bc 54 39 9b 3c d3 5d 50 3d 0f f5 a7 b8
       -0.021164741 0.018948235 0.050870728 -8.008826e-05
0000a0 39 23 c8 bd aa 79 0f bd d6 30 91 bc dd 04 3f 3c
       -0.09772343 -0.035028137 -0.017723482 0.011658874
0000b0 f8 8a 82 bd b2 8e 8c 3c ea e5 1e 3c 30 bb bd 3c
       -0.063741624 0.017157886 0.0096983705 0.023160547
0000c0 c0 69 a1 bd d7 89 c9 3c 8a c0 ee 3b 2c f3 3b 3c
       -0.07881498 0.02460186 0.007286136 0.011471551
0000d0 72 45 d3 3c 4d 4f cd ba 50 d6 91 3b 71 ce b8 3c
       0.02578995 -0.0015663892 0.004450597 0.022559376
0000e0 50 28 06 3c e9 09 5b 3c 41 a3 2f 3d a9 3a ce 3c
       0.008188322 0.013369062 0.0428803 0.025174456
0000f0 51 6c 01 bd 6b 93 03 bd dc 80 12 3c fe b0 89 3c
       -0.03159744 -0.03212301 0.008941855 0.01680803
000100 b1 4e cf 3c a7 4e f9 3c a9 08 da 3b 8c e3 93 3c
       0.025306078 0.030433012 0.0066538644 0.018052839
000110 b9 44 20 bd 9e d0 cb 3c 87 35 7b bb 4a a4 48 bc
       -0.03912804 0.02487975 -0.0038331465 -0.012246201
000120 ec ed be bb 83 7d 53 3d a1 56 a5 3c b8 46 03 3d
       -0.0058267023 0.05163337 0.02018291 0.032049865
000130 03 a0 17 3d 00 42 f0 3c 75 1b 9c 3c aa ae f3 3c
       0.037017833 0.029328346 0.019056061 0.029746372
000140 47 51 a7 3c 47 0f 65 3c d4 31 05 bd 1d da 8e 3d
       0.020424498 0.013980693 -0.032518223 0.069751956
000150 ae 21 f4 bc 73 9d bb 3c 59 d3 a8 3c fc 63 fa 3c
       -0.029801216 0.022902226 0.02060859 0.030565254
000160 f2 cb 52 3d f4 c1 0e 3d 5a 7c 09 3d 41 56 40 3c
       0.05146403 0.034852937 0.033565857 0.0117393145
000170 8a 9d 4a bc d5 64 d0 bc 5b e6 1d 3c 94 ac b7 3b
       -0.012366662 -0.025438705 0.009637441 0.0056052897
000180 66 15 58 bd f9 36 07 3c 8e cd 16 bd 77 62 4f 3b
       -0.052754782 0.008252853 -0.036817126 0.0031644383
000190 d5 10 ca 3b f7 50 7f 3d f3 8a c1 bb dc bf 03 bd
       0.0061665573 0.062333073 -0.0059064566 -0.032165393
0001a0 41 8f 95 3c d9 1e 85 3d 5f 0f 23 3c d0 61 3b 3c
       0.018256785 0.06500024 0.009952395 0.011436895
0001b0 2d 7a 44 3b 28 bf 99 3c 43 ab c8 3b 79 42 22 3c
       0.002998005 0.018767908 0.0061239316 0.009903544
0001c0 5d ef c1 3b 79 1b d5 bc 43 7f ac bd a7 f9 f7 3c
       0.005918427 -0.026014077 -0.08422711 0.03027041
0001d0 31 72 01 3d 58 95 0f 3a c5 b2 b7 3c 7a 7b b8 bd
       0.031603042 0.0005477271 0.022424111 -0.09007926
0001e0 a3 de 8b 3c 53 21 84 3d 00 15 a3 bc e0 b6 d9 bc
       0.017073935 0.064516686 -0.019907475 -0.02657646
0001f0 5e 0a ee 3c 2e d0 4a bc 2a 9c ad 3c 45 e6 0d 3c
       0.029057678 -0.0123787355 0.021192629 0.008660858
000200 5a b0 f8 bd f2 02 dd bd e0 2a 8e 3d 73 67 22 bd
       -0.121430114 -0.107915774 0.069417715 -0.039649438
000210 83 04 ad bd d4 e1 52 bd a7 cc 7a bd f1 5a 94 bd
       -0.08448126 -0.051484898 -0.061230328 -0.07243908
000220 a3 c9 91 bd e0 9f 3c 3d d1 1f e3 bd e5 08 ef 3d
       -0.07118537 0.046050906 -0.11090053 0.11671618
000230 a2 95 7e bc 15 de 8f 3d a1 ad 2f 3d 93 0f 8c bd
       -0.015538605 0.07024781 0.042890195 -0.06838908
000240 76 ec 13 3d 83 98 b1 bd 92 b1 15 be 58 11 ea 3a
       0.03611418 -0.086716674 -0.14618519 0.0017857952
000250 ca 7e 9b bd 73 82 da bc 9c fd 08 bc 56 53 b6 3d
       -0.075925425 -0.026673531 -0.008361246 0.08902614
000260 26 9f 72 3d c3 18 c3 bd 52 72 d6 3d c4 93 b3 3d
       0.059233807 -0.09526207 0.104710236 0.087684184
000270 8b c5 2b bd bf 89 bd bc ec 9f b5 bd 86 dd eb 3c
       -0.04193644 -0.023136972 -0.08868393 0.028792154
000280 2e 6b 05 3e f2 cf 82 3d 81 13 85 3d 68 03 0b bc
       0.13029167 0.06387319 0.06497861 -0.008484699
000290 dc 4d 5d 3d ce e0 fc bd b4 41 81 3d df 3f a7 3c
       0.05402933 -0.123475656 0.0631136 0.020416198
0002a0 a0 b7 a5 3c 6a 8b bd 3d 66 76 87 bd 56 3b db bc
       0.02022916 0.09255107 -0.066143796 -0.026761692
0002b0 30 15 83 3d b1 8b 47 bc 73 c6 2d bd 54 b2 33 3d
       0.064005256 -0.012179301 -0.042425584 0.04387124
0002c0 11 90 ab 3d 85 42 1e bd 61 98 68 bd 0e 2b 05 bd
       0.08377088 -0.038637657 -0.056785945 -0.032511763
0002d0 79 0e c8 bc 83 9c 1f 3c 21 f2 1c 3d 3e fb a8 bd
       -0.024420964 0.009741905 0.03831685 -0.08251046
0002e0 12 45 89 3a 5d 2c 9f bd 25 13 20 bd bb ee 59 bd
       0.0010472855 -0.077721335 -0.039080758 -0.053206187
0002f0 fa 94 53 3d a7 c6 f6 3c 46 1f 71 bd 45 05 38 bc
       0.051655747 0.030124022 -0.058867715 -0.011231725
000300 9c cb 0c 3b 48 d1 d8 bc 26 a8 0d be 7e bf 76 3c
       0.0021483665 -0.02646698 -0.13833675 0.015060304
000310 b0 da 30 3d 34 b3 d2 bc 31 94 ba 3c b1 02 2b 3d
       0.043177307 -0.025720216 0.022775741 0.041750614
000320 47 49 0b 3d a3 86 e8 bc 40 50 07 bd d7 00 01 bd
       0.03400543 -0.028384512 -0.033035517 -0.03149494
000330 e7 2e 45 3c 56 8b 9a bc 45 ca ca bc 37 54 93 3d
       0.012035108 -0.018865269 -0.024754653 0.07193797
000340 f8 80 c0 bd ae 23 fa bb 74 b7 e4 3d 17 50 3d 3c
       -0.09399599 -0.007633648 0.111678034 0.011554739
000350 11 41 9d 3d 0a 6d 96 bc c4 48 5d bc fe 68 88 3c
       0.07678426 -0.01836254 -0.013506118 0.016651627
000360 03 36 46 bd ec 51 8e 3d 5a 40 ce bc 45 f4 b0 bc
       -0.048391353 0.06949219 -0.02517717 -0.021600852
000370 61 0a 87 bd 0d 8e b1 3c ba 42 83 bd a0 7f 34 bc
       -0.065937765 0.02167418 -0.064092115 -0.011016756
000380 9a c8 29 3d f9 0a 0c 3c 60 1f 81 3d c9 21 a4 bd
       0.041451074 0.008547538 0.063048124 -0.080142565
000390 1c b3 8e bc 09 d6 fd 3c c7 2d e0 bd 4b 01 ec 3c
       -0.01741939 0.030985849 -0.10946231 0.02880921
0003a0 c3 aa 1d 3b f0 96 41 3d 9b 5a aa bb 85 e1 d9 3c
       0.002405808 0.047263086 -0.0051987893 0.026596794
0003b0 06 1f 26 3d b6 b5 0f 3b 86 30 92 bc 0e 15 8a bd
       0.04055693 0.0021928377 -0.017845403 -0.06742297
0003c0 d3 5c 17 bd d0 31 d2 3d 00 32 38 3c fa 27 93 bd
       -0.03695376 0.10263407 0.01124239 -0.07185359
0003d0 77 1d a0 bd 04 f1 c8 bc 02 d9 0e bd db b5 48 3d
       -0.0781812 -0.024528988 -0.034874924 0.049001556
0003e0 b3 06 86 bd fb 9c 68 3b 22 5a 58 bd 0e 4c c8 3b
       -0.065442465 0.0035493958 -0.052820332 0.006112582
0003f0 a5 62 92 bd 8a 1f 33 3d 4e 9d 9b 3c 34 77 cc bb
       -0.07147721 0.04373125 0.018995907 -0.006239796

action_model._discrete_distribution.branches.1.bias f4 [3]
000000 72 c6 da 3c 06 07 ea bc fb ea 8d bb
       0.026705954 -0.028567802 -0.0043309904

exp_avg f4 [128, 29]
000000 01 c4 0b ba 2b f7 e4 ac 90 4e ad 25 b7 6b 6b b8
       -0.0005331636 -6.507591e-12 3.0063952e-16 -5.6128683e-05
000010 01 c4 0b ba bc ea 8d ac 64 42 f5 25 7a 91 0f b8
       -0.0005331636 -4.0335218e-12 4.2545713e-16 -3.4229342e-05
000020 a7 fc 94 ba a3 19 98 b7 c6 f5 53 22 0d 9a 6a b6
       -0.00113668 -1.813175e-05 2.8725944e-18 -3.4958387e-06
000030 01 c4 0b ba f0 72 e1 ac 19 69 d2 a5 3f d6 e9 b7
       -0.0005331636 -6.4076452e-12 -3.650041e-16 -2.787553e-05
000040 fc c0 4a b1 f5 5c 97 ba 86 0b 8e 21 dd b3 10 b9
       -2.9504568e-09 -0.0011548089 9.625345e-19 -0.00013799914
000050 01 c4 0b ba 05 7a be ac 9d 06 21 ab 62 b3 e4 b7
       -0.0005331636 -5.4136717e-12 -5.720787e-13 -2.726325e-05
000060 28 49 bd 23 0e 5d 97 ba a3 16 8a 2a 59 42 35 b9
       2.0522404e-17 -0.0011548118 2.4529432e-13 -0.00017286222
000070 00 00 00 00 e3 8e 9f ba 13 b0 70 ab a3 8b 18 26
       0.0 -0.0012173321 -8.550948e-13 5.2924837e-16
000080 23 23 b6 38 e3 8e 9f ba 85 2d e1 ad d8 27 5e 26
       8.684981e-05 -0.0012173321 -2.5599753e-11 7.707572e-16
000090 c7 fa 57 38 1c 53 f2 ba dd a5 b8 3a a6 0f 13 26
       5.149355e-05 -0.0018487903 0.0014087517 5.102208e-16
0000a0 11 f6 24 39 e3 8e 9f ba a3 cd 94 2b ee 3a 60 26
       0.00015731926 -0.0012173321 1.0573108e-12 7.7795476e-16
0000b0 8f bc 2d 38 dc 82 ef 30 3e b5 e6 b9 01 cc 80 21
       4.1422023e-05 1.7426731e-09 -0.00044004055 8.727617e-19
0000c0 af f2 5c b8 e3 8e 9f ba ee 07 80 2a 29 b5 a0 2c
       -5.2678104e-05 -0.0012173321 2.274287e-13 4.5675863e-12
0000d0 86 5f 28 38 12 b1 88 21 03 b5 e6 b9 29 d8 0c 29
       4.0143284e-05 9.262589e-19 -0.00044003883 3.1273734e-14
0000e0 a0 3d 8a b8 00 00 00 00 8c f7 89 ba a6 08 6b 2c
       -6.591831e-05 0.0 -0.0010526045 3.340031e-12
0000f0 ff a5 9a 25 dc a3 a4 38 8c f7 89 ba 94 99 42 ad
       2.6827225e-16 7.8506506e-05 -0.0010526045 -1.10617245e-11
000100 4a 69 21 26 aa 7f 44 38 3c 0d a2 ba 79 50 77 3a
       5.600079e-16 4.6848938e-05 -0.0012363563 0.00094342936
000110 7d 21 a8 23 f7 3a cf 38 8c f7 89 ba bf f1 7a ab
       1.822878e-17 9.881512e-05 -0.0010526045 -8.915333e-13
000120 53 09 97 a5 f1 7e 1e 38 45 65 1b 31 48 94 99 b9
       -2.6200643e-16 3.778836e-05 2.2613034e-09 -0.00029292912
000130 54 00 b0 1f 95 05 30 b8 8c f7 89 ba 77 79 c8 ab
       7.453944e-20 -4.196687e-05 -0.0010526045 -1.4244568e-12
000140 52 a5 35 2c 95 e7 19 38 f5 f6 1b a4 02 94 99 b9
       2.5813418e-12 3.669372e-05 -3.3819448e-17 -0.00029292708
000150 98 db b6 27 2c ab 63 b8 00 00 00 00 ec 55 04 39
       5.075323e-15 -5.4280434e-05 0.0 0.0001262051
000160 3e e1 d6 2d 38 64 b9 a6 cb 08 84 38 ec 55 04 39
       2.4429011e-11 -1.2864118e-15 6.295888e-05 0.0001262051
000170 5a aa 5a 2d 13 c7 14 a7 27 e3 20 38 9e 25 89 3a
       1.2429691e-11 -2.0647044e-15 3.8358525e-05 0.0010463481
000180 cb 3b 34 b9 37 11 91 25 a9 f7 06 b8 ec 55 04 39
       -0.00017188412 2.5165156e-16 -3.217874e-05 0.0001262051
000190 10 72 89 2d d3 7c 3f 25 fe e2 02 38 fc 55 31 32
       1.562575e-11 1.6608901e-16 3.120582e-05 1.0322307e-08
0001a0 98 3b 65 3a e9 a3 fa a2 6c bb bd 38 ec 55 04 39
       0.0008744537 -6.7936182e-18 9.047132e-05 0.0001262051
0001b0 31 56 46 2d 7d d2 a0 2c 70 c0 ff 37 7e 61 d8 a3
       1.1274135e-11 4.5708424e-12 3.048798e-05 -2.3460056e-17
0001c0 4c 3c 65 3a 01 30 b1 aa fa a3 e8 38 00 00 00 00
       0.00087446417 -3.1474825e-13 0.00011093165 0.0
0001d0 7b 80 0b 3b 7c ba e6 2c 2f 85 c7 a6 e6 0d 52 38
       0.0021286297 6.557697e-12 -1.3844498e-15 5.0080846e-05
0001e0 7b 80 0b 3b ab 54 95 2b 3e 70 06 a7 00 81 fe 37
       0.0021286297 1.0610587e-12 -1.8657082e-15 3.033923e-05
0001f0 8f 71 1f 3b 10 7c 5f 39 6e 11 98 a5 a4 a1 23 38
       0.002432916 0.00021313154 -2.6379608e-16 3.9012768e-05
000200 7b 80 0b 3b d3 78 34 2d d1 2e 02 a6 c9 a8 ce 37
       0.0021286297 1.0258644e-11 -4.516626e-16 2.463571e-05
000210 27 21 1e 32 28 69 2d 3b fe 80 8d a2 59 35 ae 39
       9.204348e-09 0.0026460383 -3.8354702e-18 0.00033227613
000220 7b 80 0b 3b cb d8 21 2d 5e 3d 57 2c df af c9 37
       0.0021286297 9.199928e-12 3.0587403e-12 2.4042964e-05
000230 b4 9a c2 a3 4f 69 2d 3b dc 02 95 aa 30 30 df 39
       -2.1099041e-17 0.0026460474 -2.64697e-13 0.00042569777
000240 00 00 00 00 d8 f5 d0 3a 5f a9 f7 2c 06 aa 5c a6
       0.0 0.0015942408 7.038966e-12 -7.655826e-16
000250 44 dc 73 37 d8 f5 d0 3a 1b 30 65 2d d2 f7 7a a6
       1.4535213e-05 0.0015942408 1.30278245e-11 -8.7072033e-16
000260 df 6f 1b 37 22 53 0e 3b ea 11 c4 b9 32 58 80 a5
       9.264767e-06 0.0021717031 -0.0003739738 -2.2264224e-16
000270 d5 98 0a b8 d8 f5 d0 3a e4 96 fd 2c ec 7a 00 a6
       -3.30441e-05 0.0015942408 7.2074447e-12 -4.457551e-16
000280 e4 f4 00 37 f9 c3 3b 31 b3 a1 eb 3a 62 99 e6 a1
       7.686413e-06 2.732348e-09 0.0017977267 -1.5626006e-18
000290 65 23 6a 39 d8 f5 d0 3a 1a 5b de 2c 55 c5 99 2b
       0.00022329164 0.0015942408 6.319734e-12 1.0926074e-12
0002a0 83 b1 ff 36 f7 23 db 22 cb a1 eb 3a 4e 3c bb aa
       7.6202573e-06 5.939815e-18 0.0017977295 -3.3259718e-13
0002b0 2f f2 94 39 00 00 00 00 be 7a 88 ba 8e ca 22 ad
       0.000284092 0.0 -0.0010412557 -9.25361e-12
0002c0 71 72 49 24 05 fa 94 b6 be 7a 88 ba 83 90 61 ad
       4.3681863e-17 -4.43985e-06 -0.0010412557 -1.2821857e-11
0002d0 85 2a 07 25 02 12 5f b6 bf 97 f3 ba 8b d7 2e 3a
       1.172379e-16 -3.3240071e-06 -0.0018584653 0.00066696916
0002e0 5e 8c df a2 4d 04 a4 38 bf 7a 88 ba 01 50 d4 ab
       -6.059289e-18 7.8209305e-05 -0.0010412558 -1.5085712e-12
0002f0 07 e3 31 a5 48 9a 43 b6 49 dc 43 b1 e2 2b 9c ba
       -1.5429223e-16 -2.9147068e-06 -2.8501452e-09 -0.0011914934
000300 fb 8e d7 20 78 50 11 b9 be 7a 88 ba 11 a8 a2 ab
       3.6517033e-19 -0.00013858255 -0.0010412557 -1.155744e-12
000310 d6 13 25 aa 3f 22 49 b6 66 33 2f 22 f9 2b 9c ba
       -1.4661826e-13 -2.9971268e-06 2.3744133e-18 -0.001191496
000320 28 98 eb 28 e0 b1 36 b9 00 00 00 00 01 31 48 38
       2.6156228e-14 -0.00017423136 0.0 4.7729354e-05
000330 48 f5 14 ab cf dd 37 25 dc c6 3a b6 01 31 48 38
       -5.292056e-13 1.5947871e-16 -2.7831911e-06 4.7729354e-05
000340 7b ac f2 aa be f6 32 25 d3 79 dc b5 6e 86 a6 38
       -4.3107518e-13 1.5522638e-16 -1.6426733e-06 7.940536e-05
000350 29 e9 63 b8 f9 12 c2 24 45 c0 d7 b6 01 31 48 38
       -5.4338165e-05 8.416623e-17 -6.4298824e-06 4.7729354e-05
000360 5d d5 dd aa c2 f9 07 25 49 12 b1 b5 f6 de 3e 2f
       -3.9405537e-13 1.1794005e-16 -1.3192849e-06 1.7359611e-10
000370 09 47 d2 37 73 3c 6d a2 46 2e 30 36 01 31 48 38
       2.506703e-05 -3.215149e-18 2.6252978e-06 4.7729354e-05
000380 08 8e dc aa 15 99 90 aa 2d 6c ab b5 09 04 d9 22
       -3.9178404e-13 -2.568576e-13 -1.2771976e-06 5.882224e-18
000390 6d 47 d2 37 e3 c7 79 27 4e c7 58 36 00 00 00 00
       2.5067211e-05 3.466405e-15 3.2302519e-06 0.0
0003a0 fd 19 39 3a 98 55 38 2d d8 4d 5f a6 3f 51 7a 38
       0.00070610625 1.0478195e-11 -7.7474165e-16 5.968031e-05
0003b0 fd 19 39 3a fb 2a ec 2c 63 45 99 a6 19 83 17 38
       0.00070610625 6.712295e-12 -1.0635315e-15 3.61233e-05
0003c0 70 fb 8d 3a 71 1a 84 39 75 15 be 25 7c 03 03 38
       0.001083238 0.00025196702 3.2974286e-16 3.123608e-05
0003d0 fd 19 39 3a 8c af 1a 2d 4f c6 b5 25 fa ff f5 37
       0.00070610625 8.792866e-12 3.1532874e-16 2.9325474e-05
0003e0 2a 2a 99 31 e7 01 af 3a 73 1b db a2 be 24 2b 39
       4.4576796e-09 0.0013352007 -5.938913e-18 0.00016321518
0003f0 fd 19 39 3a da 6e e9 2c 1f 27 9b 2c e0 0c f0 37
       0.00070610625 6.6345653e-12 4.4097083e-12 2.8616225e-05
