results/ppo/Racing/Racing-5039.onnx (onnx, 88644 bytes, 9 tensors)

discrete_act_size_vector f4 [1, 2]
000000 00 00 40 40 00 00 40 40
       3.0 3.0

network_body._body_endoder.seq_layers.0.weight f4 [128, 29]
000000 73 64 2b 3e 8c d8 6b 3e 58 5a c5 bd 06 b8 87 bd
       0.16737537 0.23031825 -0.09636372 -0.066268966
000010 29 79 2d 3e 20 5f 0b 3c 35 1e 1e 3e 0f cc 00 be
       0.1694075 0.008506566 0.1544121 -0.12577842
000020 de 32 a3 3d 25 ed 6e be 49 aa 1e be 42 b8 16 bd
       0.079686865 -0.23332651 -0.15494646 -0.036796816
000030 b1 ad b8 3e 55 38 9b bb 95 ff 6b 3d 26 ae e0 3e
       0.36070016 -0.00473694 0.05761679 0.43882865
000040 a0 7b f1 3d 32 9d 13 3d cf ae ab 3c dd e3 74 3e
       0.11791158 0.036038585 0.020957379 0.23915048
000050 7f 91 a3 bd d1 ab c0 3d ae 0d 99 3d 37 d9 80 be
       -0.079867356 0.094077714 0.07473312 -0.25165722
000060 bc c8 4f be 25 d5 a8 bd f8 5c 98 be cf 68 a8 3d
       -0.20291418 -0.08243779 -0.2975843 0.08223116
000070 b6 a3 8f bd 86 66 c0 3d 9b f3 33 3d 64 7f 88 bd
       -0.07013647 0.09394555 0.043933492 -0.06664923
000080 aa 1e 1c 3c c4 86 e3 bd 23 5f a0 3d 8a ef 30 3d
       0.009528795 -0.11109689 0.07830646 0.043197192
000090 4c 53 70 bd a7 16 9b 3d 82 48 fc 3e 68 14 62 be
       -0.058673188 0.0757268 0.4927407 -0.22078097
0000a0 e6 52 ac 3e bc ea 10 3e 81 2f 3a bc e4 b0 79 be
       0.33656996 0.14152044 -0.011363865 -0.24383885
0000b0 d3 15 35 bd dc 23 97 3d 96 92 a1 3e 3e 9b 07 be
       -0.044210266 0.073798865 0.3155715 -0.13242814
0000c0 78 2e da 3e 6e fe 2f bd 58 50 66 be 11 d3 c7 bc
       0.42613578 -0.042967252 -0.22491586 -0.024392636
0000d0 83 25 14 3e 84 22 de 3e c0 84 80 be 26 a4 de 3d
       0.14467435 0.43385708 -0.2510128 0.108711526
0000e0 11 a2 dd 3e ce 72 9f 3d 7e 0d 04 bf bc 56 b2 bd
       0.4328771 0.07785569 -0.5158309 -0.087079495
0000f0 db 5e 77 3d 0f 8b 5c 3d a1 99 54 3d 13 a2 18 bf
       0.060393196 0.053843554 0.051904324 -0.59622306
000100 63 6f 4d 3e 26 b8 be 3c e5 4c 8b 3d 33 fc c7 3e
       0.20062022 0.023281168 0.06801776 0.390596
000110 6e 92 30 3e 32 d6 d5 3d 2c 98 2f be 28 b5 45 bd
       0.17243358 0.10441245 -0.17147893 -0.048268467
000120 10 b4 7f 3c a3 d4 76 be 92 d4 64 bd aa 43 df be
       0.015606895 -0.24104552 -0.055866785 -0.4360631
000130 ee e8 46 3e 07 2a a6 3e f1 0a 85 3e 70 74 d7 3d
       0.19424793 0.3245394 0.2598491 0.105202556
000140 fa ff 9a 3d 7e 05 82 be c3 d3 3c 3e 57 b3 85 3e
       0.07568355 -0.25394815 0.18440156 0.26113388
000150 d0 a5 06 3e 35 bf 97 3d bd a6 0c 3d 06 df 0f be
       0.1314919 0.07409517 0.0343387 -0.1404992
000160 ed b7 5d 3e 4d 43 a1 be 0a 39 66 be b4 60 94 be
       0.21652193 -0.3149666 -0.22482696 -0.2898003
000170 4b d2 08 3e 4d 88 3f 3e 01 b1 67 bd 4a d7 69 3e
       0.1336147 0.18704338 -0.05656529 0.22836033
000180 3d c1 90 3e 13 53 14 3e bd 0e 81 bd 4c b7 df be
       0.2827243 0.14484815 -0.06301639 -0.43694532
000190 e0 8c 61 bd 0d b2 e2 bd ad ff 89 be d1 41 00 3c
       -0.05506599 -0.11069117 -0.26952878 0.007828192
0001a0 d4 75 33 3e 16 9b e1 3d 35 68 2b 3e 49 08 d5 3e
       0.17525417 0.110159084 0.1673897 0.41607884
0001b0 7d 1f 95 3e 4a 2c 05 bf b5 62 e9 bd 11 ae 2e 3e
       0.29125586 -0.52020705 -0.1139578 0.17058589
0001c0 19 8b 49 be bc a9 06 be 17 dc b8 bd 7c 26 d0 bd
       -0.19681968 -0.13150686 -0.09026354 -0.1016359
0001d0 c6 10 50 3e e1 01 8e 3e 33 fd 0c bf 12 53 76 3e
       0.20318899 0.27735808 -0.5507385 0.24055126
0001e0 93 de db bc 5f ee b4 3d 65 29 24 be 92 52 d1 3c
       -0.02683953 0.08834528 -0.16031416 0.025552068
0001f0 01 e1 a4 be 9b 03 6c bd 6b e4 09 be 0b 77 88 bd
       -0.32202914 -0.057620626 -0.13466041 -0.06663331
000200 64 25 87 3d 8f af e1 bd e8 93 9e bd bf 42 c0 3d
       0.065989286 -0.11019813 -0.07743055 0.09387731
000210 a7 6a 85 be 4c 96 aa 3d fb ba c3 bd 22 b3 da 3d
       -0.26057932 0.08329448 -0.09557148 0.10678698
000220 13 15 8b bd cd 9d 1e bd e7 30 2a bd ae e1 25 3d
       -0.06791129 -0.03872471 -0.041550543 0.040498428
000230 aa 69 9a be 16 8b 06 be 42 45 9e 3d 47 c3 8e 3e
       -0.3015874 -0.13138995 0.07728054 0.2788336
000240 fc a6 d8 bc 6b 52 5f 3e 3c 59 04 3c c7 b6 35 be
       -0.026446812 0.21808784 0.008077916 -0.17745505
000250 46 b2 70 be 13 ee 4c 3e 2f 1e 6d be d8 33 e5 bd
       -0.23505506 0.20012693 -0.23156045 -0.11191529
000260 3b ee 3f 3e 5c ae 8b bd c6 b3 88 3e 39 87 17 be
       0.18743221 -0.06820366 0.26699656 -0.14797677
000270 b4 9c 44 be 6b 96 42 be 18 ef 8c bc d0 92 d4 3e
       -0.19200402 -0.19002692 -0.017203853 0.4151826
000280 51 3d 86 3e 2e 86 b5 3e 4e a6 54 3e af 13 d5 3d
       0.26218656 0.35453933 0.20766565 0.10404145
000290 e5 c2 88 3d e8 5e 15 be a9 bc 2e 3e 27 35 bd 3e
       0.06677798 -0.14586985 0.17064156 0.36954615
0002a0 3c ea d0 3d fa 56 fb be 36 43 92 3e 63 24 11 3e
       0.10200927 -0.49089795 0.28566903 0.14174037
0002b0 99 0f 99 be c7 fa 28 3c 7d 9f 1e be 09 4e e2 3e
       -0.29894713 0.010313696 -0.15490527 0.4420016
0002c0 45 db 68 3d 5b 5e 8d bd 98 14 3f 3e a4 84 b8 3e
       0.056849737 -0.069027625 0.186602 0.36038697
0002d0 60 9a 18 3e 52 0c 1f 3e 00 86 55 be b1 88 63 3e
       0.1490264 0.15532044 -0.20851898 0.22220112
0002e0 c7 bb 76 3e fa cd b4 3d 93 2d a3 be 00 f4 ac 3b
       0.24095069 0.088283494 -0.31870708 0.0052781105
0002f0 57 56 f7 3d 72 be 0d 3d 57 b5 a1 be 42 28 2c 3e
       0.12077015 0.03460545 -0.31583664 0.16812232
000300 6f 75 2e be c0 67 8d be fe 5e 05 bd ab b3 0b 3e
       -0.17036985 -0.27618217 -0.032561295 0.13642757
000310 d2 bf 0a 3d 8f b6 35 be b5 c1 9e bc aa e3 ee be
       0.03387434 -0.17745422 -0.019379476 -0.4665807
000320 1f 01 f0 3d cf 44 5e 3e 43 c1 0a be 90 b2 59 be
       0.11718964 0.21705936 -0.13550286 -0.21259522
000330 25 92 3d 3e 21 4e 66 bd 9b 8c 0a 3e 95 b1 2f 3c
       0.18512781 -0.056226853 0.13530199 0.010723491
000340 9f 07 86 be 9d 7f b9 3e ed 3b 61 3e f7 e0 b5 3d
       -0.2617769 0.36230174 0.21995516 0.08880799
000350 8f 21 73 be 08 9f d4 3c 46 3d 4f 3e e1 91 d0 be
       -0.2374327 0.025954738 0.20238218 -0.40736297
000360 b7 c6 2b 3e a5 2d 2d 3e a7 31 f2 3d 38 0d 1c 3e
       0.16775022 0.16911943 0.11825877 0.15239418
000370 95 69 fc be ab f0 18 3e 10 b2 9c be dc 88 53 3d
       -0.49299303 0.14935558 -0.306046 0.05164419
000380 c0 c3 d8 be 96 33 3d 3e 4a 3e 12 bd 77 85 30 3e
       -0.42336845 0.1847671 -0.035703935 0.17238413
000390 42 08 95 3c ad 65 a6 3e 9f a2 52 3e 5b 86 ba 3d
       0.018192414 0.32499447 0.20569848 0.091076575
0003a0 2c 7e b8 3d 2b df ed bd 0f b1 1c be 22 13 d7 3c
       0.090084404 -0.116148315 -0.15301917 0.02625424
0003b0 ba a3 d3 bd 0e 06 8f 3e ac e2 50 bd 49 1f 27 bd
       -0.10333963 0.27934307 -0.05099742 -0.04080132
0003c0 50 13 c6 3e a0 51 25 bd 72 a0 45 3d 8f e6 8b bd
       0.3868661 -0.040361047 0.048248716 -0.06831085
0003d0 9e 26 ed bd 1d 37 a9 3e 14 18 96 3e 0d b1 5d be
       -0.11579631 0.3304986 0.29315245 -0.21649571
0003e0 04 cb bd 3d 79 d9 da bd 40 10 49 3d c2 73 ad be
       0.09267238 -0.10686011 0.049087763 -0.3387738
0003f0 95 01 4d be 0c c3 f6 3d fa 20 2c bd 82 9f b7 3e
       -0.20020135 0.12048921 -0.042023636 0.35863882

network_body._body_endoder.seq_layers.0.bias f4 [128]
000000 b2 94 9c 3d ad b7 68 3c e8 16 4a bb e8 c3 2c bd
       0.07645549 0.014203948 -0.0030836407 -0.04217902
000010 a9 9a b5 bc 5a 1f 51 3d ee 4b 49 bc d7 71 9a 39
       -0.022168474 0.05105529 -0.012286169 0.00029457986
000020 fb 8c f5 bc 87 99 21 3d fc 0f 60 3d 71 b3 db 3c
       -0.029974451 0.039453056 0.054702744 0.026818963
000030 c6 5a 68 3d 17 78 ba 3c 39 45 87 3b 29 08 8e bd
       0.056727193 0.022762341 0.004128125 -0.0693515
000040 7a a6 b1 3c b6 43 39 3c 48 f0 ff 3c 44 f6 b4 3c
       0.021685828 0.011307647 0.031242505 0.022090085
000050 03 d4 de 3d 6e 01 ac 3c 7c 53 55 3d 19 f0 04 3d
       0.10880282 0.020996775 0.05208157 0.032455537
000060 37 73 0a 3b 48 f5 6e 3b c6 6b 83 bc 39 91 40 3d
       0.0021125802 0.0036462117 -0.016042601 0.047013495
000070 f6 f4 ff 3d 8c ac 06 3d 31 b8 43 bc b9 ba 76 3d
       0.124978945 0.032879397 -0.01194577 0.060236666
000080 ed e9 f0 bc cd ac 35 bd f7 3b 70 3d e5 60 a0 bd
       -0.02940842 -0.04435425 0.058650937 -0.07830981
000090 70 1d 52 bb 84 c8 9f 3d 71 22 b3 3d e5 0f 9f 3d
       -0.0032061003 0.07801917 0.087468036 0.077667035
0000a0 f1 5f 6c 3d 27 a0 d7 3c 3a d2 86 3d 4d 7d 90 3d
       0.057708684 0.026321484 0.06583066 0.07055149
0000b0 db 9f 27 3c 09 4b 64 3d 9a e0 6e 3d e0 16 37 3c
       0.010230984 0.05573562 0.058319665 0.011174887
0000c0 63 f6 11 bd d0 49 52 3d b5 ba 35 3d 27 06 cb 3d
       -0.035635363 0.051339924 0.04436751 0.09913283
0000d0 c4 2c 1f 3d d0 71 08 bd 11 bf 65 3c f4 57 f5 bc
       0.03886105 -0.033311665 0.014022605 -0.029949166
0000e0 96 7a 52 3d 40 97 15 3c 83 8c a8 3c ca 1f 67 3d
       0.05138644 0.009130299 0.020574814 0.0564268
0000f0 ab 5e f5 3c 8f 99 d1 3c de 8a 1b 3d c0 07 10 3d
       0.029952368 0.025585918 0.03797423 0.03516364
000100 be 05 f0 bc aa c3 72 bd 30 2a ea 3c 56 a5 aa 3d
       -0.029299613 -0.05926863 0.02858457 0.083323166
000110 dd 1c 3d bc 82 ff fc 3b c5 d9 80 3c b3 40 28 3d
       -0.011542526 0.0077208886 0.01572884 0.041077327
000120 a3 ad 0e 3d c3 ba 43 3d a0 a6 4d bd ad 0c 54 3d
       0.03483356 0.04778553 -0.050207734 0.0517699
000130 18 df 87 3d ab 71 0c bd 99 39 91 3c 1d 5a a8 3d
       0.06634349 -0.03428809 0.01772766 0.08220313
000140 33 43 8a 3d b6 eb 23 bd 45 c2 06 bd 62 a7 d3 bb
       0.067510985 -0.040019713 -0.032900114 -0.0064591626
000150 a5 36 f8 3c ef 82 fe 3c 31 55 1f 3d 4b 01 9c 3c
       0.030299494 0.031068293 0.038899604 0.019043585
000160 1d a8 d4 bb 16 3f 63 3d 8d fc 15 3d 78 a8 94 3d
       -0.006489767 0.055480085 0.036617804 0.07258695
000170 c4 ca d6 bb 69 2e d0 3d 58 7c d3 3c 6e b6 9d 3d
       -0.0065549333 0.10165102 0.025816128 0.07700811
000180 5b b7 00 bb b1 0f 2b 3d 7e 2b ef 3c 48 28 88 3d
       -0.0019640538 0.04176301 0.029195543 0.06648308
000190 85 17 b9 3d fe 33 c1 bc ee 8c 38 3d 97 da 54 3d
       0.09037689 -0.023584362 0.045056276 0.051966276
0001a0 0e 4c 03 3d f2 29 6b 3d 00 b2 45 3d 71 6a 97 bc
       0.032054953 0.05741305 0.048265457 -0.018483372
0001b0 32 d5 a2 3d 61 5a cf 3b 72 58 ba 3d 91 54 9d 3c
       0.0795082 0.0063279127 0.09098901 0.019205363
0001c0 49 2b 04 3d 38 ba 29 bd 31 f3 d8 3c a3 ee 8d 3b
       0.032267842 -0.041437358 0.02648315 0.004331426
0001d0 47 b8 26 bd 45 f4 6f bd 21 38 7a 3c 2c 19 8a 3b
       -0.040703084 -0.058582563 0.015272171 0.0042144265
0001e0 fb 9f 6c 3b b4 47 7c 3d 68 b8 b5 bc c7 64 db 3c
       0.0036106098 0.06159182 -0.022182658 0.026781453
0001f0 41 ac a2 3d 29 d9 67 3c 79 e6 26 3c 94 41 e0 bc
       0.07943011 0.014150896 0.010186785 -0.02737502

network_body._body_endoder.seq_layers.2.weight f4 [128, 128]
000000 36 3e 55 3d b0 27 c1 bd 43 0d 25 be c7 56 c1 bc
       0.052061282 -0.09431398 -0.1611834 -0.023600949
000010 47 22 4e bd 49 1e 0a bd 99 41 4e bd 92 df 96 bd
       -0.05032566 -0.03372029 -0.050355528 -0.073668614
000020 bc 20 cd bd 53 7b 1c be 1c c1 05 be 2e ca b4 bd
       -0.10016009 -0.1528142 -0.13061947 -0.08827625
000030 57 31 04 3e 58 63 4c bc f9 ea 60 be ef c6 5a 3d
       0.12909447 -0.012474857 -0.21964635 0.053412374
000040 c1 f6 3b bd b9 3a 12 3d 03 38 05 3e 29 46 6f 3c
       -0.04588962 0.035700534 0.13009648 0.01460413
000050 1b c5 7a be 86 14 c5 3c 5d 7e 0e 3e 2b 8d 62 3c
       -0.24489252 0.024057638 0.13915391 0.013827602
000060 5e 3e 29 bd d8 63 1b be 65 63 04 bc 37 bf 82 bc
       -0.041319244 -0.15174806 -0.008080338 -0.015960319
000070 cc 26 13 3e 3d 8f 2f 3d aa 17 ad 3d c9 7c 5e 3c
       0.14370269 0.042861212 0.08451779 0.013579556
000080 c7 30 1d 3e d7 ea 06 be 50 34 f8 ba 35 8b 93 3d
       0.15350638 -0.13175522 -0.0018936489 0.07204286
000090 57 17 31 3d 5e 60 49 bb 02 13 68 3c a0 83 6d bd
       0.04323515 -0.0030727605 0.014164688 -0.057986856
0000a0 93 01 9b bd 7b b0 e9 3c c6 ed c1 3c ee 56 fb 3d
       -0.0756866 0.028526535 0.02367295 0.1227244
0000b0 a9 b7 84 3c 1a 76 e3 bb 6d ac 0c 3e bc 73 61 be
       0.016200857 -0.006941569 0.1373765 -0.22016805
0000c0 b4 e4 de bc 0d 62 8d 3c ed 15 0d 3d 98 fe ee bd
       -0.027208664 0.017258668 0.03444474 -0.11669654
0000d0 13 b8 15 3d 89 a1 08 be bb 1d 3a 3d 5a 0a 49 be
       0.0365525 -0.13342871 0.04543851 -0.19632855
0000e0 f8 1f 75 bd f7 37 1b bc a1 df 21 bd fb 7e e0 3c
       -0.05984494 -0.009473792 -0.03951991 0.027404299
0000f0 c0 19 1d be eb 66 95 3c cd 2b c9 3c 99 bd 8f 3b
       -0.15341854 0.018237552 0.024557019 0.0043866155
000100 07 25 7d be b7 9e 40 be 02 b6 40 bc 0d 77 5f 3d
       -0.24721156 -0.18810545 -0.011762144 0.054556895
000110 5e 10 80 39 af 8b b9 3c 4e 22 87 3d 02 8d 1e 3e
       0.00024426257 0.022649614 0.0659834 0.15483478
000120 c9 bc 15 bd d6 d3 00 3d 16 97 81 be 41 64 3f bc
       -0.036556993 0.031452022 -0.25310582 -0.011681617
000130 da b2 fa bd 29 b1 37 bd 27 2f 44 3c 35 63 a8 bc
       -0.122411445 -0.044846687 0.011974133 -0.020555118
000140 51 6d d6 3d 9c 03 5b be a4 df 29 be 20 38 b2 bc
       0.10470069 -0.21388096 -0.16589218 -0.021755278
000150 9c c5 e0 3d 7f a9 a4 bd a2 63 67 bd ce 5b 3d bd
       0.10975191 -0.08040141 -0.0564915 -0.04623013
000160 4d e4 ab bc c2 1f e7 bd 0e 90 c0 bb 9f 34 87 b9
       -0.020982886 -0.11285354 -0.0058765477 -0.00025788412
000170 12 b1 57 bd f2 a1 d5 3c fc 54 40 3d 93 1a 2c be
       -0.0526591 0.026078198 0.046956047 -0.16807012
000180 76 72 38 bc d1 5a 5a 3c ae f6 3f bd d2 0e 93 3d
       -0.011257758 0.013327316 -0.04686611 0.07180561
000190 ae 48 80 3e 2e 93 17 bd 08 6d f8 3c 0a 12 e6 3c
       0.2505545 -0.037005596 0.030325428 0.028084774
0001a0 82 a6 a8 3c 13 7d f4 3c 32 5e e5 3d ad ff 79 be
       0.02058721 0.029844796 0.11199607 -0.24413939
0001b0 2c f8 f5 3d e1 4a 1d bd e0 83 72 3d a9 f2 fc 3d
       0.12010226 -0.03840149 0.059207797 0.12350971
0001c0 c2 46 b1 3c dc 2d 53 be 72 a2 66 3d 82 09 82 bd
       0.021640185 -0.20622963 0.056307264 -0.0634947
0001d0 b9 42 11 3b 98 04 8e 3a ba fd 76 bd 59 00 ad 3d
       0.0022165014 0.0010835109 -0.060300566 0.08447332
0001e0 d7 fd 4d be c0 c7 6c bd c6 b8 fa 3c 56 10 ec 3c
       -0.20116363 -0.057807684 0.030605685 0.028816383
0001f0 f2 ae 86 3d 38 a7 aa 3c 76 c6 87 bd 99 97 db bd
       0.06576337 0.02083169 -0.0662965 -0.10722274
000200 2e 79 9d bd 47 57 3f bd 67 0a 0a 3d 66 b8 39 bd
       -0.07689129 -0.046714094 0.033701327 -0.04534187
000210 06 e1 48 3e a7 6b 04 bc 24 9b 2e 3d 71 37 a3 3d
       0.1961709 -0.008082307 0.042628422 0.07969559
000220 e9 f4 45 be 08 61 ac bd 3a e8 77 3e 21 dd 31 3e
       -0.19331707 -0.08416945 0.24209681 0.1736951
000230 5d 4c 29 3e b3 df e2 bc c1 45 20 be f0 9d 31 3e
       0.16533037 -0.027694559 -0.15651609 0.17345405
000240 dd dd 3a bc 80 9c cb bd 48 8d 1a be 43 f3 2b be
       -0.011405435 -0.099419594 -0.15092957 -0.16792016
000250 31 94 a9 3d 7a 0c 4e bd 56 00 87 3c 54 8e 64 3d
       0.082802184 -0.050304867 0.016479652 0.055799797
000260 bc a8 b4 bd 2c 9c 6d bd 74 36 02 3e 95 e5 09 be
       -0.08821246 -0.058010265 0.12716085 -0.13466485
000270 08 1e 70 bc 11 b7 bf 3c 50 53 86 3e dd 36 43 bc
       -0.0146555975 0.023402723 0.26235437 -0.011914936
000280 e8 47 dd 3c 6a de 8d bd ec 91 1e be 76 35 d4 bc
       0.027011827 -0.06927188 -0.15485352 -0.025904398
000290 15 c2 bb bb a9 17 21 3d 12 f7 92 be 03 83 0f be
       -0.0057299235 0.039329205 -0.28704125 -0.14014821
0002a0 cc 63 22 be 34 f5 f9 bd 3b 0d 75 3c 41 35 fa 3d
       -0.15858382 -0.12204972 0.014956768 0.122171886
0002b0 18 88 84 be 6d d3 a7 bd b2 84 c2 bb 23 4d 95 bd
       -0.2588508 -0.08194623 -0.0059362287 -0.07290103
0002c0 63 c4 24 be cf f8 5a 3e f3 c4 bf 3d 87 24 de bd
       -0.1609054 0.21383975 0.09363737 -0.10846811
0002d0 90 9f 8e bd 00 db 92 3e cf 60 d8 bd 7c 50 22 3e
       -0.06964028 0.2868271 -0.1056534 0.15851015
0002e0 33 05 be 3d 48 19 0c be 4c e8 2b 3e f8 0d 1f be
       0.092783354 -0.13681519 0.16787833 -0.15532672
0002f0 9f ff 48 bd 02 03 e6 bd 89 38 fd 3d 39 a3 d4 bb
       -0.049071904 -0.112310424 0.12364299 -0.006489184
000300 c2 04 c2 bc 2e 50 e6 bc 59 5a a2 3e 18 4a df bc
       -0.02368391 -0.028114405 0.31709555 -0.02725701
000310 7a 26 0d 3d 5f 97 de bd 29 a1 eb bc a5 c1 16 bd
       0.034460522 -0.108687155 -0.02876337 -0.036805768
000320 53 06 2d 3e 1b e4 5f be 0a 70 0e 3d de 23 06 3e
       0.16896944 -0.21864359 0.034774818 0.1309962
000330 7e a6 b3 3d ef da 19 3e 6d b8 23 3e b3 ff 9f bd
       0.0877199 0.15024923 0.15988322 -0.07812443
000340 58 f8 91 bd c0 dd 3f 3e 60 e4 99 bd 2c e7 f7 3d
       -0.07127446 0.18736935 -0.07514262 0.121046394
000350 0d bd 1f be 12 77 9a bd af 23 a0 3d 28 82 54 be
       -0.15599461 -0.07542242 0.07819306 -0.20752776
000360 99 e2 96 3d e8 3f 46 bd bc 9d 79 bd a9 df 51 bc
       0.07367439 -0.04840079 -0.060941443 -0.012809672
000370 63 1a 97 3e 17 a5 81 bd 34 1d 07 bd d6 b2 07 be
       0.2951232 -0.063303165 -0.032986835 -0.13251814
000380 9c 64 09 be e9 e1 92 3d 90 ce 0a 3e 72 d4 f9 3b
       -0.13417286 0.07171995 0.1355536 0.0076242024
000390 23 27 7c 3e 7e ff 25 bc e9 99 04 be c3 55 85 be
       0.24624304 -0.010131715 -0.12949337 -0.26041993
0003a0 ad 7b 47 3e 88 db 67 3d 34 99 9f 3c f9 4d 51 3e
       0.19480772 0.056605846 0.019482233 0.204399
0003b0 7e 77 2a bc a7 11 45 3c c1 95 b2 3d a5 c8 aa 3e
       -0.010404466 0.012028134 0.087199695 0.33356205
0003c0 0c 35 c6 3d 73 50 09 be e4 c6 ef 3d 32 07 b8 bb
       0.09678087 -0.13409595 0.11707857 -0.005616092
0003d0 82 f9 a6 3d 9c 60 77 bd ed 4d 35 3c f5 87 01 3e
       0.081530586 -0.06039487 0.011065942 0.1264952
0003e0 1c 3b 8e 3d 92 59 68 bd 15 82 65 bd d1 56 9e bd
       0.06944868 -0.056726046 -0.05603226 -0.07731403
0003f0 77 c4 61 be 45 37 66 3e f8 57 94 bd 4a fb 08 be
       -0.22047602 0.22482021 -0.07243341 -0.13377109

network_body._body_endoder.seq_layers.2.bias f4 [128]
000000 a4 64 54 3d 81 be 3f bd 71 72 6a bd 21 45 8c bd
       0.05185379 -0.046812538 -0.057238046 -0.06849123
000010 e9 24 db bc d8 73 56 3d 65 48 f4 3c da f5 29 3d
       -0.026750999 0.05235657 0.029819677 0.041494228
000020 cc 03 54 3d c6 48 8f 3d 83 e4 98 bd 2a 26 6a bd
       0.051761433 0.06996302 -0.0746546 -0.057165302
000030 5b d5 72 3d bc bf 0f bd 03 ce 3c bc 19 23 3e 3c
       0.059285503 -0.03509496 -0.011523726 0.011605048
000040 6f e3 21 bc 19 cb 9a 3d 34 ed 53 3d a4 38 38 3d
       -0.009880885 0.07558269 0.051739886 0.04497589
000050 59 e3 ed 3b 57 26 c2 3c 75 e0 5f 3c bd 7d 7c 3d
       0.007259768 0.023699922 0.013664355 0.06164335
000060 22 a0 33 bd ce 33 81 3d 42 86 5d 3d 68 c5 6f 3d
       -0.043853886 0.06308709 0.054083116 0.05853787
000070 76 d0 a5 3b 1c ba e0 3c 2c 99 3d 3c 7c 95 84 3d
       0.005060251 0.027432494 0.011572164 0.064738244
000080 8b 2b 26 3d 81 c5 ce bd 5c 8c 36 b9 8d 21 2c 3d
       0.04056887 -0.10096265 -0.0001740916 0.042024184
000090 e4 ec 50 3c 21 57 19 3d 39 a1 63 bd 15 90 88 3b
       0.012751792 0.03743661 -0.055573676 0.0041675665
0000a0 1f 25 c2 3d 4c 2f f6 bc 48 7d 9b 3d cd ae 22 3d
       0.094797365 -0.03005185 0.07592255 0.039717484
0000b0 37 9a 8f 3d 23 b0 ca bd 34 33 67 3d db a7 78 3d
       0.07011836 -0.09896877 0.056445315 0.060706954
0000c0 dc 7a 44 3d e3 15 58 3d 6c 12 34 3d 23 57 a8 3d
       0.04796873 0.052755248 0.04396288 0.08219745
0000d0 8b 4d 7d bc f6 d7 b8 bc 57 39 8c 3d ac 80 04 3d
       -0.015460382 -0.022563916 0.06846874 0.032349274
0000e0 0a ee 03 3d 97 05 a1 bd 6d cd 24 3d 2b fa 58 bd
       0.032209434 -0.07862394 0.04023497 -0.052972954
0000f0 ba d9 7f ba 6d a2 87 3d f2 f7 ae 3c 85 a2 6f 3c
       -0.0009759922 0.06622777 0.021358464 0.01462615
000100 fa 1e 7a 3d 90 92 d4 bc 01 db 08 3d 09 32 64 bd
       0.061064698 -0.025948793 0.033411983 -0.05571178
000110 49 eb 96 bc 77 06 69 3d 6b da 2a 3d 81 bb 73 bd
       -0.01842274 0.05689093 0.041712206 -0.05950499
000120 fd 50 b5 ba d2 4c d8 3c d6 ad 41 3d 33 66 2a 3d
       -0.001383334 0.026403818 0.047284923 0.04160137
000130 68 92 52 3d 64 8b c9 3d cd 7a f9 3b 3a 8c 10 3d
       0.051409155 0.0984104 0.007613516 0.03528998
000140 b9 9e 8a 3d 92 1c d5 bc 5f 87 57 3d df f5 25 bd
       0.06768555 -0.0260146 0.052619334 -0.040517684
000150 2e 9b cc bc 34 26 eb bc 26 f8 5d 3d dc 85 0a bd
       -0.02497634 -0.02870474 0.05419173 -0.033819064
000160 64 de 68 3c 0a e2 49 3d 04 09 bb 3b 16 69 22 3d
       0.014213178 0.049287833 0.005707862 0.039651
000170 ce 30 76 3d f4 ef 97 bd 60 f4 84 3d 36 8a ab 3b
       0.060105138 -0.07418814 0.06491923 0.005234982
000180 93 c6 97 bd 89 e4 06 3d 7f 7e 37 3d fb 71 71 bc
       -0.07410922 0.03293279 0.04479837 -0.014736648
000190 08 87 03 bc 25 9a 31 3d 8e f0 bd 3c 39 31 4d 3d
       -0.008027799 0.043359894 0.023185994 0.05009577
0001a0 9e c8 26 bd 95 6c f9 3c 5c f3 24 3c a0 80 4e 3d
       -0.040718667 0.030447284 0.010067787 0.050415635
0001b0 9c e0 e2 3c 00 ef 8d 3d de 3f 5a 3d 26 f6 a7 3d
       0.027694993 0.06930351 0.053283565 0.08201246
0001c0 94 36 19 3d bc 26 0b be e2 78 b9 3c 13 b7 6f 3d
       0.037405565 -0.13588995 0.02264065 0.058524203
0001d0 04 f8 4f bd 62 f7 4b bd 31 c2 98 3d 22 3b 71 3d
       -0.050773636 -0.04979647 0.07458914 0.058894284
0001e0 2a ee 57 bd 01 3d 16 3d 86 c2 cb 3b 70 fe 54 bd
       -0.052717365 0.03667927 0.0062182574 -0.052000463
0001f0 ed 8b 60 3d b2 69 7f 3c 0d 8a 35 bd 72 57 45 bb
       0.054820944 0.015589165 -0.04432111 -0.0030111936

action_model._discrete_distribution.branches.0.weight f4 [3, 128]
000000 c9 1b 58 bd e4 0b 42 bd c0 d6 14 3d 11 40 c0 bc
       -0.052760873 -0.04737462 0.036337614 -0.02346805
000010 d7 0e 52 3d 1e 45 40 bd 18 20 f7 bd 40 0a 76 3c
       0.051283684 -0.046940915 -0.12066668 0.015017092
000020 9e b0 a4 bd 0d 19 04 bd dd 76 1c 3d 7a 0b 12 3e
       -0.080414996 -0.032250453 0.038199294 0.1426219
000030 11 99 f9 bd be 0c 25 3e 68 d4 03 3e bf 97 ae 3d
       -0.12187398 0.16118142 0.12873995 0.08525037
000040 7a 54 24 be f5 1c 53 be 2e d2 15 be 9f 65 8c bd
       -0.1604785 -0.20616515 -0.14630958 -0.0685532
000050 14 80 e2 3d 7d ae 67 be cd 79 19 3d 9e 55 17 bd
       0.11059585 -0.22625156 0.037469674 -0.036946885
000060 f3 d7 97 bd cf 64 5c bd 89 e5 77 bd c7 0f a0 bc
       -0.07414236 -0.053807076 -0.060521636 -0.019538773
000070 24 d2 47 bd 68 aa c6 39 31 1c 80 3d 0d 4d bc bc
       -0.04878439 0.00037892465 0.06255377 -0.02298596
000080 57 2d 80 3c 5d f7 cd 3c c0 ff 16 3e 14 6a 9e bd
       0.01564662 0.025142366 0.14745998 -0.077350765
000090 91 80 05 bd 27 ac ce 3d 10 d5 29 bd b3 22 5e 3d
       -0.032593314 0.10091429 -0.041462958 0.05423231
0000a0 94 a0 49 bc 0e 10 08 3e d7 3e 57 bd 08 7f 36 bd
       -0.012306351 0.13287374 -0.052550163 -0.04455474
0000b0 8b ea 09 3d e7 44 5a bd bc de 9f bc f1 dd 7c bc
       0.033670943 -0.053288367 -0.019515388 -0.015433774
0000c0 fd a3 58 bd ad 83 f9 3c c6 22 77 bd b3 4a 23 bd
       -0.052890766 0.030458296 -0.060335897 -0.03986616
0000d0 6c 79 7a 3d b5 94 0a 3e 2b 99 95 bd a9 4f 5e bd
       0.061150953 0.1353329 -0.07304605 -0.05427519
0000e0 19 6a 39 3c 97 39 01 bd 3e 1c 84 bc d4 66 87 3c
       0.0113168 -0.031549063 -0.016126748 0.016528524
0000f0 5d 72 1e 3e 41 38 24 3c e4 db d7 3d c4 55 0e be
       0.15473314 0.010023178 0.10539988 -0.13899904
000100 04 8b 0a be 50 58 0c 3e 0c 2c 99 bb 88 cf 4b bd
       -0.13529593 0.13705564 -0.0046744402 -0.049758464
000110 5f 27 03 3e 02 84 00 bc 45 cf 38 3a 7d 7c dc bc
       0.12807988 -0.007843973 0.00070499285 -0.02691483
000120 f9 2d d5 3d eb 37 11 3e ae 54 07 be 30 98 1b bd
       0.10409159 0.14181487 -0.13215896 -0.037986934
000130 91 ac e8 bd e9 98 8c 3c 03 b8 8e 3b 92 19 55 bd
       -0.113610394 0.017162757 0.004355432 -0.05202634
000140 a8 e0 1a be b7 dc 49 3d a4 14 67 bd 02 b6 20 3e
       -0.15124762 0.049282756 -0.05641617 0.1569443
000150 4f f7 2b 3e 49 f0 88 3d 25 19 47 bd 3e 8b 02 3e
       0.1679356 0.06686456 -0.048607964 0.12748429
000160 36 da 7c bd 07 1d 85 bb b4 5c 4b 3d 6a fb 80 bd
       -0.06173154 -0.004062298 0.049648955 -0.062979534
000170 d1 8b 69 bd cd 02 73 bd 98 74 bc bd 6b 3d 35 3e
       -0.057018105 -0.059328843 -0.09201926 0.1769921
000180 66 96 79 bb 17 49 c2 3b 49 0f 73 3c 15 24 11 be
       -0.003808403 0.005929123 0.014835187 -0.1417392
000190 55 81 b5 3d a8 5d ba bc 1c 32 a7 3c 00 a7 78 bd
       0.08862559 -0.022749737 0.020409636 -0.06070614
0001a0 0d 85 12 3e c3 99 4e bc cd 2b 00 3d 72 0f 8c bd
       0.14308567 -0.012609902 0.03129177 -0.068388835
0001b0 a6 10 ae 3c 21 b2 da bd 97 1b 14 3e 03 8f 5f b9
       0.021248173 -0.10678507 0.1446365 -0.00021320213
0001c0 97 14 a2 bd ff 72 65 bc 7a 18 29 bd 92 46 27 3d
       -0.079140835 -0.014004468 -0.04128311 0.040838785
0001d0 0b dd 2d 3e f0 9c bd 3d 70 ae 8f bc ff dc f7 bc
       0.16978852 0.09258449 -0.017539233 -0.030256746
0001e0 6c 19 84 bd d2 56 49 bd aa 55 9e 3d 67 31 2a 3d
       -0.06450161 -0.049155064 0.07731183 0.04155102
0001f0 d2 9d 35 3d 5f dc a9 3d e1 b3 07 3e 09 2a bd bd
       0.044339962 0.082939856 0.13252212 -0.09236533
000200 02 15 bb 3d d9 ed 16 3c b5 97 99 bd 97 72 a0 bc
       0.09134866 0.009211981 -0.07499639 -0.01958589
000210 d0 43 c6 bd bf 3f 73 3d 0f aa ef 3d e9 72 a3 3c
       -0.09680903 0.059386965 0.11702358 0.019952254
000220 99 4e 21 3e 5e 03 9c 3d db 69 cc bd 26 41 4f be
       0.15752639 0.0761783 -0.09981128 -0.20239696
000230 bb 7c 35 3e 1a 3c 45 be 82 f5 fb bd 27 e1 9b bd
       0.17723362 -0.19261208 -0.12302686 -0.07611304
000240 9b de 39 3e bc 54 82 3e 49 7c 1f 3e 4f 74 aa 3d
       0.18151323 0.25455272 0.15574755 0.08322965
000250 61 69 a7 bd f2 e5 5a 3e cf 43 a7 3d 93 95 72 3d
       -0.08174396 0.2137678 0.0816723 0.059224676
000260 6f ac 99 3c 39 68 b3 3d a8 bf a5 3d 1d e1 69 3d
       0.01875898 0.08760113 0.08093196 0.05709945
000270 d1 16 f9 3c f2 9b 04 3d 37 ca 34 bc d0 9f 85 3d
       0.030406388 0.032375284 -0.01103454 0.065246224
000280 ea 41 fd 3c 86 e0 3b bd 23 ee 35 be 9c 57 b8 3d
       0.03091522 -0.04586842 -0.17766623 0.09001085
000290 bb c8 1d 3d 62 04 07 be 03 ff 7c 3c 98 dd 29 ba
       0.03852151 -0.13185266 0.015441659 -0.00064798584
0002a0 f2 5d ae 3d c0 61 03 be 37 61 7c 3d d0 e8 95 3d
       0.085140124 -0.12830257 0.06161615 0.07319796
0002b0 dd ed 68 3d ed ec 8a bd f0 59 82 3d 12 6d 56 3d
       0.05686747 -0.06783471 0.063648105 0.05235011
0002c0 9c ab a7 3d ba 25 01 3c 36 b1 92 3d 08 46 ad 3d
       0.08187029 0.00788253 0.071627066 0.08460623
0002d0 cc 67 ce bd 26 3d 3a be 68 57 06 3e bd 1d ae 3d
       -0.100783914 -0.18187389 0.1311928 0.08501766
0002e0 14 d2 2b 3d 71 98 b2 bd 92 8c 11 3d 3f bc 87 bd
       0.041948393 -0.08720482 0.03553445 -0.06627702
0002f0 7a f3 19 be 4a e4 8e 3d aa c0 0e be 6a fc a4 3d
       -0.15034285 0.069771364 -0.13940683 0.08055957
000300 82 62 0a 3e a7 6c 10 be f3 a0 44 3d cc aa eb ba
       0.1351414 -0.14103948 0.048005056 -0.0017979979
000310 7b 62 4e be db 64 71 3d 7a 7d 17 3d 43 3c 10 bd
       -0.20154755 0.058934074 0.0369849 -0.03521372
000320 3f ef 23 be 33 4d 4a be ee d4 f9 3d 5e 07 62 3d
       -0.16009234 -0.19756012 0.12198816 0.055182807
000330 a4 2f d6 3d b7 c4 e7 3c e1 ea 13 bd 3c 68 98 3d
       0.104583055 0.028292043 -0.03611267 0.07441756
000340 8d 21 17 3e a4 b2 0f ba 19 f3 f2 3d c4 2e d4 bd
       0.14758892 -0.00054816366 0.118627734 -0.10360482
000350 da d3 1d be 1b 69 c1 bd 90 fb a9 3d a3 86 6e be
       -0.15412846 -0.094438754 0.08299935 -0.23293547
000360 ea cf 4b 3d 95 d8 10 3d a9 b0 85 bd 4e 9b 94 3d
       0.04975883 0.0353628 -0.06527836 0.072561845
000370 89 55 c2 3d f3 a6 0b 3c 57 e3 0c 3e 7c 36 63 be
       0.09488971 0.0085236905 0.13758598 -0.22188753
000380 75 85 07 be 91 d1 fb bc f3 73 d6 ba 42 89 10 3e
       -0.13234504 -0.030739577 -0.001636146 0.1411486
000390 29 b7 07 be 9f 6d e3 3c 07 1c a7 bc 81 0b e4 3d
       -0.13253464 0.027762232 -0.020399107 0.11135007
0003a0 be c4 06 be 47 af 27 3d 97 c5 8e 3b ad 5b 63 3d
       -0.13160989 0.040938642 0.0043570506 0.05550735
0003b0 dc 34 a5 3c 51 a7 07 3e 42 75 3e be b5 21 67 3d
       0.020166807 0.1324742 -0.18599418 0.05642863
0003c0 33 b3 aa 3d 0e bb 5c bd 66 b0 89 3d 88 7d c8 bc
       0.08334961 -0.053889327 0.067230985 -0.02447392
0003d0 07 ac 42 be d7 2b dc bd 9a 3e dd 3c e8 bd 73 3d
       -0.19010936 -0.10750549 0.02700739 0.05950728
0003e0 73 2f 38 3c ab 3a 9b 3d b8 66 41 bd 7c 36 5c bd
       0.0112417815 0.075795494 -0.0472171 -0.053762898
0003f0 c1 ef ed 3a ef 7f fa bd cf f1 3a be b9 f0 d6 3d
       0.0018153117 -0.12231433 -0.18256305 0.10495133

action_model._discrete_distribution.branches.0.bias f4 [3]
000000 27 b2 96 bc 55 d7 81 3d b8 0a d3 bd
       -0.018395497 0.063398995 -0.10304779

action_model._discrete_distribution.branches.1.weight f4 [3, 128]
000000 53 c6 d4 3c 3f d4 ec bd 9d f3 20 bd eb 65 d5 bd
       0.025973475 -0.1156392 -0.039294828 -0.1041983
000010 ca 4b e3 3c aa 6e f8 3c 6e a7 7d bc 1e 3e c6 3c
       0.0277461 0.030326206 -0.015481813 0.024199542
000020 1a fb 83 3b 83 71 e3 3c c3 e7 f5 3b 04 da 12 3c
       0.0040277364 0.027764088 0.007504435 0.008963112
000030 d4 97 94 3c 9f 58 c8 3d 57 16 31 3d 1f 11 01 3e
       0.018138804 0.09782528 0.043234196 0.12604187
000040 13 d3 fb bd ca e2 f3 bc 93 94 82 3c ef d6 38 3d
       -0.122961186 -0.029771227 0.015939986 0.04512685
000050 73 b2 6c 3d d5 d7 f3 bd 63 3b 6f bc aa 9a 14 3c
       0.05778737 -0.11906401 -0.014601561 0.009070078
000060 3e 5e 07 be b9 a5 87 3c 9f 5f a7 3c da 35 97 3a
       -0.13219544 0.016558515 0.020431338 0.0011536435
000070 c3 f7 2b be 39 12 52 3d 50 86 54 3d 97 e4 5b 3c
       -0.16793732 0.05128691 0.051885903 0.013421199
000080 c4 4b 86 bd ab 86 85 bd 6c bf 52 3d b7 01 53 bb
       -0.0655742 -0.065198265 0.051452085 -0.0032197067
000090 dc f3 4c 3d f7 61 35 3d bd 6d de 3d db 58 86 3c
       0.05003725 0.04428288 0.10860775 0.016399791
0000a0 75 02 d9 3c cb ba e3 bd d7 4f d5 3b 74 c9 0f 3d
       0.02649043 -0.11119612 0.006509762 0.03510423
0000b0 99 79 04 3d 28 84 2d bd eb e7 39 3d 0c 00 94 3c
       0.032342527 -0.042362362 0.04538719 0.018066429
0000c0 12 89 02 3d d1 fb 37 bb af ad a3 3b 8e 79 92 3c
       0.031869 -0.0028073678 0.00499507 0.017880227
0000d0 1b b7 23 3b 6a 73 bd 3c 62 e6 44 bc fa be 09 3d
       0.0024980966 0.023126323 -0.012017818 0.033629395
0000e0 99 c8 05 3d f6 ac 98 3c e3 51 29 3d 83 1f 3b 3d
       0.032662008 0.018637162 0.04133786 0.04568435
0000f0 19 61 7a 3d 39 1c 6d 3d 3a 03 89 3d 2e 5e 13 3d
       0.061127756 0.057888243 0.066900685 0.03597849
000100 7a 7a 23 3d 5c bc 87 3d fe ae f0 3c ed 94 a3 bd
       0.039911725 0.066277236 0.029380318 -0.0798739
000110 c4 cf d7 3d fa 06 86 ba f1 72 8d 3b c4 1a 21 b8
       0.10537675 -0.0010225468 0.0043166806 -3.841032e-05
000120 ad 14 36 3d 9a 9d 6a 3d 1b b8 f1 3c 25 6a 2f 3d
       0.04445331 0.057279207 0.029506734 0.042825837
000130 60 de 36 3c bf 76 ad 3c e7 2a 8b 3d b1 93 07 3c
       0.011161417 0.021174787 0.06795292 0.0082749585
000140 bc 67 ea 3c d2 3f ee bd 55 f6 15 3d bb 5b b8 bc
       0.028613918 -0.116332665 0.036611874 -0.022504678
000150 de 85 47 3d 52 b0 1d bd f4 81 8b 3c 26 01 34 3d
       0.04871165 -0.03849823 0.01702974 0.043946408
000160 58 59 5d 3d 8f 8c 5e 3c bf 04 71 3d ba d4 37 3d
       0.054040283 0.0135833165 0.058842417 0.044880606
000170 2d df 33 3d b2 4a 8f bd 5d b5 ab 3c 06 a6 f7 3d
       0.04391401 -0.06996669 0.020960504 0.12092213
000180 12 0c 36 3c f3 07 84 bd b4 4b 87 3d f1 b1 b3 bd
       0.011111276 -0.06446829 0.06606236 -0.08774174
000190 9b 8e 58 3d 40 45 c5 3c bb 4d 0d 3e 45 1f d6 3c
       0.052870374 0.024080873 0.13799183 0.026137957
0001a0 0d 88 bb 3c 24 d2 25 3c 59 2c a1 3c 80 c5 bc 3c
       0.022892023 0.010120902 0.019674467 0.023043394
0001b0 b2 7d 03 3c 01 51 e6 3c 53 4f c5 3d 78 d2 ac 3c
       0.008025574 0.028114798 0.096342705 0.021096453
0001c0 29 9b b6 3c 66 b3 58 bd 80 50 90 bd 55 a9 93 3c
       0.022290783 -0.052905463 -0.07046604 0.01802508
0001d0 96 1e a6 3c 73 58 49 3d 28 b5 f6 3c 65 14 1a 3c
       0.020278256 0.049156617 0.030115679 0.0094042765
0001e0 12 6f ac bd 4d 37 35 bc ef 67 db 3d 1f 4d 3b 3e
       -0.084196225 -0.011060548 0.10713183 0.18291138
0001f0 2e ff 14 3c 33 91 ab 3d 6e 77 16 bc 56 5d 09 bd
       0.009094043 0.08377304 -0.009183748 -0.033536278
000200 04 14 9a bc 31 c0 69 3d 98 39 1d 3c 6b c0 b3 3d
       -0.018808372 0.057068054 0.009596251 0.08776935
000210 fa 21 f2 3d e4 6a 9a bd 20 b5 1c 3c a3 40 7c bc
       0.11822887 -0.07539919 0.009564668 -0.01539627
000220 79 91 cb 3c c6 a2 de bd ca 68 08 3e e9 d4 8d 3d
       0.02484964 -0.1087089 0.13321224 0.06925375
000230 7d 83 ec 3c 22 9b ce bc e5 18 68 3b 88 86 a9 3c
       0.028871292 -0.025220457 0.003541523 0.020694032
000240 9a 60 18 3e 57 c9 99 3d 55 6e 93 bc 45 40 8d ba
       0.148806 0.07509106 -0.017996946 -0.00107766
000250 bb 92 56 bd b1 5b 02 3e dd 07 1c 3e 6b b9 f3 bd
       -0.052386027 0.1273029 0.15237375 -0.119006
000260 5c 79 8a 3d ae 9c 65 bd 40 c7 b0 bd be cc a9 bd
       0.06761429 -0.056057625 -0.08631754 -0.082910046
000270 1b 8e b1 3d f7 1c da 3d 63 aa 0c 3d 63 d0 98 bd
       0.086696826 0.10650056 0.03434218 -0.074616216
000280 fb e2 76 be a6 fc c4 3d 29 f8 4a bd d3 c2 76 bd
       -0.24110024 0.09618501 -0.04955307 -0.060244393
000290 ea 77 cc bb 20 d9 75 be ac 2f 3c 3e 96 da 37 3d
       -0.006239881 -0.24008608 0.1837756 0.044886194
0002a0 03 c3 81 bc ae cc 07 3d a3 6e 14 be 28 24 30 3c
       -0.01584006 0.033154182 -0.1449533 0.010750808
0002b0 30 c7 e3 bb 6d 0b 12 3e ad 2b 7d bc 66 19 06 be
       -0.0069512352 0.14262171 -0.015452308 -0.13095626
0002c0 29 ef 03 bd 43 cd 0b be 82 b2 b1 bd 14 64 41 bd
       -0.032210503 -0.1365252 -0.08676626 -0.047214583
0002d0 4e 22 fa bd 82 67 bd 3d 03 9c 37 3b 83 dd eb 3c
       -0.12213574 0.09248258 0.0028016574 0.028792148
0002e0 23 78 88 bb 17 7d 48 3e d5 54 a1 bd 8c 9d c3 3d
       -0.004164712 0.19578968 -0.078775086 0.09551534
0002f0 b0 b8 cb bc f4 39 99 3c 25 b2 fb 3c 0f 19 a4 3d
       -0.02486834 0.018704392 0.030724594 0.08012592
000300 68 43 84 bd 90 35 9d bc ad d8 33 3c dc 39 a5 3d
       -0.06458169 -0.01919058 0.0109769525 0.080676764
000310 bf cd e3 3d d1 10 42 bd 55 cf b8 bd a4 14 7d 3c
       0.11123227 -0.04737932 -0.090239204 0.015446816
000320 05 5e aa bd 05 f9 e3 bd 62 42 0e 3a be 9d 67 bd
       -0.08318714 -0.11131481 0.0005426762 -0.05654692
000330 f0 22 12 bd 8d b8 a4 bd 78 62 17 bd ea e2 19 bd
       -0.03567785 -0.08043013 -0.03695914 -0.037569918
000340 3b 9d 80 bd 01 bc c7 3c 6e d7 e4 3c 28 d7 65 3d
       -0.06279989 0.02438164 0.027934756 0.056113392
000350 0d 68 e6 3b 2f 51 8f bd a1 b6 0f bc 1a dd 98 bd
       0.007031447 -0.069979064 -0.0087715695 -0.07464047
000360 c8 d0 1e 3e a5 12 bc bd cc 3f 67 bd 7b b9 1c bd
       0.15509331 -0.09183244 -0.056457326 -0.038262825
000370 2c ea 45 bd 40 b1 f5 3d e0 06 0a 3d 4e b4 9a bd
       -0.048319027 0.119966984 0.033697963 -0.07553922
000380 63 d4 8b 3d d1 91 11 be 74 ee 07 bd 26 0d ca 3d
       0.06827619 -0.14215781 -0.03318639 0.09865789
000390 5c 7c c1 3b ba 5f a8 bd 20 4c 95 3d 76 88 61 3d
       0.0059047174 -0.082213834 0.0728991 0.05506178
0003a0 72 b0 c1 bc 3e 3e b4 bd 3a 4c e1 3d 59 3c 5d be
       -0.023643706 -0.08800934 0.11000867 -0.21605052
0003b0 4a 22 39 bd 1d 2f 8a bd 39 ea 35 be 09 db d5 bd
       -0.045198716 -0.067472674 -0.1776513 -0.10442168
0003c0 8e 50 24 3c 79 9c 4d 3e cc 52 0c be 62 a2 2c be
       0.010028971 0.20079221 -0.1370346 -0.16858819
0003d0 03 0b 7f bd bf 98 22 3d 05 c6 25 be c9 ed b1 bd
       -0.06226636 0.03969645 -0.1618882 -0.08687932
0003e0 4a 50 0a 3e d8 eb 4d bd ad 4a 90 3d f5 23 a3 3d
       0.1350719 -0.050273746 0.07045493 0.07965843
0003f0 0e 7f 36 be f2 43 1a be b7 13 3f 3c b8 1f 04 3e
       -0.17821905 -0.15064982 0.011662415 0.12902725

action_model._discrete_distribution.branches.1.bias f4 [3]
000000 bd 0c 17 3d 0b af bd bd 86 14 25 3c
       0.036877383 -0.092619024 0.010075694
