results/ppo/Racing/Racing-975.onnx (onnx, 88644 bytes, 9 tensors)

discrete_act_size_vector f4 [1, 2]
000000 00 00 40 40 00 00 40 40
       3.0 3.0

network_body._body_endoder.seq_layers.0.weight f4 [128, 29]
000000 9c 85 02 be e8 df d8 3d df fe 5f 3e 0d 9b 43 bc
       -0.1274628 0.10589582 0.2187457 -0.011938822
000010 38 51 72 3e a4 d6 34 3e bb 75 85 3d 68 c5 dd bd
       0.23663795 0.17660004 0.06516596 -0.10828668
000020 c6 c3 a9 3e b7 48 f3 3d c6 e2 0a be 00 d6 60 be
       0.33157176 0.11879104 -0.1356307 -0.21956635
000030 54 7e 88 3d 30 95 a2 3d ef 7b a4 bb b7 ab 38 be
       0.0666472 0.079386115 -0.005019657 -0.18034254
000040 b6 c5 12 3e aa 41 94 3d ab 8a e2 3e 6f 93 37 3e
       0.14333233 0.07239087 0.4424642 0.17927335
000050 65 f0 92 3d ad fe 0c 3e d1 cd 57 bd 24 e9 7e 3d
       0.07174758 0.13769026 -0.052686516 0.06223406
000060 bf e0 4b bd 63 be 8c be 89 9e 8f bd 2e 47 33 be
       -0.04977488 -0.27489004 -0.0701266 -0.17507622
000070 c2 58 b6 3e 56 67 04 3e b9 b0 ae bd 93 83 0b 3e
       0.35614592 0.12930045 -0.08529801 0.1362441
000080 a8 1f c2 be ed 7f e3 bd e7 6b 0e 3e 2a 9a 96 3e
       -0.37914777 -0.11108384 0.13908349 0.29414493
000090 5c 78 94 3e ff 59 7c bd 7f 4d 05 3e a1 68 8d bd
       0.28998077 -0.061609264 0.13017844 -0.06904722
0000a0 c4 7e 02 3e 97 77 fc 3d 3f 0b 97 3e 92 1d fc 3e
       0.1274367 0.123274975 0.29500768 0.4924131
0000b0 b1 8b bd bd a7 e0 50 3e ee 6a a9 be da 60 52 3d
       -0.0925516 0.20398198 -0.33089393 0.051361896
0000c0 83 3e 0a bd f0 0d b6 be 05 8a e1 3d a2 43 3b 3e
       -0.033751022 -0.35557508 0.11012653 0.18287519
0000d0 d5 3c 8f be c0 79 5b 3e 8e ae 79 bd fe fc a0 3e
       -0.279761 0.21433163 -0.060957484 0.31443018
0000e0 68 40 93 bd ae ae 85 be 6e 26 21 be 92 5d 07 3e
       -0.07190019 -0.26109833 -0.15737316 0.13219288
0000f0 7f 52 0f 3e 0e ed e4 3d e2 1e 91 be 19 f9 83 be
       0.13996314 0.11178027 -0.28343874 -0.25775984
000100 0e 09 ad 3e 6d 8d c4 3c d8 95 07 bd 08 0d be 3e
       0.3379597 0.023993218 -0.033101887 0.37119317
000110 36 4e b8 be 2c 94 2b 3d c1 d4 b7 3c 66 19 52 3d
       -0.3599717 0.041889355 0.022440316 0.051293753
000120 9d 0e be be 80 38 1b 3e c5 22 45 3e 8c e2 4e be
       -0.37120524 0.15158272 0.19251545 -0.20203608
000130 00 f0 b2 3e a1 5e 99 be 13 14 80 bd e6 9d 8a bd
       0.3494873 -0.2995501 -0.06253829 -0.06768398
000140 e1 74 ee bd 6e 0e 44 be 56 0c dd bc 13 07 2a 3d
       -0.11643387 -0.1914613 -0.026983421 0.041510653
000150 b5 42 54 be 45 43 3e 3e c1 ad 0c be 94 5a 49 be
       -0.20728572 0.18580349 -0.13738157 -0.19663459
000160 8b bf e2 bd 53 b0 c8 bc 95 dc cc 3e 19 c9 40 bc
       -0.1107169 -0.02449814 0.4001204 -0.011766695
000170 0d 01 2e bd 13 99 2b be b9 71 64 3d f2 01 d1 3d
       -0.04248147 -0.16757612 0.055772517 0.10205449
000180 ef d7 79 be c6 83 f7 bd 8c 04 95 3e b0 db a2 3d
       -0.24398778 -0.12085681 0.29105031 0.07952058
000190 55 94 4d 3e b7 54 06 3e c2 a2 4a be fa c5 0c 3d
       0.20076115 0.13118254 -0.1978865 0.034368493
0001a0 98 1a e6 3b 58 8a a3 bc 8b dd c4 3e c3 46 af 3e
       0.007022213 -0.019963428 0.38450274 0.34233674
0001b0 ac 1a 0e 3e e8 05 97 3d 27 76 cb bd 05 4d 98 be
       0.13877362 0.073741734 -0.09934645 -0.2974626
0001c0 96 5c 85 bd 80 95 74 bd 79 d4 15 3e d4 66 23 3e
       -0.065118 -0.059712887 0.14631833 0.15957195
0001d0 af 76 cc 3b c6 b6 15 3e 0f fa 9a bd 1c f8 11 bd
       0.006239734 0.14620504 -0.07567226 -0.035637006
0001e0 99 d5 4c 3e 58 19 54 bd 67 01 ee 3d 37 92 30 3e
       0.20003356 -0.051781982 0.11621361 0.17243277
0001f0 91 1a 89 3d 49 50 7b 3d 39 34 9e 3d 37 46 85 3e
       0.0669452 0.061355863 0.077248044 0.26030132
000200 95 ab 12 3d bb 2e df 3c 43 ed 70 3e 12 f8 93 3d
       0.035808165 0.027243963 0.23528008 0.0722505
000210 06 b4 5b 3e cb be 86 be 58 a5 a0 3d ea ff 22 3d
       0.21455392 -0.26317438 0.07844037 0.03979484
000220 e0 80 4c 3c 48 7e dd 3e a3 88 70 3d 98 03 89 bc
       0.012481898 0.43260407 0.058724057 -0.016725346
000230 85 c2 0b 3f db 24 9f 3e 1b 94 d3 3e 18 d5 0a 3e
       0.5459369 0.31082806 0.41323933 0.13557851
000240 61 6c 4d 3c d9 ff b0 3d b3 2f 5f bd 6e d3 02 3e
       0.012538047 0.08642549 -0.05448885 0.12775967
000250 de 1c 29 be bc 4a f6 be 03 27 c6 3e 10 94 81 3d
       -0.16514918 -0.48103893 0.3870164 0.06327069
000260 54 fe 78 be 62 3b 50 3e 75 5e 9f be 9d d4 ba 3c
       -0.24315768 0.20335153 -0.31126752 0.02280646
000270 b4 6b 9d bd c8 80 d7 be 5e 37 62 3e 3b 22 9e 3e
       -0.07686558 -0.4209044 0.22091433 0.3088549
000280 92 7a b4 be b9 c9 38 be 4b 1f 30 be e4 12 ab 3c
       -0.35249764 -0.18045701 -0.17199437 0.020883031
000290 d3 b1 99 3e 92 06 a5 bd 2e fc 68 3e ca 11 19 3e
       0.30018482 -0.08057894 0.22752449 0.14948192
0002a0 31 5c a7 3d 15 8d e0 3d a2 27 25 be cf b4 55 3e
       0.08171881 0.10964409 -0.161284 0.20869754
0002b0 f1 35 d8 bd b3 bb 3c be 20 0d 8e be 32 ba a6 bc
       -0.105571635 -0.18430977 -0.2774439 -0.020352457
0002c0 fa 4c 08 3e e9 39 11 3e 27 17 02 3e 47 ea fa bd
       0.13310614 0.14182247 0.12704144 -0.12251716
0002d0 b5 7f 51 3e 3d d7 b0 bd 1e 58 5e 3c 72 6f 97 3c
       0.20458873 -0.086348034 0.013570813 0.018485758
0002e0 3f 98 74 3e f4 5d 24 bd 5e 6b 49 be f6 04 95 3e
       0.23886202 -0.040128663 -0.19669864 0.29105347
0002f0 c1 b0 2b bd 2c 4a 5d be 74 16 1c be d1 59 c2 bd
       -0.041916613 -0.21610326 -0.1524294 -0.09489787
000300 9d 3c 95 3c 5a 38 84 3e db 47 7b be c7 0d 9d be
       0.01821738 0.25824243 -0.2453913 -0.30674574
000310 1a e7 96 3e bd 27 52 3d 45 78 aa 3e 75 5c c0 3d
       0.29473191 0.05130743 0.33294883 0.09392635
000320 c4 27 c0 bd 74 59 a4 be c7 31 bd 3d 2c 89 bc be
       -0.09382585 -0.32099497 0.0923801 -0.36823404
000330 0f 8c c4 be df 5f 9d 3d 2c 10 89 3e c2 16 b9 3d
       -0.38388106 0.076843016 0.2677015 0.09037544
000340 5b 19 e2 3c 36 44 14 be 88 90 87 3e 00 d0 7a 3d
       0.027599981 -0.14479145 0.26477456 0.06123352
000350 df 2a 40 3c ad a0 a0 3e b3 0e cc bd f4 b7 ba 3b
       0.011728971 0.31372586 -0.09963741 0.0056981985
000360 e7 91 e1 3d 45 90 92 3e f4 2d 99 3d 71 5f 1d 3f
       0.11014157 0.28625694 0.07479468 0.6147376
000370 c9 bf 8b 3c f8 39 c0 bd c2 77 5a be 9b 72 a7 3e
       0.017059224 -0.09386057 -0.21334746 0.32704625
000380 aa 2c 65 be ec 9f d8 3e 5e 7f e5 bd 13 ee 19 3e
       -0.22380319 0.4230951 -0.11205934 0.15032224
000390 fe 31 8b be d6 e6 ae bd c4 d2 96 3e 9a da aa bc
       -0.2718658 -0.08540122 0.29457676 -0.02085619
0003a0 a6 82 1d 3e 79 6c ac be 80 79 e3 3c 7b a2 bb bd
       0.1538187 -0.33676508 0.027767897 -0.0916185
0003b0 58 e9 02 be 2e f8 88 3d 3c df d4 bd 7d 29 13 3e
       -0.12784326 0.066879615 -0.10394141 0.14371295
0003c0 d6 b0 8a 3e 50 5d af bd 38 2f 5c 3e 84 d0 3d 3d
       0.2708804 -0.0856272 0.21502388 0.046341434
0003d0 45 aa 23 be bc 91 ad 3e b0 7e 41 3e 1b 6f 12 3e
       -0.15982921 0.3390025 0.18895984 0.14300196
0003e0 85 78 a5 bd 17 ff cf be 72 ab 9d 3e 5f e1 56 be
       -0.08079628 -0.40624306 0.30794865 -0.2098441
0003f0 85 f2 13 be 84 ee 2e 3d 3e ba 87 bd 7e 67 ae 3e
       -0.14447983 0.042707935 -0.0662732 0.34063333

network_body._body_endoder.seq_layers.0.bias f4 [128]
000000 ac ef 17 3d 1c 13 4b 3d 9d 5f c1 3c ba 56 5f 3c
       0.037093803 0.04957877 0.023605162 0.013631517
000010 9c 33 4e 3c 8f 0c 09 3c 39 68 1d 3c 9a 33 17 3d
       0.012585547 0.008364811 0.009607368 0.036914445
000020 90 da 35 3d dd 25 16 3d 21 6d 20 3d 75 51 19 3d
       0.04439789 0.036657203 0.039166573 0.0374312
000030 11 08 34 3d 0b 17 d6 3c 8f ce bb 3c 3c b2 02 3d
       0.043953005 0.026134035 0.022925643 0.03190826
000040 f7 8c 3a 3c 19 23 34 3d 69 ce 4b bc cd 0e 14 3d
       0.011386148 0.043978784 -0.012439349 0.036146928
000050 af e5 15 3d b4 21 01 3c f0 06 bf 3c 60 74 07 3d
       0.036595996 0.007881571 0.023318738 0.03306997
000060 16 db 1b 3d 9e 4f 07 3d cc 15 2e bd 36 36 76 3d
       0.038050734 0.033034913 -0.042501256 0.060110293
000070 e5 c9 3b 3d 4c 81 dc 3c ea 09 3a 3d 1b bd 95 bc
       0.04584684 0.026917122 0.04541961 -0.01827865
000080 ae 4c e8 3c e4 40 38 3d 78 6f 8a bc bc d8 b0 3b
       0.028356876 0.04498376 -0.016898856 0.0053969305
000090 4e f9 1d 3d f2 66 26 3c 3a ca 3f 3c dc 62 47 3d
       0.038567834 0.01015638 0.011705929 0.048678264
0000a0 3b 2d ff 3b 0f eb 10 3d e2 3f 09 3d 5c 00 1f 3d
       0.0077873743 0.03538042 0.03350819 0.038818702
0000b0 1d b6 1c 3d 16 d7 54 3d cd 51 09 3d 60 97 fb 3c
       0.038259614 0.051962934 0.033525277 0.03071183
0000c0 77 0f 11 bc 4f 58 02 3d c7 1c 9c 3c a7 a4 92 3c
       -0.008853785 0.0318225 0.01905669 0.017900778
0000d0 0b 68 a8 3b be 00 0b 3d 72 71 48 bd fb cf 4f 3d
       0.005139356 0.033936255 -0.048936315 0.050735455
0000e0 cd 0b a1 bd 88 3f fd 3c 60 fd c2 3b 46 f1 03 3d
       -0.07863579 0.030914083 0.005950615 0.03221252
0000f0 d2 77 bd bc b5 9c a0 3b d7 7c d0 3c a4 dc 06 3d
       -0.023128424 0.0049014934 0.025450153 0.032925263
000100 73 7e 42 3d 11 f0 e4 3a ee fa 5a 3d cf 3d 09 3d
       0.047483873 0.0017466565 0.05346196 0.03350621
000110 39 cc d6 3c 9d 24 8c 3c 0a fa b8 3c 43 3b 38 3c
       0.026220428 0.017107302 0.022580165 0.011244598
000120 24 3e 60 3d 39 04 6a 3d 6b be 07 3d 14 1c 47 3c
       0.054746762 0.057132933 0.03314058 0.01215269
000130 17 d3 dc 3c e2 f7 94 bd a4 08 1c bc 2e c8 88 3c
       0.026956124 -0.072738424 -0.009523544 0.016697016
000140 98 1a 47 bb a5 e8 13 3d 1f 84 4e 3d ef 79 00 3d
       -0.0030380841 0.03611054 0.05041897 0.031366285
000150 57 80 a6 3c 77 dc 07 3d f2 3a e9 3c 1f 86 36 3d
       0.02032487 0.033169236 0.02847049 0.0445615
000160 00 e1 a4 3c db f5 7e 3c 8f 7a 33 3d 2d 74 0e bc
       0.02012682 0.015561546 0.043818053 -0.008694691
000170 af e3 1b 3c 9f 98 4a 3d 75 86 96 3c 8e 63 04 bc
       0.009514733 0.049461957 0.018374661 -0.008080376
000180 2e 46 2b 3b 10 19 cf 3c 85 06 d4 3c f3 d9 cd 3a
       0.002613436 0.025280505 0.025882015 0.0015705213
000190 63 a7 dd bb 30 2d ae 3d f6 61 3a 3d 39 e7 28 3c
       -0.006764339 0.085047126 0.04550358 0.010309034
0001a0 79 85 5d bd 41 1a ff 3b 79 2d da 3c ef 06 9c bd
       -0.054082368 0.007785112 0.026633011 -0.0761851
0001b0 9f bc 31 3b 3f 85 20 3d 08 f7 e2 38 00 1b 97 bc
       0.0027120484 0.039189573 0.00010822533 -0.018445492
0001c0 1a f8 75 3c 5e 45 36 3c 8c ae cd 3c 4d 89 1f 3d
       0.015012765 0.011124937 0.025107644 0.0389493
0001d0 41 7b 14 3d 19 37 9e bc ca 3a 96 3c c2 f2 15 3d
       0.036250357 -0.019313382 0.01833858 0.036608465
0001e0 a9 00 d7 3c 68 0f 13 3d bb f7 95 bc 38 74 88 3c
       0.026245432 0.035903364 -0.018306604 0.01665698
0001f0 3e 4a 12 3d fb c0 ba 3c c7 a2 33 3d ab 3f 65 3c
       0.035715334 0.022797098 0.04385641 0.01399223

network_body._body_endoder.seq_layers.2.weight f4 [128, 128]
000000 a9 87 1a bc 42 ec ac 3d 9e 2d 1a 3d 19 fe 8a 3d
       -0.009431758 0.084435 0.03764116 0.067867465
000010 21 e7 b4 bc 36 28 bb 3d 80 23 d7 bc 45 4c 98 bd
       -0.022082867 0.09138529 -0.026262045 -0.07436422
000020 f4 38 8d 3d d3 25 19 3d 9c 3b 09 bd ca 23 fc bd
       0.068956286 0.037389588 -0.033504114 -0.12311514
000030 a5 f1 fa 3d 1b 5e 76 bd b5 b8 e1 bd 2f c4 68 3a
       0.12253121 -0.06014834 -0.11021558 0.0008879331
000040 78 89 c1 bd 03 dc 0b 3e c7 80 97 bc 3f 37 23 3e
       -0.09450048 0.13658147 -0.018494023 0.15939043
000050 e3 1a 5f bd bf 5e 2e bc f4 89 0c 3c 8e b4 97 bc
       -0.054469 -0.010642706 0.008577812 -0.018518712
000060 17 cd a8 3d 58 d3 29 3e 91 2e d6 3c b8 d8 40 3c
       0.08242243 0.16584527 0.026145251 0.01177042
000070 02 80 83 3d 66 33 44 be fa e5 bb 3d 8b be 0e be
       0.064209 -0.19160232 0.09174724 -0.13939874
000080 86 f7 b2 bb a5 47 2c 3b 7f 28 f9 bd 73 42 c1 3b
       -0.005461636 0.002628782 -0.12165927 0.005897814
000090 6a 35 d8 3c 59 8d b6 bc bb a6 6a bd 80 e3 8b 3d
       0.026392657 -0.022284197 -0.057287913 0.068305016
0000a0 f6 da 24 3d 03 d0 1b bd 5c bb 49 be 2c 61 b8 bd
       0.04024788 -0.038040172 -0.19700378 -0.09002909
0000b0 61 d4 82 3d fb 73 44 3e 0d 31 d3 3d 66 04 1f 3e
       0.06388164 0.19184868 0.1031209 0.15529022
0000c0 e3 cf b6 bd 3e 09 50 be 8f e5 02 bd b2 96 21 3d
       -0.0892637 -0.20316026 -0.031957205 0.039450355
0000d0 e9 67 88 3c 3a da 53 be e1 12 0c bc 89 13 d1 bc
       0.01665111 -0.20688716 -0.008549423 -0.02552201
0000e0 9a d9 d0 3c 88 9f f2 bc 2b ef b3 3d 12 10 17 be
       0.025494386 -0.029617086 0.08785852 -0.14752224
0000f0 a4 c4 c0 bb 6c ef f4 bd c3 72 bc bb 11 48 ac 3d
       -0.0058828164 -0.119597286 -0.0057509854 0.08412183
000100 d7 4f be 3d 55 28 cc bd 73 16 08 3d 0a 57 d7 bd
       0.09292572 -0.0996863 0.033224534 -0.10514648
000110 f4 4d 8f bc fe b6 fc 3a d3 e7 b1 bd af 77 66 bd
       -0.017493226 0.001928061 -0.08686795 -0.056266483
000120 ec b2 5b bd 5a 35 02 3e 70 8a 8b 3c 88 df 9e 3d
       -0.05363743 0.12715665 0.017033786 0.07757479
000130 5d c2 77 3e c5 ba 01 be dc 40 8e bd 59 63 52 bd
       0.24195237 -0.12668903 -0.06945965 -0.051364277
000140 f9 83 a1 3b 17 6a af bc 0a a8 9c bc 22 ca 10 3c
       0.0049290624 -0.021412892 -0.019123096 0.008837255
000150 aa 37 15 be 83 56 13 be c9 ce 48 3e 81 91 a8 bd
       -0.14572015 -0.1438847 0.19610132 -0.08230878
000160 6d 0f 46 bb c6 f8 89 bc 83 40 4a 3e 2a 18 49 3a
       -0.0030221597 -0.016842257 0.19751172 0.0007671142
000170 dd b0 95 be 50 56 8d bc fd e4 58 3c 92 04 6c bd
       -0.29236498 -0.017253071 0.013238189 -0.057621546
000180 4b 9a 11 bd cd 3c 04 3c a4 e5 88 bd d2 7c 2c be
       -0.035547536 0.008071137 -0.066844255 -0.1684449
000190 98 df f0 3d 81 45 c4 3b b5 cc 5d 3e d7 de 8c bd
       0.11761397 0.005989731 0.21660121 -0.06878441
0001a0 4e 5e ba bc 2f a0 20 bb 5b e7 89 bb 23 f0 7b 3c
       -0.022750046 -0.002450954 -0.004208488 0.015377077
0001b0 ed cb 47 3d b2 5d 5e 3d 54 a9 a2 bd 93 a0 37 be
       0.048778463 0.054288574 -0.07942453 -0.17932348
0001c0 9b a1 ed bd af 80 2d be cf 25 9e 3d 98 5f 24 3b
       -0.116030894 -0.1694362 0.07722055 0.0025081392
0001d0 36 bf 02 be b4 c7 e0 3c 6d e8 3c 3c 17 0b b9 bc
       -0.12768254 0.027438976 0.011530024 -0.022588296
0001e0 d6 7e 30 bc 47 f0 69 bd ca cc 1f be 04 74 04 be
       -0.010772428 -0.057113912 -0.15605465 -0.12934881
0001f0 04 9c d2 3a 9c ca 88 bd 71 0f a3 bd 11 1f 16 3e
       0.0016068225 -0.0667927 -0.079619296 0.14660288
000200 31 36 0d 3e 8f 98 f9 3c 62 7d 85 3b f5 41 20 be
       0.13790204 0.030468253 0.0040737847 -0.1565016
000210 10 37 f0 bd 54 61 49 be e9 c9 28 bd 2e 29 af 3e
       -0.11729252 -0.19666034 -0.04120818 0.34211105
000220 d4 0d b2 3c a5 37 d7 3b 4a 26 1e 3d f0 78 1a bd
       0.02173511 0.0065679126 0.038610734 -0.03771299
000230 90 c9 9d bd bd 01 1a 3e 70 b4 86 3b 6a 8d 43 3e
       -0.077044606 0.15039726 0.0041108653 0.19096914
000240 08 bd 40 3d d6 6d 02 be db 5b 06 be fa d1 b1 3d
       0.047055274 -0.12737212 -0.13120978 0.08682628
000250 15 56 41 3c 48 e1 98 3d bd 2d 8a 3d bd 75 6a 3d
       0.011800309 0.07464844 0.06747005 0.05724119
000260 ec 65 31 bd c1 e0 a5 bd 63 f9 88 bc 2e 5c fa 3d
       -0.04331009 -0.08099509 -0.01672048 0.12224613
000270 d5 09 13 be ea 71 cd 3d cf 88 3e bc d8 af 15 3e
       -0.1435922 0.10031493 -0.011629297 0.1461786
000280 0a b0 cd bd b8 ad 57 bd 18 38 a6 3b cd c7 ca bc
       -0.100433424 -0.052655905 0.005072605 -0.024753476
000290 a3 f9 8c 3c fa a8 3b 3e 43 c8 44 3e 0c 49 27 3d
       0.01720888 0.18326178 0.19217019 0.040841147
0002a0 2b fb 84 3e a6 dc 76 bd 86 cf f9 3d 53 62 17 bd
       0.25972876 -0.06026902 0.12197785 -0.036959004
0002b0 fa e0 d9 bd 2f 80 58 3c b8 fb dc bd d1 23 11 be
       -0.10638614 0.013214155 -0.10790199 -0.14173819
0002c0 04 5e b6 3d c6 67 bc bc 80 13 fc 3d 45 64 13 3e
       0.08904651 -0.022998702 0.12308407 0.14393719
0002d0 3b b1 96 3d 38 00 d7 3d b6 6c f9 bc de e7 89 3d
       0.07358023 0.104980886 -0.030447345 0.06733678
0002e0 37 a0 7b bd 89 63 23 be 3c e2 a2 3c fb 61 36 bd
       -0.06143209 -0.15955938 0.019883268 -0.044527035
0002f0 f0 db 10 bd 78 6c a2 3d 7d 5f d6 3d f6 54 48 bc
       -0.035366 0.07930845 0.10467432 -0.0122272875
000300 b8 6e 2e bd 18 a4 47 3e 0a c6 cf 3d 09 97 c5 bd
       -0.04258606 0.1949619 0.10145195 -0.09647948
000310 e1 4a 07 bc 1b a7 23 3e 2c c5 36 be 72 b1 7d 3d
       -0.008257599 0.15981714 -0.17848653 0.061936803
000320 b3 3b 44 3e 64 4d 94 bd 15 7e 0a 3e 41 1f 28 bd
       0.19163398 -0.072413236 0.13524659 -0.04104543
000330 d8 58 f0 bc 50 68 06 3d 4a 5f 60 3d ba be b6 bd
       -0.029339239 0.032814324 0.054778375 -0.08923097
000340 14 d5 bb bb 97 f5 e9 3d 08 47 1f 3e df d8 f4 3d
       -0.005732188 0.11423796 0.1555444 0.119554274
000350 ec c4 47 bd 7b 4a c4 bc e0 16 55 be f0 db 12 be
       -0.048771784 -0.023961296 -0.20809507 -0.14341712
000360 66 92 34 3d 12 18 55 3e 2e e4 09 be eb 18 1d be
       0.04408493 0.20809963 -0.1346595 -0.15341537
000370 b5 2d 8f bd 1c 17 58 3d a1 e6 96 3d 0f 6a 08 3d
       -0.0699114 0.052756414 0.07368208 0.03330427
000380 a5 b5 01 bd 70 15 ef bd 33 8f 46 bd 6f 0e 0e be
       -0.03166737 -0.11674011 -0.04847641 -0.13872693
000390 8d 88 ba bd 1f c0 bf 3c d5 b0 12 3e aa ee c3 bd
       -0.09108076 0.02340704 0.14325269 -0.09567006
0003a0 9b 72 b1 bd 1e 12 1d bd 59 56 9c 3d 7c 89 48 3e
       -0.086644374 -0.038347356 0.07633657 0.19583696
0003b0 34 5e 98 bd fd c7 85 3d b9 55 18 be 56 04 53 be
       -0.07439843 0.06532285 -0.1487645 -0.20607123
0003c0 cf c8 a4 bc dc 51 7e bd 65 67 a4 bc 8b 58 48 3b
       -0.020115284 -0.062089786 -0.020068834 0.0030570354
0003d0 39 62 11 3d 7c 8c be bd 16 02 0f 3e 2d 05 4d 3e
       0.035494063 -0.09304139 0.1396564 0.20021506
0003e0 2e a3 44 3e e3 c7 21 3c ac 51 9c bc 87 d2 51 3c
       0.19202873 0.009874317 -0.019081913 0.012806541
0003f0 cd 28 95 3d e2 29 2b bb 33 b8 f0 bc 58 ee 0d be
       0.07283173 -0.0026117493 -0.029384708 -0.13860452

network_body._body_endoder.seq_layers.2.bias f4 [128]
000000 45 cd dc 3c 7d 37 c8 3c 68 9d b5 3c 1b b8 fb 3c
       0.026953349 0.024440521 0.022169784 0.030727437
000010 68 7b 0c 3d b8 61 37 3d 2f ba e5 3c 6f df 06 bc
       0.034297377 0.044770926 0.02804288 -0.008231982
000020 f6 39 1b bd fc 35 12 bd 41 8b 13 3d aa 3e e2 bc
       -0.037897073 -0.035696015 0.036021475 -0.027617771
000030 9a 02 e0 3c 0e bc 95 3c a0 73 41 3c ed 84 ff bb
       0.02734499 0.018278148 0.011807352 -0.0077978284
000040 bd de 88 bc ff 4a bf 3c 95 0f d8 3c 4c c3 90 3c
       -0.016707772 0.02335119 0.026374618 0.01767125
000050 12 98 08 3d b1 4d 22 bd 63 f9 cc bb c3 44 d3 bc
       0.03334815 -0.039624874 -0.006255315 -0.025789624
000060 6a ff 26 3d 87 20 dc 3c 12 d3 2f 3b 00 b3 a6 3c
       0.040770926 0.026870979 0.0026828689 0.020349026
000070 b3 2b 11 3d ce 97 24 3d 5c 11 8b 3c 24 f3 4c 3c
       0.035442065 0.040183835 0.016976051 0.012509141
000080 b6 28 12 3d 0d a3 2a 3d c4 67 52 3c 22 a5 32 3c
       0.035683356 0.041659404 0.012842122 0.010903629
000090 92 24 0d 3d 44 72 49 ba 0f d3 bd 3c f2 6e a6 39
       0.034458704 -0.00076845684 0.02317193 0.00031744648
0000a0 2e b3 1a 3d e7 04 d9 3c f9 fa fe 3c b5 e7 d9 3c
       0.037768535 0.026491595 0.031125532 0.026599744
0000b0 2b e0 82 39 fa cf 8a 3c d4 57 99 3c 30 01 8a 3b
       0.0002496255 0.016944874 0.018718638 0.0042115673
0000c0 17 d1 41 bc 58 ea e1 bc bb ed 94 3c 0b e4 c9 bb
       -0.011829636 -0.027577564 0.018179765 -0.006161218
0000d0 41 5f d3 3b 07 11 7a 3b e2 87 0f 3c c5 9e 9d bc
       0.006450564 0.0038157122 0.008760424 -0.019240746
0000e0 7d 49 14 bd e1 86 47 3d 4e b6 39 bc 5b 3f e5 3c
       -0.036202896 0.048712615 -0.011334969 0.027984312
0000f0 6a 98 fe 3c 6e 05 eb 3c 2c 75 6d 3c df 41 fa 3c
       0.031078536 0.028689113 0.014493268 0.030548988
000100 b9 a6 e2 3c fe 5c 8f bc 14 98 03 3d 31 7d d9 3c
       0.02766739 -0.017500397 0.032127455 0.026548954
000110 c4 35 34 bc 1e 05 9d 3a e6 c3 f3 3c fa 8f 27 bb
       -0.010999147 0.0011979674 0.029756498 -0.0025567994
000120 18 5a 97 ba db f3 1d 3d 9f 83 e2 3c 2b 9e 90 3c
       -0.0011547236 0.038562637 0.027650652 0.017653545
000130 82 90 07 bc 17 08 94 bc bc c5 f8 3c 22 5b 06 3b
       -0.008274199 -0.018070264 0.030367725 0.0020501097
000140 99 d7 8d 3c 87 e7 ac 3c 7c 77 56 3d b1 d0 18 bc
       0.017314719 0.021106495 0.052360043 -0.0093271
000150 66 0b 8e 3c 2d ad 5d 3c a9 7e bb 3c a6 b3 c8 3c
       0.01733942 0.013530058 0.022887545 0.024499726
000160 09 d5 35 3c 72 ce 03 bc c0 c0 2f 3d 2c fc f6 3c
       0.011098155 -0.008044826 0.04290843 0.030149542
000170 b2 8c da 3c e8 f9 0e 3d 45 c7 51 3c da 3f d7 bb
       0.026678417 0.034906298 0.012803857 -0.006568891
000180 cc d5 e6 3c a6 89 0b 3d c8 f5 c9 3c 37 a4 a8 3c
       0.028178118 0.03406682 0.02465333 0.020586116
000190 3f 31 1f bc fd 5f 8a 3c a1 3b 13 3d 62 d6 e8 3a
       -0.009716331 0.016891474 0.03594554 0.0017764086
0001a0 52 b3 10 3d 56 e3 18 3d 61 54 97 bc 54 ca 12 3d
       0.035327263 0.03732618 -0.018472852 0.035837486
0001b0 6a 4d 07 3d d3 00 7a 3c 5c 6d 21 3c 68 b2 91 bc
       0.033032812 0.015258986 0.009852733 -0.017785266
0001c0 60 48 0f 3d 72 a5 0c 3d 09 d7 f3 3c b2 22 e6 bc
       0.03498113 0.03433747 0.029765623 -0.028092716
0001d0 b0 ba 14 3d 23 9b cb bb c9 b8 b8 3c 17 b7 12 3a
       0.03631085 -0.006213562 0.02254905 0.00055967405
0001e0 82 1d 59 bc 48 72 1f 3d 5b 83 58 3c 7e bf 87 3c
       -0.013251664 0.038927346 0.013214911 0.016570803
0001f0 02 02 90 bc 4b 01 e3 bb cb d8 10 3d 11 40 87 3c
       -0.017579082 -0.0069276444 0.035363 0.016510041

action_model._discrete_distribution.branches.0.weight f4 [3, 128]
000000 eb 72 d1 3c 32 aa 60 bb 6d 19 08 bd 6d b1 18 bd
       0.025567492 -0.0034281132 -0.033227373 -0.03727858
000010 e9 17 a1 3c 58 77 cc bc 43 1d ae bc fe 95 b6 bc
       0.019664722 -0.024959251 -0.021254187 -0.022288319
000020 21 f1 95 3d a3 e5 a5 3c 96 41 fb bc 28 48 e0 bb
       0.07321382 0.0202511 -0.030670922 -0.006844539
000030 95 14 b9 bc 1c 86 8b bd ba 35 7c 3b 52 2e 42 3d
       -0.022592822 -0.06812689 0.0038484172 0.047407456
000040 35 78 6f 3c d3 b9 9d bb d4 ca 6c bc b1 41 3e 3c
       0.014616062 -0.0048134117 -0.014452655 0.011612342
000050 eb a6 0a bd 51 19 c6 3b eb cf 0d 3d 1d d5 19 3d
       -0.03385059 0.0060454984 0.034622114 0.037556756
000060 eb de e7 bb 10 3a b0 bc d5 9c d9 bc ba 88 d1 bc
       -0.0070761344 -0.021512061 -0.026564041 -0.025577892
000070 7c 5d 2f bc bf 82 eb bb e2 ee 7f bc 9b 4d 93 bc
       -0.010703441 -0.007187217 -0.015620919 -0.017981341
000080 62 93 a7 bc 88 d9 53 3c 7a bd cf 3c 0f d8 ce bc
       -0.02045602 0.012930281 0.025358904 -0.02524951
000090 f7 fa 48 bc 8e e7 65 3d 7f e5 a9 bc 49 97 94 3c
       -0.012266866 0.05612903 -0.020739315 0.018138545
0000a0 28 7d ac 3d 66 f7 4a bc 90 2b d5 bc 6c fe 25 bd
       0.08422309 -0.012388086 -0.026021749 -0.04052584
0000b0 7c 13 a4 3d 80 39 60 3c b4 90 a1 bc 4b 70 6f 3d
       0.08011529 0.013685584 -0.01972232 0.0584567
0000c0 d0 c8 f8 3c 0c af 5e 3c c9 59 c5 3c cb ff 10 3c
       0.030369192 0.013591539 0.024090664 0.008850048
0000d0 02 79 0b bd 27 33 b1 3d 17 87 83 3d 72 05 00 bc
       -0.03405095 0.08652335 0.06422251 -0.007813798
0000e0 a0 ac 89 3c 6d 62 4d 3d 5e fc 09 bb 82 86 b6 bc
       0.016805947 0.050142694 -0.0021054964 -0.022280935
0000f0 fa 1c 64 3d c9 5b 4a bd eb c2 52 3d c3 10 f3 3b
       0.055691697 -0.04940394 0.05145542 0.0074177696
000100 22 bb ec bb d4 bb 4a 3c 67 d8 31 bd b9 93 dc bb
       -0.0072244564 0.012373883 -0.043419268 -0.006731477
000110 d4 7d 3e bc 8e 7e 07 bd a2 c8 91 3c 6b 21 0b bd
       -0.011626679 -0.033079676 0.017795864 -0.033967417
000120 76 b5 01 bd 2f d6 08 bd 15 e7 68 3c c1 b2 68 bd
       -0.031667195 -0.033407386 0.0142152505 -0.056811098
000130 06 c7 0e 3d 48 28 ef 3c 45 31 58 bd d9 6b 72 3c
       0.034857772 0.029194012 -0.052781362 0.014796221
000140 03 66 21 bd c6 af 01 bd f6 03 3c 3d b4 00 e6 3c
       -0.039403927 -0.03166177 0.045902215 0.028076507
000150 c0 72 31 3d a2 88 58 3d 85 e9 42 bb c5 87 21 bd
       0.043322325 0.05286468 -0.002974124 -0.03943612
000160 e4 b3 ba 3b 09 a0 26 bb 54 17 35 bd cf 39 13 bd
       0.005697714 -0.0025424978 -0.0442117 -0.035943802
000170 74 0e a8 bc b3 40 8a bc 4a 81 dc bb 87 81 5b 3d
       -0.020514704 -0.016876554 -0.0067292796 0.053590324
000180 0b a3 e1 bc 59 39 8c bc 48 3a bd bc c2 6a d6 3d
       -0.027543565 -0.01711719 -0.02309908 0.10469581
000190 a3 6a 16 bd a8 fd 48 3c dd 34 9f bc 24 cb ac 3d
       -0.03672279 0.012267508 -0.019434387 0.084371835
0001a0 e5 22 be bc 49 76 62 bd 23 58 30 3b 8b d3 d9 bc
       -0.023209998 -0.055288587 0.0026908002 -0.02659013
0001b0 a5 32 16 bc 9e 42 88 3c d3 4b ca bb 3a 89 bc 3d
       -0.009167348 0.016633328 -0.0061735897 0.092058614
0001c0 52 d8 36 bc 26 a9 30 bd 21 f2 31 bc 31 12 81 3c
       -0.011159973 -0.043130063 -0.010860951 0.015755745
0001d0 3d 88 9c bc 65 67 f2 bc 9c 88 42 3d 87 b6 1c 3d
       -0.019107932 -0.029590318 0.047493562 0.03826001
0001e0 a5 89 19 3c 08 4c 40 bd e8 91 0c 3d 75 76 02 bd
       0.009371196 -0.04694751 0.034318835 -0.03185125
0001f0 f8 2b 00 bd c9 14 cc bc 77 fe 99 bc 6a 64 8c 3d
       -0.031291932 -0.024912255 -0.018798096 0.0685509
000200 8d de 05 bd 72 c8 49 bc 33 81 64 3d 61 dd 87 3d
       -0.032682944 -0.012315856 0.055787276 0.066340216
000210 36 90 a6 3c c7 22 9a 3d ee d8 94 3d 5c 50 c1 bb
       0.020332437 0.075261645 0.072679386 -0.005899472
000220 e8 08 a3 bd 1b dd f8 bc 8c a0 93 3d c9 a7 2f bc
       -0.07960683 -0.030378869 0.07208356 -0.010721155
000230 e3 d1 d9 3c 2c 3f bd 3d fa cd 28 bd 0e ef 9b bd
       0.02658934 0.09240565 -0.04121206 -0.076139554
000240 cb c6 46 bd e1 60 14 3d a6 d1 13 3d a4 a5 9c 3c
       -0.048529427 0.036225203 0.03608861 0.019121952
000250 29 ff 87 3d 8f 06 14 bd 26 ba 76 bd 77 d4 37 bd
       0.06640465 -0.036139067 -0.06023612 -0.044880357
000260 44 18 ad 3c 7f 79 4e 3d 39 96 14 bc 6d da 34 3d
       0.021129735 0.050408836 -0.009069019 0.04415362
000270 ab cc 26 3d 55 3f f7 3c 3e 8f de 3c de 1d 05 3d
       0.04072253 0.030181566 0.027167913 0.032499187
000280 a6 98 23 3d 04 95 66 3c 40 41 6e bc 3c c4 01 3d
       0.0399405 0.014073614 -0.014541924 0.031681284
000290 c3 5b 91 3c 4c 5a b3 bd aa 78 4f 3d 4f 7b ea 3a
       0.01774395 -0.08757457 0.050652184 0.0017889532
0002a0 2b ae 78 bd 55 a3 52 3d b0 61 44 3d 83 18 82 3d
       -0.060712975 0.051425297 0.047944725 0.063523315
0002b0 02 f9 7c bd 0b c7 da 3b 27 e8 13 3d 97 d3 7b bd
       -0.06176091 0.00667656 0.03611007 -0.061481085
0002c0 d9 c3 aa bd c7 4b c8 bc ea fc 02 bd 1f 7b 97 bc
       -0.08338136 -0.024450196 -0.03197948 -0.018491326
0002d0 4c b7 da 3c 7f 82 a1 bd ce ff 1e bd b0 15 38 bc
       0.02669873 -0.07886218 -0.038818173 -0.011235639
0002e0 1f a0 e6 bc 1e 01 d3 bc 73 f1 f5 bc 34 25 9e 3d
       -0.028152524 -0.025757369 -0.030022359 0.0772194
0002f0 b0 4f 27 bd 10 4b 19 3d ca 5d 71 bd 14 3c f3 3a
       -0.04084748 0.0374251 -0.058927335 0.0018557333
000300 7b a0 fb 3c b5 0f 87 bc 27 5b 06 3d e0 a2 28 3d
       0.030716171 -0.016486982 0.032801773 0.041170955
000310 3a 3a 00 bd f5 f2 d8 3b 3a ce 87 3c 8a 01 3c bb
       -0.03130553 0.0066207596 0.016577829 -0.002868744
000320 32 27 91 bb 92 9e 92 3d ec d5 0e 3d 35 d8 9e 3d
       -0.0044297213 0.07159151 0.03487198 0.07756082
000330 cf fe 88 bd 8f 62 30 bd 1e 08 a6 3d e2 f0 97 bb
       -0.06689226 -0.043062743 0.08107017 -0.0046368698
000340 36 31 5a 3d f3 b2 af 3c 47 f1 c4 bc 89 0f 34 bd
       0.053269587 0.021447634 -0.024040831 -0.043960128
000350 a3 50 70 bd 38 d9 be bd d7 23 ee 3c d1 1a 65 3d
       -0.05867065 -0.09318775 0.029069824 0.055933777
000360 4c 7a 4a 3d d2 7e 39 bd 6b 43 ca 3d 2b 1e 62 3d
       0.049433038 -0.04528696 0.0987614 0.05520455
000370 67 f3 28 3d 7a 6a 34 3d 04 b8 0f 3d c8 03 6f bd
       0.04124775 0.044046856 0.0350876 -0.058353215
000380 47 7f 17 3d 32 73 39 3d 8c 06 af 3c 06 8b ff bd
       0.036986616 0.045275874 0.021365426 -0.124776885
000390 e9 ed c0 ba 91 00 a0 bb 53 97 82 3d f7 01 a9 bd
       -0.001471934 -0.00488288 0.06376519 -0.08252328
0003a0 a6 1e 99 3c b3 94 a3 3d 8e 2a 14 bd 72 a6 51 3d
       0.018691372 0.079873465 -0.036173396 0.051184125
0003b0 b9 f7 ad 3c 99 2f 7f 3c 42 ea d3 bc 90 5b ae bd
       0.021236287 0.015575313 -0.025868539 -0.08513558
0003c0 a8 1e 57 3d df f7 8b 3d 3b ec 0e 3d 1f d0 df bc
       0.05251947 0.06834387 0.034893256 -0.02732092
0003d0 bb 95 75 3d 87 84 20 bc 42 b5 9b bd 41 81 05 bd
       0.059957247 -0.009797222 -0.076029316 -0.03259397
0003e0 26 8f fc bc a2 4f b7 3d df b7 2f bd ac a7 db 3c
       -0.030829977 0.08950736 -0.042899963 0.02681335
0003f0 84 b1 25 3b 95 4c 1e bc 84 27 04 3d 23 07 84 bd
       0.002528281 -0.009661813 0.032264248 -0.06446674

action_model._discrete_distribution.branches.0.bias f4 [3]
000000 50 32 8f bb d5 1d b8 3c ef a1 13 bd
       -0.0043700114 0.022475163 -0.036043104

action_model._discrete_distribution.branches.1.weight f4 [3, 128]
000000 74 d3 14 3d 13 b8 2c 3d fd e3 06 3c fb 46 d1 3c
       0.03633447 0.042167734 0.008233068 0.025546541
000010 56 0e 56 3d 1d 46 d9 3c 38 28 e2 3b 32 3e 38 bd
       0.052259766 0.02652269 0.006901767 -0.04498119
000020 47 81 43 bc 3e 4e dc bc da 45 05 3d c9 58 25 bd
       -0.011932678 -0.026892778 0.03253732 -0.040367875
000030 4b 0b 0b 3d 55 bc b7 bb 2b 28 06 3c 8d ba 86 bc
       0.033946317 -0.0056071677 0.008188288 -0.016446376
000040 6d c9 70 bd da 57 03 bc 99 34 33 3c a3 5e ab 3b
       -0.058785845 -0.008016551 0.010937833 0.0052297874
000050 9d f1 ed 3c f3 d4 d6 bc bf b8 b2 3a cf fa 08 bd
       0.029045874 -0.026224589 0.0013635381 -0.033442315
000060 b1 df 28 3d 59 ec 7e 3c 29 22 aa bd f5 24 97 3c
       0.041228954 0.015559279 -0.08307297 0.01845024
000070 9a fa e2 3c a3 30 07 3d d0 44 44 3d 1e 5d 47 bc
       0.027707387 0.033005368 0.047917187 -0.012168197
000080 3c 0a 24 3d da cf 92 3c 6b 0d 89 3d bc 34 d7 3b
       0.040048823 0.017921377 0.066920124 0.0065675657
000090 18 52 11 3d 50 ee fd bb d5 ec 27 3d 34 4b 6d bb
       0.03547868 -0.0077493563 0.040997345 -0.0036208155
0000a0 dd 84 90 3d aa ad 0c 3d 9a 06 f5 3c 62 56 07 3d
       0.07056592 0.034345306 0.029910374 0.033041365
0000b0 9d 36 c1 bb 78 4b 25 bc 23 67 9a bb 62 d1 cc bd
       -0.005896403 -0.010088794 -0.004712002 -0.10000874
0000c0 cc a2 a7 bc 4b fa 95 bd 81 3e 21 3d 3e 63 a2 bd
       -0.02046337 -0.0732313 0.03936625 -0.07929085
0000d0 61 71 f6 bc 89 63 6c bb 3a c2 61 bc 7f 0c 80 bd
       -0.03008336 -0.003607007 -0.013779217 -0.062523834
0000e0 f7 5b c7 bc db 8e f4 3c 08 45 b7 bc f4 75 97 bb
       -0.024335844 0.029853275 -0.022371784 -0.0046222154
0000f0 90 78 97 3d 7b 3d 22 3d 5f de 44 3c 4b 86 69 3c
       0.07396042 0.039609414 0.012015908 0.014253209
000100 d8 69 bf 3b 0b c5 d6 bc 7a bb c1 3c cf 9d 50 3b
       0.005841475 -0.026217004 0.023648966 0.0031832343
000110 44 65 5a bd ed 2b d6 bc e5 f3 04 3c 0e bd 72 bd
       -0.05331923 -0.026143992 0.00811479 -0.059262328
000120 76 67 5e bd c4 70 98 3c 63 3e 73 bc 1f a1 41 3c
       -0.054297887 0.018608458 -0.014846417 0.011818199
000130 a3 15 ca bc 80 32 72 bd 9c 4a 91 37 be 0d 63 bd
       -0.02466852 -0.05913019 1.732009e-05 -0.055433027
000140 69 d0 21 3c bd 4a b2 3c 21 41 59 3d bf 04 11 bd
       0.009876349 0.021764154 0.053040627 -0.035404917
000150 7f b8 f0 3c a2 23 c6 3c 59 9a 46 bc f4 84 f9 3c
       0.02938485 0.024186913 -0.01212176 0.030458905
000160 e9 9a ef bb ce 23 2e bc e4 26 66 3b 4a f6 76 3c
       -0.007312168 -0.010628654 0.0035118395 0.015073368
000170 dd 18 46 bc d2 fa b3 3c b1 c7 0c bc 86 ec 2d bc
       -0.012090889 0.021970186 -0.008592532 -0.010615474
000180 59 62 05 3d 6c f0 d5 3c e4 50 14 3c 08 93 4f 3d
       0.032564495 0.026115619 0.009052489 0.05067733
000190 8e 06 db bc e8 1e e1 3b ca 2d fe 3c 48 d8 c0 3b
       -0.026736524 0.0068701394 0.031027693 0.0058851577
0001a0 ee 20 51 3b 58 17 b1 3c bc 24 8e bd 03 aa 95 3c
       0.0031910497 0.021617576 -0.069406 0.018269544
0001b0 29 f1 ef 3c d7 32 23 3d b4 0c 67 bd 5f 72 48 bb
       0.029289799 0.039843407 -0.0564086 -0.0030585749
0001c0 ad 85 96 3c ef c3 05 3c 95 67 38 3c 18 cf 10 bd
       0.018374288 0.00816439 0.011255165 -0.03535375
0001d0 61 0e 53 3c 51 9f a2 bd bc c1 27 3d a5 88 9e bd
       0.012881846 -0.079405434 0.040956244 -0.077409066
0001e0 df a6 a2 bd 58 c4 05 3d 83 44 0d 3d 23 3e 97 bc
       -0.079419844 0.03265795 0.034489166 -0.018462246
0001f0 cc 44 50 bd 59 56 a0 bc 0f a0 50 3d f6 f3 43 3d
       -0.05084686 -0.019572424 0.050933894 0.04784008
000200 6b d4 98 bc 3c 82 91 3d f0 da 8b bd 1b af 08 bd
       -0.018655976 0.07104918 -0.068288684 -0.03337012
000210 05 c5 d9 bc 57 83 67 bc ad f5 3a bd c5 48 43 3d
       -0.026583204 -0.014130435 -0.04564445 0.04767682
000220 6e ac 0a 3c d0 2a 35 3d c7 be 19 3d f5 4e 8c 3d
       0.008463962 0.044230282 0.037535455 0.06850997
000230 db 52 2c bd a4 5a 52 bd d9 8a dc 3c be 58 a1 3d
       -0.042071205 -0.051355973 0.026921676 0.07878254
000240 a0 2f a9 ba 05 ed 11 bd 62 70 15 bd e2 e4 1b be
       -0.001290787 -0.03562643 -0.03648413 -0.1522403
000250 2c 14 96 3c b5 56 08 3d 0c 35 22 3c 45 f5 6b 3d
       0.018320166 0.033285815 0.009900343 0.057606954
000260 e0 2e f9 bc 8f a4 fe bc 64 6f ae 3d 54 88 f6 bc
       -0.03041786 -0.031084327 0.0851734 -0.030094303
000270 39 c4 ef bc 41 46 87 bd 30 c9 b9 3c 05 b0 fe bc
       -0.029268371 -0.06605197 0.022678941 -0.031089792
000280 3b db a1 bc 9d 43 55 bd 7d c1 e2 bc 96 ee 94 bd
       -0.019757858 -0.052066434 -0.027680153 -0.07272069
000290 5a 52 4b bd bd f7 f2 bc 90 99 08 bd 9b fa 98 bd
       -0.049639083 -0.029659146 -0.033349574 -0.07469674
0002a0 78 dd 3d bb 7c 62 d5 3b a3 c6 bc 3b 17 6f 7a bd
       -0.0028971117 0.0065119844 0.005760984 -0.0611411
0002b0 ad b3 83 3b ce 91 ae bd 58 b3 1f ba 7d d9 57 3d
       0.0040192218 -0.08523904 -0.0006092093 0.052697647
0002c0 a8 7b a3 3d de 51 73 3d 28 cb 98 3d 35 f8 d2 3d
       0.0798257 0.059404247 0.07460624 0.10301248
0002d0 51 ad 8b bd aa bc 5f 3c c8 ca f8 39 ff fd 90 3d
       -0.06820167 0.013655821 0.0004745333 0.07079696
0002e0 08 39 37 3d 87 d6 e9 bd 9f 26 ae 3d 93 c0 ee bc
       0.044732124 -0.11417871 0.0850346 -0.02914456
0002f0 5e a9 eb 3c bf 9c 36 bd e0 ef 22 3d a8 63 cb bd
       0.028767284 -0.04458308 0.039779544 -0.09931117
000300 b5 10 8c bd 6a af 42 3d db 16 ee bd 36 68 74 bd
       -0.06839124 0.04753057 -0.11625453 -0.059669696
000310 e2 52 64 3d 41 29 a3 3d dc 3a b2 bd d7 6f d8 3d
       0.055743106 0.07966853 -0.08702633 0.10568207
000320 2e 5e ba 3d 48 f7 4f bd d5 f8 68 bd bc 46 55 bd
       0.090999946 -0.050772935 -0.05687793 -0.05206941
000330 e3 85 21 bd c1 2c 89 3d 73 16 0b 3d 8b d4 ea 3d
       -0.039434325 0.06697989 0.033956956 0.114663206
000340 57 a0 1d bd b2 6e 25 bd 5b 30 bf bc 71 34 8d 3d
       -0.03848299 -0.04038877 -0.023338487 0.06894768
000350 42 00 8f bd c1 5d d6 bc cb 1f 64 bd 10 6a 53 3b
       -0.06982471 -0.026167752 -0.055694383 0.0032259263
000360 89 ac 43 bd 66 cb 17 3d 48 92 08 bd 50 82 ec bc
       -0.047771964 0.03705921 -0.03334263 -0.028870732
000370 7b 80 cb bd 69 86 b0 3b 1b f8 71 bd c5 ea 26 3c
       -0.09936615 0.0053871167 -0.059074502 0.010187809
000380 9b 27 c5 bc 9b f7 30 bd 8b 07 71 bd 0c c8 2c bd
       -0.024066737 -0.043204885 -0.058845084 -0.042182967
000390 d4 de de 3d bb d2 73 3d 0c a0 0a 3b 33 b9 ae 3c
       0.10882345 0.05952714 0.0021152524 0.021328544
0003a0 a8 5e 29 bd 45 20 83 bc 3b 3c 94 3d 2f ee 49 bb
       -0.041350037 -0.016006598 0.072380506 -0.0030812135
0003b0 bf b0 b0 bd d3 26 a4 bc d6 ec 09 3d f1 46 c7 3a
       -0.08627462 -0.020038044 0.03367313 0.0015203637
0003c0 d6 d3 2c bb f3 72 5c bb 1f f1 45 bd bc 55 17 3d
       -0.0026371381 -0.003363785 -0.048325654 0.036946997
0003d0 eb e2 c5 bc d3 44 ed ba 79 9d 51 3c f7 c5 ec 3d
       -0.024156054 -0.0018102176 0.012793892 0.11561196
0003e0 62 73 15 3d 2a 59 a1 3b 01 e3 db bd 8c fe ba bd
       0.03648699 0.0049239593 -0.10736657 -0.09130582
0003f0 d4 2b 09 3d 20 24 ac 3d 86 8c 99 bd 19 4b 4f bc
       0.033489063 0.08405328 -0.07497506 -0.012652182

action_model._discrete_distribution.branches.1.bias f4 [3]
000000 d0 c4 e4 3c 02 d5 d3 bc c3 11 e1 ba
       0.027925879 -0.025858406 -0.0017171431
