results/ppo/Racing/Racing-576.pt (torch, 159404 bytes, 11 tensors)

network_body._body_endoder.seq_layers.0.weight f4 [128, 15]
00000000: 5fdf 96bd 695b c23e e0d3 f13c 3aad f43d
00000010: 4726 f33d 45ea 24bd 9f4a 473e 2742 03be
00000020: c12e 93be f52f 7c3d 3465 b3bd 9702 313d
00000030: 564c 003e d740 2ebd 3809 24bd 58d8 d93e
00000040: 9f0f 703d 98c8 d73e 17e3 e13d ebc8 db3d
00000050: 84bb 5a3e 7c35 aa3d ba85 a43e 03c0 10be
00000060: a8bc febb 3165 bfbb 5f8a f03c b673 96bb
00000070: 0230 ba3d c72e 363e 7ebb 3e3e 7e86 d43d
00000080: 30b9 d33c f1e5 21be 435d cc3d c07f a2bd
00000090: 7410 923e 5ba6 8ebe d4b9 103d 0242 263e
000000a0: 3d8f 903e 011d 89bc 4777 883e 1364 a43e
000000b0: 0a2f 9ebd 012b d7be 6a5f 7dbe 420f f0bd
000000c0: 3b69 a33e 3a2a a63e 24e8 8fbe d28f aebd
000000d0: be90 9f3d c4cb ae3d 69d2 ef3d 30b1 043e
000000e0: 50df c03e ccaa c3be 16a9 e8bd 7a59 6dbe
000000f0: 1a78 b0bd 3c64 0f3e 49f3 133d 94d5 c73c
00000100: 3f2f ba3d e76f 04be a868 803e f554 ecbd
00000110: cc95 22bf e001 003d 1ae9 803e 243c 4ebe
00000120: e8b2 6dbc 3fbf 553e 7738 d43d 1fda aabd
00000130: ea49 833e 060b ccbd 1bdb b0be d841 92bd
00000140: e01b a53e 37be 2e3f 24a4 1c3e 131a bd3e
00000150: 871b 06bf 29f6 cf3e 9cdc e6bb ad66 5ebe
00000160: 8447 e13d 0b8d 133d 93f1 bbbe 0fff 373e
00000170: 938b cdbe 7dc4 19bf 96e9 533d bab7 133e
00000180: a103 7a3e 4d1c 4ebe 05de 513e 014e e23d
00000190: c736 c9bd ca21 15bd acb3 3e3e 79ff 3bbc
000001a0: 33c4 2f3e 78d1 473e eee2 113f 5e43 db3e
000001b0: a16e 70be 18eb 523e 59b4 253d ac94 0e3e
000001c0: 183e 693e 2f18 e9be be1e 553e 21bf 283e
000001d0: 985b 03be 747c ad3d 0d61 3ebe b4e5 0cbf
000001e0: 2874 05be e98e af3d 22d8 aa3e bf9c 99be
000001f0: 681c d5be 8f90 333e b629 94be 9ee7 aa3d
00000200: 145c 1d3e cad9 ca3e 6fb8 7abe 58ee c2bd
00000210: 87f3 cdbd e3ef 37be 9ee3 70bc c873 89be
00000220: fd33 7bbe a3d1 07bd 70cc 193e 489e 81be
00000230: b505 16be 7138 823d ccbb 493e ce43 913d
00000240: 17c5 0b3b 045d 113f ffb3 c7bd 56f1 943e
00000250: 2c01 393d 7dec 893e 450f 913e 2dc6 9a3e
00000260: 0164 853e 1900 44be fe2a 2b3d c1c2 d6be
00000270: fc4c 42bd 1b08 ca3d de7a 54bc 3a60 9abd
00000280: 96c5 eb3d 0a88 28bd 3385 01be 4bbb 8dbe
00000290: 7b8b 67be 8ff0 acbc 91e0 33bd ea88 e8be
000002a0: 9051 0a3f d97a 58be 3fa8 ba3d c1c6 31be
000002b0: 9916 4e3e 1204 ddbd e7ca 1b3c 4b33 97be
000002c0: de66 bc3c 3b13 cd3e e037 1dbd 2f33 3ebe
000002d0: 4379 9dbe 7108 a53e 5e6f da3c 9988 33bd
000002e0: 0cda 7e3e 8125 713d d841 5abe ea7b c53d
000002f0: 00b8 953e 0967 633d 4673 ad3d b188 283f
00000300: 80ee 90bc 2f78 453e d559 003f 881a 49bc
00000310: 086e c53e dc5b 15bc 5e8e 243e 2796 143d
00000320: eb79 db3e e5d8 b63e 44fb 183e 960b a5bd
00000330: f2fd 9b3e 6c49 b13c 475a 06bc 5d36 c33d
00000340: 653a 18be 8641 803e c88a 283e 4007 673e
00000350: 4a10 2f3e 9661 aebd 8cdb 0c3b 2fe7 d2bd
00000360: 66c6 7c3d 3919 49be 55f7 9dba 2ae0 bd3d
00000370: b852 6fbc 9538 e23e 4661 a3bd 4408 b13d
00000380: 893f 72be c2f5 e8bd 157d 23be 0949 453d
00000390: 8aad 95be 883a 543e 5cad fd3e 2b87 dcbe
000003a0: ac5f 16be 10f3 3cbe 05b4 823e 803c 1abe
000003b0: 6a9d 87be f056 f2bd bf0f b1bd bb7a 2c3e
000003c0: 34c3 f2bd f971 76be f170 a0be 8a9c c3be
000003d0: 2fb5 ffbd b6d1 ce3c 1558 373c 0630 07bf
000003e0: fe50 633e f8ab 933c 5eb5 25be 79b0 383d
000003f0: 6acc 1fbe a66b 0cbf 69eb 6abd 8a67 76be
-0.073668234 0.37960365 0.029519975 0.11947103 0.11872535 -0.04026248 0.1946206 -0.12818204
-0.28746608 0.061569173 -0.08759537 0.04321536 0.1252912 -0.042542305 -0.040047854 0.4254787
0.058608647 0.42145228 0.11029642 0.107316814 0.21360594 0.083109826 0.32133275 -0.14135747
-0.0077739544 -0.0058409204 0.029362855 -0.0045914305 0.09091188 0.17791282 0.1862621 0.10377215
0.02584514 -0.15810372 0.09978726 -0.07934523 0.28528178 -0.27861294 0.03533347 0.16236117
0.28234282 -0.016737463 0.266535 0.321076 -0.07723816 -0.42024997 -0.24743429 -0.1172166
0.31916222 0.3245409 -0.28106797 -0.08523525 0.07791279 0.08534959 0.117100544 0.12958217
0.37670374 -0.38216245 -0.113603756 -0.23178664 -0.086166576 0.1400308 0.036120687 0.024393834
0.09091043 -0.12933312 0.25079846 -0.11539642 -0.6350982 0.03125179 0.25177842 -0.2014013
-0.014507987 0.20873736 0.10362332 -0.083423845 0.2564233 -0.0996304 -0.34542164 -0.07141465
0.3224783 0.68258995 0.1529699 0.36933956 -0.52385753 0.40617493 -0.0070453417 -0.21718855
0.10999969 0.03602318 -0.36707744 0.17968391 -0.4014555 -0.6006544 0.051736437 0.14425555
0.24415447 -0.20127983 0.2049485 0.11050034 -0.09824901 -0.036409177 0.18623227 -0.011474484
0.17164688 0.195135 0.5698689 0.42824835 -0.23479702 0.20597494 0.040455196 0.13923901
0.22777593 -0.45526263 0.20812508 0.1647916 -0.12827909 0.08471003 -0.1859171 -0.55038
-0.13032591 0.0857218 0.3336802 -0.300024 -0.41623235 0.17535613 -0.28938073 0.08344959
0.15367156 0.39619285 -0.24484418 -0.09518117 -0.10056215 -0.17962603 -0.014702706 -0.26846147
-0.2453155 -0.03315891 0.15019393 -0.25316072 -0.14650615 0.063584216 0.19700545 0.07093011
0.0021327191 0.56782556 -0.097511284 0.29090375 0.045167133 0.2693824 0.28331962 0.3022932
0.2605286 -0.19140662 0.041789047 -0.4194546 -0.0474367 0.09864827 -0.012968747 -0.07537885
0.11512296 -0.041145362 -0.12648468 -0.27681956 -0.22611801 -0.021110801 -0.043915335 -0.45416957
0.54030704 -0.21140613 0.09114122 -0.17360975 0.20125808 -0.10791792 0.009508825 -0.2953132
0.02299827 0.40053734 -0.038383365 -0.18574212 -0.30756578 0.32233003 0.026664432 -0.04383144
0.24887866 0.058873657 -0.2131418 0.09642775 0.29241943 0.055518184 0.08469252 0.65833575
-0.01769185 0.19284128 0.5013707 -0.012274392 0.3856051 -0.009116139 0.16069934 0.03627601
0.42866454 0.35712352 0.149396 -0.080588505 0.30467182 0.021641456 -0.008200235 0.09531853
-0.14866026 0.2504999 0.16459191 0.2256136 0.17096058 -0.08514707 0.0021493165 -0.10298001
0.061712645 -0.19638528 -0.001205186 0.092712715 -0.014607124 0.44183794 -0.07977538 0.08644155
-0.23657049 -0.113749996 -0.15965684 0.048165355 -0.29233962 0.20725453 0.49546325 -0.43071875
-0.14684933 -0.18452096 0.2552797 -0.15062141 -0.26487285 -0.11832988 -0.086455815 0.16843693
-0.11853638 -0.24066915 -0.31336167 -0.38205367 -0.1248573 0.025246482 0.011190434 -0.5280765
0.22198865 0.018026337 -0.16182467 0.045090172 -0.15605322 -0.5485176 -0.05735341 -0.24062935

network_body._body_endoder.seq_layers.0.bias f4 [128]
00000000: 0000 0000 0000 0000 0000 0000 0000 0000
00000010: 0000 0000 0000 0000 0000 0000 0000 0000
00000020: 0000 0000 0000 0000 0000 0000 0000 0000
00000030: 0000 0000 0000 0000 0000 0000 0000 0000
00000040: 0000 0000 0000 0000 0000 0000 0000 0000
00000050: 0000 0000 0000 0000 0000 0000 0000 0000
00000060: 0000 0000 0000 0000 0000 0000 0000 0000
00000070: 0000 0000 0000 0000 0000 0000 0000 0000
00000080: 0000 0000 0000 0000 0000 0000 0000 0000
00000090: 0000 0000 0000 0000 0000 0000 0000 0000
000000a0: 0000 0000 0000 0000 0000 0000 0000 0000
000000b0: 0000 0000 0000 0000 0000 0000 0000 0000
000000c0: 0000 0000 0000 0000 0000 0000 0000 0000
000000d0: 0000 0000 0000 0000 0000 0000 0000 0000
000000e0: 0000 0000 0000 0000 0000 0000 0000 0000
000000f0: 0000 0000 0000 0000 0000 0000 0000 0000
00000100: 0000 0000 0000 0000 0000 0000 0000 0000
00000110: 0000 0000 0000 0000 0000 0000 0000 0000
00000120: 0000 0000 0000 0000 0000 0000 0000 0000
00000130: 0000 0000 0000 0000 0000 0000 0000 0000
00000140: 0000 0000 0000 0000 0000 0000 0000 0000
00000150: 0000 0000 0000 0000 0000 0000 0000 0000
00000160: 0000 0000 0000 0000 0000 0000 0000 0000
00000170: 0000 0000 0000 0000 0000 0000 0000 0000
00000180: 0000 0000 0000 0000 0000 0000 0000 0000
00000190: 0000 0000 0000 0000 0000 0000 0000 0000
000001a0: 0000 0000 0000 0000 0000 0000 0000 0000
000001b0: 0000 0000 0000 0000 0000 0000 0000 0000
000001c0: 0000 0000 0000 0000 0000 0000 0000 0000
000001d0: 0000 0000 0000 0000 0000 0000 0000 0000
000001e0: 0000 0000 0000 0000 0000 0000 0000 0000
000001f0: 0000 0000 0000 0000 0000 0000 0000 0000
0.0 0.0 0.0 0.0 0.0 0.0 0.0 0.0
0.0 0.0 0.0 0.0 0.0 0.0 0.0 0.0
0.0 0.0 0.0 0.0 0.0 0.0 0.0 0.0
0.0 0.0 0.0 0.0 0.0 0.0 0.0 0.0
0.0 0.0 0.0 0.0 0.0 0.0 0.0 0.0
0.0 0.0 0.0 0.0 0.0 0.0 0.0 0.0
0.0 0.0 0.0 0.0 0.0 0.0 0.0 0.0
0.0 0.0 0.0 0.0 0.0 0.0 0.0 0.0
0.0 0.0 0.0 0.0 0.0 0.0 0.0 0.0
0.0 0.0 0.0 0.0 0.0 0.0 0.0 0.0
0.0 0.0 0.0 0.0 0.0 0.0 0.0 0.0
0.0 0.0 0.0 0.0 0.0 0.0 0.0 0.0
0.0 0.0 0.0 0.0 0.0 0.0 0.0 0.0
0.0 0.0 0.0 0.0 0.0 0.0 0.0 0.0
0.0 0.0 0.0 0.0 0.0 0.0 0.0 0.0
0.0 0.0 0.0 0.0 0.0 0.0 0.0 0.0

network_body._body_endoder.seq_layers.2.weight f4 [128, 128]
00000000: a671 0a3d e712 82bd 26e9 17be c8fc 08be
00000010: f414 383d 3523 adbd 251b 9c3a d4b8 d43d
00000020: 03ae e33d e53f 8a3d fd29 5b3d 88b1 e5bc
00000030: 76dc 83be 0f33 8fbd 2477 4a3b 6ccb 663d
00000040: 22c3 c9bc 3212 92bd f3d3 b83d f6ef 07bc
00000050: 0e37 983d 681c 2abe 147d 0a3d 0856 56be
00000060: dc95 213e dcc5 8b3d 0e52 d2bd d84d a23d
00000070: d3eb 35bc 9b49 643d 981e a73d e43d 503d
00000080: 0cc2 1e3d 6552 1cbc 0b67 473d 4de2 ecbd
00000090: 3175 b9bd 1c78 1f3e 31eb 3bbd 7f6f f93d
000000a0: 8703 7fbe 0693 b9bd 54fd 62bc 5f99 8cbe
000000b0: ea43 17bb 0a48 d13c 2e93 23bd 0949 8bbd
000000c0: 1f08 a9bb fb91 8fbd e0fd 9abd 0e1c 9f3d
000000d0: 0e5b a1bd a79b 323c ad93 2cbd 7182 413c
000000e0: fcb0 adbc 8905 15bd 0d48 2dbd 0d01 9d3c
000000f0: 88e9 32bb 11b6 703d ecf1 a03e c082 91bd
00000100: 44e7 8a3d cac6 be3d 2ef7 acbd f5ea 973d
00000110: 78f4 5c3e 3acf 0abd ee73 973c 5a3c 4dbd
00000120: d9cb b83d e6e6 683d 2262 17bd 8e1b b5bc
00000130: 31f8 1d3e ad9d 143e 7948 013d cf62 a2bd
00000140: 8fe0 88bd ea63 ebbd 5c79 a13d 2e82 49bc
00000150: bc52 893b ea86 03be 8342 873c 86b2 01be
00000160: 52d4 38bd ac9a 153d c62a 813d b57c 87bd
00000170: 5c41 a8bd 3477 c9bd fee7 b9bd d0dd eb3d
00000180: 25ed 863d 9089 da3d 8894 f23c f18d 80bd
00000190: 414d 39bd 26d7 d9bc 12a5 6dbd e5d8 183d
000001a0: 2645 c9bd 7ede 3d3c 7eec ecbc 8ff8 b03d
000001b0: 16fa d7ba d32c 12bd 7d65 2ebe ac2d a23d
000001c0: e10c 8f3d 5a6d 9a3c c22e 7abd b24f 83bb
000001d0: 8c6e 49bd 8fd0 0dbd 3722 3c3e bc0c 26bd
000001e0: 3dc9 ce3d a4d1 b23c a4c2 af3c b86d 91bd
000001f0: 0420 933d b8d2 71bc cfe3 9dbd 286f 16be
00000200: 6a5f 93bc cb15 f53d d381 b43c 1fae 2ebd
00000210: e76d 7dbe 6e3a 863d 5f69 e7bd a731 2abd
00000220: db14 5fbd 91de 55be de31 cabd 7af9 17bd
00000230: 62db 0d3e 9d07 bf3c 2cf2 f13d bbc8 e13c
00000240: 403a 3d3d c089 9cbd 6e4f 63bd fdd6 84bd
00000250: 354f 283d de7c a63b 37de 50bd e0d1 d93b
00000260: 9494 f0bc 0b02 a33d 6ad3 463e bb2b dd3d
00000270: 648b 57bc 22dd 78bd 115d 4c3c e2f5 8bbd
00000280: 534f bc3c 8035 713c 3b89 2e3c 7959 363d
00000290: 23cf 17bd 7743 11be bf05 ca3d 835f a0bd
000002a0: 535c cfbd 687b ce3c 4fa8 f1ba 58db f0bc
000002b0: dbc9 b4bd b75e f53d fbf3 ca3b afd5 a0bd
000002c0: 8638 ca3d 4768 ac3c b775 c4bd ef76 533c
000002d0: 6351 053d 60fe b63c e026 e63d ccec 103d
000002e0: 7697 e23d b3db 8a3d 28e9 2ebd e4d0 89bd
000002f0: dc3c d53d e8b9 d8bd 3c87 1dbd d8ac d3bd
00000300: 6967 ad3d 4340 0b3d 4c6e a03d aeda a0bd
00000310: 86fc 92bc b333 c8bd a1b9 00bd c4dc 223d
00000320: d816 fabd fa5e 6f3d d4d4 2b3e 5940 cd3c
00000330: 9aa8 b9bd ce48 6ebd bba0 fbbc 3c82 dfbb
00000340: 22c0 abbd b334 15bd 29db 17bd 1f9d 0cbc
00000350: 35ad 713d ffd8 31bc d9c4 e5bb 5c6b 90bd
00000360: e3ed 5e3e 6456 3d3d bbff 61bd d6ed 893b
00000370: 8350 83bd fe00 54bd 932f 123e b52c b9bd
00000380: 8121 0ebe 31ea 813c b1fd f03d 0a2c c73d
00000390: ca0b 79bd 0ac3 47bd 7700 4c3b 887c 28be
000003a0: 34a1 9c3b 3350 0c3d bb55 f1bc 01a1 af3d
000003b0: 0b54 3abe 302f 88bc d484 0b3e 50af 9e3d
000003c0: 68a3 dd3d 1701 8d3d 8a08 133e 27b4 113d
000003d0: 38d0 90bc 6ff9 443b a55e 903c 1565 483d
000003e0: c7d3 cbbd d8d6 abbd 731f 203e 209b 7a3e
000003f0: ffd7 babd c6f3 6abd df55 fb3d 5d75 49bc
0.03379979 -0.063512616 -0.14835033 -0.13377678 0.044941857 -0.08453981 0.0011909945 0.10386816
0.111171745 0.06750468 0.05350684 -0.028038755 -0.25754136 -0.069921605 0.0030893767 0.056346342
-0.02462918 -0.07132377 0.09024801 -0.008296957 0.07432376 -0.16612399 0.03381069 -0.20931256
0.15779823 0.06824848 -0.10269557 0.07925004 -0.011103588 0.05573426 0.08160132 0.050840273
0.038759276 -0.009541129 0.048682254 -0.11566601 -0.090555556 0.15573162 -0.045878593 0.12179469
-0.2490369 -0.090612456 -0.013854343 -0.27460763 -0.0023081251 0.025547046 -0.039935283 -0.0680104
-0.005158439 -0.070102654 -0.07567954 0.07769023 -0.078786954 0.010901368 -0.042133022 0.011810885
-0.021202557 -0.03638223 -0.04230504 0.01916554 -0.002729984 0.058767382 0.31434572 -0.07105017
0.06782392 0.0931526 -0.08445583 0.07417861 0.21577632 -0.033889033 0.018487897 -0.050106384
0.09023256 0.056860827 -0.03695882 -0.022107866 0.15426709 0.14513274 0.031563256 -0.079290025
-0.06683456 -0.114936665 0.078844756 -0.012299104 0.004190771 -0.12844434 0.016511207 -0.12665758
-0.04512436 0.03652446 0.063069865 -0.06615583 -0.08215591 -0.09837189 -0.09077452 0.11516917
0.065882005 0.10670769 0.02961184 -0.06277073 -0.04523969 -0.026591849 -0.05801875 0.03731622
-0.09827642 0.011588691 -0.028921362 0.08641159 -0.001647773 -0.03568728 -0.17030902 0.079188675
0.06984878 0.018850971 -0.061079748 -0.004007303 -0.04917769 -0.034622725 0.18372427 -0.04053949
0.10096977 0.02182848 0.021455117 -0.07101005 0.07183841 -0.014759712 -0.07709467 -0.1469084
-0.017989833 0.11967047 0.022034561 -0.042646524 -0.24748956 0.06554113 -0.11299395 -0.04155126
-0.05446325 -0.20885684 -0.09872793 -0.037103154 0.13853219 0.02331906 0.11813769 0.027561536
0.04619813 -0.07643461 -0.055495672 -0.06486318 0.041091163 0.0050808033 -0.05099317 0.0066473335
-0.029367723 0.07959374 0.19416586 0.107993565 -0.013155792 -0.060757764 0.012473361 -0.06834008
0.022987043 0.014722228 0.0106528355 0.04451892 -0.037062775 -0.14185892 0.09864377 -0.078307174
-0.10125031 0.025205329 -0.0018437001 -0.029401466 -0.088275634 0.11980956 0.0061936355 -0.07853257
0.09874062 0.021045817 -0.09592765 0.012906774 0.03254832 0.022338092 0.112378836 0.035382077
0.11064045 0.067801856 -0.042702824 -0.06729296 0.10411999 -0.10582334 -0.038459048 -0.10335702
0.084669895 0.03399683 0.078335375 -0.0785421 -0.017942678 -0.09775486 -0.03142703 0.03976132
-0.12211388 0.058440186 0.16780406 0.025055097 -0.09065361 -0.0581749 -0.03071629 -0.006820945
-0.08386256 -0.03642721 -0.03707424 -0.008582382 0.059003074 -0.010854959 -0.0070119915 -0.07051727
0.21770434 0.046224967 -0.055175524 0.0042092605 -0.06411841 -0.05175876 0.1427596 -0.0904173
-0.13879968 0.015858741 0.11767138 0.09725197 -0.06080226 -0.048769988 0.0031128207 -0.16453755
0.004779959 0.03425617 -0.029459825 0.08575631 -0.18196122 -0.016624063 0.13624889 0.07748282
0.10822183 0.068849735 0.14358726 0.035572197 -0.017677411 0.00300559 0.017623255 0.048924524
-0.09952503 -0.083905876 0.15636997 0.24473238 -0.09123229 -0.057361387 0.12272238 -0.012296048

network_body._body_endoder.seq_layers.2.bias f4 [128]
00000000: 0000 0000 0000 0000 0000 0000 0000 0000
00000010: 0000 0000 0000 0000 0000 0000 0000 0000
00000020: 0000 0000 0000 0000 0000 0000 0000 0000
00000030: 0000 0000 0000 0000 0000 0000 0000 0000
00000040: 0000 0000 0000 0000 0000 0000 0000 0000
00000050: 0000 0000 0000 0000 0000 0000 0000 0000
00000060: 0000 0000 0000 0000 0000 0000 0000 0000
00000070: 0000 0000 0000 0000 0000 0000 0000 0000
00000080: 0000 0000 0000 0000 0000 0000 0000 0000
00000090: 0000 0000 0000 0000 0000 0000 0000 0000
000000a0: 0000 0000 0000 0000 0000 0000 0000 0000
000000b0: 0000 0000 0000 0000 0000 0000 0000 0000
000000c0: 0000 0000 0000 0000 0000 0000 0000 0000
000000d0: 0000 0000 0000 0000 0000 0000 0000 0000
000000e0: 0000 0000 0000 0000 0000 0000 0000 0000
000000f0: 0000 0000 0000 0000 0000 0000 0000 0000
00000100: 0000 0000 0000 0000 0000 0000 0000 0000
00000110: 0000 0000 0000 0000 0000 0000 0000 0000
00000120: 0000 0000 0000 0000 0000 0000 0000 0000
00000130: 0000 0000 0000 0000 0000 0000 0000 0000
00000140: 0000 0000 0000 0000 0000 0000 0000 0000
00000150: 0000 0000 0000 0000 0000 0000 0000 0000
00000160: 0000 0000 0000 0000 0000 0000 0000 0000
00000170: 0000 0000 0000 0000 0000 0000 0000 0000
00000180: 0000 0000 0000 0000 0000 0000 0000 0000
00000190: 0000 0000 0000 0000 0000 0000 0000 0000
000001a0: 0000 0000 0000 0000 0000 0000 0000 0000
000001b0: 0000 0000 0000 0000 0000 0000 0000 0000
000001c0: 0000 0000 0000 0000 0000 0000 0000 0000
000001d0: 0000 0000 0000 0000 0000 0000 0000 0000
000001e0: 0000 0000 0000 0000 0000 0000 0000 0000
000001f0: 0000 0000 0000 0000 0000 0000 0000 0000
0.0 0.0 0.0 0.0 0.0 0.0 0.0 0.0
0.0 0.0 0.0 0.0 0.0 0.0 0.0 0.0
0.0 0.0 0.0 0.0 0.0 0.0 0.0 0.0
0.0 0.0 0.0 0.0 0.0 0.0 0.0 0.0
0.0 0.0 0.0 0.0 0.0 0.0 0.0 0.0
0.0 0.0 0.0 0.0 0.0 0.0 0.0 0.0
0.0 0.0 0.0 0.0 0.0 0.0 0.0 0.0
0.0 0.0 0.0 0.0 0.0 0.0 0.0 0.0
0.0 0.0 0.0 0.0 0.0 0.0 0.0 0.0
0.0 0.0 0.0 0.0 0.0 0.0 0.0 0.0
0.0 0.0 0.0 0.0 0.0 0.0 0.0 0.0
0.0 0.0 0.0 0.0 0.0 0.0 0.0 0.0
0.0 0.0 0.0 0.0 0.0 0.0 0.0 0.0
0.0 0.0 0.0 0.0 0.0 0.0 0.0 0.0
0.0 0.0 0.0 0.0 0.0 0.0 0.0 0.0
0.0 0.0 0.0 0.0 0.0 0.0 0.0 0.0

action_model._discrete_distribution.branches.0.weight f4 [5, 128]
00000000: e865 7d3b 071d 313c a51b e1bb 9ae5 acbb
00000010: 3155 36bb 1062 7dbc bae8 b1bb 691f 00bc
00000020: 7331 8d3c a26a 0d3c 3aa2 d83b 720d 9b3a
00000030: 9082 75bb 5e2a 2e3c 2cc0 c23b c3fb 3dbb
00000040: b349 8abb 67e6 c1bb 77ee 7dbb b905 16bb
00000050: 26c1 0f3c e280 70ba d345 6fbb 3563 833b
00000060: 4dd0 d7bb cdb4 073b c372 233b 738d 7fbb
00000070: b8fc eebb 1bdb d0bb 7bb9 f63b fdaf 7abb
00000080: 6f6c 3ebb 9f92 e13b 3758 f03b 030d d03b
00000090: b628 28bb baa7 dc3b 35b8 54bb 93cc 8b3b
000000a0: 5874 f13b 0f8b 32ba a905 31bb 3b15 02bc
000000b0: f3eb c73c ebf3 f33b 4595 e03a 9a72 20bb
000000c0: 3d31 60bc e4c3 8bba db1c 713c 8be1 713a
000000d0: 2754 b13b af34 ab3c d0a6 c63c 0f8f a0bb
000000e0: da14 6a3a 5ad8 0b3c 435d b83b 0290 193c
000000f0: 3715 273a eb81 bdba 3b88 c6b9 976e 8ebb
00000100: 4098 cf39 8abe ed39 368b 223c 06ce 91bc
00000110: 7ba5 2f3c 47f3 67bb 849d 4a3c bb58 6f3c
00000120: dab3 0c3c 3865 0c3c ed25 bbbb b9a9 3dbc
00000130: ecb9 ad3c bc8e 3ebb e3d8 853c d5a2 8fbc
00000140: 3887 b6b9 7304 f8bb 0596 d43b 431b d23a
00000150: 38ee f3ba 58dd a3bb b105 323c 1712 b0bc
00000160: 049c ae3b a819 d03b c0cd e3bb 8461 c8bb
00000170: d52d 08b9 cace 1c3c 29db 1bbc cb0f fbbb
00000180: 4acb 1c3a c75f 21bc 9bc0 4a3c cf6f 1b3c
00000190: 27eb 983b e8c9 1a3b d9c1 06bc 75b0 5ebb
000001a0: 6250 4ebc 5027 013a 8700 a7bc 62df e9ba
000001b0: 3f23 22bc 7890 4e3c 6f22 4abc 85ea 5f3c
000001c0: 1b98 6dbc 67c7 84ba cf7d bfba fa3e 853c
000001d0: 2b84 47bb 7daa 0ebb e130 073b 3ff7 46bc
000001e0: 54d6 29bc 9db8 8b3c 5101 1b3b 1f21 a8ba
000001f0: d65d 473c e5b4 133a 14e6 a63b 83b1 973b
00000200: 2ac2 c3bb f859 d4bb a74f 3bbc b988 053c
00000210: 1733 eabc c233 6cbc 9212 e4bb 1704 173c
00000220: db0f b4bb 9466 9c3c 165a 0bbc 4824 bebc
00000230: b7a3 0bbb 5749 733c bc8e a9bc 04f6 94bc
00000240: 21a1 803c 63cc 58bb 3474 c23b fbb9 59bc
00000250: c0bf 67bc c3d0 e43b 9b5f 6639 e814 64bc
00000260: 17c7 043b 3341 05bc b1ca 923a c2c1 94bb
00000270: f4ca 203c 7d59 fd3b 4615 a73b 8810 8c3b
00000280: 2826 97ba 558b 333b ef40 baba f342 c73c
00000290: ce1e 363c c35e 3bbb 6d7d 5d3b f125 a9bb
000002a0: df1c 07bc c7e1 0bbc e798 83ba f813 f4bb
000002b0: 49c5 193b 698f 41bb 2244 5fbc 9617 8abb
000002c0: 64d7 a1bb 3f91 e13b 7bfe 4bbb 94df 0cba
000002d0: 403e a0b9 9c69 2dbc 02c2 97b9 9521 1cbc
000002e0: e10b bf3a 1215 393a efca b93a 65e9 30ba
000002f0: cbd3 9839 6fdf a1bb c10e c8bb 3747 5a3b
00000300: 0a83 eabb b914 033c 7116 b03b bb65 823c
00000310: fa4d 57bb f770 873a 11b9 23bb 9bc4 393a
00000320: 1a75 51bc ef87 1cba 9fba f5bb e3f8 8f3c
00000330: a7c8 4d3b db4e 43bb 64f6 c6bc 73fe e93c
00000340: a92e b6ba 352a 48bb b0a3 cdbb 9fd7 853b
00000350: 23ed f7bb eff6 70bc cc0e a339 aee1 9a3b
00000360: b532 9cba df8a 52bc 3274 0e3a 8aa0 423c
00000370: d4fe 0a39 5d3d d2bb 6364 dd3b 1dd7 713b
00000380: 05c2 7fbc ea65 293c 9331 27bc 7f14 8c3c
00000390: 4aea a4ba c737 a93c a0b0 96bb fb47 18ba
000003a0: 5fac 9dbb d150 b03b 6860 943a a259 10bb
000003b0: a50d efbb 5b11 d5ba c8b8 10bc ec5f 0dbc
000003c0: 83fc bd3b 588a 4d3a 8d7d 4b3c af77 28bc
000003d0: f5b5 9439 70cd 953a 8a42 593c e57f bfbb
000003e0: 91c4 34bb 5896 193c db32 89bc 9f98 ae3b
000003f0: 0077 42bc 7da4 da3b 5701 9b39 d8f9 a9bb
0.0038665477 0.010810143 -0.0068697506 -0.005276394 -0.0027821774 -0.015465274 -0.0054293545 -0.007819989
0.017235493 0.00863138 0.006611136 0.0011829569 -0.0037461855 0.010630218 0.005943319 -0.0028989173
-0.0042202114 -0.0059173587 -0.0038746872 -0.0022891595 0.0087740775 -0.00091744785 -0.0036510124 0.004009629
-0.0065861107 0.002070713 0.002494023 -0.0038994222 -0.00729331 -0.0063737757 0.007529435 -0.003825187
-0.002905633 0.0068839337 0.007334735 0.0063492074 -0.0025659031 0.0067338618 -0.0032458429 0.0042663305
0.0073686056 -0.00068108825 -0.002701143 -0.007939632 0.024404502 0.007444849 0.001713433 -0.002448237
-0.013683614 -0.0010663238 0.014716352 0.0009227029 0.005411643 0.020899145 0.024249464 -0.0048998664
0.0008929499 0.008535469 0.005626352 0.009372713 0.00063737057 -0.0014458274 -0.00037867003 -0.0043466794
0.00039595552 0.00045346125 0.009920886 -0.017798435 0.010720606 -0.0035392807 0.012366656 0.014608557
0.008587802 0.008569054 -0.005711308 -0.01157611 0.021206819 -0.0029076776 0.016338771 -0.017533699
-0.0003481449 -0.0075688898 0.0064876103 0.0016029853 -0.0018610423 -0.0050007515 0.010865615 -0.021493
0.005328657 0.0063507147 -0.0069520175 -0.0061151404 -0.00012987044 0.009570787 -0.009512701 -0.007661795
0.000598122 -0.009849495 0.012375022 0.009487106 0.004666704 0.002361888 -0.008224928 -0.0033979688
-0.012592407 0.00049268175 -0.020385994 -0.0017843063 -0.009896099 0.012607686 -0.012337311 0.013666754
-0.014501597 -0.0010130227 -0.0014609637 0.016265381 -0.0030443768 -0.00217691 0.00206285 -0.012143909
-0.010366041 0.017055804 0.0023651908 -0.0012827254 0.012168368 0.00056345604 0.0050933454 0.0046293153
-0.005974074 -0.0064804517 -0.011432565 0.008150273 -0.028588815 -0.014416637 -0.0069602216 0.009217284
-0.005495054 0.019091882 -0.008505365 -0.02321066 -0.0021307298 0.014849029 -0.020697944 -0.018183716
0.015701832 -0.0033080808 0.0059342626 -0.01328897 -0.014144838 0.006982894 0.00021970125 -0.013921
0.0020260268 -0.0081332205 0.0011199323 -0.0045396993 0.009814013 0.007731615 0.0050989715 0.0042744316
-0.0011531757 0.002739628 -0.0014210026 0.024323916 0.011115743 -0.0028590418 0.0033796683 -0.0051619937
-0.0082466295 -0.008537716 -0.0010040075 -0.0074486695 0.0023463538 -0.0029534942 -0.013627084 -0.0042142374
-0.0049390066 0.0068837698 -0.0031127024 -0.0005373892 -0.00030563958 -0.010584261 -0.0002894551 -0.009529491
0.0014575684 0.00070603297 0.0014174859 -0.00067486457 0.00029149497 -0.0049399654 -0.0061052744 0.0033306608
-0.0071567344 0.008000546 0.005373769 0.01591765 -0.0032852874 0.0010333349 -0.0024982134 0.00070864864
-0.012784267 -0.00059711834 -0.0074990536 0.017574733 0.0031400116 -0.002980164 -0.02428741 0.028563714
-0.0013899404 -0.0030542735 -0.0062756166 0.004084542 -0.0075661107 -0.014707311 0.00031100807 0.00472661
-0.0011916967 -0.012850492 0.00054341846 0.011879096 0.00013255636 -0.0064160065 0.006756352 0.00369019
-0.015610223 0.01033924 -0.0102046905 0.017099617 -0.0012582031 0.02065648 -0.004598692 -0.0005809066
-0.004811808 0.005380728 0.0011320235 -0.0022026082 -0.0072953277 -0.0016255783 -0.008833118 -0.008628827
0.005797924 0.0007840744 0.01242007 -0.010282441 0.00028364328 0.0011429023 0.013260493 -0.0058441036
-0.0027582983 0.009374224 -0.016747883 0.0053282524 -0.011869192 0.0066724406 0.00029564902 -0.0051872544

action_model._discrete_distribution.branches.0.bias f4 [5]
00000000: 0000 0000 0000 0000 0000 0000 0000 0000
00000010: 0000 0000
0.0 0.0 0.0 0.0 0.0

network_body._body_endoder.seq_layers.0.weight f4 [128, 15]
00000000: 6098 90be 24bf 3cbc f7d2 263e bbbd d53d
00000010: d35a fe3d d5b4 6bbd 7824 49be 34b7 19be
00000020: f5ba 2ebf b667 243e 1d34 c93e d579 033f
00000030: 3c95 0cbe 233d d33e 4655 893e 97c3 b9be
00000040: f6df a63b 5834 323d acfa e43c c4e0 5dbd
00000050: 4f75 e23b d710 e13e 52a2 863e 96aa 3dbd
00000060: 2b1c 76be cb09 9abd c9f0 913e 54fb 96be
00000070: 1dab 32be 829e 323d 5431 9b3e 708e e13d
00000080: 4ae7 1f3d 631a d83d a8fd 4a3e 6107 793e
00000090: 0990 b1be 0244 523e 1ad5 04bd f4cd 4a3e
000000a0: 11f4 4ebe 300d d9bc fbc8 23be b2b8 3c3e
000000b0: 4e6f 66bd 7554 5e3d a6d1 fc3e bfaa cdbc
000000c0: c876 383e 46d7 5ebe 97af 913d 86cd bcbc
000000d0: 1313 a2be 6cee 283e 0554 54be 3143 543e
000000e0: 7378 363f 0388 03bb 265d a9bd 147b f3be
000000f0: 6bb5 c03e 45d3 15be 2b02 ae3e 2c25 e2bd
00000100: 7c2e cb3e 84c2 27be 1882 4fbe 9663 37be
00000110: fbbb 26be 8499 d6bd 429c 5f3e a9bb 633d
00000120: 3adf 4fbd 8aed 33be 7d1b d13e 2259 813e
00000130: 91ef 10be 37e9 833d 6fdd a8be 56f8 973d
00000140: 9563 efbd a4b7 3e3e 67ff e2bd 55fb adbd
00000150: 8a4a ba3d 83c5 043e 8ce8 56be 2097 50be
00000160: 5de6 93bc 75f3 d33c 1cff b3be bd1a d5bb
00000170: 2644 c2be 39ec 84bd 4866 d53e f96a f1be
00000180: 14d5 d73e 03bd cabe 59c2 ea3e 3a00 d3be
00000190: 9201 853e 889d 80bc c963 473d 6a95 1dbe
000001a0: 754f dbbd 3be3 e03e a1d3 3dbd b34c 75bd
000001b0: 59f9 d03d 8417 a23e 78fb 383c d3a1 98be
000001c0: fe6d 92bc 1d9f 08bd c688 d0bd b122 583e
000001d0: a5f9 993e 5968 8fbe 2267 a13d 4d78 c03e
000001e0: d485 9c3e c528 f4bd 6727 5d3e 0231 6ebe
000001f0: aa78 853e 6b07 913c 854e 46be e7a6 60bf
00000200: 9b82 acbe dacd 893e 243e 173e 8726 de3d
00000210: 74f6 213e 42a6 823e 5a1f e3bd 5f85 9bbe
00000220: 8618 3b3d 70c1 75bd b79d 723e abf0 45be
00000230: 64cc 943e 15b0 30be 901e f23d 24ec 063f
00000240: 73c0 383e 5464 03be 8a5a a1bd ca78 a3be
00000250: 5497 57bb 3a1e 11bd 332f e33d 2032 f43d
00000260: b8c7 2f3e 0441 263e 7f5f f43c beef 2ebe
00000270: 6da8 213d 3a51 28be 2c2d 54be b344 3c3c
00000280: eafb 2bbf 7115 4e3e c6e7 4ebe 93d6 95bd
00000290: 26f5 7d3e 7dad 9d3e 6ed2 0dbe 5472 8c3e
000002a0: 024d 063d 61da 22bd 2d2f 19bc bced c2be
000002b0: 35f9 0cbe cef8 783e 230e ca3d 0968 18be
000002c0: e995 193e 4548 6e3e f9dc 3abe 98fe 08bf
000002d0: 1ee4 aabc 395a 94bd 5f1d 4b3e 0368 00bf
000002e0: 5095 4ebd 96b2 cf3e 3512 46bd c11d 15bd
000002f0: 5f1d bf3d e67e cebe ea75 51bd c92d ebbe
00000300: 1027 6ebd 8be5 923e 4d69 2c3e 7b6f 77be
00000310: 2e47 09be 01a2 383e da48 a23e 4313 073e
00000320: 7fdc f53d 5d39 263d dd3a b73d aaa8 803e
00000330: 9bad 59be 1fb5 dabe 9dff 74be 0d1b 843d
00000340: 1f82 c4bd 9def ae3e fc6b 2a3e 905c 3e3c
00000350: b35e 163e dd2c 80be feb3 c4be 8d4a 103f
00000360: ebd0 fc3c 663d 823e b562 e9be 749b 9abe
00000370: 216f 0b3e b116 06bf ef82 a7be 9ff4 223d
00000380: 5cd7 ad3d 6f53 e73e 2054 2b3e 5d80 c93d
00000390: 2086 a93d 19fe 53be e42f d9bc 5234 a7be
000003a0: 099a c13e 50b8 773e 8c63 43bd e2a2 40bd
000003b0: a478 34be 93ca 43bd 8e5d 9fbe 9d58 2d3e
000003c0: cc65 e23e d9d6 0ebe 28b1 25bf 1e88 343e
000003d0: 4049 823e 4916 ed3d 2033 e93d ef8e b4bd
000003e0: 54bd 0d3e 1d99 573d 2248 953e 7ed5 8cbd
000003f0: 1e8d f0be 1b2d 803e e2c8 333d fd20 fa3e
-0.28241253 -0.011520181 0.16291414 0.10436579 0.12419667 -0.0575455 -0.19642818 -0.15011293
-0.68254024 0.16055188 0.39297572 0.51357776 -0.13728803 0.4125758 0.2682287 -0.36282036
0.005092616 0.04350695 0.02795156 -0.05416943 0.006910957 0.4395816 0.26295716 -0.04630526
-0.24034183 -0.07521399 0.28504017 -0.29488623 -0.17448087 0.043608196 0.30311072 0.11013496
0.039038934 0.10551908 0.19823325 0.24319221 -0.34680203 0.20533755 -0.032429792 0.19805127
-0.20210291 -0.026495546 -0.15994637 0.1842983 -0.056258492 0.054279763 0.493787 -0.025105832
0.18014061 -0.21761808 0.07113569 -0.02304722 -0.31655177 0.164972 -0.20735176 0.20728756
0.7127754 -0.0020070083 -0.0826972 -0.4755484 0.3763841 -0.14631374 0.3398603 -0.11042246
0.39683902 -0.16382796 -0.2026447 -0.17909083 -0.16282646 -0.104784995 0.21836951 0.05559889
-0.050749995 -0.17571083 0.40841284 0.25263315 -0.14153887 0.064409666 -0.3298144 0.07420413
-0.11688916 0.18624741 -0.110838704 -0.084952034 0.090962484 0.1296597 -0.20987147 -0.2037015
-0.018054182 0.025872925 -0.3515557 -0.0065034316 -0.37942618 -0.064903684 0.41679597 -0.47151926
0.42154753 -0.3959733 0.458514 -0.4121111 0.2597776 -0.015700117 0.048679147 -0.15389028
-0.107085146 0.43923363 -0.046344403 -0.0598876 0.10203809 0.31658566 0.011290424 -0.29810962
-0.017874714 -0.033354867 -0.101823375 0.21106984 0.30073276 -0.28009298 0.07880999 0.37591782
0.30570853 -0.11921839 0.21597062 -0.23260882 0.26068622 0.017703732 -0.1936589 -0.8775467
-0.33693394 0.26914865 0.14769799 0.10847192 0.1581667 0.2551747 -0.11089964 -0.30375192
0.045677684 -0.05999893 0.23692976 -0.19330089 0.29062188 -0.1725467 0.118222356 0.5270407
0.18042164 -0.12831241 -0.07878597 -0.31928092 -0.0032896595 -0.035429217 0.11092987 0.11923623
0.1716603 0.16235739 0.029830692 -0.17083642 0.039467264 -0.16437235 -0.20720357 0.011490989
-0.67181265 0.20125367 -0.20205602 -0.073163174 0.24800548 0.30796424 -0.13849804 0.27430975
0.032788284 -0.039759044 -0.0093496265 -0.38072002 -0.1376694 0.24313661 0.098659776 -0.14883436
0.14998592 0.23269756 -0.18248357 -0.5351348 -0.020860728 -0.07243771 0.19835423 -0.5015871
-0.050435364 0.40565938 -0.048357207 -0.03640533 0.09331774 -0.4033119 -0.051137842 -0.4593337
-0.05814272 0.28690752 0.16837044 -0.2416362 -0.13406059 0.1803055 0.31696206 0.13190942
0.12004947 0.04058205 0.08946774 0.2512868 -0.21257631 -0.4271631 -0.23925634 0.06450472
-0.09595131 0.34167185 0.16642755 0.011618748 0.14684562 -0.25034228 -0.38418573 0.56363755
0.030861339 0.25437468 -0.4558312 -0.30196726 0.13616611 -0.52378374 -0.32717082 0.03978407
0.08488342 0.45180842 0.1673131 0.098389365 0.082775354 -0.207024 -0.026512094 -0.32657105
0.37812832 0.24191403 -0.047702357 -0.047030337 -0.17624146 -0.04780061 -0.31126064 0.16928335
0.4421829 -0.13949145 -0.64723444 0.1763005 0.2544651 0.11576516 0.113867044 -0.08816325
0.13841754 0.052636255 0.29156595 -0.06876658 -0.46982664 0.25034413 0.04389275 0.48853293

network_body._body_endoder.seq_layers.0.bias f4 [128]
00000000: 0000 0000 0000 0000 0000 0000 0000 0000
00000010: 0000 0000 0000 0000 0000 0000 0000 0000
00000020: 0000 0000 0000 0000 0000 0000 0000 0000
00000030: 0000 0000 0000 0000 0000 0000 0000 0000
00000040: 0000 0000 0000 0000 0000 0000 0000 0000
00000050: 0000 0000 0000 0000 0000 0000 0000 0000
00000060: 0000 0000 0000 0000 0000 0000 0000 0000
00000070: 0000 0000 0000 0000 0000 0000 0000 0000
00000080: 0000 0000 0000 0000 0000 0000 0000 0000
00000090: 0000 0000 0000 0000 0000 0000 0000 0000
000000a0: 0000 0000 0000 0000 0000 0000 0000 0000
000000b0: 0000 0000 0000 0000 0000 0000 0000 0000
000000c0: 0000 0000 0000 0000 0000 0000 0000 0000
000000d0: 0000 0000 0000 0000 0000 0000 0000 0000
000000e0: 0000 0000 0000 0000 0000 0000 0000 0000
000000f0: 0000 0000 0000 0000 0000 0000 0000 0000
00000100: 0000 0000 0000 0000 0000 0000 0000 0000
00000110: 0000 0000 0000 0000 0000 0000 0000 0000
00000120: 0000 0000 0000 0000 0000 0000 0000 0000
00000130: 0000 0000 0000 0000 0000 0000 0000 0000
00000140: 0000 0000 0000 0000 0000 0000 0000 0000
00000150: 0000 0000 0000 0000 0000 0000 0000 0000
00000160: 0000 0000 0000 0000 0000 0000 0000 0000
00000170: 0000 0000 0000 0000 0000 0000 0000 0000
00000180: 0000 0000 0000 0000 0000 0000 0000 0000
00000190: 0000 0000 0000 0000 0000 0000 0000 0000
000001a0: 0000 0000 0000 0000 0000 0000 0000 0000
000001b0: 0000 0000 0000 0000 0000 0000 0000 0000
000001c0: 0000 0000 0000 0000 0000 0000 0000 0000
000001d0: 0000 0000 0000 0000 0000 0000 0000 0000
000001e0: 0000 0000 0000 0000 0000 0000 0000 0000
000001f0: 0000 0000 0000 0000 0000 0000 0000 0000
0.0 0.0 0.0 0.0 0.0 0.0 0.0 0.0
0.0 0.0 0.0 0.0 0.0 0.0 0.0 0.0
0.0 0.0 0.0 0.0 0.0 0.0 0.0 0.0
0.0 0.0 0.0 0.0 0.0 0.0 0.0 0.0
0.0 0.0 0.0 0.0 0.0 0.0 0.0 0.0
0.0 0.0 0.0 0.0 0.0 0.0 0.0 0.0
0.0 0.0 0.0 0.0 0.0 0.0 0.0 0.0
0.0 0.0 0.0 0.0 0.0 0.0 0.0 0.0
0.0 0.0 0.0 0.0 0.0 0.0 0.0 0.0
0.0 0.0 0.0 0.0 0.0 0.0 0.0 0.0
0.0 0.0 0.0 0.0 0.0 0.0 0.0 0.0
0.0 0.0 0.0 0.0 0.0 0.0 0.0 0.0
0.0 0.0 0.0 0.0 0.0 0.0 0.0 0.0
0.0 0.0 0.0 0.0 0.0 0.0 0.0 0.0
0.0 0.0 0.0 0.0 0.0 0.0 0.0 0.0
0.0 0.0 0.0 0.0 0.0 0.0 0.0 0.0

network_body._body_endoder.seq_layers.2.weight f4 [128, 128]
00000000: 912a 993d fc2a 05be 7c73 f33c 9a81 623d
00000010: b188 38bd 1178 d43d 6f39 a73c 76f4 343d
00000020: 2a05 94bd b43d c5bd efdb b4bc d57d c83d
00000030: a32f 013e a6cb f73b a1a4 49b9 27db 91bb
00000040: bbe2 6cbd 0335 4abc 84ab 033e 7e8e 103e
00000050: d1f2 7fbb a3ed 423e 3d4f 373e da09 e03d
00000060: 2fdf d53d 6e50 86bd e1ac c33b a0bf 97bd
00000070: 87a0 963d 3567 7c3d 1b61 773d 49e3 32bd
00000080: 02f7 21be 39b9 363e 1b01 2ebd 215c 01bd
00000090: c3a6 40bd 3414 843d 44f1 ad3d a551 5fbd
000000a0: ad6c 8c3d ce6c b6bc 1f8a bc3d 871d 153d
000000b0: 929e 103c 1640 0d3e e4a8 ff3c c20c 0ebe
000000c0: 5f24 62bd 6f51 913c 7c60 653e 7b40 fdbc
000000d0: f9e8 233d 7e34 b43d 7e47 e3bd 91b2 8fbd
000000e0: f8f0 fb3d 31cf d93d 0a67 94bd abd5 fb3c
000000f0: 840e 8cbd d1b9 603e 9113 a0bd e143 fe3d
00000100: 383e 46be 3625 1cbd 30fd 2dbd bbe1 a6bd
00000110: 8de7 03be c571 a3bd 569c e33d 5881 143d
00000120: f98c a3bd 9bfa 573e 6175 08bd ccce 0cbd
00000130: 60c4 153d 0629 a6ba dde1 8cbc e047 843d
00000140: 6db0 033e dfd9 0a3e 412d feba 72f5 d13c
00000150: 1bd5 4ebc a847 37be 2186 a4bd 8835 cbbc
00000160: f0c0 97bd 9a10 513d 6957 8dbc cad4 f6bb
00000170: 54f9 b7bc ffbf 3cbe 4c57 22be a477 933d
00000180: c7d2 90bc 1a60 f7bc 2986 eebd dbb5 adbd
00000190: b64d b4bd 6132 083e dbde 8d3d 8c5a 11be
000001a0: 0db3 05bc 6c9f c7bd 7ea1 853d 810c fb3d
000001b0: b003 803d f9dc 25be d8b2 b4bd c9fc 483e
000001c0: 17d9 be3c 10dd efbd 0ccc 9ebd f920 96bc
000001d0: dc28 1f3e 353b 013e 13a7 42be 894c 0e3d
000001e0: e650 07be 1c79 043d cad0 f7bd aefe 813d
000001f0: b5ae e0bc b1a8 913d 562a d43c be65 dfbc
00000200: 04bc ee3d be76 a33d 6e36 2ebe b4a3 54bd
00000210: 3b4b 8fbb bec8 7b3e 390a d73d b453 35be
00000220: 274c 4e3d 24d0 00bd 5398 0cbe f240 10bc
00000230: 0a07 ffbd c84f 293d 8b23 01be 10a9 1abe
00000240: c630 f8bc 9b57 af3d 0e9d babd 9e56 323d
00000250: de8e a4bd 9874 a33c e61c 29be 35c3 b7bc
00000260: cea7 8ebd 5b9f a13d dc28 0b3d 192d 31be
00000270: fd30 90bc 54e9 243c 22f8 873c fc25 ee3c
00000280: c339 20bd f3b3 2cbd a8bf 153e dbf1 09be
00000290: b844 9e3d 53a9 f33c 7848 83bd c38e 72be
000002a0: ddc9 8bbd a5e6 4fbd 17cb aabc e39e bdbd
000002b0: 5c08 fb3c 792f c03c 94d2 88bd 1a55 163e
000002c0: 814d 2f3e 7ab4 56bd a806 093e c29a 133d
000002d0: 18af d73d a4dd 7fbc 3529 87bd 1811 423d
000002e0: 2106 ed3c 7433 76bd fa75 c83d 648f f83c
000002f0: a07e 2bbc 8a34 0fbd 7a9c b23d 1e71 e73d
00000300: 2aa8 063d 8ff4 9b3b b411 fa3c ef67 113d
00000310: d5ea 7b3d 5676 a83d fe54 d7bd 5693 0e3e
00000320: 7aa6 eb3d 530b 88bd 2235 98bd 000f b63c
00000330: 34ed 8bbb 32e8 04be 9b63 fa3d 14c7 db3d
00000340: 0724 c83b ff46 f4bc 49d4 d43d f036 903d
00000350: 684d 14be 0acf 12bd 3247 18be ce26 a4bc
00000360: 86b9 7cbd f777 113e ec5f 0cbd 4e91 f7bc
00000370: 44ce 1fbd 8137 b93d fcbc 58bc 3a66 3abe
00000380: bff1 0dbc 2659 82bb c225 bbbc 18b4 2ebd
00000390: 583e 6ebd f7e6 073d 6fa7 6bbd b022 21bd
000003a0: fcce 60bc f74c e23d 66b3 a93d 736d e73b
000003b0: 8d42 e63d ba91 78bd 3e4b d1bc db13 74bd
000003c0: 1841 973d 7b55 8cbd 3abd 8cbd 760b 953c
000003d0: 2068 893c 788d 133e 1602 7fbd c0b8 143e
000003e0: f741 ef3d 0d64 e93d 099a d13d 88e5 163e
000003f0: 6281 a83d 8656 94bd e7dc 92bd 24dd b83d
0.07478822 -0.13004678 0.029718153 0.05529938 -0.045052234 0.10374463 0.020413129 0.04417845
-0.072275475 -0.096309096 -0.022077529 0.097896256 0.12615828 0.0075621186 -0.00019230183 -0.004451174
-0.057833415 -0.012341741 0.12858397 0.14116856 -0.0039054642 0.19035964 0.17901321 0.10939379
0.104429595 -0.065583095 0.0059715365 -0.074095964 0.07354837 0.061621863 0.06039534 -0.043673787
-0.15816882 0.17844094 -0.042481523 -0.031582 -0.047034036 0.06449166 0.084932834 -0.05452122
0.06856666 -0.022268679 0.09206032 0.036405113 0.008826869 0.13793978 0.031208463 -0.13872054
-0.055210467 0.017739026 0.22400087 -0.030914536 0.040017102 0.087990746 -0.110976204 -0.07016481
0.123018205 0.10635222 -0.07246216 0.030741533 -0.06838706 0.21945883 -0.07816232 0.124152906
-0.19359672 -0.038121425 -0.042477787 -0.081485234 -0.12881298 -0.07980684 0.11113803 0.036256164
-0.07985873 0.21091692 -0.033315066 -0.034376904 0.03656423 -0.0012677021 -0.017197544 0.064590216
0.1286027 0.13559674 -0.0019392149 0.025629733 -0.0126240505 -0.17898428 -0.080333956 -0.0248058
-0.07409847 0.051041223 -0.017253594 -0.0075326907 -0.022457756 -0.18432616 -0.15853614 0.07200554
-0.017678631 -0.030197192 -0.11646683 -0.08481952 -0.08803885 0.13300468 0.06927272 -0.14194697
-0.008160365 -0.09747204 0.06524943 0.12258244 0.06250703 -0.16197576 -0.08823174 0.1962768
0.023296876 -0.11712086 -0.077537626 -0.01832627 0.1554293 0.12620242 -0.19009046 0.03474096
-0.13214454 0.03234206 -0.1210037 0.063474044 -0.027427057 0.071122535 0.025899094 -0.027270194
0.11656955 0.07981633 -0.17012951 -0.051913932 -0.004372982 0.24588296 0.10499997 -0.17707711
0.050365593 -0.0314485 -0.13729982 -0.008804547 -0.124525145 0.04133585 -0.12611215 -0.15103555
-0.030296694 0.08561631 -0.09111987 0.043539636 -0.08035062 0.019953057 -0.1651493 -0.02243195
-0.069656 0.07891723 0.033974513 -0.1730236 -0.017601484 0.010065395 0.016597811 0.029070847
-0.039117586 -0.0421638 0.14623892 -0.13471167 0.07727951 0.029743826 -0.06410307 -0.23687272
-0.06825612 -0.05075707 -0.020848794 -0.09258821 0.030643634 0.023460137 -0.066807896 0.14680901
0.17119409 -0.05241821 0.13381445 0.03603626 0.10531443 -0.015616808 -0.065996565 0.047379583
0.028933587 -0.060107663 0.09788127 0.030341811 -0.0104672015 -0.034962215 0.08721252 0.11300872
0.032875217 0.0047593783 0.03052602 0.03549951 0.06150325 0.08225696 -0.10514258 0.13923392
0.11506362 -0.06642785 -0.07432009 0.02222395 -0.00427022 -0.129792 0.122260295 0.107313305
0.0061078104 -0.02981901 0.10392053 0.070417285 -0.14482653 -0.03584198 -0.14870909 -0.020038035
-0.061700366 0.14205919 -0.034271166 -0.030220654 -0.03901507 0.0904379 -0.013228651 -0.18203059
-0.008663594 -0.0039779125 -0.022845153 -0.04265222 -0.058164924 0.03317925 -0.057532724 -0.03933972
-0.013721224 0.11049836 0.08286171 0.007062608 0.11243162 -0.06068585 -0.025548574 -0.05958925
0.073854625 -0.068522416 -0.068720296 0.018193942 0.016773283 0.14409435 -0.06225785 0.14523602
0.11682504 0.11396036 0.10234458 0.14735997 0.08227803 -0.072430655 -0.0717104 0.09026554

network_body._body_endoder.seq_layers.2.bias f4 [128]
00000000: 0000 0000 0000 0000 0000 0000 0000 0000
00000010: 0000 0000 0000 0000 0000 0000 0000 0000
00000020: 0000 0000 0000 0000 0000 0000 0000 0000
00000030: 0000 0000 0000 0000 0000 0000 0000 0000
00000040: 0000 0000 0000 0000 0000 0000 0000 0000
00000050: 0000 0000 0000 0000 0000 0000 0000 0000
00000060: 0000 0000 0000 0000 0000 0000 0000 0000
00000070: 0000 0000 0000 0000 0000 0000 0000 0000
00000080: 0000 0000 0000 0000 0000 0000 0000 0000
00000090: 0000 0000 0000 0000 0000 0000 0000 0000
000000a0: 0000 0000 0000 0000 0000 0000 0000 0000
000000b0: 0000 0000 0000 0000 0000 0000 0000 0000
000000c0: 0000 0000 0000 0000 0000 0000 0000 0000
000000d0: 0000 0000 0000 0000 0000 0000 0000 0000
000000e0: 0000 0000 0000 0000 0000 0000 0000 0000
000000f0: 0000 0000 0000 0000 0000 0000 0000 0000
00000100: 0000 0000 0000 0000 0000 0000 0000 0000
00000110: 0000 0000 0000 0000 0000 0000 0000 0000
00000120: 0000 0000 0000 0000 0000 0000 0000 0000
00000130: 0000 0000 0000 0000 0000 0000 0000 0000
00000140: 0000 0000 0000 0000 0000 0000 0000 0000
00000150: 0000 0000 0000 0000 0000 0000 0000 0000
00000160: 0000 0000 0000 0000 0000 0000 0000 0000
00000170: 0000 0000 0000 0000 0000 0000 0000 0000
00000180: 0000 0000 0000 0000 0000 0000 0000 0000
00000190: 0000 0000 0000 0000 0000 0000 0000 0000
000001a0: 0000 0000 0000 0000 0000 0000 0000 0000
000001b0: 0000 0000 0000 0000 0000 0000 0000 0000
000001c0: 0000 0000 0000 0000 0000 0000 0000 0000
000001d0: 0000 0000 0000 0000 0000 0000 0000 0000
000001e0: 0000 0000 0000 0000 0000 0000 0000 0000
000001f0: 0000 0000 0000 0000 0000 0000 0000 0000
0.0 0.0 0.0 0.0 0.0 0.0 0.0 0.0
0.0 0.0 0.0 0.0 0.0 0.0 0.0 0.0
0.0 0.0 0.0 0.0 0.0 0.0 0.0 0.0
0.0 0.0 0.0 0.0 0.0 0.0 0.0 0.0
0.0 0.0 0.0 0.0 0.0 0.0 0.0 0.0
0.0 0.0 0.0 0.0 0.0 0.0 0.0 0.0
0.0 0.0 0.0 0.0 0.0 0.0 0.0 0.0
0.0 0.0 0.0 0.0 0.0 0.0 0.0 0.0
0.0 0.0 0.0 0.0 0.0 0.0 0.0 0.0
0.0 0.0 0.0 0.0 0.0 0.0 0.0 0.0
0.0 0.0 0.0 0.0 0.0 0.0 0.0 0.0
0.0 0.0 0.0 0.0 0.0 0.0 0.0 0.0
0.0 0.0 0.0 0.0 0.0 0.0 0.0 0.0
0.0 0.0 0.0 0.0 0.0 0.0 0.0 0.0
0.0 0.0 0.0 0.0 0.0 0.0 0.0 0.0
0.0 0.0 0.0 0.0 0.0 0.0 0.0 0.0

value_heads.value_heads.extrinsic.weight f4 [1, 128]
00000000: b20d 99bd 90ab 5b3c 2ca1 37be 5a13 1f3e
00000010: 323a b3bd f604 513e 4449 3fbd 41e2 d4bd
00000020: d0b9 593e 5ccc d33d 66fc 1bbe 307b d1bc
00000030: 282a f03c 5aed 54be f277 553e 7e3c 41be
00000040: c046 48be c7a2 28be 68fa 2c3d f46e 36be
00000050: 8804 9f3d 5c72 273e 2cc2 a83d 3ce6 033e
00000060: d4e7 74bd c953 d8bd db60 08be 711f 26be
00000070: 2812 583d ec5c 3f3e 38a0 723d 6e79 413e
00000080: 226e b1bd 1412 db3d bc43 983d 366e d7bd
00000090: 54a6 1e3e ee6f 163e 1896 8f3d b98e 57be
000000a0: e8c7 a13d 88b5 ec3d 26e0 d4bd 40dd 84bc
000000b0: 5a39 0c3e 8044 c2bb a020 efbd 8c06 33be
000000c0: f467 3b3e ea07 45be c893 433d d0d4 513c
000000d0: 6c5e 5b3e 9cdb 10bd ce8e 053e 2257 b9bd
000000e0: e971 4cbe b0df 8ebd 60f0 7e3d a0f4 d63c
000000f0: 4cfa 353e 7288 00be 10c9 493e 54de 2e3e
00000100: 6409 063e 7bb2 20be 1c9b 153e 8af5 5b3e
00000110: 1c4e a43d 580b 9bbc 8c37 0abe 8452 83bd
00000120: e023 873d 00a3 0dba 8271 a8bd b6d0 333e
00000130: a07b cdbc 9d60 e1bd 40c6 11bd c0b9 173b
00000140: c458 15be 6e95 473e 7002 5abe e22f 91bd
00000150: 1455 0c3d 20d6 f63d 5020 40bd c0c4 213c
00000160: 080f 4bbe 40b8 653c 303a 26be b01b 923d
00000170: fc38 63bd a455 ef3d 3c8b 863d 12db 2abe
00000180: d0a2 213e 7503 26be d003 6c3c d0c2 873c
00000190: b805 2dbe 002e d4bc ebbb f7bd ba68 063e
000001a0: 587b f93d 7024 0b3e 7688 8cbd ac67 1dbe
000001b0: 7473 dc3d 40e9 36bd e8f5 d13d f40a 96bd
000001c0: 28e0 3a3d 321d 0c3e ec1a ef3d 884c 63bd
000001d0: 8443 ba3d 20af 58be 2c09 c9bd e8eb 2b3d
000001e0: 8931 22be 3ad3 093e b480 aa3d 5685 313e
000001f0: cc1c 0f3e 5a31 043e 8033 e0bb cce6 c13d
-0.07473315 0.013407603 -0.17932576 0.15534726 -0.08751334 0.20412049 -0.04670073 -0.10394717
0.21262288 0.10341713 -0.15233001 -0.025571436 0.029316977 -0.20793667 0.20846537 -0.18870732
-0.19558239 -0.16468345 0.042230994 -0.17815763 0.07764536 0.16352218 0.0824016 0.12880796
-0.0597914 -0.10562856 -0.13318197 -0.16222931 0.05275169 0.1868779 0.059234828 0.18893978
-0.08663584 0.106968075 0.07434794 -0.10519068 0.15493137 0.14691135 0.0701105 -0.21050538
0.07899457 0.11558062 -0.103943154 -0.016218781 0.13693753 -0.005928576 -0.116761446 -0.17482966
0.18301374 -0.192413 0.047748357 0.012807086 0.21422738 -0.035365686 0.13042757 -0.090498224
-0.19965328 -0.06976259 0.06224096 0.026239693 0.17771262 -0.1255205 0.19705606 0.17076999
0.1308952 -0.15693085 0.14609951 0.21480384 0.08022711 -0.018926308 -0.13497752 -0.06412223
0.065986395 -0.0005403012 -0.08224775 0.17560086 -0.025083363 -0.11004756 -0.035589457 0.0023151487
-0.14584643 0.19490597 -0.21289992 -0.07089211 0.034260824 0.1205256 -0.046905816 0.009873569
-0.19829953 0.014020979 -0.16233134 0.07134187 -0.055474266 0.116862565 0.065695256 -0.16685131
0.15784764 -0.16212256 0.014405206 0.016572386 -0.16896713 -0.02590084 -0.120963894 0.13125888
0.12181729 0.13588119 -0.06861965 -0.15371579 0.107642084 -0.04465604 0.10251981 -0.07326308
0.04562393 0.13683012 0.11675057 -0.055492908 0.09094909 -0.21160555 -0.098162025 0.041973025
-0.15839209 0.13459483 0.083253294 0.1733602 0.13975829 0.12909451 -0.006842077 0.09467849
