results/ppo/Racing/Racing-559.pt (torch, 603118 bytes, 48 tensors)

discrete_act_size_vector f4 [1, 2]
000000 00 00 40 40 00 00 40 40
       3.0 3.0

network_body._body_endoder.seq_layers.0.weight f4 [128, 29]
000000 16 9a cb 3c 84 a6 06 3e 7f a5 a1 3c 5e 74 c4 3d
       0.024853747 0.13149458 0.019732235 0.09592508
000010 1a d2 07 3c ee 16 79 3e 4f 69 04 be 96 99 0c 3d
       0.008289838 0.24325153 -0.12930797 0.03432616
000020 04 42 6e 3e 91 50 ac bc 95 13 a7 be c3 d8 f6 bc
       0.2326737 -0.02103451 -0.32632127 -0.030132657
000030 ca be c0 bd c5 f4 b6 bd f5 78 35 be 25 86 d1 3d
       -0.0941139 -0.08933405 -0.17721923 0.10230664
000040 4f b3 07 3e 46 92 81 be 41 9b 31 be 09 cc 7f 3e
       0.13251995 -0.2530691 -0.17344381 0.24980177
000050 a6 53 37 3d 96 4a ce bc e0 9d 73 3d 31 b2 2e be
       0.044757508 -0.02518205 0.059476733 -0.17060162
000060 e0 45 c2 3e 73 83 21 3e e9 bf 92 be c4 18 54 be
       0.37943935 0.157728 -0.2866204 -0.20712572
000070 65 07 dd 3c d6 db 47 3b 5c 22 6e 3d a7 2c 8d 3d
       0.026981065 0.0030496023 0.058138236 0.068932824
000080 b4 e6 8b ba d6 4f 8d be 54 0a 18 be 64 c4 52 bd
       -0.0010673613 -0.27599972 -0.1484769 -0.051456824
000090 e0 5d 19 bc 3a d1 46 3d ac bd 9c be 2d b3 29 3e
       -0.00936076 0.048539378 -0.30613458 0.16572256
0000a0 05 74 12 be 03 12 6d 3c f6 9b 40 3e 83 ad e1 3d
       -0.1430207 0.014469626 0.18809494 0.11019423
0000b0 95 e0 ae bd 13 3a 1f 3d 04 d4 11 3c fc 66 10 bf
       -0.085389294 0.038873743 0.008900646 -0.5640714
0000c0 80 9f 28 be 5c 15 8d be a9 1e 43 be 99 34 c8 bc
       -0.16467094 -0.27555358 -0.19054665 -0.024439143
0000d0 62 03 9d be 5f 56 a4 be fa 83 27 3d 43 09 04 be
       -0.30666643 -0.32097146 0.040897347 -0.12894158
0000e0 05 10 84 bd dd 1d 0b 3e f1 0a 86 3e 3a 75 08 bf
       -0.06448368 0.1358561 0.26180223 -0.53303874
0000f0 92 70 b2 3c f6 b6 80 be 4c 5e a2 3e c7 a6 39 be
       0.021782193 -0.25139588 0.31712568 -0.18130027
000100 96 3e 18 3e c4 13 56 3e a5 74 61 3d d0 fd c4 bd
       0.14867625 0.20905977 0.05504288 -0.096187234
000110 fa 19 1e be a4 6a 93 3e 8d c7 d0 3d 78 3a 09 be
       -0.15439597 0.28792298 0.10194311 -0.1340121
000120 82 c8 8a 3b 40 56 4c bc 62 57 5e 3e 83 ed 87 bd
       0.004235328 -0.0124717355 0.21713021 -0.06637099
000130 15 f1 3b bc 14 ef a2 bd 8a 29 c9 bd 81 4e 30 3e
       -0.011471053 -0.07955757 -0.09822376 0.17217447
000140 ad 47 e4 be ba 6c 26 3d e9 0e 6a 3e 6f 19 9b be
       -0.44585934 0.040631033 0.2285725 -0.30292842
000150 d8 2d 5b 3e b4 c7 20 be 60 e6 6e be b4 5b 28 3c
       0.21404207 -0.1570118 -0.23330069 0.01027577
000160 c9 35 b8 be 39 bf d7 bb 11 e9 6a bd 18 cf 05 bd
       -0.35978535 -0.006584075 -0.057351176 -0.032668203
000170 1c 89 22 3b f7 55 01 3e ed 4d 6e 3d e0 ab 47 3e
       0.0024800962 0.12630449 0.058179785 0.19499159
000180 2f 13 27 be 37 a8 c2 bc 66 31 1d 3e b2 13 ab bd
       -0.16315912 -0.023761852 0.15350875 -0.08353366
000190 0b f7 78 3e 26 f3 78 3b 15 86 b7 be 03 45 a6 bd
       0.2431299 0.0037986725 -0.35844484 -0.08118632
0001a0 30 79 27 bd 83 47 6c 3e 1c 44 c1 3d 2c de 2b 3d
       -0.040887058 0.23074155 0.09436819 0.041959926
0001b0 7b a7 93 3e fb 9c 9a bc ff 21 ab 3d 02 28 97 be
       0.28838715 -0.018873682 0.083560936 -0.2952271
0001c0 bd 92 2e 3e 59 27 8d 3e 68 ef ab bd 5c b5 52 3e
       0.17048164 0.27569082 -0.083952725 0.20576996
0001d0 07 b1 55 3d f3 36 ae bd 1d 01 b7 bd 5f ef 3e be
       0.05217078 -0.085065745 -0.08935759 -0.18646
0001e0 49 8e 6e 3c 3d 4e 38 3e ef fe 06 3e 3b 32 f7 3d
       0.014560291 0.17998596 0.13183187 0.120701276
0001f0 27 53 30 3e f0 32 53 bd f9 c1 70 bc 72 a2 22 3d
       0.1721922 -0.05156225 -0.014694684 0.0397057
000200 50 60 33 be ae 85 71 3e 94 2c 77 3e 43 29 15 bc
       -0.17517209 0.23586151 0.24138099 -0.009104076
000210 53 4c 63 bc 8e 23 f3 bb 70 01 27 3d 49 86 ec bd
       -0.013873178 -0.00742001 0.040772855 -0.1154905
000220 10 8e f7 bd 87 ed 04 3e 1d 10 88 3d d6 5d 94 bb
       -0.12087643 0.12981234 0.06643698 -0.0045277877
000230 fe 6d 35 3e 22 97 45 bc f2 e3 41 3e 44 0e 88 3e
       0.1771774 -0.012059959 0.1893461 0.26573384
000240 9a 19 53 be 92 ee 88 bd a5 a1 88 bd 84 d1 ef bd
       -0.20615235 -0.06686129 -0.06671456 -0.11709884
000250 74 75 12 3e e4 25 aa be 14 aa a1 bd c2 39 76 3d
       0.14302617 -0.33232033 -0.07893768 0.060113676
000260 38 29 19 3e d0 eb d5 3d 1c 50 16 bd 5d ef f1 3d
       0.1495713 0.10445368 -0.036697492 0.11813233
000270 32 cb 07 3a 33 e4 95 bd 1b ed 82 3b f7 58 71 3e
       0.000518012 -0.07318916 0.0039955503 0.23569094
000280 fc 1f 04 3f d0 01 32 be d9 ac e8 3d 02 4c f5 3d
       0.51611304 -0.17383504 0.11361093 0.11977388
000290 64 55 32 3b 54 43 10 be ab fd 38 be d1 62 de bc
       0.0027211541 -0.14088184 -0.18065517 -0.027146729
0002a0 07 de 82 3d 84 c6 28 3e 9f 13 cb be d0 52 43 3e
       0.063900046 0.16481978 -0.39663407 0.19074559
0002b0 5c 22 be 3d f2 1c 2e 3e 81 9b 95 be 39 64 0d be
       0.09283897 0.1700323 -0.29220203 -0.13807763
0002c0 33 0a 42 3e af a1 08 bd c2 bf aa be d8 ca c1 3e
       0.18949203 -0.03335732 -0.33349425 0.3785007
0002d0 fc 92 21 3e b6 c4 8e 3d 92 7b ab 3e 5b 73 5f 3e
       0.15778726 0.069711134 0.33492714 0.21821348
0002e0 80 fc 00 be 1b 7c 79 be 51 3e 05 be d2 ed f7 3d
       -0.12596321 -0.24363749 -0.13012053 0.121059075
0002f0 a2 8f 72 3d 63 d3 4b be 10 c0 13 be 82 61 7d bd
       0.05921901 -0.19904856 -0.14428735 -0.06186057
000300 a5 be e7 bd 76 a1 37 be 54 4f 9a ba 0e 34 13 be
       -0.113156594 -0.17932686 -0.0011772909 -0.14375326
000310 21 45 fe 3d c6 bd bc be f6 96 e8 3e 10 73 44 be
       0.12415529 -0.36863536 0.45427674 -0.19184518
000320 05 9f b7 3d e7 b6 cd bd 94 84 b2 3c c3 43 0f 3d
       0.089658774 -0.100446515 0.021791734 0.034976732
000330 70 20 01 be 6d 2e 68 bd 5a 0e 26 bd 90 5d e1 bd
       -0.1261003 -0.0566849 -0.04054103 -0.11004174
000340 ac 16 04 3f 78 d2 86 bd 95 61 bd 3d b0 f6 15 3e
       0.51597095 -0.065831125 0.09247128 0.14644885
000350 ca 70 8e be 9c f3 7f be 95 af f5 bd 53 54 60 be
       -0.27820426 -0.24995273 -0.1199638 -0.21907167
000360 2a c6 b7 3e 5b cc 69 3e 82 60 d6 3c eb 16 8a bc
       0.35893375 0.22831862 0.026169065 -0.016856631
000370 9d 76 69 be 04 fa 4d be 95 42 ad be 2c 38 f2 be
       -0.22799154 -0.20114905 -0.3383986 -0.4730848
000380 e7 f4 44 3d bb 7e 3f 3e 99 21 16 be 8f f6 d1 3d
       0.04808512 0.18700688 -0.14661254 0.102521054
000390 2e 13 54 bd 31 9e 29 bf 0a 4c c2 be d9 b1 3c be
       -0.051776104 -0.66257006 -0.37948638 -0.18427218
0003a0 44 a9 3e bd a0 3b b7 bc b6 61 3d 3e b8 ca 89 3e
       -0.046548143 -0.022367299 0.18494305 0.26912475
0003b0 ca 9c 79 bd 95 d9 7f 3c a3 fd 3a be 30 07 24 be
       -0.06094054 0.01561584 -0.18260817 -0.16018367
0003c0 91 39 b7 bd b1 80 b6 be e1 d8 74 bd 8d 03 32 be
       -0.08946527 -0.3564506 -0.059777144 -0.17384167
0003d0 08 a1 f6 3c f5 c9 fb bd 9c 1f 04 3e 8c 1e ca 3e
       0.030106083 -0.122943796 0.12902683 0.3947643
0003e0 fd 8f da 3d 60 89 5e be 0e 9f ff 3d 74 38 f4 bc
       0.10671995 -0.21732092 0.12481509 -0.029812075
0003f0 4f d4 a2 bc e5 5c 0a be 2d 23 10 bc ba 2e 8d bd
       -0.019876627 -0.13511999 -0.008797449 -0.06893678

network_body._body_endoder.seq_layers.0.bias f4 [128]
000000 d2 73 5b bb 20 d2 36 bd 28 a4 03 3d 1b 8d 1b 3d
       -0.0033485782 -0.044633985 0.032138973 0.037976366
000010 bf 49 d7 3c 70 47 a3 3c bd 78 a7 bb 1e 8f 8f 3a
       0.026280282 0.019931525 -0.0051108287 0.0010952686
000020 1f 49 0f bd 46 05 d6 3c 9d 31 00 3d 98 1b 5b bd
       -0.034981843 0.026125561 0.031297315 -0.053493112
000030 a7 7d 88 3c ad 8c 53 bd 92 e8 a2 bc 34 e1 f3 3b
       0.016661478 -0.05164783 -0.019886289 0.007442618
000040 df cf a2 3c 97 0d 21 3d 8c 3f 0f 3c e4 8c 88 3c
       0.019874511 0.0393196 0.008743178 0.016668744
000050 4f a9 b1 bb b6 81 30 bd c4 7b d8 3c b1 87 00 3d
       -0.0054217945 -0.043092452 0.026426204 0.031379405
000060 fe af ea 3c 7f 1d eb 3c 2e 46 b1 3c 2e b7 ea bb
       0.028648373 0.028700588 0.02163991 -0.00716295
000070 c1 e5 91 3d 9f ec f1 3c 2a 8a d1 bb 57 c1 1e 3d
       0.071239 0.029531775 -0.0063946443 0.038758602
000080 03 b9 13 bc 17 37 4d 3b 9c 03 8c 3d 05 55 b7 3b
       -0.009016278 0.0031313354 0.06836626 0.005594852
000090 0a 0d 35 bd d8 60 af 3c 34 18 e2 bc a6 d1 cd 3c
       -0.04420189 0.021408483 -0.027599432 0.025124382
0000a0 59 60 f2 3c 43 96 e5 3c ba 92 09 3d b3 6c 50 3d
       0.029586958 0.028025752 0.033587195 0.050884914
0000b0 28 10 c6 3c 02 ff ac 3c ad df 7d 3b 6e 68 07 3d
       0.024177626 0.021117691 0.0038738057 0.033058576
0000c0 cf d5 6a bc 39 34 d4 3c b2 8f ad ba ee 15 b8 3c
       -0.0143332025 0.025903808 -0.0013241677 0.022471394
0000d0 8c 25 6d bc bc 14 ef b7 f1 c3 05 3d 73 6f dd 3c
       -0.014474284 -2.8500675e-05 0.032657567 0.027030682
0000e0 c7 12 83 bc aa 1e 88 bb d4 9a 0d 3d 4e fd e2 3c
       -0.016000165 -0.004154046 0.034571484 0.027708676
0000f0 95 1f e5 bb cf a4 f3 3c 09 fe 10 3d ff 12 fc 3c
       -0.0069922903 0.029741673 0.035398517 0.030770777
000100 1e 2a d6 3c 63 e4 eb 3c dd 83 11 ba 53 2f db bc
       0.02614313 0.028795427 -0.000555096 -0.026755964
000110 7e db 63 3c 0c ac a3 3a 64 42 03 bd a1 7c 17 3c
       0.0139073115 0.0012487187 -0.032045737 0.009246022
000120 4f 06 06 3d a1 3c d9 3c 40 7b a2 bc 8a b1 bb 3c
       0.03272086 0.026518168 -0.01983416 0.022911806
000130 f2 26 72 bb bb a9 11 bd 0d cb 08 3d a4 be 4a bb
       -0.0036949483 -0.03556226 0.03339677 -0.0030936385
000140 76 e7 d6 3c 05 9e ac bb e7 a8 cb 3c c7 c2 c2 bc
       0.026233416 -0.005267861 0.024860812 -0.023774518
000150 5f 77 27 3d 98 26 05 3d 71 81 da 3c b0 de d1 3c
       0.040885326 0.03250751 0.02667305 0.025618881
000160 d7 e4 b3 3c 5e c1 3b 3c ef 89 ca 3c 21 42 45 bc
       0.021959705 0.011459677 0.024723975 -0.012039692
000170 84 ea d8 3c 6a b4 00 3d 11 d9 cc 3c a8 39 7f 3c
       0.026479013 0.031422056 0.02500585 0.015577711
000180 2d 86 4e 3c 2e 63 bd 3c 49 69 7a 3c 5a c8 04 3d
       0.012605232 0.023118582 0.015283891 0.032417633
000190 37 8a e0 3c df 0d 36 3c 13 94 bb 3c f9 5c 8e 3c
       0.027409656 0.011111706 0.022897756 0.017378317
0001a0 83 60 8f bb 20 1d b7 bb 31 88 23 3d 5a 28 a7 3c
       -0.0043755188 -0.005588189 0.039924804 0.020404983
0001b0 fc 58 8f 3c 18 7d 03 3d c3 3e 3e 3c 9a f2 be bb
       0.017498486 0.03210172 0.011611643 -0.00582726
0001c0 1d 8c c2 3c fa 2e f0 3c fc d8 20 3a a4 e1 5c bc
       0.023748452 0.029319275 0.0006135849 -0.013481531
0001d0 e8 48 ec bb aa 24 e8 3c 24 1a e9 3c dc 27 ab bc
       -0.0072108395 0.028337795 0.028454848 -0.02089303
0001e0 4e 70 df bc 4b c9 a2 bb 18 39 02 bc 96 55 14 3d
       -0.02727523 -0.0049678436 -0.0079481825 0.036214434
0001f0 3f 6b b1 3c 55 37 61 3d 0e 87 e1 3c 84 b3 d6 3c
       0.021657584 0.05498441 0.02753022 0.026208647

network_body._body_endoder.seq_layers.2.weight f4 [128, 128]
000000 8a fa 57 3e 34 66 f6 bb b8 67 30 be 0f 46 c4 bd
       0.21091667 -0.007519508 -0.17227066 -0.09583675
000010 72 76 87 3d e0 e6 3d bc 6f 1e b0 3c c6 8b 88 3d
       0.066143885 -0.011590689 0.021498887 0.06667285
000020 02 15 dd 3d ae 75 d3 bd a7 fe a5 bd 1f cb a8 bd
       0.107950225 -0.1032518 -0.08105212 -0.08241867
000030 76 23 fe bd c2 72 2f bd e7 51 65 bc 3d 67 df 3d
       -0.124091074 -0.04283405 -0.013996578 0.10908363
000040 59 ff 00 bd 02 09 92 3d c3 78 fb 3c 20 d0 24 3e
       -0.03149352 0.07130624 0.030697232 0.16095018
000050 19 06 0e 3e 8f 22 53 3d 0e d8 8d 3d 20 7e 3f be
       0.13869514 0.05154663 0.06925975 -0.18700457
000060 60 34 a3 bb 28 b8 9d bc af ab 06 3d b6 55 21 be
       -0.004980609 -0.019252852 0.032878574 -0.15755352
000070 9b 7c 2d bd 21 8a d1 3a e7 5c a6 3d a4 aa 19 3d
       -0.04235516 0.00159866 0.081231885 0.03751625
000080 4e 79 b0 3d db 95 18 3d ac 13 4f bc cd 01 13 3d
       0.08616887 0.03725229 -0.0126389675 0.03589039
000090 7b 7e 7c 3d a0 c4 86 3d d6 c0 a0 bc ec 49 cb 3d
       0.06164406 0.06580472 -0.019623201 0.09926209
0000a0 b0 68 85 bc ee 9f 17 be e7 05 aa bd f3 86 56 bd
       -0.01628527 -0.14807102 -0.08301907 -0.05237479
0000b0 f3 bb 1d be 2b 70 9d bd 94 f5 1b 3e 63 e1 9c 3d
       -0.15403728 -0.0768741 0.152304 0.076601766
0000c0 31 bf 10 3e 90 72 b0 3b 0c d2 83 3d 4a 4f 10 bd
       0.14135434 0.0053847507 0.06436548 -0.035231866
0000d0 3b aa d2 bc ad d3 16 3d d9 38 1a bd 85 32 82 3d
       -0.025715938 0.036822964 -0.03765187 0.06357292
0000e0 5d 82 88 3d 75 4e d3 3d 91 ff 11 3e dc 62 d0 3d
       0.0666549 0.10317699 0.14257647 0.10175106
0000f0 b9 e5 e9 bd 4f 21 ae 3d d5 ba f1 bc 97 2f 2f 3e
       -0.11420769 0.08502447 -0.029508034 0.17107998
000100 2b 5e 42 3c 87 26 b5 3d 30 05 b2 bc 42 53 c0 3d
       0.011863272 0.08845239 -0.02173099 0.0939088
000110 fb 58 c1 bb 98 dc 02 be 44 53 37 3d b3 4f 66 3c
       -0.0059005 -0.12779462 0.044757143 0.014057088
000120 a1 12 00 3e e3 2c e4 3d 36 88 d5 bd 3a 04 13 bd
       0.12507106 0.11141374 -0.10426371 -0.035892703
000130 26 64 b9 3d 62 5b c2 3d 23 c3 98 3d 03 84 3b 3e
       0.09052305 0.09490086 0.074590944 0.18312077
000140 93 f1 0a 3e 2e 9a 35 3e c1 11 83 3b 14 3c 0e be
       0.13568716 0.17734596 0.003999919 -0.13890105
000150 78 67 91 3d 55 2a 2e be 8f 15 cb bc d3 21 89 bd
       0.07099813 -0.17008336 -0.024790553 -0.066959046
000160 9f cc 2d be ff 1e 23 bd da cc 3c bd 82 2c 8a 3d
       -0.16972588 -0.039824482 -0.0460938 0.067467704
000170 ba ba 14 be 5b cb 19 be 8b 25 b7 3d 4a d1 4c bd
       -0.14524356 -0.1501898 0.08942708 -0.05000428
000180 05 6c 41 be 93 0a d5 3d 51 87 89 bd b5 02 58 3e
       -0.18888862 0.104024075 -0.06715263 0.21094783
000190 18 b6 a0 3c 21 68 ee 3c 17 f6 78 bc 68 7c 02 bc
       0.019618079 0.029102387 -0.015195391 -0.007964231
0001a0 a2 ce f3 bc 55 65 5c bc 52 e0 ec bd f8 93 84 bd
       -0.029761616 -0.013451894 -0.11566223 -0.06473535
0001b0 90 58 51 bb 85 b2 1c 3d e7 e7 a3 3d 98 af 52 bc
       -0.0031943657 0.038256187 0.08003216 -0.012859248
0001c0 72 64 47 bd 85 66 74 3d 2c ef d7 bd ae 56 83 3d
       -0.048679776 0.059668083 -0.10543665 0.06413017
0001d0 32 3e 03 3e c2 b8 75 bc 30 56 c0 3c e5 1a e4 bd
       0.12816694 -0.014997663 0.023478597 -0.11137942
0001e0 d9 00 43 3e f0 69 7f 3d 51 20 79 3d 14 c0 e0 bd
       0.19043292 0.06235689 0.060821835 -0.10974136
0001f0 d5 f4 2d 3e fc 66 7a 3d 3b 82 77 3d 0f 1d b2 bd
       0.16987927 0.06113337 0.06042693 -0.08696949
000200 6d 44 68 be a8 c0 51 3e a8 68 6b 3e 0b 11 bc 3d
       -0.22682352 0.20483649 0.22989142 0.09182938
000210 f8 fa ed 3c 22 0f 2d be 9c a3 0b be aa bd d1 bd
       0.029050335 -0.16900304 -0.13636631 -0.10241254
000220 ba c5 47 3e f0 8d 0c 3e 3a 80 b9 3d a3 46 e2 bd
       0.1950902 0.1372602 0.090576604 -0.11048629
000230 13 57 33 bd 79 9a 1b bd d4 1d 50 be 23 73 f8 3c
       -0.043784212 -0.037989113 -0.20323879 0.030328339
000240 92 40 a4 3c 64 8b 28 3d e4 33 58 3b 7a 5e a8 bc
       0.02005032 0.04114856 0.0032989914 -0.020552862
000250 41 36 8d 3d 76 22 8f bc fe fe 45 bd 5d b2 5c 3e
       0.06895114 -0.017472487 -0.048338883 0.21552415
000260 91 a1 b3 3d 75 a2 2c bd 76 ea 93 3d 58 35 b2 bd
       0.08771051 -0.04214712 0.07222454 -0.08701581
000270 1c f0 1e 3e 65 58 17 3b 86 ca 24 be 98 4c bf 3b
       0.15521282 0.0023093459 -0.16092882 0.005837988
000280 b3 2c d0 bd 52 27 0d 3d ce 22 7a bd 0f d6 07 bd
       -0.10164776 0.034461327 -0.06106835 -0.033163127
000290 8e be 65 3a 83 d2 4d bd ae 35 2b 3e 38 f0 f6 3d
       0.00087640516 -0.050249588 0.16719696 0.12057537
0002a0 d5 27 49 be fc cb b9 3d ad 31 dc 3c 28 32 62 3d
       -0.19644101 0.0907211 0.026879156 0.055223614
0002b0 f1 fb d3 bd 6d 31 c7 bd 74 37 39 be e0 f0 cb 3d
       -0.103507884 -0.09726224 -0.1808756 0.09958053
0002c0 cb 4c ad bd 3a d7 9e 3d 2e 40 4e 3d f9 89 28 3e
       -0.08461913 0.07755895 0.050354175 0.16458882
0002d0 03 a3 af bc 3b bd 08 be 0c 9e 08 3e b4 a8 96 3d
       -0.021440035 -0.13353436 0.1334154 0.07356396
0002e0 98 ba 9a bc f7 9c c6 bc 98 d6 3b be 59 e2 9c 3d
       -0.018887803 -0.024244769 -0.1834358 0.0766036
0002f0 11 c4 36 3e b6 7c e6 3c d3 d6 aa bd 8d a4 09 3e
       0.17848231 0.028135639 -0.08341756 0.13441677
000300 9e b4 0d be a1 02 0e 3c 84 bc bb 3b d3 00 39 ba
       -0.13838431 0.008667619 0.00572926 -0.0007057313
000310 dc 52 47 3d 92 9d af bc 90 7e 17 be 42 e2 0c bd
       0.048663005 -0.02143744 -0.14794374 -0.034395464
000320 85 81 26 bd 25 e8 11 3e 95 30 94 bc b9 84 3d 3d
       -0.040650863 0.14248712 -0.018089572 0.046269152
000330 9f eb 5b bd eb 9f 1a be 96 a0 57 bd 61 71 d6 bd
       -0.053691503 -0.15100066 -0.05264338 -0.10470844
000340 a9 40 20 3d 07 3f 81 bd 46 93 5f 3e 20 5e 23 be
       0.039124165 -0.0631085 0.21833524 -0.15953875
000350 a8 66 aa 3d bf 0d d1 3d d7 36 10 bd 7f e7 06 3e
       0.083203614 0.102077 -0.03520855 0.13174246
000360 b9 5b 19 bd 01 28 00 3e e7 7b b5 3a 2f dd b9 bd
       -0.03744099 0.1251526 0.001384613 -0.090753905
000370 59 bf bb 3d 18 05 7a bd ef 10 0a be 01 96 f9 3c
       0.09167356 -0.061040014 -0.13483022 0.030467035
000380 87 d1 a6 3d 06 68 b2 bd 01 30 91 bd b3 2b 41 bd
       0.08145433 -0.08711247 -0.07089234 -0.047160815
000390 e8 7f e7 3d 84 12 91 bd dd 35 b2 bc 08 9d 25 bc
       0.11303693 -0.0708361 -0.0217542 -0.01010824
0003a0 74 88 c7 3d 4b 74 6c bb 20 0a 95 bc aa 0d 5d bb
       0.09742823 -0.0036080058 -0.018193305 -0.0033730068
0003b0 56 ac 9c 3c 09 e9 1e bd 36 5a c1 bd e3 61 13 3d
       0.019125145 -0.03879646 -0.094410345 0.035982024
0003c0 bb d6 0d 3d 2d 29 4d bd ab df 5c bd 3f 18 5a be
       0.03462861 -0.050088096 -0.053924244 -0.21298312
0003d0 71 25 6a 3c 1d 33 76 3d 05 f2 82 bc 94 fd 1a be
       0.014291153 0.06010734 -0.015984545 -0.15135795
0003e0 06 30 38 3c 25 b5 62 bc 28 00 a0 3d bc af d7 bc
       0.011241918 -0.0138371335 0.0781253 -0.026328914
0003f0 33 ed 82 bd ac 79 88 bd c6 ad 9b bd 04 60 5f bd
       -0.063928984 -0.06663832 -0.07601504 -0.054534927

network_body._body_endoder.seq_layers.2.bias f4 [128]
000000 6d ec c1 bc a5 77 eb 3c d6 f2 00 3d 96 d6 be 3c
       -0.023672307 0.028743574 0.031481586 0.023295682
000010 ef cc 0a 3d 77 35 83 bc 66 b2 06 3d 27 19 8c 3c
       0.033886846 -0.016016705 0.032884978 0.017101837
000020 a3 9c 14 bb b5 5a 11 3d c2 52 10 bd c8 d7 5d bb
       -0.002267637 0.035486896 -0.035235174 -0.003385054
000030 80 78 a1 3c 08 5b f3 3c bf 1e d1 3b c8 2b 92 bc
       0.01971078 0.029706493 0.006381839 -0.017843142
000040 49 b9 76 3c 24 7c 98 3c 3c 34 cc 3c c7 3d e0 3c
       0.015058824 0.018613882 0.024927251 0.027373208
000050 63 b3 3d 3d b3 98 2e bc 0b 2e 98 3c 55 2b 0d 3d
       0.046313655 -0.0106565235 0.018576642 0.034465153
000060 9a 6e f8 bc f0 7a 38 bc 2c 27 fe bc e8 30 7b 3c
       -0.030326176 -0.011259779 -0.031024538 0.015331484
000070 6d 0d d2 3c 45 67 a0 3c 3b 8b d4 3c 51 c1 61 ba
       0.025641168 0.019580493 0.025945297 -0.0008611875
000080 2e fe a7 3c 71 8b 6b bb 7b fb e0 3c 25 d6 be 3c
       0.020506945 -0.0035941268 0.027463665 0.023295471
000090 0a 7f c7 3c 4e 1b f2 3b 93 ff ee 3c 10 ad 95 3b
       0.02435257 0.007388509 0.029174602 0.00456775
0000a0 7a 3f 8a 3c 0e a5 a6 3c be cb 09 3d 35 aa 79 3c
       0.016875971 0.020342376 0.03364157 0.015238334
0000b0 5f a5 24 3c 1a 87 e0 3c 3c 72 b9 3c 42 4d d9 3c
       0.010049193 0.027408171 0.022637479 0.026526097
0000c0 85 27 e7 3c 86 d9 5a 3d c5 3e 3d bc 40 03 49 3c
       0.028217087 0.053430103 -0.01155061 0.012268841
0000d0 41 d8 fd 3c 26 c1 1b 3b b7 b2 8e bc c2 36 da 3b
       0.030986907 0.0023766248 -0.017419202 0.0066593597
0000e0 21 24 ee 3c c2 99 0a 3d 5b 34 03 3d 7f 18 d9 3c
       0.029069962 0.03383804 0.032032352 0.026500938
0000f0 7e 3d bf bc 8b 9a d8 3c 51 9e af bc ac 4b fe 3c
       -0.023344751 0.02644088 -0.021437796 0.031041943
000100 d1 38 5d 3c 54 fe a7 3c 00 12 f5 3c 02 4c d8 3c
       0.013502316 0.020507015 0.02991581 0.02640343
000110 e8 45 d5 3c 43 0c 04 bc 62 03 f2 3c f6 25 12 3d
       0.02603431 -0.008059564 0.029542629 0.035680734
000120 3a 3c 01 3d 89 0c 8d 3c a8 fe 72 3b be 44 e2 3c
       0.031551577 0.017217891 0.0037078056 0.02762067
000130 9e 60 a1 3c 54 ff b3 bc f1 35 e5 3c 91 af ce 3c
       0.019699391 -0.021972336 0.027979823 0.025230201
000140 79 c0 ca 3c 0b 3f 0b 3d 60 67 40 bc 23 ff f0 3c
       0.024749981 0.03399567 -0.0117433965 0.029418534
000150 5e 24 6a 3c 80 94 49 3c d6 53 bb 3c d2 62 d6 3c
       0.014290897 0.012303472 0.022867125 0.026170168
000160 2f 4e 62 3c bd a3 99 3c 71 a3 c4 3c 15 25 bf bb
       0.013812586 0.018754834 0.024003716 -0.005833278
000170 e4 ce be 3c 2e e9 21 bc f2 ef e0 bb 4e ca bd 3c
       0.023292013 -0.0098822545 -0.006864541 0.023167755
000180 2a 28 97 3c 3c 80 a8 3c 3f 38 28 bc 1b 88 ef 3c
       0.018451769 0.02056896 -0.010267316 0.029239705
000190 f9 50 f1 3b 47 b2 a8 3b 8e 20 41 3c f7 6c d7 3b
       0.007364389 0.0051482054 0.011787547 0.006574269
0001a0 df 7b d0 3c 22 3e 84 3c 1b 08 88 3c b9 26 0e bc
       0.025449691 0.016142908 0.016605427 -0.008676224
0001b0 60 17 07 bc da b7 0b 3d b3 d7 de 3c f2 3a 07 3d
       -0.008245319 0.03411088 0.027202463 0.0330152
0001c0 70 7d 7a 3b 98 05 cb bc 23 66 e1 3c 50 7a f2 3c
       0.003822174 -0.02478294 0.027514523 0.029599339
0001d0 63 0d 66 3d 94 cc e1 3c 62 6f 95 3c 60 c0 4b 3c
       0.05616511 0.02756337 0.018241588 0.0124360025
0001e0 89 81 49 bc ff 56 98 bc 0b f3 b6 3c f2 d5 d3 3c
       -0.01229895 -0.01859617 0.022332689 0.025858853
0001f0 1e d5 2b bc 46 4d 00 3d 6d c9 eb 3c 2c 45 bf b9
       -0.010487823 0.031323694 0.02878257 -0.00036481896

action_model._discrete_distribution.branches.0.weight f4 [3, 128]
000000 9d 5e 91 3b 9a b8 83 bc fa 19 a6 bc e7 7d 1e bd
       0.0044363276 -0.016079236 -0.020276058 -0.03869429
000010 50 b4 8c 3c e4 7a 03 3d 63 89 32 bd 71 b4 1c 3d
       0.017175823 0.03209962 -0.043588053 0.03825802
000020 db ce df bc b2 b8 cd bc 85 b0 a1 3c f6 90 2d 3d
       -0.027320316 -0.025112484 0.019737491 0.042374574
000030 2f 80 1e bb 5b 2d 9f bc 48 3c 07 3d a3 86 98 3c
       -0.002418529 -0.019430807 0.033016473 0.018618887
000040 d5 e1 3d 3d dd 58 ca 3a 0b 0e 20 bb f6 36 f8 bc
       0.04635795 0.001543786 -0.0024422433 -0.030299645
000050 02 c8 24 3d c0 7c ae 3c 2b e5 c4 bc 09 1d 74 bc
       0.040229805 0.02129972 -0.024035057 -0.014899501
000060 f3 cc be bc 47 50 a1 3b 07 4e 1c bc ca fe 0c bc
       -0.023291087 0.0049229 -0.009540088 -0.008605668
000070 58 3b 3d bc f9 cb 15 3d 99 8b 16 3c f0 15 7d 3d
       -0.011549793 0.036571477 0.009188556 0.0617885
000080 37 ae 0a 3c f0 79 c4 bc b8 a0 99 bc df bf 15 bd
       0.008464388 -0.023983926 -0.018753394 -0.036559936
000090 56 f5 d8 3c bf 45 47 bc 2a d4 2b bd 5a 30 00 3d
       0.026484173 -0.012162625 -0.041950382 0.03129611
0000a0 d9 c0 0b 3c d2 8e 6b bc 95 19 06 3d bc d8 8d bc
       0.008529865 -0.014377313 0.03273924 -0.017315261
0000b0 c3 bf 62 3c a8 c5 19 bd 1c fe b6 bc 8d 5f 54 bd
       0.013839665 -0.037542015 -0.022337966 -0.051848937
0000c0 7d 59 b4 3c 71 87 2c 3d b3 42 d1 3c 7b 70 e1 bc
       0.022015328 0.042121354 0.0255445 -0.027519455
0000d0 14 bc c0 bc de 33 dc 3c e3 70 01 3d 7f 94 cd bb
       -0.023527183 0.026880201 0.031601798 -0.0062738056
0000e0 09 2e e0 bb 7f c2 61 bc 32 e1 2b bd 3b d6 15 bc
       -0.0068414253 -0.013779282 -0.04196281 -0.009145315
0000f0 dc cf 47 3d 14 66 99 bc db 0d 1e bd 5d f5 96 bc
       0.048782215 -0.018725432 -0.038587432 -0.018427545
000100 06 cb 40 3d ec bb f3 bc ac f4 3d bb fc 5d 24 bd
       0.04706862 -0.029752694 -0.0028984947 -0.040128693
000110 b6 d8 a5 3b ca ad a2 3c 12 4b db bc b4 a9 82 3a
       0.0050612343 0.01985826 -0.026769195 0.0009968788
000120 31 0a a6 bc 16 88 e2 bc be 80 52 3d 21 47 18 bd
       -0.020268532 -0.027652781 0.05139231 -0.03717721
000130 ac 6e c3 bc e3 26 fd 3b 44 b7 c2 ba 6c 48 f2 bc
       -0.023856483 0.007725583 -0.0014855643 -0.029575549
000140 99 c5 4f bc a0 27 75 bc f6 c2 c6 ba aa 29 01 bc
       -0.012681388 -0.014963061 -0.0015164304 -0.007883469
000150 73 25 8d bc f0 99 01 3d db 9c 6b 3d 0f 71 a9 bc
       -0.017229771 0.031640947 0.057522636 -0.020683793
000160 e7 c5 48 3d ea 18 6f 3b d2 b1 39 bd 92 a9 c2 3c
       0.04901686 0.0036483356 -0.0453356 0.023762498
000170 c0 24 bd bc eb 31 36 3d df 8a 62 bc ab d2 db ba
       -0.023088813 0.0444812 -0.013827055 -0.0016771158
000180 b3 e9 71 bc 7e 41 a3 bc 42 53 99 3c 12 cd 2c bc
       -0.014765191 -0.01992869 0.018716458 -0.010546939
000190 c3 74 f3 3b 1e 8d f0 3c 9f da b3 3b f8 8e 62 3b
       0.0074296906 0.029364165 0.005488708 0.003457008
0001a0 db c6 de bb 54 95 d4 bc 49 a8 83 3d 2c 4a a5 3c
       -0.0067986078 -0.025950111 0.06428582 0.02017697
0001b0 bd 53 a6 3c 3f 26 21 bd 55 83 2f bc 2b de 2c bc
       0.020303601 -0.039343115 -0.010712464 -0.010551016
0001c0 f9 bd 31 bc f5 43 8b 3c 88 d3 1a bd ef 25 99 3a
       -0.010848516 0.017000178 -0.03779939 0.0011684279
0001d0 f3 b8 8e 3c cd b5 4b bc c5 2c f7 bb e9 83 67 3d
       0.017422175 -0.012433481 -0.0075431787 0.056522284
0001e0 2c 17 03 3d c6 2d 97 3c 99 7c 26 bc 77 a9 ba bc
       0.03200452 0.018454444 -0.010161542 -0.022785885
0001f0 6b 5e 3b 3c 02 80 e9 bc e9 bf b3 bc bf 28 4b 3d
       0.011436085 -0.028503422 -0.021942096 0.049599405
000200 0b 90 cc bc e0 88 73 3d 0c aa 6b 3d 4f 70 58 3d
       -0.024971029 0.059456706 0.057535216 0.05284148
000210 00 93 52 3c c5 ed 57 bd 12 95 63 3d fb b0 4b bd
       0.01285243 -0.05271699 0.055562086 -0.04972933
000220 5d 79 a6 3a 05 e8 6b 3d 36 5f a9 bc 8e 41 65 bd
       0.0012700964 0.057594318 -0.020675283 -0.05597072
000230 34 4b b3 3c cd 07 4a 3d 52 c8 52 bd 92 b8 26 bd
       0.021886446 0.049323846 -0.05146057 -0.040703364
000240 c2 4f 52 bd 5b 3c c8 3c ad c7 ed 3c 8c 53 0a 3d
       -0.051345594 0.024442842 0.029025877 0.033771083
000250 dd f1 65 bd 87 d2 10 bd 64 d9 bf 3c 3a aa 27 3d
       -0.056138862 -0.035357025 0.02341909 0.040933825
000260 8e 93 62 bc ed 37 14 bd 85 dc cd bb ac c1 c6 3c
       -0.013829125 -0.036186147 -0.0062823915 0.024262272
000270 ff f7 4a 3d 64 01 38 bd b0 bc 98 3c 02 86 37 bd
       0.049552914 -0.0449232 0.01864466 -0.044805534
000280 86 cf 6c bc 54 da 17 bd fb e6 56 3d 0a 47 0b 3d
       -0.014453774 -0.03707345 0.052466374 0.034003295
000290 93 3b 6d bc c8 6f 91 3c cc 1a 68 3d c4 71 32 bd
       -0.014479536 0.017753497 0.05666618 -0.043565527
0002a0 94 4d 8e 3c 59 d5 a4 3c 44 a7 7e ba a7 fc c8 3c
       0.017370977 0.020121263 -0.00097142556 0.024534537
0002b0 cf 9c d7 bc 6a f3 9b 3c 19 80 d4 3c 82 5e 56 3d
       -0.02631989 0.019036967 0.025939988 0.052336223
0002c0 94 65 40 bb 8f a6 58 bd c0 ae 37 bd 13 d0 f1 3c
       -0.002935742 -0.052893218 -0.04484439 0.029518163
0002d0 92 31 53 3d ed 90 6e bd a5 10 0b bd cb b9 1c 3c
       0.051560946 -0.05824368 -0.03395142 0.009565781
0002e0 08 74 21 3d 20 a9 65 3d 9a 95 56 3d 18 c0 2b 3d
       0.039417297 0.056069493 0.052388765 0.04193124
0002f0 61 ab 23 bd a0 37 43 3d 1c 24 c0 3c 38 2d 55 3d
       -0.03995836 0.04766047 0.023454718 0.052045077
000300 02 51 70 bd 09 1d 28 3d 4d 3f f7 3c 61 7a 33 3d
       -0.058671005 0.041043315 0.030181551 0.04381788
000310 62 f6 0d 3d 0f 26 2b bd fc e2 6a 3d 64 82 af 3b
       0.034658797 -0.041784342 0.057345375 0.00535612
000320 07 cc db 3c 71 16 f9 3c 1d b9 90 bd 2f 96 1f 3d
       0.026830686 0.030406209 -0.070665576 0.038961586
000330 8a aa fc 3c ed 01 0f bd 46 c6 39 3c 60 ee 02 3d
       0.030843038 -0.034913946 0.011338776 0.031965613
000340 06 d3 1d 3d d4 a8 e2 3c 31 32 9e bc cb ef 32 3d
       0.038531326 0.027668394 -0.019311043 0.043685716
000350 7f a8 12 3d f3 ed 11 bd ec bf 96 bd d6 94 02 3d
       0.03580522 -0.035627317 -0.07360825 0.031880222
000360 e7 af 38 bd fa 96 cd bb 85 e5 44 3d c3 e6 52 bd
       -0.04508963 -0.0062741013 0.04807045 -0.051489603
000370 48 18 32 3d 19 77 7d bd e7 2c 19 bc 79 3a 1c 3d
       0.043480188 -0.06188116 -0.009349084 0.0381417
000380 5d 1d 8d 3c ec 69 57 3d 9e c9 2e bd 45 3b fc 3c
       0.017225916 0.05259125 -0.042672746 0.03078998
000390 c2 e3 f5 bc 8c 54 62 bd cc 90 84 bc 86 7c fe bc
       -0.03001583 -0.05525641 -0.016182326 -0.031065237
0003a0 e3 32 11 3d 8a b0 ef 3c d4 9e 81 bd 56 8c 17 bd
       0.03544892 0.029258985 -0.06329122 -0.03699907
0003b0 ac 16 cf bc 5b 6d 4d 3d c1 b4 5d 3d d2 e3 a5 3c
       -0.025279365 0.050153118 0.05412746 0.020250235
0003c0 d3 18 c9 3c ad 86 6b bc 11 bd 82 3d 96 5c e5 3c
       0.02454797 -0.014375371 0.06383718 0.02799825
0003d0 6d fa 0c bc 72 03 4d 3c 7c 98 f2 3c b8 92 82 bd
       -0.008604628 0.012513028 0.029613726 -0.06375641
0003e0 06 18 68 bd d0 4b 3b bd 4c 81 39 3b 12 07 af 3b
       -0.056663536 -0.045726597 0.0028305827 0.005341419
0003f0 21 ae 3d bd 80 f7 67 3d 06 9a 4c 3d 2c a0 8d bd
       -0.04630864 0.05663252 0.049951576 -0.06915316

action_model._discrete_distribution.branches.0.bias f4 [3]
000000 28 15 02 bc 68 65 b0 3c f0 05 e6 bc
       -0.007939614 0.02153273 -0.028079003

action_model._discrete_distribution.branches.1.weight f4 [3, 128]
000000 c1 96 74 bb f7 d7 ce 3c d5 a4 81 3c 58 da 40 3c
       -0.0037321302 0.025249464 0.015825668 0.011770807
000010 64 c9 a6 39 fa 7d 1f ba 6e bb d9 3c e0 36 05 3d
       0.00031812035 -0.00060841406 0.026578631 0.032523036
000020 1f 41 88 3b bd e1 f7 3c b7 99 a0 bc b5 82 da 3c
       0.0041581537 0.030259008 -0.019604547 0.026673654
000030 59 d3 6e 3c 84 eb c4 3c 2a 38 ef 3c 6b 57 bd bc
       0.014576756 0.024038084 0.029201586 -0.023112973
000040 d4 60 f6 3c 27 31 b5 ba d0 d4 64 3a be 74 ed 3b
       0.030075468 -0.0013823853 0.00087292213 0.007246583
000050 5c a9 36 3c a6 42 ce bc d4 8e 26 3c 73 c5 fa 3c
       0.011148777 -0.025178265 0.010165889 0.03061173
000060 cb d2 ce bc 68 28 fe bc 6d dd ce bc db 89 11 bc
       -0.025246998 -0.031025127 -0.025252068 -0.008882965
000070 d2 ec 38 3c 13 7e 46 3c 94 29 17 3c 4f 92 bb 3c
       0.011286931 0.012115019 0.009226222 0.022896914
000080 02 ec 94 3c 7f 6d 00 bd 3f 51 22 3c 97 6d b5 3c
       0.018178944 -0.031354424 0.009907066 0.022146983
000090 ef 78 22 3d 34 f2 dc bc 9a 60 01 3d c9 ba 28 3c
       0.039666113 -0.02697096 0.031586267 0.010298439
0000a0 e6 89 62 3b 23 b2 6e 3c 3b 40 d7 3a 64 c7 f0 ba
       0.0034567057 0.014568838 0.001642234 -0.001836997
0000b0 05 0a e2 3b 0f 97 e8 3c 2a 81 59 bc e1 3c f6 3c
       0.006898167 0.028392343 -0.013275424 0.030058326
0000c0 33 d2 91 3c 10 99 89 3c 14 2b c7 bc ef b7 8a 3b
       0.017800426 0.016796619 -0.024312533 0.0042333524
0000d0 08 01 90 3c d4 f0 78 3c 58 3d 33 bc 51 fb 7b bc
       0.017578617 0.015194137 -0.010939918 -0.015379743
0000e0 0f a2 87 3c 93 5a 81 3c 05 2e 9f 3c 38 0f 0e 3d
       0.016556768 0.01579026 0.019431124 0.034682482
0000f0 91 d7 30 bb a3 15 c3 3c a3 10 d6 bc 07 87 62 3c
       -0.0026983956 0.023814028 -0.02613098 0.013826138
000100 2a 81 f5 3b 1e 57 d7 3c a6 fe 47 3b 09 6a 42 3c
       0.007492204 0.026286658 0.0030516773 0.011866101
000110 83 1b 7b bb b8 70 d2 bb f9 2a 16 3d 6c 00 07 3d
       -0.0038315959 -0.0064221285 0.036662076 0.032959387
000120 8f 83 68 3c 4e 5d 1d ba 1a 6b be 3c 66 f6 40 3c
       0.014191522 -0.0006002978 0.02324443 0.011777496
000130 5c da c1 3c b3 2c 97 bc 57 af 6e 3c 92 d9 05 3d
       0.023663692 -0.018453931 0.014568171 0.032678194
000140 2a 5f 1f 3c 62 d2 8c 3c 03 9b d2 bc d1 e1 21 3d
       0.009727279 0.017190162 -0.025708681 0.039521996
000150 84 6d ef bb 46 9f de 3c 97 ff 9b 3b 47 e8 b3 3c
       -0.0073067565 0.027175557 0.0047606933 0.021961344
000160 8e 22 13 3d d8 3f 7c 3c 9b 64 09 3c 5a 21 eb bc
       0.035921626 0.015396081 0.008385803 -0.028702427
000170 a2 24 5a 3c 14 a5 13 3c e4 7a 97 bc a6 28 d4 3c
       0.013314398 0.009011526 -0.018491216 0.025898289
000180 ac 64 e1 bb 5a 97 03 bc 36 b7 1c bc c2 16 7d 3c
       -0.006878456 -0.0080316905 -0.009565165 0.01544732
000190 12 50 b1 3c 8a 74 0c 3d 25 ab 68 bc 69 a2 3e bc
       0.021644626 0.034290828 -0.01420096 -0.011635401
0001a0 ae 78 9d 3c 70 09 90 3c 88 28 4b 3c a2 ab 93 bb
       0.019222584 0.017582625 0.0123998 -0.004506544
0001b0 7a bf 22 bd f8 45 db 3c 46 4b 64 3c 4b 5a 83 3c
       -0.039733388 0.026766762 0.013933962 0.016034266
0001c0 dc c0 ab bb 4e 13 69 bc 24 ec 35 bc 5b 29 31 3c
       -0.0052414965 -0.014225794 -0.011103664 0.010813083
0001d0 22 d6 dd 3b b9 a5 0f 3c 75 9b 49 3c 75 a1 1a 3c
       0.0067699114 0.008767539 0.01230513 0.009437908
0001e0 e4 e6 40 3a f4 4b 3f bc 91 42 e2 3c 44 b4 ea bb
       0.0007358624 -0.0116758235 0.027619632 -0.0071626026
0001f0 d6 ca 16 bc 3f ba 8d 3c ff 39 a3 3c 6e 24 e5 3c
       -0.009203633 0.017300723 0.019925116 0.027971473
000200 50 9d 90 3c b0 fb 9d bc 4e 1e f3 bc 0c 8c 5b bd
       0.017653137 -0.019285053 -0.029677536 -0.053600356
000210 f9 18 e2 bd d7 9f e8 3b 9b 49 61 bc cf d9 b3 3c
       -0.110399194 0.0070991325 -0.013750459 0.021954445
000220 1d bd 47 3d 28 1a 92 3a 06 f4 8c 3c 27 71 0f bd
       0.048764337 0.0011146711 0.017206203 -0.03502002
000230 a2 51 41 bd 4a 82 da bb 67 f9 ca 3b 4a bf 01 3d
       -0.04719699 -0.0066683637 0.006194282 0.031676568
000240 60 c0 d7 3c ff 40 48 bd b8 a2 ac bd 6a 44 22 bd
       0.026336849 -0.04889011 -0.08429474 -0.039616026
000250 a5 a8 35 3c 0f 3c 20 3d 0f 7b e4 b9 1b be 4f bc
       0.011087571 0.039119776 -0.00043579235 -0.012679602
000260 fa 67 30 3d e0 5c 30 3d ea 7a 47 3c 6f e5 c2 bc
       0.04306791 0.043057323 0.012175301 -0.023791043
000270 39 7f 2b bd 64 a6 94 bc 90 4a 6e bd dc 37 53 ba
       -0.041869376 -0.018145747 -0.058176577 -0.0008057335
000280 34 83 37 3d 9f 00 97 3d 0d 66 8b bb 6a 32 1e 3c
       0.04480286 0.07373165 -0.0042541088 0.009655574
000290 84 a0 6b bd 32 e4 c3 3d fd 74 e3 bb f1 de 02 bd
       -0.057526127 0.09565009 -0.0069414363 -0.031950895
0002a0 57 10 81 bc 0a 60 5d bc 47 26 7c bd 47 ba 14 bd
       -0.015754862 -0.013511667 -0.06155994 -0.03631046
0002b0 f7 ec dd 3c 43 a0 b4 3d 02 3e 50 bd fb b1 68 bd
       0.027090533 0.0881963 -0.050840385 -0.05681036
0002c0 77 bc 8d bd 2c 43 87 bd f7 1a 9c 3c 48 ab 00 bd
       -0.069207124 -0.06604609 0.019055827 -0.031413347
0002d0 e4 58 b8 bc 1e 41 33 3b c8 04 87 3b 97 39 c9 3d
       -0.022503324 0.0027352045 0.004120443 0.098254375
0002e0 ba 2d 1c bd 01 78 93 3b 29 c1 a5 bd d5 5d 06 bc
       -0.038129546 0.0045003896 -0.08093483 -0.008201082
0002f0 fd e2 ca 3b f7 39 28 bd 53 e9 13 3d c4 92 94 bb
       0.00619161 -0.041070905 0.036111187 -0.0045340974
000300 6d fc c6 3c 76 3f c9 bc a3 0d 33 bd 18 0a a8 bc
       0.024290288 -0.024566393 -0.043714177 -0.020512626
000310 82 ac 3e bd b5 d4 04 3d b1 c0 04 3d 4a fc 4e bd
       -0.046551235 0.032429416 0.032410327 -0.05053357
000320 c3 39 10 bd 20 16 04 bd d3 38 77 3c fd 40 2c 3b
       -0.035211336 -0.032247663 0.015089232 0.0026283853
000330 da fc f1 bc 60 24 18 3d f4 23 fd bc c0 d9 bb bc
       -0.029539514 0.037144065 -0.030900933 -0.02293098
000340 a7 ba 47 bc cf 84 f3 bc f3 fc 0d 3d 42 73 cd 3b
       -0.0121904975 -0.029726414 0.03466506 0.0062698433
000350 eb ec 4f bc 64 64 b6 3c f8 5a ad bc 4d 84 e8 bc
       -0.012690763 0.022264667 -0.021161541 -0.028383398
000360 bb fc 01 bd b9 47 ed 3c f3 f0 aa bc 6a f7 c3 3c
       -0.031735163 0.028964864 -0.020866847 0.023921687
000370 0f 7c 9b bb 12 7e a7 bc ab 27 de 3d 46 8b e7 bc
       -0.0047450135 -0.020445857 0.1084741 -0.028264653
000380 f5 ad 5c bd 0b 4b 1e bc cd e4 19 3d 07 54 f8 bc
       -0.053876836 -0.009661446 0.037571717 -0.030313505
000390 72 60 14 3d 8e 57 cc 3c 3d 81 94 3d b9 f3 04 3d
       0.03622479 0.024944093 0.07251213 0.032458995
0003a0 3a 99 42 bd 3b a0 52 bd 33 3d 4d bd 65 36 93 3c
       -0.04750941 -0.05142234 -0.050107192 0.017970273
0003b0 a6 58 30 3d 64 96 8f bc 54 80 7b bc ed 2a 20 bd
       0.04305329 -0.017527767 -0.01535042 -0.039103437
0003c0 58 f0 60 bc 75 39 5b 3c 98 10 87 bc e7 d5 84 bd
       -0.013729177 0.013380398 -0.016487405 -0.06486111
0003d0 fd f1 07 be f8 d8 b4 3d 8f a8 d4 bc a8 18 08 bd
       -0.13275905 0.08830446 -0.025959281 -0.03322664
0003e0 21 d7 89 bc 87 af 48 3d b5 e1 85 bd 09 23 b9 3d
       -0.016826214 0.04899552 -0.06537191 0.090398856
0003f0 a4 bc 13 3d fa ed bb bc 7a 8f 1d bd 82 28 d0 3c
       0.036068574 -0.022940625 -0.038466908 0.02540994

action_model._discrete_distribution.branches.1.bias f4 [3]
000000 fc 5d 93 3c 42 0e 95 bc d5 7d 92 39
       0.017989151 -0.018195275 0.00027941042

exp_avg f4 [128, 29]
000000 c4 97 5a 39 e1 dc 55 3a 59 f0 01 b0 18 df 89 37
       0.00020846637 0.00081582187 -4.727148e-10 1.6435559e-05
000010 36 fe df 39 a1 83 1c 3a f0 69 43 30 2e b5 cd 37
       0.00042723276 0.0005970542 7.1091133e-10 2.4522273e-05
000020 bc c4 86 39 73 20 49 3a 23 3b 03 b0 09 4e 19 37
       0.0002570505 0.0007672377 -4.774156e-10 9.13768e-06
000030 ce 36 1a 3a 17 98 e4 39 ab 23 7e b0 13 d9 db 37
       0.00058828003 0.00043600865 -9.245535e-10 2.6207917e-05
000040 25 42 6a 39 20 f2 51 3a 89 22 f4 30 14 fc 57 37
       0.0002234062 0.0008008797 1.7763152e-09 1.287369e-05
000050 95 12 74 3a a9 81 c3 38 00 00 00 00 83 fa 33 38
       0.000931063 9.322476e-05 0.0 4.2910233e-05
000060 fb 28 31 b8 a8 ca 8b 3a a6 55 0a 30 8e a0 4d 37
       -4.2238255e-05 0.0010665255 5.032582e-10 1.2256334e-05
000070 00 00 00 00 78 43 3c 37 22 85 4d 38 dc af 86 b1
       0.0 1.1221382e-05 4.89998e-05 -3.919906e-09
000080 f8 77 0d b6 e4 15 00 36 ae 94 74 38 f9 d1 88 b1
       -2.1080468e-06 1.9086228e-06 5.8312602e-05 -3.981992e-09
000090 4e 0d 9e b5 87 40 81 38 f0 62 bd b5 1a ad 85 b1
       -1.177579e-06 6.1632185e-05 -1.4110392e-06 -3.890489e-09
0000a0 bf b9 bc b5 34 35 84 38 dc 47 3d b6 3d a2 84 b1
       -1.4061151e-06 6.30416e-05 -2.8205022e-06 -3.86015e-09
0000b0 20 3a c4 b3 8e 08 56 38 7e 26 1a 37 e4 9b ca af
       -9.137534e-08 5.1029543e-05 9.1880775e-06 -3.6854353e-10
0000c0 6f 82 c3 34 cf 65 4c 38 f4 af 40 37 00 00 00 00
       3.6416483e-07 4.8732207e-05 1.1485059e-05 0.0
0000d0 b6 03 73 36 2a c7 e2 36 d4 38 60 38 7e bc 8b 2e
       3.6211982e-06 6.7585106e-06 5.3458687e-05 6.354471e-11
0000e0 12 37 47 35 00 00 00 00 45 fb 37 ba 80 88 9d b5
       7.4213415e-07 0.0 -0.0007018338 -1.1737138e-06
0000f0 bf 03 6b b1 10 20 78 b5 32 af 31 ba 9e 59 d3 b7
       -3.419913e-09 -9.2433856e-07 -0.00067781203 -2.5194891e-05
000100 f1 6c 8a b1 d2 76 b6 b6 ca 8c 5f ba 00 0b 1d 39
       -4.028714e-09 -5.437855e-06 -0.0008527754 0.00014976785
000110 30 56 6c b1 2d 88 0a 37 8b 06 e0 b9 9e 8d 90 b9
       -3.4391512e-09 8.257147e-06 -0.00042729484 -0.00027571333
000120 f2 f1 4a b1 10 a5 09 b7 8f 05 15 ba 2c 12 0d b9
       -2.9532399e-09 -8.204268e-06 -0.0005684727 -0.00013453577
000130 18 80 25 b1 91 73 38 36 34 ac 49 ba 79 0f 8b 38
       -2.4083473e-09 2.7485405e-06 -0.0007693202 6.6309185e-05
000140 00 00 00 00 b2 4f 8f 37 e2 3c c9 37 24 94 3e ba
       0.0 1.708404e-05 2.3989418e-05 -0.00072699995
000150 ac 78 0f b0 93 17 9e b6 00 00 00 00 43 81 cf b9
       -5.219458e-10 -4.7115113e-06 0.0 -0.00039578424
000160 d4 96 95 ba 10 0b 77 b1 bc 86 3a b7 6d 27 a3 b9
       -0.0011412748 -3.594952e-09 -1.1117834e-05 -0.00031119157
000170 3d ad a0 ba 5f 96 ab b1 b2 c6 84 b7 26 f3 03 ba
       -0.001225866 -4.9938502e-09 -1.5828151e-05 -0.00050334854
000180 92 7d 87 ba 32 0c 7b b1 5c c3 34 b7 5e f5 04 ba
       -0.0010337105 -3.653224e-09 -1.0774322e-05 -0.0005071963
000190 7e fc 86 ba cc fa 3c b1 e4 17 a5 b7 b1 a8 a4 b9
       -0.0010298637 -2.7500162e-09 -1.9680658e-05 -0.00031406202
0001a0 ed 4c a0 ba d5 f5 af b1 21 32 8f b7 ac 9c 63 ba
       -0.0012229957 -5.121118e-09 -1.7070271e-05 -0.0008682709
0001b0 dc 51 2f ba 00 00 00 00 18 8a f8 b7 74 86 5b 38
       -0.0006687918 0.0 -2.9628209e-05 5.2338888e-05
0001c0 70 53 d0 ba 5b a4 6a b0 0c 3a c9 b7 00 00 00 00
       -0.0015894007 -8.536227e-10 -2.3988097e-05 0.0
0001d0 5e e4 89 b9 fc 42 19 ba 10 bb cc b1 35 bc 8a b7
       -0.00026300823 -0.0005846468 -5.958448e-09 -1.6538523e-05
0001e0 f4 e7 f5 b8 41 78 3f ba 2f 0c a3 b1 92 2d 83 b7
       -0.00011725715 -0.0007303991 -4.7453095e-09 -1.5637637e-05
0001f0 c4 a5 b0 b8 74 20 48 ba 16 99 c7 b1 9e 38 86 b7
       -8.42321e-05 -0.00076342304 -5.809066e-09 -1.600041e-05
000200 5c 37 41 38 a0 48 6a ba ab 2f cb b1 bf c9 75 b7
       4.6066343e-05 -0.00089372136 -5.913497e-09 -1.4650111e-05
000210 a0 1f 56 b6 76 5f 5d ba 69 25 50 2f 2c 3f 3c b7
       -3.1906893e-06 -0.0008444706 1.893078e-10 -1.1220382e-05
000220 13 ec 1b b9 8d 3a 37 ba 00 00 00 00 14 27 d3 b6
       -0.00014869896 -0.0006989621 0.0 -6.2928393e-06
000230 67 81 41 39 f6 4a 87 ba 21 cd fe ad d3 78 95 b7
       0.0001845412 -0.0010322023 -2.8967552e-11 -1.7818447e-05
000240 00 00 00 00 ee c5 61 38 f2 d7 4a 39 bc c9 39 30
       0.0 5.3828517e-05 0.00019344667 6.758929e-10
000250 7e 7b 53 36 32 09 89 38 bf c4 3e 39 98 3a 83 30
       3.1513332e-06 6.534382e-05 0.00018193106 9.548158e-10
000260 14 b7 a3 36 4c 89 80 38 cc 04 43 39 3c ea 2a 30
       4.8790916e-06 6.129089e-05 0.00018598436 6.2178507e-10
000270 46 ec e5 35 06 ef d8 38 fd d1 16 39 79 46 ca 2f
       1.7130594e-06 0.00010344204 0.00014383341 3.679366e-10
000280 44 8e 99 36 03 17 0c 38 c9 43 60 39 6c 76 88 2f
       4.576317e-06 3.3400032e-05 0.00021387557 2.48224e-10
000290 39 94 2a 36 fc 2e 37 39 40 35 98 38 00 00 00 00
       2.541825e-06 0.00017469743 7.2578434e-05 0.0
0002a0 96 b1 d9 36 76 7b 7b b8 3b 14 a1 39 4d c5 10 2d
       6.4877777e-06 -5.9958045e-05 0.00030723386 8.229262e-12
0002b0 bf 42 75 36 00 00 00 00 3d 2f 74 39 d5 65 b5 3a
       3.6546696e-06 0.0 0.00023287251 0.0013839552
0002c0 4a 00 4f 2f 67 73 cd 37 46 6d a0 39 67 d0 ab 3a
       1.8826643e-10 2.4491643e-05 0.00030598993 0.0013108373
0002d0 cc 57 93 2f ef d5 15 38 bc dd 60 39 03 d0 b7 3a
       2.6801528e-10 3.572361e-05 0.00021444907 0.0014023784
0002e0 5a d3 52 2f 0c 52 9d 37 76 77 1f 3a 01 30 84 3a
       1.9174476e-10 1.8754065e-05 0.000608317 0.0010085107
0002f0 30 d0 87 2e f7 d2 15 38 42 a8 01 39 b2 b6 c3 3a
       6.176071e-11 3.5720845e-05 0.0001236508 0.0014931767
000300 1b 87 65 2f fb c4 af 37 26 f8 81 3a 2e e7 23 3a
       2.0875428e-10 2.0953352e-05 0.0009915873 0.0006252405
000310 00 00 00 00 9a 87 7e 38 fb 8f 6f b9 bb dd f1 3a
       0.0 6.0684608e-05 -0.00022846453 0.0018452922
000320 c3 d4 af 2e 16 eb ce 37 00 00 00 00 3d d5 47 39
       7.995873e-11 2.4666584e-05 0.0 0.00019057556
000330 f7 d3 98 3a fb cc 96 30 aa 25 7e 37 57 ee 41 39
       0.001165985 1.0972195e-09 1.5148349e-05 0.00018494703
000340 d4 90 99 3a ef 9e 9e 30 d2 78 a7 37 69 56 5b 39
       0.0011716136 1.1541185e-09 1.9964213e-05 0.00020917658
000350 d2 63 96 3a fb b2 93 30 ec 2d 71 37 60 96 96 39
       0.001147384 1.0746527e-09 1.4375411e-05 0.00028722268
000360 07 29 8c 3a df 46 94 30 19 57 ba 37 20 8b 2b 39
       0.001069338 1.078856e-09 2.2213486e-05 0.00016359659
000370 3f 5d 9c 3a 35 eb 31 30 3c 43 8d 37 06 b8 37 3a
       0.0011929645 6.4726474e-10 1.6839818e-05 0.00070083176
000380 4b e5 2b 3a 00 00 00 00 4c 49 3a 38 62 79 d0 b8
       0.00065572996 0.0 4.441412e-05 -9.940822e-05
000390 3e d6 be 3a 84 8a 49 2e fd a8 b3 37 00 00 00 00
       0.0014559699 4.5825135e-11 2.1417154e-05 0.0
0003a0 e9 fd 76 38 4e 36 73 37 f5 64 70 31 ef ae 76 35
       5.8887443e-05 1.44965725e-05 3.4981984e-09 9.1896703e-07
0003b0 43 69 ab 38 c6 22 0c b7 44 14 ad 31 d4 2e 5a 36
       8.173522e-05 -8.352747e-06 5.0372666e-09 3.251179e-06
0003c0 22 b2 c7 38 e9 31 b7 b7 fc e3 7b 31 bc 97 db b4
       9.522239e-05 -2.1838541e-05 3.6654901e-09 -4.090233e-07
0003d0 f6 45 f2 38 f8 bf 30 b8 7d 68 51 31 ca ba c1 36
       0.000115524905 -4.2140455e-05 3.0472898e-09 5.7735933e-06
0003e0 7e 00 f1 38 93 36 2e b8 ef a8 9b 31 3b e6 59 35
       0.00011491867 -4.153566e-05 4.5302992e-09 8.117383e-07
0003f0 bf ee 7c 38 e1 81 5b 37 00 00 00 00 b0 21 61 37
       6.030383e-05 1.3083657e-05 0.0 1.3418889e-05
