results/ppo/Racing/Racing-3616.pt (torch, 603118 bytes, 48 tensors)

discrete_act_size_vector f4 [1, 2]
3.0 3.0
00000000: 0000 4040 0000 4040

network_body._body_endoder.seq_layers.0.weight f4 [128, 29]
0.11503238 0.5301234 0.106887884 0.26591903 0.20008487 0.39935935 -0.047063038 -0.33539864
-0.25731692 0.050018895 0.0038528515 -0.026726091 0.12811102 -0.0117407115 0.13647154 -0.22115986
0.05771556 -0.4431147 0.38529238 -0.14722776 0.3981556 -0.6749437 0.05086222 0.035031397
0.16773243 -0.05681604 0.055018626 0.16034931 -0.21451625 0.14003825 -0.30609944 -0.2348935
0.36244062 0.15534155 0.23291782 0.18904386 -0.30217102 0.35397735 0.1683893 0.26649517
0.025746416 0.18299372 -0.023471966 -0.049209975 -0.29955888 -0.17402776 -0.0071326885 -0.2378455
0.12561461 0.40690547 0.18074635 0.26245192 0.10883284 -0.28458723 -0.018548474 -0.120363906
0.050295096 -0.14550936 0.0059248707 -0.58693 -0.08627486 -0.47687244 0.21622454 -0.10506417
-0.2596772 -0.3606785 -0.21448614 -0.24059571 0.011895508 -0.2713216 -0.018106392 -0.28161138
-0.018448185 -0.46259293 -0.059775334 0.0038917318 -0.004673762 -0.24400726 -0.32482058 -0.023927804
-0.21817164 0.07499791 -0.07529836 0.040631805 -0.26681626 -0.06551483 0.069530204 -0.04565159
-0.1008512 -0.16729046 0.17456585 -0.112684496 0.08160912 -0.039267723 0.08042738 0.4408077
-0.25263318 -0.22436121 -0.11983159 -0.25108084 0.035943765 0.26732358 0.057148896 -0.25318718
-0.13196048 0.13352364 -0.30360588 -0.090792365 -0.027033074 0.021717675 0.29339147 0.01691735
-0.05488088 0.1160673 -0.045070786 0.24909858 0.20206425 -0.057201073 0.23660818 0.12365274
-0.13433832 0.04538051 -0.18051323 0.0722851 0.010500556 -0.13605721 0.12129097 -0.020683007
-0.27628136 -0.13879713 0.3004502 0.09503456 0.028532714 0.30894327 0.003531081 -0.4499192
-0.10593287 0.15706415 -0.05176135 0.030090181 -0.089421906 0.12936944 0.02596235 0.36561453
-0.102859765 0.048032816 0.6340012 0.031196043 -0.23361535 -0.29660353 0.1428371 0.27887323
-0.11006165 -0.14678799 0.26127392 -0.01577165 -0.1494343 0.20881765 0.27984393 0.27663192
-0.28394452 -0.118775845 0.10091474 0.44916373 -0.23558404 0.6382269 -0.0777782 -0.36095944
0.09626183 -0.04669433 -0.6320848 -0.053054493 -0.11135732 -0.0769823 -0.07114176 0.24567185
0.035298564 0.3541779 0.065941066 0.021391222 0.06555773 0.027271708 -0.015199839 0.10061011
0.0767285 0.013347378 0.19920594 0.2181233 0.027014595 -0.13928264 0.10110539 -0.26464522
0.1463167 0.3450612 -0.13716282 0.00434916 0.0033966166 0.15428494 -0.024441684 -0.41069245
0.43177402 0.38691667 0.23539574 -0.111357965 -0.02709494 -0.18921223 0.36617026 0.4882541
-0.26276633 0.038666192 -0.1110525 0.30432504 -0.24973486 -0.25188243 -0.23218472 0.044674505
0.0067240084 0.06188686 -0.26897565 0.40645477 -0.08839713 0.12766688 0.24354602 -0.06398719
0.0833771 -0.22453469 0.065078944 0.17154673 0.0962159 -0.28184223 0.3639963 -0.040273327
0.17283303 -0.14546312 -0.43381685 0.070894755 -0.15268755 0.31455815 -0.19501194 0.18408614
0.038186498 0.29183662 0.1352878 -0.17745057 0.43470973 -0.28446132 -0.11165744 -0.24368154
-0.0859812 0.15765749 0.26424795 0.17453277 0.3647614 -0.4554648 -0.3413196 -0.40834847
00000000: 1996 eb3d 2bb6 073f 09e8 da3d 8a26 883e
00000010: 0ce3 4c3e d478 cc3e 2cc5 40bd 5fb9 abbe
00000020: 0bbf 83be 9de0 4c3d 1f80 7c3b adf0 dabc
00000030: 892f 033e 1d5c 40bc 32bf 0b3e bb77 62be
00000040: 2767 6c3d eedf e2be 0b45 c53e e0c2 16be
00000050: 0ddb cb3e 1cc9 2cbf e754 503d 157d 0f3d
00000060: 0dc2 2b3e f0b7 68bd 365b 613d 9c32 243e
00000070: 26aa 5bbe 3066 0f3e 11b9 9cbe ec87 70be
00000080: d191 b93e db11 1f3e 0282 6e3e b794 413e
00000090: 29b6 9abe 853c b53e 3f6e 2c3e 0e72 883e
000000a0: 26ea d23c b562 3b3e 4848 c0bc 6690 49bd
000000b0: c85f 99be 5534 32be 54b9 e9bb c58d 73be
000000c0: 1ea1 003e ea55 d03e 9215 393e 1960 863e
000000d0: c1e3 de3d 6bb5 91be f8f2 97bc 5a81 f6bd
000000e0: 3b02 4e3d 6800 15be 6b25 c23b 0b41 16bf
000000f0: e0b0 b0bd a028 f4be f769 5d3e e22b d7bd
00000100: 69f4 84be daaa b8be 41a2 5bbe b95e 76be
00000110: 60e5 423c aaea 8abe db53 94bc 5e2f 90be
00000120: a620 97bc fbd8 ecbe fbd6 74bd 6d0c 7f3b
00000130: 5b26 99bb 0add 79be e24e a6be 3e04 c4bc
00000140: 6368 5fbe 8198 993d 0736 9abd 896d 263d
00000150: 249c 88be a42c 86bd da65 8e3d 29fd 3abd
00000160: 138b cebd 314e 2bbe 64c1 323e 21c7 e6bd
00000170: af22 a73d 31d7 20bd 1cb7 a43d 8cb1 e13e
00000180: 2359 81be f2be 65be 446a f5bd ab8d 80be
00000190: c539 133d a3de 883e f614 6a3d c0a1 81be
000001a0: a620 07be 6cba 083e 3b72 9bbe 59f1 b9bd
000001b0: 7774 ddbc 44e9 b13c 6837 963e 4196 8a3c
000001c0: c6ca 60bd b1b4 ed3d 259c 38bd b313 7f3e
000001d0: eee9 4e3e ac4b 6abd 6a49 723e a63d fd3d
000001e0: fc8f 09be eae0 393d 76d8 38be 360a 943d
000001f0: 860a 2c3c 9552 0bbe 6667 f83d 696f a9bc
00000200: c074 8dbe d620 0ebe 9cd4 993e 7ba1 c23d
00000210: 70bd e93c d02d 9e3e b569 673b cf5b e6be
00000220: 55f3 d8bd 6dd5 203e b603 54bd af7f f63c
00000230: d522 b7bd 6c79 043e ffae d43c d431 bb3e
00000240: 24a8 d2bd 0fbe 443d e74d 223f d88e ff3c
00000250: dd38 6fbe 6bdc 97be e443 123e 79c8 8e3e
00000260: 0168 e1bd 974f 16be b2c5 853e 8c33 81bc
00000270: 4e05 19be 4bd4 553e b447 8f3e b3a2 8d3e
00000280: 2d61 91be c040 f3bd 63ac ce3d caf8 e53e
00000290: f13c 71be d762 233f 2d4a 9fbd adcf b8be
000002a0: ec24 c53d 8e42 3fbd 4fd0 21bf ab4f 59bd
000002b0: 4e0f e4bd e5a8 9dbd c5b2 91bd 6791 7b3e
000002c0: 3a95 103d ce56 b53e 1c0c 873d a53c af3c
000002d0: 2243 863d eb68 df3c bf08 79bc ac0c ce3d
000002e0: d523 9d3d f6ae 5a3c a4fc 4b3e b75b 5f3e
000002f0: b64d dd3c 1ca0 0ebe 5810 cf3d 947f 87be
00000300: 0cd4 153e ddab b03e 6974 0cbe 6683 8e3b
00000310: c599 5e3b dffc 1d3e ed39 c8bc 4846 d2be
00000320: 7c11 dd3e f119 c63e 950b 713e a50f e4bd
00000330: 35f6 ddbc dac0 41be ab7a bb3e 71fc f93e
00000340: 4f89 86be 7160 1e3d 7e6f e3bd 7ed0 9b3e
00000350: 7fba 7fbe bcf6 80be d5c1 6dbe 9dfc 363d
00000360: 1255 dc3b 137d 7d3d 2db7 89be d71a d03e
00000370: 8e09 b5bd 1bbb 023e 2164 793e b70b 83bd
00000380: 9dc1 aa3d 6cec 65be 1c48 853d f2a9 2f3e
00000390: d70c c53d a04d 90be b95d ba3e a5f5 24bd
000003a0: 24fb 303e 49f4 14be 3e1d debe 4531 913d
000003b0: 205a 1cbe c40d a13e 36b1 47be 1481 3c3e
000003c0: 7269 1c3d 9c6b 953e e388 0a3e 9ab5 35be
000003d0: 4692 de3e eaa4 91be a8ac e4bd a787 79be
000003e0: e916 b0bd f770 213e 824b 873e b8b8 323e
000003f0: 02c2 ba3e af32 e9be 71c1 aebe 0d13 d1be

network_body._body_endoder.seq_layers.0.bias f4 [128]
0.04918783 0.036968544 -0.017295815 -0.024659296 0.036681566 -0.004305577 0.049688872 0.020417687
0.01083034 0.051271036 0.016717646 0.03298078 0.07723207 0.015344397 0.0396873 -0.07482264
0.041063752 -0.01845569 0.031109076 0.08952383 0.07418303 -0.04871318 0.05688389 0.054170985
-0.021791402 -0.023419438 0.03657272 0.07382637 0.014288571 0.019660586 0.030151432 0.0714606
0.026213674 0.028812604 -0.019369759 -0.012154156 0.011330949 0.05256192 0.059342116 0.054725666
-0.070810065 -0.043793615 -0.035636317 0.018508522 0.043129336 0.024038462 0.0277101 0.0062521547
-0.058456793 0.05004067 0.082038015 0.015218636 -0.005435807 0.048329275 0.022682134 -0.033093993
0.066359065 0.012965995 0.06576437 0.076929405 0.06721525 0.054959584 0.037768044 0.06048439
0.043150336 0.037978735 -0.0018753937 0.070973694 0.026973134 0.022667399 0.039400924 0.052582208
0.04536048 0.045669198 0.067279354 0.076978765 -0.027364064 0.07331735 -0.04097293 0.041281506
0.01688177 0.04060937 0.00130813 0.05456102 -0.009999304 0.007028806 0.007902019 0.08308507
0.0085409125 0.041056003 0.042216495 0.03593607 0.01887105 0.031082863 0.091642834 0.055030655
0.045962133 0.04171932 -0.07389969 -0.012648509 0.05639518 0.060531143 0.05108166 0.04792582
0.047481857 0.026675984 0.07736731 0.053674944 0.044975083 0.037083913 0.0231043 0.044757497
-0.017329235 0.026261833 -0.004356899 -0.0041660853 0.036784906 -0.026280615 0.03790622 -0.0032333075
0.058519837 -0.015399989 0.05569456 -0.042309485 0.015777865 0.01653739 -0.010914919 0.015533878
00000000: 2e79 493d 546c 173d f4af 8dbc 4b02 cabc
00000010: 693f 163d cc15 8dbb 8f86 4b3d fe42 a73c
00000020: bd71 313c 9401 523d 72f3 883c db16 073d
00000030: d92b 9e3d 1167 7b3c 268f 223d 9d3c 99bd
00000040: 7732 283d 6330 97bc 76d8 fe3c 4558 b73d
00000050: 46ed 973d 7987 47bd 15ff 683d 65e2 5d3d
00000060: e283 b2bc 1fda bfbc 47cd 153d 4832 973d
00000070: 9c1a 6a3c 3d0f a13c 2300 f73c ef59 923d
00000080: 0fbe d63c 6908 ec3c 54ad 9ebc 3a22 47bc
00000090: 72a5 393c 2b4b 573d b810 733d 0528 603d
000000a0: de04 91bd ef60 33bd 63f7 11bd 2f9f 973c
000000b0: 63a8 303d 4fec c43c 4b00 e33c e0de cc3b
000000c0: 6470 6fbd 72f7 4c3d 8c03 a83d 9657 793c
000000d0: db1e b2bb ebf4 453d e2cf b93c 918d 07bd
000000e0: 43e7 873d 536f 543c 78af 863d 2a8d 9d3d
000000f0: 26a8 893d 4d1d 613d aab2 1a3d 7bbe 773d
00000100: 68be 303d 978f 1b3d c5cf f5ba a85a 913d
00000110: c3f6 dc3c fbb0 b93c dd62 213d 7160 573d
00000120: e9cb 393d a00f 3b3d c2c9 893d 0ba7 9d3d
00000130: 9a2a e0bc 6827 963d 3bd3 27bd cc16 293d
00000140: a34b 8a3c 0356 263d 8f75 ab3a 607b 5f3d
00000150: 1fd4 23bc e651 e63b 7877 013c 8128 aa3d
00000160: 2fef 0b3c 572a 283d 34eb 2c3d b331 133d
00000170: 7697 9a3c 7da1 fe3c 3daf bb3d d367 613d
00000180: ca42 3c3d e1e1 2a3d b858 97bd b13b 4fbc
00000190: a2fe 663d 81ef 773d 013b 513d dd4d 443d
000001a0: 567c 423d 9887 da3c c172 9e3d 42da 5b3d
000001b0: cb37 383d 4de5 173d 3b45 bd3c a353 373d
000001c0: 0af6 8dbc 0e23 d73c 51c4 8ebb a883 88bb
000001d0: c5ab 163d 724a d7bc 8d43 1b3d e6e5 53bb
000001e0: 7fb2 6f3d 3c50 7cbc fb1f 643d b64c 2dbd
000001f0: 9540 813c 6c79 873c 7dd4 32bc ce81 7e3c

network_body._body_endoder.seq_layers.2.weight f4 [128, 128]
-0.123876855 0.0326363 -0.010892597 -0.02401488 0.07199392 0.036767725 0.11786428 0.07020772
0.0038768083 -0.12780541 0.00470415 0.16671626 0.11258274 -0.02607192 -0.05285266 -0.06996763
-0.12596008 -0.048900627 -0.12847096 0.035981834 0.033891324 0.21292004 -0.058751613 -0.15050845
-0.15150042 0.0509454 0.21587156 0.15964156 -0.03576763 0.08720809 -0.08486045 -0.03407247
-0.0021207796 0.102321215 0.04830473 0.13208966 0.2140258 0.17902647 -0.068304956 -0.13702475
0.03291922 0.019509846 0.093433276 0.16578753 0.108466096 -0.080325864 -0.033340055 -0.15841596
0.046373088 -0.08776168 -0.07653556 0.067360856 0.10572637 0.05403446 -0.040287163 0.09442125
0.24282548 -0.052371047 -0.081661545 -0.044112183 -0.04825314 0.051284622 -0.097090855 -0.13479058
0.05898154 -0.09738216 0.013249408 0.0022381877 0.043931764 0.061573617 -0.014808109 0.009952926
0.1757607 0.32990775 0.08714755 -0.016110897 -0.036501672 0.030141408 0.15822455 0.026883988
-0.047504876 0.0669886 0.06989424 -0.034560278 -0.20946702 0.06437718 0.23178169 -0.19318938
0.023051262 0.008740445 0.098571226 0.16782503 0.09255469 -0.07101895 -0.020785216 0.042709474
-0.0069920574 0.073106594 0.011257704 -0.029986106 -0.22226313 -0.003386876 -0.1777819 0.24147359
-0.0039879284 0.10272413 -0.12774915 0.07597761 -0.06902862 0.049585946 0.0029247554 0.104053125
0.022256544 0.10512372 -0.039477184 -0.022329677 0.016259935 0.2345394 -0.04212258 0.14704533
-0.05003865 -0.005565599 -0.14586906 0.020036992 0.075869784 -0.048605353 -0.050668072 -0.21892172
-0.1123557 -0.26087162 0.15249382 0.18945472 0.11206322 0.045861334 0.06362669 0.0118916705
0.24251735 -0.071448006 0.065336585 0.0358166 -0.10282006 0.05998382 0.06963716 0.044694956
-0.041786943 -0.029646626 0.13319407 -0.0742926 -0.07611476 -0.03751072 -0.15670906 -0.09196051
0.0032129139 0.16639654 -0.014322314 -0.044535283 -0.23026353 0.0104411505 0.038047127 0.084274985
-0.07885413 0.020972267 0.11546442 0.08637067 0.12898342 -0.12452175 -0.19035853 0.07685098
0.10364421 -0.04223561 0.013421525 -0.0328916 -0.26549476 -0.14232373 -0.11846155 0.019407623
0.009207301 -0.10455541 -0.1390581 0.059329573 0.19948466 -0.0796579 0.17604582 -0.008404612
-0.0067435387 0.11218077 0.16232659 -0.16889848 -0.2525732 -0.35917652 -0.2719213 0.056882985
0.022547364 -0.10172031 -0.07423672 -0.08629479 0.12414562 0.07789003 -0.18158321 -0.17541254
-0.047171943 -0.06958116 -0.030943321 -0.1309059 0.05835529 -0.21855165 0.03566319 0.101183906
-0.033714615 -0.20122115 0.051594865 -0.25931853 0.24584225 -0.02161618 0.068265766 -0.060735382
0.093644865 -0.11473071 0.053124893 -0.19268587 -0.0861449 -0.09511954 -0.094089575 -0.097523965
-0.19745249 -0.048819132 0.03692297 -0.094874665 0.11235801 -0.098068714 -0.01305702 -0.043220382
0.05136533 -0.10785415 -0.15014185 -0.10797741 -0.026429748 0.045715537 -0.017679079 0.08591336
0.09463792 -0.09339872 -0.024210043 0.0596576 0.09814857 -0.011672472 0.096650094 0.3205738
0.005689342 0.33356756 -0.10562099 -0.017064871 -0.05401448 0.01677233 0.14411587 0.0724023
00000000: 26b3 fdbd a4ad 053d dd76 32bc dbba c4bc
00000010: 8c71 933d c199 163d d462 f13d 11c9 8f3d
00000020: 0d12 7e3b 6cdf 02be 4525 9a3b abb7 2a3e
00000030: c891 e63d c794 d5bc 087c 58bd 304b 8fbd
00000040: aefb 00be 064c 48bd e48d 03be b061 133d
00000050: a1d1 0a3d b607 5a3e 88a5 70bd e31e 1abe
00000060: ed22 1bbe 20ac 503d 6f0d 5d3e 1479 233e
00000070: 1481 12bd 289a b23d 51cb adbd 938f 0bbd
00000080: c7fc 0abb c98d d13d 2edb 453d 8342 073e
00000090: 9429 5b3e b752 373e 78e3 8bbd 3750 0cbe
000000a0: 4ed6 063d 1dd3 9f3c f259 bf3d 35c4 293e
000000b0: 7923 de3d e381 a4bd 958f 08bd cb37 22be
000000c0: b5f1 3d3d 65bc b3bd adbe 9cbd 7df4 893d
000000d0: 1187 d83d 3d53 5d3d 2704 25bd ee5f c13d
000000e0: 3ea7 783e 0683 56bd 2b3e a7bd faae 34bd
000000f0: 16a5 45bd d30f 523d 92d7 c6bd 8b06 0abe
00000100: a196 713d 4c70 c7bd 0c14 593c 8fae 123b
00000110: cbf1 333d 9e34 7c3d b69d 72bc 9911 233c
00000120: 9dfa 333e abe9 a83e 6a7a b23d 00fb 83bc
00000130: c782 15bd 1deb f63c 9e05 223e cf3b dc3c
00000140: 7994 42bd 5231 893d b624 8f3d 148f 0dbd
00000150: 867e 56be 2fd8 833d 2e58 6d3e 70d3 45be
00000160: 00d6 bc3c 1534 0f3c b6df c93d 53da 2b3e
00000170: 508d bd3d 6272 91bd c245 aabc 21f0 2e3d
00000180: a11d e5bb e9b8 953d 3c72 383c 6ca5 f5bc
00000190: f298 63be 5af6 5dbb 750c 36be da44 773e
000001a0: 2bad 82bb 0761 d23d acd0 02be 269a 9b3d
000001b0: e15e 8dbd a21a 4b3d 41ad 3f3b ce19 d53d
000001c0: 5b53 b63c 1b4b d73d d4b2 21bd baec b6bc
000001d0: 8e33 853c 192b 703e ba88 2cbd 0d93 163e
000001e0: 54f5 4cbd a15f b6bb b35e 15be 9e24 a43c
000001f0: 9e61 9b3d 6816 47bd 5389 4fbd 042d 60be
00000200: bf1a e6bd f790 85be 5727 1c3e 6b00 423e
00000210: 6781 e53d 18d9 3b3d b64e 823d 48d5 423c
00000220: 7856 783e 5553 92bd 30cf 853d 6db4 123d
00000230: 5393 d2bd 98b1 753d ed9d 8e3d 0f12 373d
00000240: c928 2bbd 7bdd f2bc 0764 083e b826 98bd
00000250: 0ee2 9bbd d7a4 19bd 5778 20be cb55 bcbd
00000260: c08f 523b db63 2a3e 24a8 6abc a16a 36bd
00000270: 34ca 6bbe 5c11 2b3c 4ed7 1b3d 5d98 ac3d
00000280: 467e a1bd 08ce ab3c 9c78 ec3d 1be3 b03d
00000290: 3b14 043e 4205 ffbd 59ed 42be 0c64 9d3d
000002a0: 6a43 d43d 3fff 2cbd f5e5 5b3c 58b9 06bd
000002b0: eeee 87be 50bd 11be f89b f2bd bcfc 9e3c
000002c0: 38da 163c 2621 d6bd 3f65 0ebe 9103 733d
000002d0: b545 4c3e ae23 a3bd 5b45 343e 7fb3 09bc
000002e0: e7f8 dcbb 08bf e53d f138 263e b9f3 2cbe
000002f0: 4651 81be fce5 b7be 4539 8bbe 22fe 683d
00000300: 40b5 b83c bd52 d0bd 6c09 98bd 53bb b0bd
00000310: 0f40 fe3d cf84 9f3d f3f0 39be 589f 33be
00000320: 5e37 41bd 9180 8ebd d97c fdbc 320c 06be
00000330: f505 6f3d 01cc 5fbe 9113 123d 8239 cf3d
00000340: 5618 0abd eb0c 4ebe 2355 533d 66c5 84be
00000350: 12be 7b3e 6a14 b1bc ecce 8b3d aac5 78bd
00000360: e1c8 bf3d eff7 eabd 7d99 593d 724f 45be
00000370: bd6c b0bd 09ce c2bd 09b2 c0bd a5ba c7bd
00000380: fc30 4abe 92f6 47bd 8a3c 173d a64d c2bd
00000390: f51b e63d 40d8 c8bd 1ced 55bc db07 31bd
000003a0: 7464 523d a3e2 dcbd c9be 19be 4323 ddbd
000003b0: 3383 d8bc 3740 3b3d b7d3 90bc 58f3 af3d
000003c0: 87d1 c13d d447 bfbd 2454 c6bc 875b 743d
000003d0: 1e02 c93d e53d 3fbc 7cf0 c53d 4022 a43e
000003e0: a96d ba3b 5ec9 aa3e d14f d8bd a1cb 8bbc
000003f0: 4a3e 5dbd 2066 893c 1c93 133e a847 943d

network_body._body_endoder.seq_layers.2.bias f4 [128]
-0.009838221 -0.0351807 -0.08270289 0.031385448 0.06587855 -0.03526309 0.07188559 0.014603285
0.05401129 0.024532538 0.029978797 -0.030614028 0.05095496 0.011228028 -0.045772143 0.0066700527
0.031132743 -0.06936319 -0.058704067 0.044959385 0.048914444 -0.020088416 0.060711022 0.07193261
-0.02586664 -0.01491593 0.03711851 -0.058032334 -0.02295002 0.052989483 0.047907468 -0.028847614
0.046007782 0.0008162543 0.05020162 -0.017154567 0.03056771 0.007676459 0.016832815 0.049871672
0.042191394 0.040420257 -0.07226937 0.021026367 -0.024653068 0.014159058 0.054994572 -0.03536986
0.037400678 0.033493545 0.05846268 0.053433143 -0.05596536 -0.008435606 0.039626777 -0.05250339
0.05229922 0.049489837 0.03163166 0.0005169148 0.03180847 0.042223893 -0.08085009 0.035424635
0.06371463 0.017720846 -0.0065234043 -0.04365233 0.041714225 0.011005323 0.053987805 0.017475603
-0.0132171605 0.045230296 -0.015243246 0.07380412 0.055832963 0.028874964 0.06601824 0.0662615
-0.029043756 0.05957129 -0.022952173 0.04295661 -0.052253213 0.051895298 0.048917253 -0.032470975
-0.043554045 0.04318955 0.0020061648 -0.007235929 -0.024225669 -0.04008478 0.031848602 0.053254824
0.037071213 -0.027922904 0.062922075 0.026556982 0.05636719 0.01975076 0.06252178 -0.035714835
0.033013668 0.03885755 0.004412764 -0.013439941 0.016280225 -0.03294105 -0.008014945 -0.017892003
0.02724418 0.032033145 -0.0074311565 0.029402576 -0.016088357 -0.045620274 0.02277263 0.053609107
-0.02157286 0.006118472 -0.019092057 0.018036563 0.04152267 0.070871755 0.03287277 0.014941887
00000000: 7d30 21bc a319 10bd 2260 a9bd 078e 003d
00000010: 55eb 863d 0870 10bd c138 933d 9e42 6f3c
00000020: f13a 5d3d 76f8 c83c 1896 f53c 45ca fabc
00000030: 26b6 503d c3f5 373c 927b 3bbd 7590 da3b
00000040: 180a ff3c 4a0e 8ebd ad73 70bd 5527 383d
00000050: 835a 483d 7690 a4bc 1fac 783d 6751 933d
00000060: 47e6 d3bc f261 74bc 9409 183d 50b3 6dbd
00000070: ae01 bcbc 800b 593d 9f3a 443d d551 ecbc
00000080: a872 3c3d e6f9 553a 37a0 4d3d bc87 8cbc
00000090: 2269 fa3c ce8a fb3b f9e4 893c 3d46 4c3d
000000a0: e2d0 2c3d b68f 253d f701 94bd 7d3f ac3c
000000b0: 3bf5 c9bc 65fb 673c fd41 613d fcdf 10bd
000000c0: 7431 193d 8730 093d 9076 6f3d b6dc 5a3d
000000d0: ef3b 65bd 7f35 0abc b04f 223d cb0d 57bd
000000e0: b537 563d dbb5 4a3d 3390 013d 9181 073a
000000f0: 9949 023d f6f2 2c3d bb94 a5bd 6c19 113d
00000100: d17c 823d 4f2b 913c 48c2 d5bb c9cc 32bd
00000110: 89dc 2a3d ac4f 343c 5122 5d3d ff28 8f3c
00000120: ca8c 58bc 6743 393d cfbe 79bc 9d26 973d
00000130: 1bb1 643d 308b ec3c 9234 873d 1cb4 873d
00000140: 2ced edbc 0601 743d 3206 bcbc 45f3 2f3d
00000150: 7707 56bd 2a90 543d 755d 483d 4900 05bd
00000160: ba65 32bd 87e7 303d dc79 033b 5f1b edbb
00000170: e974 c6bc f02f 24bd ae73 023d bb21 5a3d
00000180: fcd7 173d 93be e4bc 4add 803d 078e d93c
00000190: 48e1 663d 59cc a13c 6b0b 803d b849 12bd
000001a0: 5739 073d 1829 1f3d f398 903b 3333 5cbc
000001b0: 1b5e 853c 32ed 06bd 1e51 03bc 4092 92bc
000001c0: 302f df3c 3035 033d 0f81 f3bb acdd f03c
000001d0: bbcb 83bc 53dc 3abd ab8d ba3c 3995 5b3d
000001e0: 91b9 b0bc 777d c83b f266 9cbc 6ac1 933c
000001f0: ad13 2a3d 3625 913d 99a5 063d d1ce 743c

action_model._discrete_distribution.branches.0.weight f4 [3, 128]
0.056218013 -0.085577205 0.079428546 0.003876469 -0.015092251 0.061490774 -0.031352457 0.09447968
-0.017645165 0.036585838 0.022981409 0.06406669 -0.062220044 0.06179214 0.07288825 0.09209764
-0.046117734 -0.0121854115 -0.038098287 -0.050199743 -0.016388198 0.07660856 -0.054538105 -0.08077209
0.096374266 -0.0101537155 -0.08785049 0.060631808 -0.05254145 -0.16107999 -0.029477734 0.07267551
-0.027591407 -0.049621053 0.0052823136 0.021490257 -0.1368126 0.14408888 0.08655254 -0.04719232
-0.099687956 -0.04749337 -0.039981578 0.018460698 -0.060484383 -0.23226507 -0.010991072 0.07667305
-0.0049050795 -0.023512132 -0.018528478 0.04339846 -0.019642636 -0.0067451023 0.007879462 0.12765953
-0.055848345 -0.061539277 -0.06503501 -0.06532068 0.02715187 -0.015225849 0.08645804 -0.020200953
-0.02581179 0.078611806 0.068043165 0.13170603 -0.06432863 0.06472163 -0.022597913 0.011662757
-0.09464529 -0.032756988 -0.09477081 -0.054621752 -0.012427345 -0.15346684 0.032883544 -0.10038148
-0.0678288 -0.030346788 -0.038439393 -0.040695958 0.2104675 -0.0495257 0.004252714 -0.0831357
0.16440311 0.08545291 0.026528655 -0.014885637 -0.064700745 0.034343895 0.07074113 -0.013573304
-0.03105279 -0.024893897 -0.043977976 -0.14490312 -0.11673971 0.0133809205 -0.06050242 -0.023296656
-0.03921816 -0.010293313 -0.05786557 0.07201679 -0.08164067 0.0025892553 -0.14022231 0.005517455
-0.03298073 -0.047148064 0.10251601 -0.0696915 -0.0968658 -0.05106947 -0.058212146 -0.093419075
0.1289936 0.09717372 -0.100663505 -0.048562 -0.03960436 0.0149114765 0.020991966 0.02598472
-0.12126445 0.031584643 -0.1501023 0.039352003 0.092732646 -0.03278921 0.08228583 -0.14925925
0.045045085 -0.05997607 0.01879919 -0.1215898 0.09435543 -0.07543898 -0.07255045 -0.088442005
0.056511052 -0.031134117 0.02049899 0.085586 0.028176604 -0.103886135 0.09479207 0.092441715
-0.104529865 -0.016573109 0.07852645 -0.07311823 0.0069791107 0.17331715 0.08633072 -0.09435206
0.04762733 0.03750921 0.014800651 -0.017490853 0.15456794 -0.12811197 -0.08763695 0.077068284
0.113362014 0.10750798 -0.057585217 -0.0369958 0.02226699 0.20798329 0.032677617 -0.09309199
0.05495572 0.056112092 0.02233102 0.019458456 -0.043055788 -0.008744801 0.055031013 -0.19313565
0.10369149 0.098186776 0.10214574 0.032403354 0.023137156 0.0054498687 -0.13674954 0.061883964
0.06320833 -0.10127934 -0.08703381 -0.186561 0.05831502 -0.09328821 0.05646252 0.0055574565
0.04232935 0.07341714 0.088692665 0.09531204 0.039883673 0.16398862 -0.010444859 0.12455565
0.05382579 0.075073086 0.037463065 0.029439177 -0.19539404 0.06591 0.018860463 0.038343046
-0.22657835 -0.093773834 -0.00026507897 0.023992585 0.050572388 -0.07702472 -0.07103162 0.044353973
0.068735816 -0.07680427 0.10297508 0.13171999 0.14568415 -0.06563549 0.091429755 -0.009549724
0.05005567 0.032966875 0.041608844 -0.12230548 0.10359671 -0.02418943 0.14446218 -0.00210118
0.041312084 0.02440464 -0.082932144 0.06661109 0.026829038 -0.052996412 0.06679105 0.08697909
-0.21513726 -0.16105881 0.033516992 0.0261121 0.053331494 0.081349455 0.0016740425 0.0050994204
00000000: dc44 663d 1a43 afbd 6fab a23d 5c0c 7e3b
00000010: 7d45 77bc c0dd 7b3d 6f6b 00bd 907e c13d
00000020: 988c 90bc 08db 153d 8243 bc3c 6635 833d
00000030: 72da 7ebd c119 7d3d 6f46 953d b09d bc3d
00000040: f3e5 3cbd 52a5 47bc f30c 1cbd 3f9e 4dbd
00000050: 8b40 86bc f3e4 9c3d 5963 5fbd d66b a5bd
00000060: df5f c53d c55b 26bc f5ea b3bd 0f59 783d
00000070: b435 57bd 27f2 24be 4a7b f1bc e6d6 943d
00000080: 6007 e2bc 723f 4bbd 4217 ad3b 560c b03c
00000090: 9a18 0cbe 098c 133e 7542 b13d bc4c 41bd
000000a0: 3329 ccbd 6888 42bd b9c3 23bd e43a 973c
000000b0: 79be 77bd e5d6 6dbe e613 34bc c306 9d3d
000000c0: caba a0bb 849c c0bc 09c9 97bc 95c2 313d
000000d0: 98e9 a0bc 0506 ddbb dc18 013c 2eb9 023e
000000e0: 3cc1 64bd 9c10 7cbd 1331 85bd d9c6 85bd
000000f0: 996d de3c d775 79bc ea10 b13d 787c a5bc
00000100: 3f73 d3bc 3aff a03d 375a 8b3d f2dd 063e
00000110: bbbe 83bd c68c 843d 421f b9bc 2615 3f3c
00000120: 64d5 c1bd 312c 06bd 3317 c2bd 0fbb 5fbd
00000130: 109c 4bbc 6926 1dbe e5b0 063d ce94 cdbd
00000140: d3e9 8abd d499 f8bc a072 1dbd ceb0 26bd
00000150: cb84 573e 76db 4abd 5a5a 8b3b 0d43 aabd
00000160: 4a59 283e ef01 af3d 9f52 d93c e3e2 73bc
00000170: d381 84bd 2fac 0c3d bae0 903d 9062 5ebc
00000180: 6c62 febc 49ee cbbc 4022 34bd 7c61 14be
00000190: 3b15 efbd a63b 5b3c 63d1 77bd a1d8 bebc
000001a0: 39a3 20bd 49a5 28bc 7304 6dbd 8a7d 933d
000001b0: 3933 a7bd 7fb0 293b 7096 0fbe c4cb b43b
000001c0: cd16 07bd 541e 41bd eaf3 d13d 6bba 8ebd
000001d0: 9461 c6bd 382e 51bd dc6f 6ebd 8052 bfbd
000001e0: e616 043e 0403 c73d ab28 cebd f3e8 46bd
000001f0: 2e38 22bd 444f 743c 58f7 ab3c e8dd d43c
00000200: 7f59 f8bd e65e 013d 6bb4 19be 912f 213d
00000210: 9dea bd3d fb4d 06bd 7985 a83d 6bd7 18be
00000220: 3281 383d 78a9 75bd c200 9a3c 1304 f9bd
00000230: 6b3d c13d c07f 9abd 5595 94bd 1521 b5bd
00000240: 2278 673d fa0c ffbc 7fed a73c b647 af3d
00000250: 9fd2 e63c 41c2 d4bd 5822 c23d 1552 bd3d
00000260: c113 d6bd 54c4 87bc 7ad2 a03d 03bf 95bd
00000270: 06b1 e43b 0d7a 313e 29ce b03d a73b c1bd
00000280: e014 433d 42a3 193d 6e7e 723c fa48 8fbc
00000290: 0f47 1e3e c92f 03be 007b b3bd fad5 9d3d
000002a0: 582a e83d 252d dc3d 7ade 6bbd e888 17bd
000002b0: 4369 b63c 92f9 543e f7d8 053d 03a7 bebd
000002c0: 4019 613d cbd5 653d 8bef b63c 5767 9f3c
000002d0: 445b 30bd 5b46 0fbc 3368 613d 5ac5 45be
000002e0: 345c d43d 2616 c93d c931 d13d 61b9 043d
000002f0: 228a bd3c d094 b23b 1208 0cbe 0a7a 7d3d
00000300: 5e73 813d 8b6b cfbd c83e b2bd d909 3fbe
00000310: bbdb 6e3d e40d bfbd 3e45 673d 531b b63b
00000320: 8a61 2d3d ba5b 963d 80a4 b53d f532 c33d
00000330: 105d 233d a2ec 273e ea20 2bbc 0817 ff3d
00000340: 6e78 5c3d ebbf 993d df72 193d 6e2a f13c
00000350: 6015 48be d2fb 863d 4281 9a3c 990d 1d3d
00000360: 2804 68be 7f0c c0bd 4cfa 8ab9 198c c43c
00000370: fe24 4f3d 23bf 9dbd 0779 91bd 83ac 353d
00000380: 5dc5 8c3d 8f4b 9dbd 99e4 d23d 9be1 063e
00000390: 3a2e 153e e66b 86bd 863f bb3d 7276 1cbc
000003a0: 2d07 4d3d 4608 073d 096e 2a3d 4c7b fabd
000003b0: 832a d43d e928 c6bc e5ed 133e f3b3 09bb
000003c0: dc36 293d 3dec c73c 54d8 a9bd 656b 883d
000003d0: 92c8 db3c c412 59bd bfc9 883d 1822 b23d
000003e0: f14c 5cbe 9aec 24be 1d49 093d 0be9 d53c
000003f0: 2072 5a3d 8b9a a63d 8c6b db3a 0a19 a73b

action_model._discrete_distribution.branches.0.bias f4 [3]
-0.016549805 0.05221977 -0.082450256
00000000: 7593 87bc 66e4 553d aedb a8bd

action_model._discrete_distribution.branches.1.weight f4 [3, 128]
0.059037074 -0.047206223 0.013526771 0.0012923391 0.011032356 -0.07696912 0.023064466 0.12685943
0.03874679 0.037776653 0.008589765 0.015869567 0.032992277 0.068141535 0.01457785 0.025001593
0.013794023 -0.031880476 -0.050665554 0.020677304 0.023818683 0.064928 0.019358834 0.009951332
-0.08728893 -0.09408135 0.014879303 0.11790657 -0.07563746 0.010462651 -0.0067038615 0.10485839
0.017993646 -0.027467897 0.032634407 -0.05000355 0.011157774 0.0063971383 0.06298046 0.022461053
0.004674644 0.04943016 -0.04492034 0.12052827 -0.10453463 -0.11105635 0.025289191 -0.08583119
0.022381766 0.020900825 0.040072665 0.019861018 -0.020821098 -0.10703355 0.009462844 0.02829711
0.017595049 0.025946585 -0.0033180988 0.033166952 0.046552915 0.055147715 -0.028137995 -0.017670764
0.032193236 0.058737513 0.07756585 -0.029233722 0.014704626 0.06803928 0.02683774 -0.01813525
-0.10463657 0.041235406 -0.09424014 0.007867642 0.024777157 -0.01881254 0.029398922 0.013696212
-0.1184121 0.035689585 -0.108599395 0.025910188 0.040858116 0.026452595 -0.004885967 0.05319835
0.070163645 0.11887828 -0.17023411 0.021300258 -0.11171096 0.015055114 0.051510446 0.021601886
-0.015167052 0.034076445 0.00087251095 -0.088554144 -0.00269997 0.059580993 0.021667732 -0.0552643
0.02942707 0.048102744 -0.070525944 0.036339138 0.0020570366 -0.066371545 -0.10118579 -0.10884564
0.010615478 0.036786593 -0.028453896 0.013465131 -0.10590507 -0.045276538 0.0039906125 0.018814543
0.0597658 0.058926146 -0.042840946 0.03537924 0.019863077 0.01970545 0.0063525755 0.054389767
-0.04231105 0.12710863 0.15623121 -0.078879446 -0.0026862496 0.015881605 -0.038810402 0.02930108
-0.060654305 -0.26398045 -0.06620654 0.011052949 -0.0051697 0.00060246716 0.03165436 0.004261222
-0.047744263 0.10861804 0.10178715 -0.03949366 -0.09670455 0.048873737 -0.031520627 -0.05454126
-0.013938122 0.09999038 -0.1308908 0.046691407 0.08996805 0.009701374 -0.020003784 0.05223556
-0.07490934 -0.11103376 -0.07660864 -0.03764784 0.0032217682 -0.04168499 0.021742612 -0.017392218
-0.018211693 0.044801652 0.08188756 0.09663454 0.042535156 0.04706602 -0.056348566 0.0123327905
0.04982665 0.005608957 -0.06970138 -0.015501765 0.18278989 -0.04531957 -0.04020902 -0.057816025
-0.013783081 0.01284671 -0.013204959 0.12815133 0.079833515 0.043679606 -0.059785705 -0.20415905
-0.062638015 -0.24320032 0.058193486 -0.013204997 -0.035050575 0.040329136 -0.040015377 -0.12616546
-0.02145127 -0.008021803 -0.03269818 -0.055037826 -0.030447198 -0.13902918 -0.22210388 -0.074905425
0.12314899 -0.041791316 0.09213573 -0.036258023 -0.0012226132 -0.0052852677 -0.16603893 0.14689052
-0.12275122 -0.09267614 -0.0026124432 0.13246855 0.071028374 0.11986334 -0.12497247 -0.09530302
-0.05763052 0.065975465 -0.12504482 -0.032500956 -0.004107802 0.034668002 -0.17966272 -0.041750275
-0.035179872 -0.035747904 -0.012704626 0.059754644 -0.08556222 0.0019966816 0.119368695 -0.024965981
-0.11412428 -0.028103529 -0.049096342 -0.044624656 -0.011651943 0.139094 -0.042470697 -0.08900067
-0.03150086 -0.06376118 0.18004182 0.099482276 0.013885091 0.00085926655 -0.13185918 0.038185928
00000000: dcd0 713d 505b 41bd 649f 5d3c b463 a93a
00000010: 0ec1 343c fca1 9dbd b1f1 bc3c 70e7 013e
00000020: f4b4 1e3d b1bb 1a3d 16bc 0c3c e500 823c
00000030: e922 073d ca8d 8b3d efd7 6e3c 24d0 cc3c
00000040: 5300 623c 1a95 02bd af86 4fbd 7363 a93c
00000050: 661f c33c f9f8 843d 6b96 9e3c e90a 233c
00000060: 8ac4 b2bd b9ad c0bd 52c8 733c 0079 f13d
00000070: d0e7 9abd 8a6b 2b3c 11ac dbbb ffbf d63d
00000080: 6967 933c 5b04 e1bc a8ab 053d 86d0 4cbd
00000090: 19cf 363c 169f d13b e6fb 803d 3e00 b83c
000000a0: c22d 993b 4877 4a3d 64fe 37bd 87d7 f63d
000000b0: 4116 d6bd 8371 e3bd 472b cf3c 43c8 afbd
000000c0: f759 b73c 3538 ab3c 3c23 243d 93b3 a23c
000000d0: 0291 aabc 6834 dbbd 0b0a 1b3c 57cf e73c
000000e0: 7e23 903c ef8d d43c 7674 59bb 12da 073d
000000f0: 45ae 3e3d 92e2 613d a781 e6bc 47c2 90bc
00000100: 0edd 033d bf96 703d d8da 9e3d 8f7b efbc
00000110: aceb 703c 2e58 8b3d d2da db3c 6090 94bc
00000120: b34b d6bd 75e6 283d f900 c1bd 48e7 003c
00000130: 77f9 ca3c c21c 9abc 02d6 f03c 1466 603c
00000140: 0b82 f2bd 3e2f 123d 5c69 debd 9a41 d43c
00000150: d75a 273d 1db3 d83c 761a a0bb 83e6 593d
00000160: f5b1 8f3d 7576 f33d da51 2ebe e17d ae3c
00000170: b7c8 e4bd baa9 763c 9efc 523d 70f6 b03c
00000180: 3a7f 78bc be93 0b3d 38b9 643a e05b b5bd
00000190: fbf1 30bb 330b 743d 8780 b13c d25c 62bd
000001a0: 0a11 f13c 6207 453d e86f 90bd 59d8 143d
000001b0: 59cf 063b ceed 87bd 7f3a cfbd 77ea debd
000001c0: 8bec 2d3c 8aad 163d 2518 e9bc da9c 5c3c
000001d0: c2e4 d8bd e473 39bd afc3 823b f520 9a3c
000001e0: fccc 743d 8b5c 713d fd79 2fbd d2e9 103d
000001f0: e4b7 a23c 536d a13c 4429 d03b cec7 5e3d
00000200: 5a4e 2dbd c428 023e 13fb 1f3e 8c8b a1bd
00000210: ca0b 30bb 241a 823c a8f7 1ebd d208 f03c
00000220: a670 78bd 7228 87be 4b97 87bd 6e17 353c
00000230: 9666 a9bb e3ee 1d3a 01a8 013d b9a1 8b3b
00000240: 7d8f 43bd 2373 de3d c875 d03d 1bc4 21bd
00000250: 090d c6bd d42f 483d c61b 01bd a866 5fbd
00000260: b95c 64bc c2c7 cc3d 3d08 06be 7d3f 3f3d
00000270: 2b41 b83d 83f2 1e3c fade a3bc f4f4 553d
00000280: 116a 99bd ab65 e3bd fee4 9cbd 9f34 1abd
00000290: 4d24 533b e1bd 2abd 901d b23c 207a 8ebc
000002a0: b030 95bc f081 373d aab4 a73d 54e8 c53d
000002b0: 5839 2e3d 4dc8 403d c1cd 66bd 790f 4a3c
000002c0: 0817 4c3d 57cb b73b 99bf 8ebd 1dfb 7dbc
000002d0: 462d 3b3e 03a1 39bd 37b2 24bd 7fd0 6cbd
000002e0: 6fd2 61bc 027b 523c 9d59 58bc 1a3a 033e
000002f0: c17f a33d 63e9 323d dbe1 74bd 120f 51be
00000300: 5c48 80bd 8109 79be 4b5c 6e3d c659 58bc
00000310: 3191 0fbd 2a30 253d 2ae7 23bd 8531 01be
00000320: 93ba afbc e16d 03bc 87ee 05bd 586f 61bd
00000330: 676c f9bc aa5d 0ebe 336f 63be 0468 99bd
00000340: 8a35 fc3d 5f2d 2bbd a8b1 bc3d 4b83 14bd
00000350: 1740 a0ba 0a30 adbb 1c06 2abe 786a 163e
00000360: fe64 fbbd fdcc bdbd 8635 2bbb d6a5 073e
00000370: 5377 913d e97a f53d 91f1 ffbd 3b2e c3bd
00000380: fb0d 6cbd 251e 873d c00b 00be b91f 05bd
00000390: be9a 86bb 0900 0e3d 81f9 37be 5602 2bbd
000003a0: c518 10bd 656c 12bd 1027 50bc 49c1 743d
000003b0: 3f3b afbd c2da 023b 9377 f43d 7585 ccbc
000003c0: feb9 e9bd 5f39 e6bc 3f19 49bd 58c8 36bd
000003d0: cbe7 3ebc a86e 0e3e c1f5 2dbd fc45 b6bd
000003e0: 0c07 01bd 3995 82bd e25c 383e 5dbd cb3d
000003f0: 4b7e 633c 6740 613a 1806 07be d968 1c3d

action_model._discrete_distribution.branches.1.bias f4 [3]
0.04738414 -0.060114194 -0.007425665
00000000: df15 423d 4d3a 76bd fe52 f3bb

exp_avg f4 [128, 29]
0.0002605451 -0.00020652333 0.0010715973 0.00016313112 0.00022821384 -0.00046718348 0.0013645886 0.0006363122
0.0018336655 -0.0017061011 0.0009980544 0.00014640577 0.0017649924 -0.0013902423 0.00075086916 0.00068398035
0.00040807907 -0.0011239655 0.001841506 0.0011513638 0.0012897719 -0.0006133634 0.00044921087 -0.00109397
0.00019672484 -0.00024477264 0.0011736671 0.0011145372 0.0 -0.0012618095 0.000641124 -0.00051933114
-0.0010869206 -0.0011198892 0.0009070532 -0.00092718063 -0.001662072 -0.00083666295 3.302541e-05 -0.00033637928
-0.0007772074 -0.0007677558 0.0011723175 -0.0015445788 -0.002027998 0.00034559393 -0.00093959295 -0.0005460175
-0.00078915 0.0007459624 0.00081065693 -0.0026966364 -0.0016004224 0.00082460674 -0.0017182262 -0.00024639693
-0.00040794272 0.0 -7.7539025e-06 0.00020344791 -2.2987962e-05 -1.042433e-05 -1.1415788e-05 0.00024456883
-6.0446993e-05 -3.6436588e-05 0.00018152289 4.255714e-05 -5.137399e-05 5.0248334e-05 2.6228814e-05 0.0002795704
-0.00013309313 -4.9187165e-05 0.00027728462 -0.00016885408 6.4275526e-05 9.4876654e-05 8.799347e-05 0.00019137768
-0.000106665124 -7.558335e-06 0.00017640613 -0.00012800345 0.00012430333 0.00011856308 0.0 0.00088609953
0.00029254027 -4.1477186e-05 0.00070505275 0.0009464087 -7.093677e-05 0.00026169073 0.0010299053 0.00053384755
0.00034599216 0.00025732288 0.0007304481 0.0005603634 -0.00020614214 0.00078294147 0.0011807452 4.360111e-05
0.0010594929 3.406877e-05 0.0005307893 0.0002603375 -0.00031670724 0.0011935325 0.0011647209 -0.00011508062
0.0014906859 -0.0002384425 0.000336957 0.0 0.00031007914 -0.00051250926 -0.0007004068 -0.00046996353
0.00063320884 -0.0007287307 -0.00080731494 -0.0008395777 -0.0010017096 0.00019703737 -9.816486e-05 -0.00028862685
-7.440467e-06 -0.00036904635 -0.00052635034 -0.001032143 -0.00046612608 0.00015773435 -0.00059444545 -0.00061549904
0.00024033357 -0.0004387587 -0.0007044119 -0.0005283883 -0.00027119633 -8.8306646e-05 -0.00054333406 -0.00058850815
0.0 -0.00082502875 0.0021034083 0.0007247134 0.00044930086 -0.0010452362 0.0022319607 0.00081636896
0.0013007369 0.0010651038 0.00062590116 0.00031208797 0.00071481895 0.0009663241 0.001139944 -0.0001031752
0.0014008821 0.00035969602 -0.00020420388 0.001847601 0.0017573312 0.0011213431 0.00095708424 -7.533416e-05
-8.913339e-07 0.00023911131 -0.00013004878 0.0018940304 0.001714181 0.0 -0.00018412 -0.0022136718
-0.00028136882 -0.00070936943 -0.0009158989 -0.001406477 -0.00035678505 -0.0007950103 -0.0019446292 -0.00090455863
0.00017002718 -0.0012818229 -0.0016247444 -0.0012362042 0.00018178785 -0.00054410886 -0.00042502675 -0.00024134196
-0.002012792 -0.002494241 -0.0021475267 -0.0007849069 0.00025327303 -0.0007245872 -0.0005560715 0.00021670606
-0.0023397957 -0.0022325262 0.0 0.0006871587 -0.0003679785 -4.1063908e-05 0.00047816933 0.000337959
-4.635364e-05 -1.3489153e-05 0.00034040515 -0.00015327099 0.00016511318 0.0002662743 0.00029617018 3.471335e-05
-5.3750453e-05 0.00029715334 0.0004649306 0.0006047789 0.000248209 -0.00057487143 -0.00033633312 -0.0005849016
6.2035484e-05 0.0008009825 0.00041464338 0.0001822539 0.0007985812 -0.0007027186 -0.0001805363 0.0
-0.0010599382 0.0015995492 6.890157e-05 -0.0009383743 -0.0010225635 0.0013463623 0.00028471445 -0.00027537622
0.0017494301 -0.0006153897 -0.000525528 -0.00069216435 0.0003583656 0.00029527093 -4.5123466e-05 -0.00020027003
-0.00013571072 -0.0003900292 0.0011342526 0.00061205373 0.0011893446 0.000137764 -0.00071859604 -0.001075983
00000000: c599 8839 2f8e 58b9 d774 8c3a 2d0e 2b39
00000010: b04c 6f39 4ef0 f4b9 ffdb b23a 30ce 263a
00000020: 9b57 f03a 419f dfba 26d1 823a 8084 1939
00000030: 5157 e73a ca38 b6ba fad5 443a 254d 333a
00000040: 72f3 d539 0652 93ba b05e f13a 5ce9 963a
00000050: 900d a93a 1fca 20ba 1084 eb39 8b63 8fba
00000060: ec47 4e39 d454 80b9 bcd5 993a aa15 923a
00000070: 0000 0000 4d63 a5ba 1a11 283a b923 08ba
00000080: 0177 8eba 3fc9 92ba 4fc7 6d3a 0a0e 73ba
00000090: e2d9 d9ba 8053 5bba c484 0a38 105c b0b9
000000a0: 81bd 4bba 3843 49ba 73a8 993a 7773 caba
000000b0: 29e8 04bb d530 b539 044f 76ba 9d22 0fba
000000c0: f6de 4eba b08c 433a 4482 543a 0dba 30bb
000000d0: 44c5 d1ba 6c2a 583a 1b36 e1ba d62e 81b9
000000e0: 25e1 d5b9 0000 0000 c216 02b7 a254 5539
000000f0: 46d6 c0b7 28e4 2eb7 7086 3fb7 7939 8039
00000100: 7788 7db8 7dd3 18b8 2e57 3e39 627f 3238
00000110: 677a 57b8 bdc1 5238 f305 dc37 4e93 9239
00000120: ea8e 0bb9 514e 4eb8 8360 9139 6c0e 31b9
00000130: a9cb 8638 84f8 c638 2289 b838 8eac 4839
00000140: 67b1 dfb8 9a9d fdb6 a9f9 3839 aa38 06b9
00000150: 6c57 0239 12a5 f838 0000 0000 2249 683a
00000160: 1760 9939 caf7 2db8 4ad3 383a 6a18 783a
00000170: e3c3 94b8 8933 8939 e3fd 863a e7f1 0b3a
00000180: 4866 b539 4be9 8639 8b7b 3f3a 5ae5 123a
00000190: dc27 58b9 503e 4d3a 3cc3 9a3a 56e0 3638
000001a0: afde 8a3a 10e5 0e38 ab24 0b3a e87d 8839
000001b0: ba0b a6b9 4e70 9c3a 8ca9 983a 7057 f1b8
000001c0: 1e63 c33a 6c06 7ab9 9aa9 b039 0000 0000
000001d0: 1e92 a239 ea59 06ba 819b 37ba 7065 f6b9
000001e0: edfd 253a 4a08 3fba fda1 53ba 1b17 5cba
000001f0: cc4b 83ba d19b 4e39 dcdd cdb8 d752 97b9
00000200: 20a9 f9b6 907c c1b9 c6fa 09ba f948 87ba
00000210: 6262 f4b9 7e65 2539 8fd4 1bba 7159 21ba
00000220: 0d02 7c39 3209 e6b9 48a8 38ba 8a83 0aba
00000230: 5b2f 8eb9 4531 b9b8 886e 0eba 1d46 1aba
00000240: 0000 0000 be46 58ba 56d9 093b b1fa 3d3a
00000250: 2490 eb39 4f00 89ba 1646 123b 9801 563a
00000260: 7d7d aa3a f49a 8b3a 8413 243a bd9f a339
00000270: b062 3b3a ea50 7d3a 2c6a 953a c45f d8b8
00000280: ce9d b73a 9595 bc39 901f 56b9 342b f23a
00000290: 4056 e63a 08fa 923a d6e4 7a3a b8fc 9db8
000002a0: 0044 6fb5 f4b9 7a39 b45d 08b9 1d41 f83a
000002b0: 5fae e03a 0000 0000 5610 41b9 4013 11bb
000002c0: af84 93b9 faf4 39ba ef18 70ba 8959 b8ba
000002d0: e10e bbb9 3d68 50ba eee2 feba e71f 6dba
000002e0: 5349 3239 d702 a8ba 60f5 d4ba 2108 a2ba
000002f0: 4e9e 3e39 87a2 0eba 20d6 deb9 bd10 7db9
00000300: 0ce9 03bb 6c76 23bb 85bd 0cbb 36c2 4dba
00000310: bbc9 8439 39f2 3dba 54c5 11ba 973b 6339
00000320: 4257 19bb 934f 12bb 0000 0000 7122 343a
00000330: 3ded c0b9 093c 2cb8 cdb2 fa39 1730 b139
00000340: d86b 42b8 794f 62b7 6878 b239 5eb7 20b9
00000350: 3b22 2d39 bb9a 8b39 4a47 9b39 2d99 1138
00000360: 1c72 61b8 3fcb 9b39 eec1 f339 068a 1e3a
00000370: 0c22 8239 f8b2 16ba de55 b0b9 1554 19ba
00000380: 0c19 8238 07f9 513a 7e64 d939 691b 3f39
00000390: e157 513a a636 38ba 584e 3db9 0000 0000
000003a0: a0ed 8aba f7a7 d13a 407f 9038 3cfd 75ba
000003b0: 8a07 86ba 6c78 b03a ba45 9539 5f60 90b9
000003c0: 224d e53a 1b52 21ba 96c3 09ba 5d72 35ba
000003d0: 04e3 bb39 98ce 9a39 f442 3db8 94ff 51b9
000003e0: 924d 0eb9 d57c ccb9 34ab 943a 3b72 203a
000003f0: c8e3 9b3a be74 1039 2a60 3cba 0008 8dba

exp_avg_sq f4 [128, 29]
1.0874742e-05 8.518053e-05 1.0743364e-06 6.0200236e-06 1.0084152e-05 8.4615414e-05 1.2107539e-06 5.8020023e-06
1.0637772e-05 8.432255e-05 1.3189128e-06 7.628477e-06 1.1072772e-05 8.481478e-05 8.4031257e-07 7.701771e-06
2.2013066e-05 6.6142966e-05 4.015547e-06 1.1415307e-05 5.0301012e-05 4.0920924e-05 2.0757323e-06 2.1720138e-05
3.486737e-05 5.610472e-05 4.740545e-06 1.4856902e-05 0.0 7.6313045e-06 3.6707697e-05 1.8392303e-06
5.594575e-06 5.897471e-06 3.7547597e-05 2.2863471e-06 5.922312e-06 9.4566385e-06 3.6376565e-05 9.154763e-07
5.220113e-06 5.984438e-06 3.6956015e-05 2.9850114e-06 7.527172e-06 1.3642244e-05 3.1886822e-05 2.0597677e-06
6.762223e-06 1.0996125e-05 3.0370607e-05 6.891593e-06 1.414314e-05 2.089463e-05 2.3482284e-05 2.2164486e-06
9.109722e-06 0.0 6.190747e-07 3.3803826e-07 3.2990563e-08 1.01023616e-07 5.981248e-07 3.5044698e-07
3.094673e-08 9.105654e-08 5.90175e-07 3.6921455e-07 2.3419132e-08 1.1004563e-07 4.231519e-07 5.3287584e-07
2.8866188e-08 9.73299e-08 6.468875e-07 2.828801e-07 6.218911e-08 1.3377846e-07 4.255426e-07 5.172864e-07
5.4387403e-08 1.7866506e-07 5.8180234e-07 3.3075264e-07 7.655837e-08 1.5825115e-07 0.0 8.64949e-06
1.5251818e-05 7.928151e-07 2.7200322e-06 2.3810853e-06 2.100215e-05 9.712006e-07 3.512364e-06 1.321957e-05
1.0693698e-05 3.649777e-07 2.1298301e-06 5.2716945e-07 2.1109932e-05 2.5687127e-06 4.266216e-06 1.29282025e-05
9.948744e-06 7.8099936e-07 2.1986996e-06 3.0524736e-06 1.825384e-05 3.1446766e-06 6.2714084e-06 1.497003e-05
7.5888224e-06 7.2929015e-07 2.7422686e-06 0.0 4.0640234e-06 1.3172587e-05 5.888855e-07 1.8585367e-06
3.0287854e-06 1.3803556e-05 8.183672e-07 2.17129e-06 3.290262e-06 1.46588845e-05 5.2418284e-07 1.9176005e-06
3.5222397e-06 1.32681635e-05 9.4840374e-07 2.4247606e-06 3.3171818e-06 1.4109096e-05 1.0208528e-06 2.2888414e-06
4.4265207e-06 1.1612608e-05 1.8188529e-06 4.4068565e-06 4.265124e-06 1.2776691e-05 1.0318432e-06 3.5670034e-06
0.0 1.3448014e-05 0.0002451734 1.2847947e-06 1.8370238e-05 1.487221e-05 0.00023907846 2.8728082e-06
1.9321265e-05 1.9662079e-05 0.00024188627 1.3969734e-06 2.55255e-05 2.5007634e-05 0.0002300055 1.807292e-06
2.5159978e-05 4.7116388e-05 0.00020120511 1.2770818e-05 3.9627812e-05 8.839244e-05 0.00016164145 6.98158e-06
6.191467e-05 0.000104222236 0.00014193391 1.395016e-05 5.318871e-05 0.0 2.4947984e-05 7.195033e-05
5.480799e-06 1.5346057e-05 8.191723e-06 8.5164735e-05 6.3923776e-06 1.6135307e-05 3.34101e-05 6.384182e-05
6.119805e-06 1.5553496e-05 9.154497e-06 8.6113054e-05 5.0678304e-06 1.7024557e-05 4.6845777e-05 4.8818827e-05
7.939757e-06 2.0112164e-05 1.6983624e-05 7.8477235e-05 4.5358233e-06 2.5454208e-05 7.077126e-05 2.5280597e-05
6.956372e-06 2.308741e-05 0.0 1.5714633e-05 2.737759e-05 4.7809414e-07 3.4745367e-06 6.5284257e-06
3.500754e-05 6.9491495e-07 4.283503e-06 1.989743e-05 2.2475939e-05 5.1823883e-07 3.862533e-06 4.8301663e-06
3.6914906e-05 8.070032e-07 4.339634e-06 2.3886838e-05 1.7092281e-05 1.2023526e-06 5.4278958e-06 6.6099346e-06
3.475277e-05 1.0434161e-06 7.70385e-06 2.794181e-05 1.2813544e-05 1.4852699e-06 7.1041386e-06 0.0
1.3134921e-05 3.4732242e-05 1.1958889e-06 5.351806e-06 1.7931558e-05 2.790198e-05 2.5373458e-06 5.7682196e-06
2.928652e-06 4.3893386e-05 1.7345428e-06 5.898266e-06 2.2523453e-05 2.5177771e-05 1.9700522e-07 5.6579793e-06
4.0783125e-06 4.0519135e-05 3.1229793e-06 7.4715676e-06 3.8858405e-05 7.66687e-06 5.321424e-07 1.0373331e-05
00000000: a972 3637 f3a2 b238 eb31 9035 9cff c936
00000010: 1a2f 2937 8e73 b138 3081 a235 d2ae c236
00000020: e278 3237 53d6 b038 8005 b135 1ef8 ff36
00000030: 32c5 3937 97de b138 d791 6135 db36 0137
00000040: b3a8 b837 3cb6 8a38 49bd 8636 5f84 3f37
00000050: 4dfa 5238 82a2 2b38 cf4c 0b36 a433 b637
00000060: 8e3e 1238 fc51 6b38 f910 9f36 e941 7937
00000070: 0000 0000 3408 0037 97f6 1938 79db f635
00000080: 09b9 bb36 e4e2 c536 6d7c 1d38 256f 1936
00000090: 46b8 c636 f4a7 1e37 0a93 1838 0dbf 7535
000000a0: 6e28 af36 eecd c836 3801 1b38 1b52 4836
000000b0: ea91 fc36 fee0 6437 37be 0538 8a3a 0a36
000000c0: 0ee7 e236 ff7b 3837 62c4 fe37 553e e736
000000d0: 5348 6d37 e046 af37 d2fb c437 4cbe 1436
000000e0: f5d5 1837 0000 0000 7d2e 2635 a07b b534
000000f0: 82b1 0d33 52f2 d833 d38e 2035 1125 bc34
00000100: 4aea 0433 dd8a c333 846c 1e35 7638 c634
00000110: 372b c932 3a52 ec33 8e2d e334 f30a 0f35
00000120: 6bf5 f732 ae03 d133 c5a5 2d35 bfde 9734
00000130: d38c 8533 bea4 0f34 2176 e434 a7db 0a35
00000140: 9597 6933 14d7 3f34 272d 1c35 4c92 b134
00000150: 6968 a433 bfeb 2934 0000 0000 471d 1137
00000160: 0fe2 7f37 d7d1 5435 cc89 3636 bcca 1f36
00000170: c62d b037 335a 8235 f4b5 6b36 9fc9 5d37
00000180: 1569 3337 27f2 c334 34ee 0e36 cf82 0d35
00000190: 3c15 b137 2662 2c36 8426 8f36 35e6 5837
000001a0: 88e9 2637 dea5 5135 5f8d 1336 19d9 4c36
000001b0: d31f 9937 2209 5336 fd6e d236 ca27 7b37
000001c0: 7da3 fe36 70c4 4335 d107 3836 0000 0000
000001d0: b25d 8836 d5ff 5c37 e713 1e35 d672 f935
000001e0: 2342 4b36 d295 6737 c4ad 5b35 7ab6 1136
000001f0: 45ce 5c36 6eef 7537 92b5 0c35 20b0 0036
00000200: 9e5f 6c36 549a 5e37 cf95 7e35 12b9 2236
00000210: c09c 5e36 1bb6 6c37 3c04 8935 ff99 1936
00000220: 8687 9436 c6d3 4237 4f1f f435 9cde 9336
00000230: 231d 8f36 785b 5637 dd7d 8a35 a760 6f36
00000240: 0000 0000 c89e 6137 9e8a 8039 3671 ac35
00000250: c919 9a37 a883 7937 23b1 7a39 78ca 4036
00000260: 1a14 a237 feef a437 daa2 7d39 a47f bb35
00000270: 981f d637 7cc7 d137 a22d 7139 1592 f235
00000280: a40e d337 d69e 4538 96fa 5239 3f42 5637
00000290: 0a36 2638 545f b938 4c7e 2939 5143 ea36
000002a0: 2fd8 8138 e391 da38 18d4 1439 7b0b 6a37
000002b0: f116 5f38 0000 0000 6347 d137 0ae4 9638
000002c0: b4e7 b736 68bb 8037 2f6f 0937 789a b238
000002d0: 1b7e d636 4f5a 8737 d221 0c38 d1e2 8538
000002e0: ba58 cd36 e178 8237 4496 1937 9897 b438
000002f0: 550c aa36 f5cf 8e37 457c 4438 d1c2 4c38
00000300: ff34 0537 8bb6 a837 0e78 8e37 2594 a438
00000310: 6d32 9836 7f86 d537 086b 9438 ab11 d437
00000320: c86a e936 d6ab c137 0000 0000 ebd2 8337
00000330: eda8 e537 6156 0035 162c 6936 c00e db36
00000340: 0fd5 1238 318a 3a35 03bb 8f36 68e9 a637
00000350: b68a bc37 1a1d 0b35 e89a 8136 d012 a236
00000360: 14d5 1a38 d6a0 5835 2c9d 9136 9860 c837
00000370: 6561 8f37 8560 a135 4521 b636 e8ca dd36
00000380: 81c3 1138 810b 8c35 c93f 0137 9464 ea37
00000390: c1f9 5637 7c59 c735 1660 ee36 0000 0000
000003a0: 0e5e 5c37 76ad 1138 6e82 a035 aa93 b336
000003b0: ba6b 9637 0c0f ea37 4547 2a36 a18c c136
000003c0: dc89 4436 2a1a 3838 70ce e835 b8e9 c536
000003d0: bff0 bc37 da34 d337 6288 5334 acd9 bd36
000003e0: 70d8 8836 17f3 2938 6094 5136 47b4 fa36
000003f0: e5fb 2238 f5a0 0037 8cd8 0e35 1e09 2e37

exp_avg f4 [128]
0.0011256193 -0.0011400165 0.00017270604 0.0011371628 -0.000902837 0.002003093 -0.0026791603 0.00027811644
0.00060851226 -0.002183376 -0.00057572674 3.5771034e-05 -0.0027311465 0.0005512092 -0.0003226186 -0.00065891806
0.00026037026 0.00042143487 0.00044475318 0.00017009728 -0.0005646495 0.00023620419 0.0004929461 -0.00070108264
0.0009091952 0.0008738246 0.0008718728 0.0015782419 -0.00074730854 -0.0011775403 -0.0014880113 0.0016461594
0.0010437443 -0.0010647778 -5.7791407e-05 0.0018906735 0.0015268086 -0.00034071662 -0.0003420314 0.00047911564
-0.000978704 -4.524824e-05 0.0012806378 0.0013717725 0.00041036218 -0.00042081717 -0.0022433174 -0.00044451462
0.0010619537 -0.0018948781 -0.00084640505 0.0018430918 0.0021491426 0.001620157 -0.0007063877 0.0015702905
0.0010565978 -0.00093630183 -0.00011506965 -0.0012408892 -0.0010347172 -0.0011849584 -0.0014863512 0.00047066773
0.0005317272 -0.000983821 0.002358049 -0.0021453414 -0.00073088944 -0.0007677567 -0.0012329954 -0.0018578012
0.00021816383 0.0006647186 5.0616523e-05 -0.0004276291 0.0022296705 -0.0015460275 -0.00068775675 -1.6500358e-05
0.0010248349 0.0011675468 0.0005546278 -0.0018613623 0.0015184836 0.0012124369 0.0008335477 -0.0005064891
4.8528454e-05 -0.0024142182 0.0016124584 0.001348956 0.0022829077 -0.0008117943 -0.0022877974 -0.0020662735
0.00033092324 -0.0029909236 -0.0007064427 -0.0010909725 -0.001607086 -0.0015532605 0.0021394063 -0.0009481879
0.00026607444 -0.000741732 -0.0010877867 -4.4625034e-05 -0.00046672352 -0.0027336732 0.00061620714 -0.00078742305
0.0007213718 0.0011562478 -0.0008835642 -7.8728415e-05 0.00097597594 0.0001225477 -0.004737363 0.0017338247
-0.0009753349 0.0016107948 -0.0018668937 0.00092054915 0.0013067941 -0.00020592245 0.00054877205 0.0016722301
00000000: 8489 933a 9b6c 95ba 6d18 3539 da0c 953a
00000010: 5eac 6cba 5346 033b da94 2fbb 28d0 9139
00000020: 9184 1f3a f916 0fbb 5eec 16ba db08 1638
00000030: 09fd 32bb 067f 103a 2325 a9b9 3ebb 2cba
00000040: 4e82 8839 08f4 dc39 c32d e939 245c 3239
00000050: fd04 14ba 94ad 7739 0e39 013a dcc8 37ba
00000060: 0f57 6e3a 6011 653a 658e 643a 03dd ce3a
00000070: 07e7 43ba b257 9aba 6009 c3ba f2c3 d73a
00000080: 3fce 883a 0490 8bba 0d65 72b8 7ad0 f73a
00000090: 321f c83a 36a2 b2b9 ad52 b3b9 d031 fb39
000000a0: db47 80ba eec8 3db8 13db a73a 0ccd b33a
000000b0: e125 d739 20a1 dcb9 9f04 13bb be0d e9b9
000000c0: 4131 8b3a 8f5d f8ba 48e1 5dba e693 f13a
000000d0: a1d8 0c3b 735b d43a e02c 39ba 35d2 cd3a
000000e0: 8a7d 8a3a 2772 75ba 8c51 f1b8 55a5 a2ba
000000f0: 599f 87ba 9b50 9bba acd1 c2ba f4c3 f639
00000100: 9c63 0b3a 8ef3 80ba 7f89 1a3b db98 0cbb
00000110: 2999 3fba 4843 49ba 769c a1ba 7781 f3ba
00000120: e8c2 6439 8340 2e3a 144d 5438 6833 e0b9
00000130: aa1f 123b 13a4 caba 934a 34ba 406a 8ab7
00000140: c153 863a 5f08 993a 7164 113a f4f8 f3ba
00000150: db07 c73a a2ea 9e3a 7082 5a3a e8c5 04ba
00000160: 088b 4b38 dc37 1ebb 2059 d33a 74cf b03a
00000170: d69c 153b 98ce 54ba dfee 15bb 516a 07bb
00000180: c47f ad39 5f03 44bb 9130 39ba f6fe 8eba
00000190: dca4 d2ba c696 cbba 4835 0c3b d08f 78ba
000001a0: e87f 8b39 cb70 42ba 1194 8eba c42b 3bb8
000001b0: 92b2 f4b9 6d27 33bb f688 213a 116b 4eba
000001c0: 711a 3d3a 3d8d 973a fd9e 67ba ff1a a5b8
000001d0: a3d8 7f3a 2680 0039 e23b 9bbb 8141 e33a
000001e0: 9ead 7fba 4e21 d33a 8fb2 f4ba 0251 713a
000001f0: bc48 ab3a e3ec 57b9 78db 0f3a bb2e db3a
