results/ppo/Racing/Racing-8301.onnx (onnx, 88644 bytes, 9 tensors)

discrete_act_size_vector f4 [1, 2]
0	0x40400000	3.0
1	0x40400000	3.0

network_body._body_endoder.seq_layers.0.weight f4 [128, 29]
0	0x3eb834cd	0.35977784
1	0x3d5e71d7	0.054307785
2	0x3e4576eb	0.19283645
3	0xbe00ed4d	-0.12590523
4	0x3ec03932	0.37543637
5	0x3d9221a7	0.07135325
6	0x3ba87659	0.0051410613
7	0xbdd3b83c	-0.10337874
8	0x3e93d53e	0.28873628
9	0x3e2a724b	0.16645162
10	0x3c691f10	0.014228597
11	0x3e8ee10d	0.27906075
12	0xbea437bd	-0.32073775
13	0x3e17a71d	0.14809842
14	0xbb945545	-0.0045267665
15	0xbd6e992a	-0.058251537
16	0x3d27b1f2	0.040941186
17	0x3e95fee0	0.29296017
18	0x3ef92ed5	0.48668543
19	0xbd9b1291	-0.07571901
20	0xbd456eaf	-0.04820126
21	0x3c87eaa8	0.016591385
22	0x3d5f4330	0.054507434
23	0xbe7d33f3	-0.24726848
24	0xbdd018d8	-0.101609886
25	0x3c290c22	0.010317834
26	0x3d1cb2fc	0.03825663
27	0x3db4cf1e	0.08828567
28	0xbdead497	-0.114663295
29	0x3de17c05	0.11009983
30	0xbddb119b	-0.10696717
31	0x3e9b76e5	0.30364147
32	0xbe568b73	-0.20951633
33	0x3c9e5f75	0.019332627
34	0x3d39b68c	0.045340106
35	0x3e072f32	0.13201597
36	0xbdd0466a	-0.101696804
37	0xbe08a7a8	-0.13345206
38	0xbd33e48d	-0.043919135
39	0xbe98c333	-0.29836425
40	0x3d9aa81d	0.07551596
41	0x3e9de829	0.30841187
42	0x3ea29a0e	0.3175816
43	0xbe2cadd9	-0.16863193
44	0x3e66eb84	0.2255078
45	0x3e9e0e62	0.30870348
46	0xbe60cdeb	-0.21953551
47	0xbd44d638	-0.048055857
48	0x3d119452	0.03554184
49	0x3edb2d18	0.4280784
50	0x3ec6a093	0.38794383
51	0xbeb40fde	-0.35168356
52	0xbdb7ce93	-0.08974948
53	0x3e5e0646	0.2168208
54	0xbf0dc79b	-0.553827
55	0x3d5808c9	0.052742753
56	0xbee2f9e0	-0.44331264
57	0xbe72d2d9	-0.23713244
58	0x3d037ea1	0.032103185
59	0xbea9b772	-0.3314777
60	0xbe891a2b	-0.26777777
61	0xbe32953b	-0.1743974
62	0xbdcd745e	-0.10031961
63	0x3e16da18	0.14731634
64	0x3e8975bb	0.26847634
65	0xbeb07cfa	-0.3447035
66	0x3e367a70	0.17820144
67	0x3d28cac0	0.041208982
68	0xbda629e6	-0.0811346
69	0xbe966ac6	-0.29378337
70	0x3d1b7e8b	0.037962478
71	0x3da3edcb	0.0800434
72	0xbd8c1ae0	-0.068410635
73	0xbec271a2	-0.3797732
74	0x3d245c3a	0.040127017
75	0xbe42f442	-0.1903849
76	0xbe833728	-0.25628018
77	0x3df60004	0.12011722
78	0x3da58440	0.08081865
79	0x3e1ee12c	0.15515584
80	0x3e5ae615	0.21376832
81	0xbedb2097	-0.42798302
82	0x3e36a6f1	0.1783712
83	0x3eaf646c	0.34256303
84	0x3e4d4774	0.20046788
85	0x3e44e397	0.19227444
86	0x3e7963d9	0.24354495
87	0xbd9d5199	-0.07681579
88	0x3e20f561	0.15718605
89	0xbe65a5c1	-0.22426511
90	0xbe4fbeb5	-0.20287593
91	0x3ea1d651	0.31608823
92	0x3efe12fb	0.49623856
93	0xbc85da10	-0.016339332
94	0xbe5e5256	-0.21711096
95	0x3c75cff7	0.015003196
96	0x3e5f3b87	0.21800052
97	0x3d18adbf	0.037275072
98	0x3cd89562	0.026438419
99	0xbe16ef1a	-0.14739648
100	0x3e842a95	0.25813738
101	0xbdfd41c4	-0.123660594
102	0x3e752529	0.23939957
103	0x3e2dbe61	0.16967155
104	0xbe38b91c	-0.18039364
105	0xbe72338c	-0.23652476
106	0xbd49844e	-0.04919844
107	0xbeb6a7dc	-0.35674942
108	0x3d939663	0.07206418
109	0x3e18e87b	0.14932434
110	0x3f0a58f1	0.54041964
111	0xbd47468b	-0.04865126
112	0xbe8fab2f	-0.2806029
113	0xbe2e951f	-0.17049073
114	0x3e8e6a10	0.27815294
115	0xbea789bb	-0.32722268
116	0x3ba4b853	0.005026856
117	0x3dbb6b5e	0.09151338
118	0xbdc5a221	-0.09650064
119	0x3d2cae36	0.042158328
120	0xbe0b3cbd	-0.13597389
121	0x3c25be28	0.010116138
122	0xbde41b98	-0.111380756
123	0x3e8c27d3	0.27374133
124	0x3eb89b0a	0.36055785
125	0x3e57cecc	0.2107498
126	0x3e5ac0c6	0.213626
127	0xbdb9188c	-0.09037885
128	0xbe8d6051	-0.27612546
129	0x3e08a1e2	0.13343003
130	0x3df441ed	0.11926637
131	0x3e6978ff	0.22800063
132	0xbcd4f7f2	-0.025997136
133	0xbe6dd55c	-0.23225921
134	0xbe203c73	-0.1564806
135	0x3e3242e9	0.17408337
136	0xbeacf6b4	-0.3378197
137	0x3d2a7970	0.041619718
138	0x3e2d45cf	0.16921161
139	0x3e769c98	0.24083173
140	0x3e52d586	0.20589265
141	0xbe365a8d	-0.1780798
142	0xbe1b54f8	-0.15169132
143	0xbd0e1683	-0.034689438
144	0x3e51069b	0.20412676
145	0x3d8b17bc	0.06791636
146	0x3e73a196	0.23792109
147	0xbe053fb1	-0.13012578
148	0xbe471f63	-0.19445567
149	0xbea0bfb3	-0.31396255
150	0x3e058a86	0.13041124
151	0xbd2ad0d5	-0.041703064
152	0x3e1b4409	0.15162672
153	0xbe26a9c8	-0.16275704
154	0xbe3076d0	-0.17232823
155	0xbe3cae0e	-0.18425772
156	0xbdda5a81	-0.106617935
157	0x3d9f5b67	0.077811055
158	0x3e3874fa	0.18013373
159	0xbe09e55e	-0.13466403
160	0xbdd65172	-0.10464753
161	0x3caa743d	0.02080738
162	0x3e1cb4bc	0.1530332
163	0x3eb5db26	0.3551876
164	0xbcf7b183	-0.030236011
165	0xbe4c97f9	-0.19979848
166	0x3e963f5d	0.29345217
167	0xbe80a27b	-0.25123963
168	0x3dbb7f4a	0.09155138
169	0x3ed07664	0.40715325
170	0x3dd607e7	0.10450726
171	0xbe885c8c	-0.26633108
172	0xbce4294f	-0.027851729
173	0x3dfcdb3e	0.12346505
174	0xbe9040ef	-0.2817454
175	0xbd98243c	-0.07428786
176	0x3ec475dd	0.38371173
177	0xbe3372af	-0.17524217
178	0xbf1077e5	-0.56432945
179	0xbe8dc6c6	-0.27690715
180	0x3e1f3c79	0.15550412
181	0xbe856f82	-0.26061636
182	0xbe27c867	-0.16385041
183	0xbc5e9463	-0.013585183
184	0x3d410b97	0.047130194
185	0x3e1491e1	0.14508773
186	0xbf233737	-0.63756126
187	0x3df5440e	0.11975871
188	0x3d598e8b	0.053114455
189	0xbe4d101d	-0.20025678
190	0x3eab30c2	0.33435637
191	0x3da3f855	0.0800635
192	0x3e228a5e	0.15873095
193	0xbe8f9f19	-0.2805107
194	0xbe954b65	-0.29159084
195	0x3df4845b	0.11939307
196	0xbe8fa955	-0.28058878
197	0x3c827e4d	0.015929366
198	0x3e1d8210	0.15381646
199	0xbe2a8889	-0.16653647
200	0xbe3fcd4e	-0.18730661
201	0x3e616211	0.22010066
202	0x3eb49c04	0.3527528
203	0xbd7f2af0	-0.062296808
204	0x3e191054	0.14947635
205	0xbc43226e	-0.011910064
206	0x3d893e40	0.06701326
207	0x3d504443	0.05084635
208	0x3d5ca888	0.05387166
209	0xbebc9fb0	-0.36840582
210	0x3cd8a4b0	0.026445717
211	0x3dbbe21f	0.091739886
212	0xbe47490d	-0.1946146
213	0x3e6430dc	0.22284263
214	0x3d8f6b81	0.070029266
215	0xbdaf64aa	-0.08564122
216	0x3ed05aa9	0.40694168
217	0xbbeeac1d	-0.007283701
218	0x3dcb6e66	0.09933166
219	0x3d2cb368	0.042163283
220	0xbe6ee9fa	-0.23331442
221	0xbd84b16c	-0.06479153
222	0x3ce7dae8	0.028302625
223	0xbe88348b	-0.26602587
224	0xbe67831c	-0.22608608
225	0x3e0c7e55	0.13720067
226	0x3e2c6f0b	0.16839235
227	0x3ec5128f	0.38490722
228	0xbee798b0	-0.4523368
229	0x3eb238e2	0.34809023
230	0x3e39d8b7	0.18149076
231	0xbed6c556	-0.4194743
232	0xbe4eed66	-0.20207748
233	0xbd3451c8	-0.044023305
234	0xbe36f673	-0.1786745
235	0xbcd0a5a0	-0.025469601
236	0x3e84d507	0.25943777
237	0x3e5c2afd	0.21500774
238	0x3db63abc	0.088979214
239	0x3e5f372a	0.21798387
240	0xbdf72d50	-0.120691895
241	0x3e0e5b77	0.13902079
242	0x3dd0c705	0.1019421
243	0xbd0fbcd2	-0.035092182
244	0xbe5b3a75	-0.21409018
245	0x3e9e45bb	0.30912575
246	0xbe66a7c8	-0.22524941
247	0xbe0eb9a4	-0.13938004
248	0xbd84cdae	-0.06484543
249	0xbde0a6d8	-0.10969323
250	0x3e1192a8	0.14216101
251	0x3e46425f	0.19361256
252	0xbf3478a4	-0.70496583
253	0x3eb7c685	0.35893646
254	0x3df12085	0.11773781
255	0xbe8b0a44	-0.2715627

network_body._body_endoder.seq_layers.0.bias f4 [128]
0	0x3c95d6f7	0.01829098
1	0x3cffbae7	0.031217052
2	0x3d1e86ea	0.038702883
3	0x3d4220f4	0.047394708
4	0x3c00c79c	0.007860091
5	0x3d0317e4	0.032005206
6	0xbd399635	-0.045309264
7	0x3d0be687	0.034155395
8	0x3d8002ff	0.062505715
9	0x3d0cbd09	0.034359965
10	0x3d24f493	0.040272307
11	0x3cff21b1	0.031143995
12	0xbcbba279	-0.022904621
13	0xbcfc6582	-0.030810121
14	0x3d4249ed	0.047433782
15	0x3b7e6d28	0.0038822386
16	0xbcb876b3	-0.022517538
17	0x3d13930f	0.036028918
18	0xbde092a9	-0.10965473
19	0x3d925872	0.07145776
20	0xbd91f957	-0.07127636
21	0xbce2ac2d	-0.02766999
22	0xbd49f8c9	-0.049309526
23	0xbcc8e9ac	-0.024525486
24	0x3dcd0587	0.1001082
25	0x3d7fb7e8	0.062431246
26	0x3cbcb756	0.02303664
27	0xbb890287	-0.0041812095
28	0x3d78ec1d	0.06077205
29	0xbcb4fc13	-0.022092855
30	0xbc3c7b22	-0.0115039665
31	0xbe059c45	-0.13047893
32	0x3d563de3	0.052305114
33	0x3d68b021	0.056808595
34	0xbc385476	-0.011250606
35	0x3cf9952b	0.030466637
36	0x3c877d83	0.01653934
37	0x3cca9e3d	0.024733657
38	0xbc535ca4	-0.012900505
39	0xbe97389c	-0.29535377
40	0x3cbf1389	0.023324745
41	0x3daf4b57	0.08559292
42	0x3c97b73c	0.01851999
43	0x3caa81d2	0.020813856
44	0xbdc05775	-0.09391681
45	0x3d39d288	0.045366794
46	0x3d16da76	0.036829434
47	0x3d299a83	0.04140712
48	0x3d7f8d60	0.062390685
49	0x3d96437b	0.0733709
50	0xbbf241de	-0.007393106
51	0x3d760f40	0.060073137
52	0xbc3f76b1	-0.011686013
53	0x3dc4df5c	0.09612915
54	0xbd1fbbb9	-0.038997386
55	0xbc8af8a1	-0.016964259
56	0x3d668cf7	0.05628678
57	0x3d7c2a8d	0.061564017
58	0x3df7e4f6	0.12104218
59	0xbd0d5dcf	-0.03451329
60	0xbd25f86c	-0.040520117
61	0x3d66ce6d	0.056349207
62	0x3cc888a2	0.024479214
63	0x3d773f00	0.060362816
64	0x3d3e4a8b	0.04645781
65	0x3c4218f5	0.0118467705
66	0x3d0590dd	0.032608856
67	0xbca938db	-0.020656994
68	0x3d54a9e9	0.05191985
69	0x3c5f4dd6	0.013629397
70	0x3d8c0f85	0.068388976
71	0x3df87fcf	0.121337526
72	0x3daf14cf	0.08548891
73	0x3d2a4310	0.041567862
74	0x3dd32227	0.103092484
75	0x3a8f1ab8	0.0010917997
76	0x3da1bb57	0.0789706
77	0xbb82b92a	-0.0039893584
78	0x3d109a22	0.035303243
79	0x3d10870b	0.035285037
80	0x3ca39b82	0.019971613
81	0x3dcad313	0.099035405
82	0x3d4cbb60	0.049983382
83	0x3d6532ba	0.05595658
84	0x3d967531	0.07346571
85	0xbc33ef40	-0.010982335
86	0x3d6a96a8	0.057272583
87	0x3d0a7ae9	0.033808623
88	0x3ebc324e	0.3675713
89	0x3e1c8291	0.15284182
90	0x3b063a2d	0.0020481453
91	0x3b31c255	0.0027123888
92	0x3d17b4a5	0.03703751
93	0xbd2c6da7	-0.04209676
94	0xbbf13455	-0.007360975
95	0xbb954ab8	-0.0045560263
96	0xbd30a3e5	-0.043125052
97	0x3da18aba	0.07887788
98	0x3c1f7f11	0.009734885
99	0xbd85412c	-0.06506571
100	0x3d943283	0.07236197
101	0x3bdfdac1	0.0068314974
102	0x3d530e4f	0.051527318
103	0x3d3030fc	0.043015465
104	0x3d88a75f	0.066725485
105	0xbda48bed	-0.08034501
106	0xbc9c7bd1	-0.019102009
107	0x3d27af38	0.040938586
108	0xbd1a5bbc	-0.03768514
109	0x3d4204b4	0.047367766
110	0xbc0411f7	-0.008060924
111	0x3d589e81	0.052885536
112	0x3ce58be6	0.02802081
113	0x3dc0c881	0.09413243
114	0x3e03faa7	0.12888585
115	0x3d19733d	0.037463415
116	0xbde218f3	-0.11039915
117	0x3d3b49ad	0.04572456
118	0x3d7a77d5	0.061149437
119	0x3c66f060	0.014095396
120	0xbb0c3ffd	-0.0021400445
121	0x3ce255e2	0.027628843
122	0x3cdd532c	0.027017199
123	0x3d3be428	0.045871884
124	0x3d02484e	0.031807236
125	0xbc751208	-0.014957912
126	0x3dbc2140	0.091860294
127	0x3d389ec7	0.045073297

network_body._body_endoder.seq_layers.2.weight f4 [128, 128]
0	0xbcc5a134	-0.02412472
1	0x3dead4eb	0.11466392
2	0xbb3286d7	-0.0027241015
3	0xbc38bb83	-0.011275175
4	0xbe56d501	-0.20979692
5	0xbbf1469c	-0.0073631536
6	0xbcf5e33a	-0.030015577
7	0x3d32baf1	0.043635312
8	0xbd061a33	-0.03273983
9	0xbc942295	-0.018082896
10	0xbe938ea8	-0.28819776
11	0x3c3ebc6e	0.011641605
12	0x3e766c17	0.2406467
13	0x3e34a02b	0.17639224
14	0xbe25dea4	-0.16198212
15	0xbd9e84e4	-0.077401906
16	0xbe8110ce	-0.25208133
17	0x3dd63e92	0.10461153
18	0x3e77df98	0.24206388
19	0x3d8131a8	0.06308299
20	0x3ceab5c7	0.028651131
21	0xbcf1516d	-0.029457772
22	0x3decaad4	0.115560204
23	0x3d9fa8a5	0.07795838
24	0xbee944e4	-0.45560372
25	0x3db16fc4	0.08663896
26	0x3d82916a	0.06375392
27	0xb995efd2	-0.00028598175
28	0xbe2fb66b	-0.1715943
29	0x3db9e911	0.09077657
30	0x3d061487	0.03273442
31	0x3e3864a9	0.18007149
32	0xbe160316	-0.14649615
33	0xbe39c524	-0.1814161
34	0xbd600e38	-0.05470106
35	0xbdfebb97	-0.12438124
36	0xbaa341a6	-0.0012455478
37	0x3d9ba023	0.07598903
38	0x3e1cf475	0.15327628
39	0xbbe3c1cf	-0.006950594
40	0x3d99172a	0.07475121
41	0x3e1cca0e	0.15311453
42	0x3d4f8471	0.050663415
43	0x3dd1ee63	0.10250547
44	0xbd9c3c8a	-0.076287344
45	0x3b494cf4	0.0030716034
46	0x3e1cecb2	0.15324667
47	0x3dabf81f	0.08396935
48	0x3d8dfcf4	0.069330126
49	0xbe5816be	-0.21102425
50	0xbdd02418	-0.10163134
51	0x3d36645e	0.04452931
52	0x3e8329ec	0.2561792
53	0x3e1e2e8a	0.1544744
54	0xbe502847	-0.20327865
55	0x3dcbd4b5	0.0995268
56	0xbcfc43da	-0.030794073
57	0xbe19d55a	-0.15022793
58	0x3e11aca8	0.1422602
59	0x3ddfd50e	0.10929309
60	0xbde3f6ee	-0.111310825
61	0xbdcb12f1	-0.09915722
62	0x3cd520a5	0.026016543
63	0x3c9237ec	0.017848931
64	0xbd91f773	-0.07127275
65	0x3db36e96	0.08761327
66	0x3e5c9397	0.21540676
67	0x3d1557be	0.03646063
68	0x3e1bc572	0.15212038
69	0x3dc21a10	0.09477627
70	0x3ce06183	0.027390247
71	0xbd814079	-0.06311125
72	0xbe1a4cca	-0.15068355
73	0xbc4b0095	-0.0123902755
74	0x3cee5514	0.029093303
75	0x3da915e6	0.0825613
76	0xbc46c8bd	-0.012132821
77	0x3e22b81b	0.15890543
78	0xbe16084d	-0.14651604
79	0x3e1b3775	0.15157874
80	0xbde5a0f0	-0.11212337
81	0x3dc601de	0.09668325
82	0x3d87b8b1	0.06627024
83	0xbba5f94d	-0.0050651194
84	0xbe28ee81	-0.16497232
85	0xbd7561c6	-0.059907697
86	0x3e154711	0.14577891
87	0x3e379a8d	0.1793005
88	0x3dbe3b62	0.0928867
89	0xbd7a5ee5	-0.061125655
90	0xbdbce563	-0.092234395
91	0x3d49aca5	0.049236912
92	0x3dc4ba7b	0.09605881
93	0xbe175675	-0.14779074
94	0xbe01ea9e	-0.12687156
95	0xbe89ce7e	-0.26915354
96	0xbdec29a0	-0.11531377
97	0xbd1f6397	-0.038913336
98	0xbdb01f17	-0.0859968
99	0xbe129d65	-0.14317854
100	0x3d01b393	0.031665396
101	0x3da90ac9	0.0825401
102	0x3b1c8b85	0.002388687
103	0xbdaf51fe	-0.08560561
104	0x3e888774	0.26665843
105	0x3dc63bef	0.096794
106	0x3dfeba1a	0.1243784
107	0xbdf33205	-0.11874775
108	0xbcd0b159	-0.025475191
109	0xbdc6e85c	-0.09712288
110	0xbd5f2bf0	-0.05448526
111	0xbe033392	-0.12812641
112	0xbdeacb89	-0.114646025
113	0xbe5904b7	-0.21193205
114	0xbdb12744	-0.086500674
115	0xbcf2079e	-0.029544648
116	0x3d79c190	0.06097561
117	0xbe89d3b0	-0.26919317
118	0xbc92da39	-0.017926322
119	0xbcb792dd	-0.022408897
120	0x3e37269f	0.17885827
121	0x3dbeaf13	0.093107365
122	0x3dea2456	0.11432712
123	0x3e274496	0.16334757
124	0x3c66e2fb	0.014092202
125	0x3d4d9541	0.050191168
126	0x3e2a7b90	0.16648698
127	0x3da24a0f	0.07924282
128	0xbe0a05f0	-0.13478827
129	0x3bc64891	0.006051131
130	0x3df43ca4	0.11925629
131	0x3e28ed81	0.1649685
132	0x3d3937bc	0.045219168
133	0x3db2f633	0.08738365
134	0x3ce60385	0.02807785
135	0x3e4b5633	0.19857101
136	0x3dbcb356	0.09213893
137	0xbe057ba9	-0.13035454
138	0xbd9ca162	-0.07647969
139	0xbd19a3e2	-0.037509806
140	0xbe52c615	-0.20583375
141	0x3d2d54f0	0.04231733
142	0x3ae6bd50	0.0017604027
143	0x3e22803a	0.15869227
144	0x3dd52b2e	0.104086265
145	0xbdacb6df	-0.084333174
146	0x3d477a2b	0.048700493
147	0xbe7448d9	-0.23855914
148	0xbe1cbf04	-0.15307242
149	0x3e08c12e	0.13354942
150	0xbd41a46f	-0.047275957
151	0x3c9b814e	0.018982556
152	0x3dc29cea	0.09502585
153	0x3e344426	0.17604122
154	0x3e7fdcf4	0.2498663
155	0xbc6fd3c0	-0.0146378875
156	0xbdf67f5f	-0.12036013
157	0x3e304ebc	0.17217535
158	0xbc30f764	-0.01080117
159	0x3c7e583d	0.015523967
160	0x3df3c829	0.11903412
161	0x3e5c1777	0.21493326
162	0xbd2ed52f	-0.042683776
163	0xbc28cb54	-0.010302383
164	0xbdd0a1e5	-0.10187129
165	0x3e12f1e4	0.14350086
166	0xbcb2991e	-0.021801528
167	0xbdaf0b49	-0.08547074
168	0xbdc633c7	-0.096778445
169	0x3e0c797e	0.1371822
170	0xbe255db3	-0.16149025
171	0x3e51ab70	0.20475554
172	0xbd9f858c	-0.07789144
173	0xbd1d4e6d	-0.03840487
174	0x3e341bb0	0.17588687
175	0x3c550a85	0.013002996
176	0x3cae3acc	0.02126827
177	0x3dffd2a1	0.12491346
178	0x3e2ca9d3	0.16861658
179	0xbdf2ad9c	-0.118495196
180	0xbe91fe60	-0.28514385
181	0x3e45e2f5	0.19324858
182	0xbde9a25f	-0.11407923
183	0x3d624a7d	0.05524682
184	0xbd907b4f	-0.07054769
185	0xbd8f4c24	-0.069969445
186	0xbd27dc8d	-0.040981818
187	0xbdfc2a34	-0.12312737
188	0xbd73b46a	-0.059498228
189	0xbdf1ab94	-0.11800304
190	0xbcf0b7cf	-0.029384522
191	0xbab67898	-0.0013921438
192	0x3e9fb829	0.3119519
193	0xbc9a9d98	-0.018873975
194	0x3dd60459	0.10450048
195	0x3dc1531a	0.094396785
196	0xbe989ac3	-0.29805574
197	0xbe8eb45f	-0.27871987
198	0xbd38859b	-0.04504929
199	0xbe04cccb	-0.12968747
200	0x3dee78fd	0.116441704
201	0x3cc61a6f	0.024182526
202	0xbde32469	-0.11090929
203	0xbc716e60	-0.014735788
204	0xbdff9bcc	-0.12480888
205	0x3e15157f	0.14558981
206	0x3e2759fa	0.16342917
207	0x3c568f52	0.013095694
208	0x3d928570	0.071543574
209	0x3c10f51b	0.0088475
210	0x3d8e30c3	0.06942894
211	0x3db289bc	0.08717677
212	0xbdb53cc1	-0.088494785
213	0xbe81e1b3	-0.25367507
214	0xbdbaf94d	-0.091295816
215	0x3d39a510	0.04532343
216	0xbc47f239	-0.0122037465
217	0x3dbf6dbe	0.093471035
218	0xbe1fbadc	-0.15598625
219	0xbe7a25f0	-0.24428535
220	0x3e157707	0.14596187
221	0x3d9bd2fb	0.07608601
222	0xbc6d481d	-0.014482525
223	0x3dd1b065	0.10238723
224	0x3c761112	0.015018718
225	0xbca09688	-0.019603029
226	0x3c02b3b1	0.007977412
227	0x3ca14812	0.019687686
228	0xbce62276	-0.028092604
229	0x3e282493	0.16420202
230	0xbd444cf1	-0.04792494
231	0x3d9f4d8c	0.07778463
232	0xbd44eac9	-0.04807547
233	0xbdbcccde	-0.09218763
234	0xbcbc6191	-0.022995742
235	0x3dbc31ad	0.091891624
236	0xbe1831a5	-0.14862688
237	0xbd9a6634	-0.07539025
238	0xbce639b2	-0.028103683
239	0xbb82f87a	-0.003996906
240	0x3d660990	0.056161463
241	0x3df8b849	0.121445246
242	0x3d3eb795	0.046561796
243	0x3d1d27a0	0.038367867
244	0xbccd4efb	-0.025062075
245	0x3d71317c	0.058885083
246	0x3e609d94	0.21935111
247	0xbe2c2b58	-0.1681341
248	0x3cb87c01	0.022520067
249	0x3e055f95	0.13024743
250	0x3dbbcf56	0.091704056
251	0x3e1a25d2	0.1505349
252	0xbdd40578	-0.103526056
253	0x3d33da1d	0.04390918
254	0xbdb6b1e1	-0.089206465
255	0x3d6ce8d2	0.057839222

network_body._body_endoder.seq_layers.2.bias f4 [128]
0	0x3c71fe66	0.014770126
1	0x3d1e56e2	0.038657077
2	0x3ccbd620	0.024882376
3	0xbdcd98c4	-0.10038903
4	0x3cef1d6d	0.029188836
5	0x3d520e37	0.051283088
6	0x3beb136c	0.007173946
7	0x3d2d6d82	0.042340763
8	0x3aea6b1c	0.0017884704
9	0x3d205b08	0.039149314
10	0x3d9e2b57	0.0772311
11	0x3d545bee	0.051845483
12	0x3d8a91c2	0.06766082
13	0x3d30f574	0.043202832
14	0x3d5ed09d	0.054398168
15	0x3d3bae8b	0.045820754
16	0x3d75d82f	0.060020622
17	0xbdcfa3c1	-0.101386555
18	0x3d6b2836	0.057411395
19	0xbd962360	-0.07330966
20	0xbac36efc	-0.0014910395
21	0x3d957694	0.072980076
22	0xbb95fb5b	-0.004577083
23	0xbc9faf5c	-0.019492798
24	0xbd0971c2	-0.033555754
25	0x3d193316	0.037402235
26	0x3bf699d6	0.007525663
27	0x3d8f46a0	0.069958925
28	0x3d74ea20	0.05979359
29	0x3d0ddd83	0.03463508
30	0x3d240b74	0.040049985
31	0xbe132387	-0.14369021
32	0xbd3acc26	-0.045604847
33	0x3d86f0f8	0.0658893
34	0xbdc43f2c	-0.095823616
35	0x3d15e8a8	0.03659883
36	0xbd3460a5	-0.04403748
37	0xbd8e4218	-0.069462
38	0xbc493bf4	-0.01228236
39	0x3cbb767b	0.022883644
40	0x3ddf3b2a	0.108999565
41	0x3ca5f029	0.020256119
42	0xbcad9ee9	-0.021193938
43	0x3d0af8ee	0.033928804
44	0xbd1ded65	-0.038556475
45	0xbe0e4f3f	-0.13897417
46	0xbcdd2a10	-0.026997596
47	0xbc59dfe7	-0.013298011
48	0x3c9f9208	0.019478813
49	0xbd6dcf8c	-0.05805926
50	0xbd97fe53	-0.07421555
51	0x3c08c888	0.008348592
52	0x3db5a611	0.08869565
53	0xbb0b0361	-0.002121173
54	0x3c9ccd11	0.019140752
55	0x3d296e34	0.041364864
56	0x3c720811	0.014772431
57	0x3de96a76	0.11397259
58	0x3cbe7773	0.023250317
59	0xbdc3a8c6	-0.09553675
60	0x3ca1924b	0.019723078
61	0xbdaf552d	-0.08561168
62	0x3d1830a6	0.03715577
63	0xbc4b578d	-0.01241101
64	0xbc02d7b5	-0.007985999
65	0x3d96f94d	0.07371769
66	0xbc7339c8	-0.014845319
67	0x3d6ee47a	0.05832336
68	0xbd8c0630	-0.06837118
69	0x3dae15ec	0.08500275
70	0x3d1f633d	0.038913
71	0x3dae4e50	0.08511031
72	0x3d1311f9	0.035905812
73	0x3d01d977	0.03170153
74	0xbd37b520	-0.04485047
75	0x3d27b76b	0.040946405
76	0x3d6c8303	0.05774213
77	0xbd012d28	-0.031537205
78	0x3d27d202	0.040971763
79	0xbd1dcbb8	-0.03852436
80	0xbcc53d3e	-0.024077054
81	0xbccdf798	-0.025142476
82	0xbd0fc980	-0.035104275
83	0xbd4966c1	-0.04917026
84	0x3c78c2b4	0.01518314
85	0x3cfdc9a7	0.030979944
86	0x3d835952	0.06413521
87	0x3d21c97d	0.039498795
88	0x3b0a75a0	0.002112724
89	0x3d7ea734	0.062171176
90	0x3d1de209	0.038545642
91	0x3d09c05e	0.03363072
92	0xbb969f90	-0.004596658
93	0x3e290080	0.16504097
94	0x3b1b9cbb	0.0023744542
95	0x3d04bdf6	0.032407723
96	0x3dad66fa	0.08466907
97	0x3d099a57	0.033594456
98	0xbcb5fdb0	-0.022215694
99	0x3d83e764	0.06440619
100	0xbcb170b5	-0.021660188
101	0x3d65a6aa	0.056067146
102	0xbc521d75	-0.012824406
103	0x3d400735	0.046881873
104	0xbc8b4bf5	-0.017003993
105	0x3d10538d	0.03523593
106	0x3d0e1382	0.034686573
107	0x3da9a26c	0.08282933
108	0x3d45dc2e	0.048305683
109	0xbd833944	-0.06407407
110	0xbdbd6b7c	-0.09249017
111	0x3d7baba4	0.061442986
112	0x3d4f68ee	0.050637178
113	0x3cb4c311	0.022065671
114	0xbc18f4b4	-0.0093356855
115	0x3d9ff376	0.07810108
116	0xbdc585c1	-0.09644652
117	0xbd87b990	-0.0662719
118	0x3c8c4464	0.017122455
119	0xbbeb15d4	-0.007174233
120	0x3d61baaf	0.055109676
121	0x3b3fd694	0.0029272186
122	0x3d3fd811	0.046836916
123	0x3cb86e0f	0.022513418
124	0xbd80e7dd	-0.062942244
125	0xbd2c8e78	-0.042128056
126	0x3d51cc05	0.05121996
127	0x3d0a28fa	0.033730485

action_model._discrete_distribution.branches.0.weight f4 [3, 128]
0	0xbe1adeec	-0.151241
1	0xbe22e3b2	-0.15907171
2	0xbd2b25e0	-0.041784167
3	0x3e1a9575	0.15096076
4	0xbd7c0299	-0.061525915
5	0xbbca281e	-0.006169333
6	0xbb64cc8c	-0.0034911959
7	0xbca6de01	-0.020369532
8	0x3dbe5ffd	0.09295652
9	0xbc8330c9	-0.016014474
10	0x3ca1cb06	0.01975013
11	0xbbe7c88a	-0.0070734667
12	0xbe1ba506	-0.1519967
13	0xbcc9cc0d	-0.024633432
14	0x3c07d2f7	0.008290044
15	0xbdb2619a	-0.08710022
16	0xbd96909a	-0.07351799
17	0x3e8e76ee	0.2782511
18	0xbd354088	-0.044250995
19	0x3ddfaf3e	0.10922097
20	0x3df210fa	0.11819644
21	0xbdeef4dd	-0.11667798
22	0x3d99265c	0.074780196
23	0x3e5385c6	0.206565
24	0x3c0687f9	0.008211129
25	0xbbebda82	-0.007197679
26	0x3e115f95	0.14196618
27	0xbc15299c	-0.009104159
28	0xbdc64cf8	-0.096826494
29	0x3c9477d7	0.01812355
30	0xbdc4da46	-0.09611945
31	0x3d0b02d3	0.03393824
32	0x3d8b36dc	0.06797573
33	0xbdb29ce5	-0.087213315
34	0x3d9bec5c	0.07613441
35	0x3e19350e	0.14961645
36	0xbde3de22	-0.11126353
37	0x3dd820e0	0.105531454
38	0xbdcc10b2	-0.09964122
39	0xbcdf47ee	-0.027255978
40	0x3d1e1ba3	0.038600575
41	0x3e4efc06	0.20213327
42	0x3dc0f5a7	0.094218545
43	0xbdf1b832	-0.118027106
44	0xbde96007	-0.11395269
45	0x3dd7b032	0.105316535
46	0x3e2bd549	0.1678058
47	0xbd7b69b8	-0.061380118
48	0x3db0f172	0.08639802
49	0x3df056e8	0.11735326
50	0x3d617d67	0.055051234
51	0xbd679ccd	-0.05654602
52	0xbc8e18a2	-0.01734573
53	0x3d8685cd	0.06568489
54	0xbb9ac624	-0.0047233272
55	0x3c4c4679	0.012467974
56	0xbe3a944e	-0.18220636
57	0x3d130b6c	0.035899565
58	0xbcc975b6	-0.024592262
59	0x3e4ec352	0.20191696
60	0xbc2ace91	-0.010425226
61	0xbd529a1d	-0.051416505
62	0xbd46c8db	-0.048531394
63	0x3e6030cb	0.21893613
64	0xb9aefd40	-0.00033376552
65	0xbe2e6c88	-0.17033589
66	0xbc104d97	-0.008807561
67	0xbd8e7f76	-0.06957905
68	0x3d83a3c8	0.06427723
69	0xbe6ddd58	-0.23228967
70	0x3af4fcaf	0.0018691028
71	0x3a3f004f	0.0007286118
72	0x3e23e2e3	0.16004519
73	0xbcb6dcbb	-0.02232205
74	0x3e0bffcc	0.13671798
75	0xbca70f46	-0.020393025
76	0xbdeb68ed	-0.114946224
77	0xbe18866c	-0.14895028
78	0xbb17d5cb	-0.0023168202
79	0x3d0ceb00	0.0344038
80	0x3e01cfb2	0.12676886
81	0xbd4b924e	-0.049700074
82	0xbd08d339	-0.033404563
83	0xbd82d2d5	-0.06387869
84	0x3c347068	0.011013128
85	0x3d946ec8	0.07247692
86	0x3c2bd05c	0.010486688
87	0xbd3a942d	-0.045551468
88	0x3dc9a901	0.09846688
89	0xbdeee9e3	-0.11665704
90	0x3db87420	0.09006524
91	0xbdc7c755	-0.097548164
92	0x3d8f2cfc	0.06991002
93	0xbeb16b86	-0.34652346
94	0xbdefc5ad	-0.117076255
95	0xbd1ba064	-0.037994757
96	0xbda82ee8	-0.08212072
97	0xbd23f89b	-0.04003201
98	0xbd788de9	-0.06068221
99	0xbc6029be	-0.013681827
100	0x3df33b1b	0.11876508
101	0xbd6ed943	-0.058312666
102	0xbe426b7b	-0.18986313
103	0x3e030b04	0.12797171
104	0x3dd6ce87	0.10488611
105	0xbd6ceced	-0.057843138
106	0xbdc5e2a4	-0.09662369
107	0xbe0879d1	-0.1332772
108	0xbd44a57f	-0.048009392
109	0x3e08487f	0.13308905
110	0x3ce54d82	0.02799106
111	0xbda747f7	-0.08168023
112	0xbca8a1ee	-0.020585027
113	0x3c6e68db	0.014551367
114	0x3d848b44	0.06471875
115	0x3c1bbc6a	0.009505371
116	0x3e482ccc	0.19548339
117	0x3dcbdaae	0.09953819
118	0xbca34ba1	-0.019933524
119	0x3df6ce45	0.120510615
120	0xbdaf8bf4	-0.08571616
121	0x3ce55e1f	0.027998982
122	0xbd88c1ed	-0.066776134
123	0x3d2d5ecd	0.042326737
124	0x3c49541d	0.012288121
125	0xbe12011d	-0.14258237
126	0x3c0919ee	0.0083679985
127	0x3db7763c	0.08958098
128	0x3e363697	0.17794262
129	0x3e089250	0.13337064
130	0x3d40d935	0.047082145
131	0xbe7084d6	-0.23488173
132	0x3da61408	0.081092894
133	0x3da705f2	0.08155431
134	0xbb17c116	-0.002315586
135	0x3cd291bb	0.025704255
136	0x3cbd329b	0.02309542
137	0x3d040bbb	0.03223775
138	0x3ce3d536	0.027811628
139	0x3d568e61	0.052381877
140	0x3e31e395	0.17371972
141	0x3d87ed07	0.06637006
142	0x3cee62f3	0.029099917
143	0x3dba7059	0.0910346
144	0x3dd0d427	0.10196715
145	0xbec509c6	-0.3848402
146	0x3d91e12a	0.07123025
147	0xbe10862b	-0.14113681
148	0xbdba4a2f	-0.09096181
149	0x3e26a086	0.16272172
150	0xbd921775	-0.0713338
151	0xbea09457	-0.31363174
152	0x3cd4d3a5	0.025979826
153	0x3d8c41f0	0.06848514
154	0xbe29612d	-0.16540976
155	0x3db85d5c	0.09002182
156	0x3de8461f	0.113414995
157	0x3cd44a03	0.025914198
158	0x3dcc1a25	0.09965924
159	0xbe1e5cf0	-0.1546514
160	0xbd66a3d1	-0.05630857
161	0x3df6f6c6	0.12058787
162	0xbdb82e81	-0.08993245
163	0xbe56a67a	-0.20961943
164	0x3d1b01d8	0.037843555
165	0xbdcf8aa9	-0.10133869
166	0x3d23260e	0.039831214
167	0x3d506e35	0.05088635
168	0x3d278b89	0.040904555
169	0xbe6394c0	-0.22224712
170	0xbde9cfcc	-0.11416587
171	0x3dce2ee0	0.100675344
172	0x3cb87bfb	0.022520056
173	0xbe79a7fc	-0.24380487
174	0xbe0d0621	-0.13771869
175	0x3c758d00	0.01498723
176	0xbdf4a40e	-0.119453534
177	0xbde1c645	-0.11024145
178	0xbdab4951	-0.08363593
179	0x3c6bc76e	0.014390809
180	0x3d91d89c	0.07121393
181	0xbda7168d	-0.08158598
182	0x3d504dbb	0.05085538
183	0xbcaa4554	-0.020785011
184	0x3e1214f0	0.142658
185	0x3d2ab935	0.041680533
186	0x3d149f90	0.036284983
187	0xbe89d0b1	-0.2691703
188	0x3bb7f984	0.0056144614
189	0xbc294488	-0.0103312805
190	0x3d90046e	0.07032095
191	0xbe1414ef	-0.1446111
192	0x38b8db1e	8.8146175e-05
193	0x3e40b34a	0.18818393
194	0xbb5168e8	-0.0031953398
195	0x3daae153	0.083437584
196	0xbde7b01d	-0.11312888
197	0x3e649e77	0.22326075
198	0x3d091419	0.033466432
199	0x3d7733ec	0.06035225
200	0xbe3a6fed	-0.18206759
201	0x3c33f1e1	0.010982961
202	0xbe168fe5	-0.14703329
203	0x3c847cff	0.016172884
204	0x3de288fc	0.11061284
205	0xbb3db2e8	-0.0028945748
206	0x3d909395	0.07059399
207	0xbb7d3b5a	-0.0038640113
208	0xbddd5121	-0.1080649
209	0x3cee1198	0.029061124
210	0x3d92a925	0.07161168
211	0xbd6c9b87	-0.05776551
212	0xbc3d1538	-0.0115407035
213	0xbdededec	-0.116176456
214	0x3d22bd04	0.03973104
215	0x3d9ac8b5	0.07557813
216	0xbe02967e	-0.1275272
217	0x3e08ae17	0.1334766
218	0x3c0c5fb9	0.008567744
219	0x3dff5dec	0.12469086
220	0xbdddec0f	-0.1083604
221	0x3ed324cf	0.4123902
222	0x3dfcff6b	0.123534046
223	0x3d3afe7a	0.045652844
224	0x3ddd1668	0.10795289
225	0x3d4d3a03	0.050104152
226	0x3d98349e	0.07431911
227	0x3d642704	0.05570127
228	0xbe07a623	-0.1324697
229	0x3dca6daa	0.09884198
230	0x3e016d97	0.12639461
231	0xbd397075	-0.045273263
232	0xbdce36d9	-0.10069055
233	0x3d4576e3	0.048209082
234	0x3dde2d5a	0.10848494
235	0x3e2b41b1	0.16724278
236	0x3d99357d	0.07480905
237	0xbdf3819d	-0.11889956
238	0xbe67d258	-0.22638834
239	0x3dcf9ea5	0.10137681
240	0x3d5767ac	0.052589104
241	0x3ccfbeef	0.025359599
242	0xbcf3b476	-0.029749136
243	0x3d05ada5	0.032636303
244	0xbe8b3bdf	-0.27194116
245	0xbdee7374	-0.11643115
246	0x3d0d8408	0.034549743
247	0xbe087605	-0.13326271
248	0x3d9fc520	0.078012705
249	0xbd88a36b	-0.066717945
250	0x3de7200c	0.11285409
251	0xbc923bf3	-0.017850852
252	0xbd845e41	-0.0646329
253	0x3df66fcb	0.120330416
254	0x3d2a0139	0.041505072
255	0xbe175795	-0.14779504

action_model._discrete_distribution.branches.0.bias f4 [3]
0	0xbd2e0b14	-0.042491034
1	0x3dd345bd	0.10316036
2	0xbe1606be	-0.1465101

action_model._discrete_distribution.branches.1.weight f4 [3, 128]
0	0xbd09fb91	-0.033687178
1	0xbac44472	-0.0014974012
2	0x3c2d5532	0.010579394
3	0xbcc9c371	-0.024629327
4	0x3bb21d99	0.005435657
5	0xbab89a13	-0.0014084004
6	0x3b384986	0.0028119995
7	0xbb7e677d	-0.0038819008
8	0xbc2418ba	-0.010015661
9	0x3ca0271b	0.019549897
10	0x3d397a3b	0.045282584
11	0x3da76383	0.08173277
12	0x3b10df6e	0.002210583
13	0x3c030100	0.007995844
14	0x3d046842	0.03232599
15	0x3c8e9bd1	0.017408283
16	0x3d0e362e	0.03471964
17	0x3dbb6990	0.09150994
18	0x3caa6261	0.020798864
19	0xbd5f907a	-0.054581143
20	0x3d1b0d67	0.03785458
21	0x3cceef20	0.025260508
22	0x3e00fb63	0.12595896
23	0x3e112d03	0.14177327
24	0xbdd06c9a	-0.10176964
25	0x3c4a23ba	0.012337619
26	0x3ccafc6a	0.024778564
27	0xbce4e0b2	-0.027939174
28	0x3c5d78ed	0.0135176005
29	0x3d629a04	0.055322662
30	0x3bff9280	0.0077994466
31	0x395182b1	0.0001998048
32	0x3ceb529b	0.028725913
33	0x3c8dcc7f	0.017309425
34	0x3d8e7452	0.0695578
35	0x3dd3389f	0.10313534
36	0xbdd07dbd	-0.10180233
37	0xbcb371a6	-0.021904778
38	0xbde9caac	-0.1141561
39	0xbc0ba7e2	-0.008523913
40	0x3b299e81	0.002588183
41	0x3d584727	0.05280223
42	0xbd45b9e9	-0.048273
43	0xbdc78fac	-0.097442
44	0xbc861478	-0.016367182
45	0xbcb20c4a	-0.021734376
46	0x3d740150	0.059571564
47	0x3de498eb	0.11161979
48	0x3c8fe5ed	0.017565692
49	0xbd7c65cd	-0.061620522
50	0xbc872735	-0.016498188
51	0x3d9c5b58	0.0763461
52	0x3b9c302a	0.004766484
53	0xbd3a2458	-0.045444816
54	0xbbc33f3a	-0.005958465
55	0x3bb6fcdf	0.005584344
56	0xbd7004e8	-0.05859843
57	0x3b9025d0	0.004399039
58	0x3d18bf70	0.037291944
59	0x3b807724	0.0039204527
60	0xbd31258b	-0.043248694
61	0xbcef8d0d	-0.029242063
62	0x3cfde823	0.03099448
63	0x3cd9b4b8	0.026575431
64	0xbd74a01d	-0.05972301
65	0x3cda87a0	0.026676
66	0xbe0d21be	-0.13782403
67	0x3c89e630	0.016833395
68	0xbd2e0356	-0.04248365
69	0x3cd93b0a	0.02651741
70	0x3d8583d4	0.06519285
71	0x3b082e42	0.0020779525
72	0x3ddfc350	0.10925925
73	0x3d6aa64c	0.0572875
74	0xbdf4c007	-0.11950689
75	0x3da38019	0.07983417
76	0x3d3f64c1	0.046726946
77	0xbd8bb2f6	-0.068212435
78	0x3c365fad	0.011131209
79	0x3cd05a97	0.025433822
80	0xbdaf6623	-0.08564403
81	0xbe25c8d0	-0.16189885
82	0xbdb8014d	-0.08984623
83	0xbe07615b	-0.13220732
84	0xbc66c432	-0.014084863
85	0x3e05c3e6	0.1306301
86	0x3ccd51e4	0.025063463
87	0x3bfbe7db	0.0076875514
88	0x3d8d7a0d	0.06908045
89	0x3ce670f3	0.02813003
90	0x3d474d3a	0.048657633
91	0xbc0e3a10	-0.008680835
92	0x3e06b5c3	0.13155274
93	0xbcec1a27	-0.028821064
94	0xbe04cd26	-0.12968883
95	0x3c58774c	0.013212036
96	0x3c30462f	0.010758921
97	0x3c958f58	0.018256828
98	0xbe199e8f	-0.15001892
99	0x3d313446	0.043262742
100	0x3d6ca8a0	0.057778
101	0x3d358682	0.04431773
102	0xbdfa1087	-0.122101836
103	0x3d4e048f	0.050297316
104	0x3e3859db	0.18003027
105	0x3d3b8732	0.04578323
106	0xbae7ff44	-0.0017699976
107	0x3ce88dd2	0.028387938
108	0x3d766409	0.060153995
109	0xbd99ef44	-0.075163394
110	0x3cb2ddf4	0.021834351
111	0x3cf5eab4	0.030019142
112	0x3dd6e5f0	0.10493076
113	0x3cb91900	0.022594929
114	0x3e2eca0b	0.17069261
115	0x3d4f5cb5	0.05062552
116	0x3d5c2490	0.053745806
117	0xbdfd72e0	-0.12375426
118	0x3c8d5dca	0.017256636
119	0x3da4e5ec	0.080516666
120	0x3cea7d26	0.028624129
121	0x3d54434a	0.051821984
122	0xbc412e70	-0.011790857
123	0x3d241fc2	0.04006935
124	0xbdc2f741	-0.09519816
125	0xbdb98ed8	-0.090604484
126	0x3ce940ee	0.028473344
127	0x3e0566e1	0.13027526
128	0x3d9b3fd6	0.07580535
129	0xbdd8369f	-0.10557293
130	0xbdf9e22c	-0.12201342
131	0x3d51d316	0.051226698
132	0xbdf7c2f7	-0.120977335
133	0xbca8a9ad	-0.02058872
134	0xbbdd3ef6	-0.0067518903
135	0xbe245df8	-0.16051471
136	0x3de4f5cd	0.11179695
137	0xbe01076b	-0.12600486
138	0xbdb5a700	-0.08869743
139	0x3c878533	0.016543007
140	0xbce2c175	-0.027680138
141	0x3a6d738a	0.0009058049
142	0xbe771599	-0.24129333
143	0xbe1fd220	-0.156075
144	0xbc044cb8	-0.008074932
145	0xbe11f1dc	-0.14252418
146	0xbdfee9b9	-0.12446923
147	0x3dab1f4a	0.08355577
148	0x3c990fd7	0.01868431
149	0x3d26c4c6	0.040715
150	0x3cda6114	0.026657619
151	0xbd06016d	-0.032716203
152	0x3da713e1	0.081580885
153	0x3d10d166	0.035355948
154	0xbe8fe3ad	-0.2810339
155	0x3e1c9c2a	0.15293947
156	0xbd268c89	-0.04066137
157	0xbd61b5ac	-0.055104896
158	0xbdca73eb	-0.09885391
159	0x3dd610b3	0.10452404
160	0x3e50effb	0.20404045
161	0xbdf8e0ee	-0.12152277
162	0x3e289674	0.16463643
163	0xbe4e9e0a	-0.20177475
164	0x3dea0c3f	0.11428117
165	0xbdb35de2	-0.08758141
166	0x3d295dc3	0.041349184
167	0xbe0af059	-0.13568248
168	0xbca3e53a	-0.020006765
169	0xbebf92ef	-0.3741679
170	0xbe88688a	-0.26642257
171	0xbdd29285	-0.10281853
172	0x3ddadea6	0.10686998
173	0x3d851fc7	0.06500202
174	0xbd4142a7	-0.047182705
175	0x3db752be	0.08951329
176	0xbeb62bcd	-0.35580292
177	0x3d751e09	0.059843097
178	0x3e92fe92	0.28709847
179	0x3da31958	0.07963818
180	0xbe1daa3c	-0.1539697
181	0xbe1798e2	-0.14804414
182	0xbe0c7929	-0.13718094
183	0xbe88d1b6	-0.26722497
184	0xbd41e941	-0.04734159
185	0xbd8b6570	-0.06806457
186	0xbd3132ba	-0.043261267
187	0x3b6f4a0b	0.003651264
188	0xbea0f085	-0.31433502
189	0x3e4e730f	0.20161079
190	0xbdad0529	-0.0844825
191	0xbcc06aac	-0.023488365
192	0xbe0858ae	-0.13315079
193	0xbbf11377	-0.0073570567
194	0x3d649441	0.05580545
195	0xbd94cad2	-0.072652474
196	0xbb4d03eb	-0.0031282853
197	0xbd98d7b6	-0.074630186
198	0x3a95cf3d	0.001142956
199	0xbd080752	-0.033210106
200	0xbe73a180	-0.23792076
201	0x3dcacdfe	0.09902571
202	0xbe14c9cf	-0.14530109
203	0x3c38888e	0.011263026
204	0xbd906de6	-0.070522115
205	0x3dab1d38	0.083551824
206	0xbd02aa97	-0.03190097
207	0x3e143813	0.14474516
208	0xbd8485c6	-0.06470828
209	0xbcb21052	-0.021736298
210	0x3df9c8ab	0.121964775
211	0x3d1942ae	0.037417106
212	0xbe41dee7	-0.18932687
213	0xbd348366	-0.044070624
214	0xbd87507c	-0.06607148
215	0xbd938f88	-0.07205111
216	0x3dd3e968	0.10347253
217	0xbdfc7317	-0.12326639
218	0x3b3d833a	0.0028917328
219	0xbdacb3dd	-0.08432744
220	0x3dba7b5f	0.091055624
221	0x3da8d777	0.08244222
222	0xbd812241	-0.063053615
223	0xbd0f9f4d	-0.03506403
224	0xbce4e21c	-0.027939849
225	0xbe3fa471	-0.18715073
226	0x3db36885	0.0876017
227	0xbb96ba0e	-0.004599816
228	0x3c55f947	0.013059921
229	0xbd1b2bed	-0.037883688
230	0x3cff5853	0.031170046
231	0xbde8170f	-0.11332523
232	0x3cfe2c77	0.031027062
233	0xbcaa03a0	-0.020753682
234	0xbd79a95a	-0.06095252
235	0x3ca7ad31	0.020468326
236	0x3cfaa229	0.030594902
237	0x3d3bbb1a	0.04583273
238	0x3ce0fa50	0.027463108
239	0xbd600d6e	-0.054700308
240	0x3d049a4b	0.032373708
241	0xbe31d3a2	-0.17365888
242	0x3daee794	0.08540264
243	0xbddeb613	-0.10874572
244	0x3df4dac8	0.11955792
245	0xbc9030f8	-0.017601475
246	0xbe02ef64	-0.12786633
247	0x3de2ac91	0.11068071
248	0xbe2b94c1	-0.16755964
249	0x3d6a5011	0.057205264
250	0xbdd8ef7d	-0.10592554
251	0xbd55006b	-0.05200235
252	0x3cd40b7f	0.025884388
253	0x3bdaeb52	0.0066808844
254	0xbd71429e	-0.05890142
255	0xbe5b3b14	-0.21409255

action_model._discrete_distribution.branches.1.bias f4 [3]
0	0x3d23f7e9	0.040031347
1	0xbd8b6b9c	-0.06807634
2	0xbb8aa120	-0.0042306334
