results/ppo/Racing/Racing-2287.onnx (onnx, 88644 bytes, 9 tensors)

discrete_act_size_vector f4 [1, 2]
3.0 3.0
00000000: 0000 4040 0000 4040

network_body._body_endoder.seq_layers.0.weight f4 [128, 29]
0.01658178 0.2655503 0.3226779 -0.09752131 -0.16663133 -0.18523198 0.2739362 -0.20756602
-0.289551 0.022864994 0.06090922 -0.004011288 -0.058480334 -0.061138645 -0.03360092 -0.1466428
-0.014832519 0.04298195 0.28744292 -0.06740048 0.10219079 0.020452807 -0.08235327 -0.37767595
0.28486493 0.10887375 0.09334766 0.039732315 -0.03840074 -0.17793821 0.17178108 0.44812682
0.12742615 -0.28141254 0.043571174 0.22806416 0.1504187 -0.29995558 -0.09535962 0.05790331
0.029562013 -0.60005516 0.23415634 -0.28219667 -0.036644306 -0.07816442 0.0148045495 -0.23145114
0.26655087 -0.19801363 0.08797335 -0.5376302 -0.36356872 0.005765269 -0.2706317 0.10284561
0.067441516 -0.12870508 -0.05726691 0.00015836625 0.29339576 0.33121434 -0.24307714 0.2517645
0.23415902 -0.13979362 -0.22025779 -0.23342347 -0.03242543 0.09434963 -0.060554855 -0.056063697
-0.18900554 0.3214968 -0.13771039 0.28617138 0.24541554 0.15118363 -0.14703141 -0.08478369
-0.03805231 -0.06225235 -0.2215375 0.061822724 -0.303411 0.14480846 -0.04667688 0.09237495
0.06694536 0.13961874 -0.10992485 0.01742475 0.2417949 0.095774464 -0.14850497 -0.06518277
0.2742252 -0.22538465 0.124903694 -0.22805507 0.33342913 0.058510166 -0.32161656 0.15729585
-0.16098306 -0.27947357 -0.21816513 -0.088329956 -0.27388564 0.38649428 0.016944123 0.12999158
0.024598293 -0.06832852 0.16539918 0.009547308 0.31907585 0.23485354 -0.0328729 0.14169714
-0.35332033 0.43975523 0.08764154 0.027415125 0.06383099 -0.48075774 -0.28762794 -0.32381105
0.037267033 -0.17981228 -0.12099289 0.055628307 0.028318956 -0.24388652 -0.039718255 -0.2787378
0.072570674 0.024527093 0.30512583 0.25680962 -9.0860285e-06 -0.20331343 -0.84809047 -0.14145863
-0.20334736 -0.014525987 0.17690234 -0.0047486993 0.10028753 0.27782112 0.15883014 0.05445443
-0.10759165 0.070510976 -0.0625919 0.16339433 0.1778372 0.45424336 0.17584229 -0.12147869
0.05559708 0.2125387 -0.051129185 -0.09024611 -0.15886512 0.26907295 0.3816136 0.07442245
-0.18254587 -0.1556654 -0.29101607 0.1714495 0.0035289212 -0.2375034 -0.21270566 -0.16566068
-0.21382742 -0.07577556 0.04876792 0.16367388 -0.07098297 -0.11093627 0.0094298 0.08897534
0.0012792203 -0.060582515 -0.1867304 0.106460854 -0.066306226 0.26793176 -0.1176539 0.03446098
0.23524863 0.33991268 -0.26860312 0.14260903 -0.12882037 0.21783626 0.11843559 -0.3085596
-0.1978575 0.46749437 -0.29292285 -0.15679932 0.1610171 -0.117934 0.22209403 -0.1850279
0.23531543 -0.15078126 0.18772902 0.26006445 -0.06245946 0.05143316 0.1730019 0.060129315
-0.17024517 -0.021029046 0.39565277 0.05613463 0.06473515 0.067501225 0.06271881 -0.42999673
0.2779603 -0.121115774 -0.16312668 0.15575036 0.024034696 -0.090698 0.2525121 -0.21666719
-0.3604017 0.03576908 -0.22943488 0.35997722 -0.21226135 0.14193982 0.14520419 -0.22523744
0.20828469 0.31768277 -0.16346791 0.06724604 0.37864694 -0.27267155 0.053165752 0.41099203
-0.024803098 -0.06351041 0.20046109 0.031388555 0.22552167 -0.16868874 -0.02524666 0.19015625
00000000: 83d6 873c 35f6 873e 0a36 a53e 41b9 c7bd
00000010: 67a1 2abe 74ad 3dbe 5e41 8c3e 308c 54be
00000020: 0740 94be 5e4f bb3c f27b 793d 1f71 83bb
00000030: 1389 6fbd 846c 7abd 1ea1 09bd 8829 16be
00000040: 1804 73bc d70d 303d b82b 933e 4309 8abd
00000050: 6849 d13d a58c a73c d5a8 a8bd be5e c1be
00000060: d1d9 913e 33f9 de3d 0f2d bf3d 5abe 223d
00000070: 184a 1dbd 6f35 36be 61e7 2f3e e170 e53e
00000080: 007c 023e 4e15 90be b077 323d a789 693e
00000090: 5c07 1a3e c793 99be e84b c3bd 052c 6d3d
000000a0: 092c f23c 379d 19bf aec6 6f3e 157c 90be
000000b0: 5718 16bd ab14 a0bd c88e 723c 8701 6dbe
000000c0: 5b79 883e 16c4 4abe 5f2b b43d 22a2 09bf
000000d0: ae25 babe 95ea bc3b 3d90 8abe b8a0 d23d
000000e0: c71e 8a3d 44cb 03be b590 6abd 1e0f 2639
000000f0: f837 963e ed94 a93e 37e9 78be 47e7 803e
00000100: 62c7 6f3e 0f26 0fbe 428b 61be 9006 6fbe
00000110: 87d0 04bd 613a c13d 5e08 78bd 0ca3 65bd
00000120: ab8a 41be 3b9b a43e f403 0dbe 0e85 923e
00000130: 364e 7b3e e2cf 1a3e 678f 16be 12a3 adbd
00000140: bddc 1bbd 52fc 7ebd bada 62be d339 7d3d
00000150: b058 9bbe ab48 143e 4230 3fbd 142f bd3d
00000160: a61a 893d 37f8 0e3e 4820 e1bd 59be 8e3c
00000170: 1599 773e 6725 c43d b011 18be 8b7e 85bd
00000180: 3f67 8c3e 3ccb 66be 82cd ff3d 4587 69be
00000190: 39b7 aa3e 5ba8 6f3d edaa a4be 2a12 213e
000001a0: bed8 24be 2917 8fbe ae66 5fbe 56e6 b4bd
000001b0: bd3a 8cbe 94e2 c53e 67ce 8a3c 831c 053e
000001c0: 5c82 c93c d3ef 8bbd 675e 293e 506c 1c3c
000001d0: e95d a33e 727d 703e bca5 06bd 0e19 113e
000001e0: 67e6 b4be 9927 e13e 687d b33d af95 e03c
000001f0: d2b9 823d e125 f6be f843 93be 90ca a5be
00000200: 51a5 183d b620 38be 1fcb f7bd 82da 633d
00000210: 28fd e73c 63bd 79be 9caf 22bd b9b6 8ebe
00000220: ef9f 943d 0bed c83c 7439 9c3e 8d7c 833e
00000230: 3270 18b7 6531 50be 751c 59bf 88da 10be
00000240: 4a3a 50be 68fe 6dbc e325 353e fa9a 9bbb
00000250: 8c63 cd3d 923e 8e3e 5ea4 223e 9c0b 5f3d
00000260: 0359 dcbd 0f68 903d 2f30 80bd d850 273e
00000270: f41a 363e 9692 e83e 0010 343e d2c9 f8bd
00000280: c4b9 633d bfa3 593e d66c 51bd f4d2 b8bd
00000290: 8aad 22be eec3 893e dc62 c33e cc6a 983d
000002a0: 4eed 3abe c066 1fbe 0f00 95be 7590 2f3e
000002b0: 7945 673b 1734 73be 83cf 59be f4a2 29be
000002c0: 93f5 5abe 3830 9bbd dfc0 473d 209a 273e
000002d0: 855f 91bd 8e32 e3bd 737f 1a3c b438 b63d
000002e0: 83ab a73a 5f25 78bd 4136 3fbe 2608 da3d
000002f0: 8fcb 87bd 5a2e 893e 87f4 f0bd f526 0d3d
00000300: 04e5 703e 0909 ae3e 5986 89be 1a08 123e
00000310: 7de9 03be 7810 5f3e 5c8e f23d 86fb 9dbe
00000320: 289b 4abe 6c5b ef3e fcf9 95be 0090 20be
00000330: abe1 243e 6287 f1bd 9e6c 633e f477 3dbe
00000340: 87f6 703e 6766 1abe 093c 403e 2b27 853e
00000350: 7ed5 7fbd 94ab 523d 6927 313e 284a 763d
00000360: c054 2ebe 1b45 acbc 0093 ca3e 6ded 653d
00000370: dd93 843d 153e 8a3d b872 803d 8828 dcbe
00000380: d050 8e3e 8c0b f8bd ae0a 27be 067d 1f3e
00000390: 69e4 c43c dfbf b9bd 4449 813e 01de 5dbe
000003a0: 9286 b8be 9982 123d faf0 6abe ef4e b83e
000003b0: 0a5b 59be ac58 113e 68b0 143e a5a4 66be
000003c0: 9548 553e 51a7 a23e 2264 27be 4bb8 893d
000003d0: 03de c13e 9b9b 8bbe 55c4 593d 8c6d d23e
000003e0: de2f cbbc bf11 82bd ac45 4d3e 4991 003d
000003f0: 27ef 663e bebc 2cbe 15d2 cebc 52b8 423e

network_body._body_endoder.seq_layers.0.bias f4 [128]
0.019109923 0.06469708 0.030882644 0.0113093145 0.026632776 0.035543066 0.042331614 0.008027164
0.014526914 0.040847152 0.100212924 0.046720304 0.023209618 -0.03355734 0.057659667 0.02268221
-0.0060945954 0.023644753 0.04746927 -0.005952045 0.024847051 0.055650458 0.05753649 -0.007836073
-0.010925132 0.022439076 0.012236962 0.019518912 0.008929771 0.04953918 -0.00742759 0.039644446
0.011894539 0.021445492 0.023205312 0.06251892 0.05011355 0.0050875763 0.008772842 -0.01943848
0.0007595944 0.06917285 0.040510606 0.04265363 0.02181298 0.0055996957 0.010144366 -0.0074031623
0.026941417 0.045905214 0.046834797 0.085171655 0.026742429 -0.0045169503 0.009842969 0.041392036
0.016440794 -0.018856796 0.029162485 0.030187448 -0.014501483 0.030367777 -0.007983334 0.021108989
0.053732757 0.032043457 0.041076306 0.0483167 -0.0008539197 0.006011292 -0.023943748 -0.051137734
0.038340278 0.06598134 0.00054183434 0.025719082 0.016521925 0.009276765 0.0377378 0.008663992
0.041033443 0.0045499597 -0.0007258654 0.05551889 0.040476296 0.08555462 0.023884837 0.028150776
0.027958374 0.005128624 0.037963368 0.02932824 0.021734737 0.045115035 -0.04005016 0.051843442
0.020363795 0.02665226 0.02489401 0.04372376 0.029706398 0.043087397 0.027809033 0.035464223
0.031947546 0.002461369 0.029154234 -0.054914095 0.02702592 0.023057751 0.016545955 0.031779356
0.02922946 0.04245488 0.047899034 0.043042593 0.04366113 0.0050700046 0.0466542 0.017196542
0.03696299 0.011242085 0.04374691 0.043153413 0.014029577 0.007436998 0.04831668 -0.010670544
00000000: 6a8c 9c3c e77f 843d 99fd fc3c b44a 393c
00000010: fb2c da3c 9b95 113d ea63 2d3d 5e84 033c
00000020: 4b02 6e3c 584f 273d 6f3c cd3d ca5d 3f3d
00000030: 1922 be3c 6c73 09bd 8b2c 6c3d 0bd0 b93c
00000040: 2cb5 c7bb a4b2 c13c 236f 423d 5f09 c3bb
00000050: 0b8c cb3c bcf1 633d 62ab 6b3d df62 00bc
00000060: 53ff 32bc 27d2 b73c 8a7d 483c 20e6 9f3c
00000070: 2d4e 123c 98e9 4a3d 2463 f3bb 3762 223d
00000080: 50e1 423c 75ae af3c 1119 be3c eb09 803d
00000090: de43 4d3d afb5 a63b f7bb 0f3c 723d 9fbc
000000a0: 841f 473a 7faa 8d3d 73ee 253d 93b5 2e3d
000000b0: 22b1 b23c a77d b73b 8e34 263c 3a96 f2bb
000000c0: 3fb4 dc3c 1b07 3c3d d8d5 3f3d 7a6e ae3d
000000d0: f012 db3c ed02 94bb 6744 213c b28a 293d
000000e0: d8ae 863c 9179 9abc 2ae6 ee3c ab4b f73c
000000f0: a197 6dbc d8c5 f83c 88cc 02bc c2ec ac3c
00000100: e116 5c3d 0040 033d a13f 283d bbe7 453d
00000110: 95d9 5fba 5ffa c43b ae25 c4bc cd75 51bd
00000120: b20a 1d3d 3a21 873d e309 0e3a d3b0 d23c
00000130: fd58 873c 93fd 173c f492 1a3d 6bf3 0d3c
00000140: af12 283d d417 953b 0148 3eba c767 633d
00000150: 79ca 253d 4337 af3d 22aa c33c 759c e63c
00000160: f608 e53c 040e a83b 7a7f 1b3d c741 f03c
00000170: 0c0d b23c 8bca 383d a30b 24bd ca59 543d
00000180: f9d1 a63c d755 da3c 86ee cb3c af17 333d
00000190: d55a f33c 697c 303d c5cf e33c ef42 113d
000001a0: 6edb 023d eb4e 213b dcd4 ee3c 9aed 60bd
000001b0: 7665 dd3c 9ce3 bc3c 628b 873c 122b 023d
000001c0: 9f72 ef3c 2be5 2d3d c731 443d 6e4d 303d
000001d0: 03d6 323d 4822 a63b 7918 3f3d c3df 8c3c
000001e0: 8166 173d b930 383c f62f 333d a2c1 303d
000001f0: 50dc 653c 10b2 f33b b6e7 453d 81d3 2ebc

network_body._body_endoder.seq_layers.2.weight f4 [128, 128]
-0.019839458 0.036157973 -0.10311774 -0.049611192 0.06022035 -0.03618549 -0.088429295 -0.027705982
-0.24302775 0.1316973 0.004311467 -0.052462466 -0.10660508 -0.13838881 -0.015134495 -0.010360618
-0.1516831 -0.12841094 -0.068351515 0.0063104294 -0.00015764566 0.21522728 -0.038986377 -0.04952364
0.0026238507 -0.09993206 -0.060948115 0.019614475 -0.15276729 0.18766147 -0.14408343 0.23231584
0.09559816 -0.27776378 0.080497265 0.05337439 -0.0064428756 -0.17390418 -0.19213904 0.019525366
-0.0006575769 -0.035519842 0.029413553 0.027041435 0.11919816 0.022538783 -0.07139311 -0.08009787
-0.09548872 -0.010767549 -0.06763749 0.0885804 0.004746101 -0.057904325 -0.10144005 0.13907005
-0.07187067 -0.035835676 0.0689324 0.00811297 -0.07401514 -0.02584633 -0.13718633 -0.14015102
-0.045395672 0.2334943 -0.08821625 0.20627397 0.002401666 -0.08590676 0.015097444 0.025669204
0.02093053 0.0701571 -0.10873709 -0.045737173 0.16446923 0.35986933 -0.11372244 0.0013944954
0.004403608 -0.1783154 -0.17452355 0.082038835 0.16744755 0.019766081 0.024962436 -0.01873535
0.0021793274 -0.13147193 0.08552946 0.020251768 -0.09930691 -0.011601582 -0.20088677 -0.063012704
0.118019454 0.17587821 0.020865045 0.06221359 -0.042159557 0.0037755691 -0.16763382 -0.07500941
-0.09504101 -0.084172696 0.054701187 -0.16756754 -0.08696608 0.100474626 -0.08854941 -0.04599831
0.041655228 -0.03982987 0.17950688 0.055069976 0.017942196 -0.030459598 0.07492933 0.13817304
0.082903735 -0.123966396 -0.028375832 0.120083 0.14713228 0.043052055 -0.029208822 -0.01283164
-0.04444453 -0.11219619 -0.023692468 0.08950039 -0.060769364 -0.12807252 0.18780981 -0.111652374
-0.1834207 -0.013250529 -0.03540402 0.14943777 -0.010000337 -0.14024757 0.25885603 0.08951912
0.0030811166 -0.058939602 -0.15670185 0.06599353 0.06770322 0.16760013 0.22050512 -0.053346206
-0.06956429 -0.14476685 -0.010483444 -0.035191346 0.065068 -0.064056054 0.07913791 0.0052377437
0.122543894 -0.047937904 -0.030993586 0.025353046 0.14364243 0.036050234 0.13482773 -0.040904988
-0.21317185 0.07205491 0.15905945 0.04671757 -0.006386944 -0.13295409 0.007816039 -0.07321945
-0.003893119 -0.022220977 0.16954382 0.078669816 0.15673788 -0.21731167 0.058147505 -0.020463366
-0.023484549 -0.3462196 0.039763052 -0.0062877405 -0.08237761 -0.08684011 -0.09785646 -0.12532139
0.110814266 0.055922136 -0.03510369 0.01588571 -0.2466194 -0.017528303 -0.041939784 -0.20063867
-0.004810552 0.0878234 0.13017091 0.037015885 -0.06608083 0.06768528 0.022767412 -0.033696268
0.13339563 -0.0676966 -0.113019265 -0.12176888 0.10341865 0.10086269 0.10477198 0.13362421
-0.09221592 -0.009444477 -0.03232754 -0.010196869 -0.1809185 -0.060296144 -0.097908765 0.044878166
0.06365861 -0.07573561 0.03218397 -0.070111156 -0.04657248 0.20944193 -0.044349633 0.21641433
0.104434684 -0.23432557 0.10713816 -0.11917966 -0.18994243 0.09306657 -0.008452992 0.071061954
0.16156176 0.030695526 0.06723015 -0.04135599 0.09543302 0.003928657 -0.01916987 0.1569253
-0.029436696 -0.19595179 0.032357365 0.06781447 0.06621729 0.053924892 0.14435698 0.07825212
00000000: 5c86 a2bc 621a 143d 652f d3bd 1b35 4bbd
00000010: 9da9 763d 3d37 14bd 6b1a b5bd a8f7 e2bc
00000020: 44dc 78be a8db 063e 3547 8d3b e2e2 56bd
00000030: c453 dabd ccb5 0dbe acf6 77bc 95bf 29bc
00000040: d152 1bbe 287e 03be e1fb 8bbd b8c7 ce3b
00000050: af4d 25b9 8a64 5c3e 2eb0 1fbd 4dd9 4abd
00000060: e9f4 2b3b 2ea9 ccbd bba4 79bd 89ae a03c
00000070: 076f 1cbe 542a 403e 9b8a 13be 34e4 6d3e
00000080: f8c8 c33d 0e37 8ebe c0db a43d 1b9f 5a3d
00000090: c21e d3bb f013 32be 19c0 44be a9f3 9f3c
000000a0: 3d61 2cba 417d 11bd b1f4 f03c 0086 dd3c
000000b0: 2a1e f43d 41a3 b83c 8d36 92bd 5a0a a4bd
000000c0: 978f c3bd 606a 30bc 8685 8abd a469 b53d
000000d0: 2e85 9b3b 162d 6dbd cdbf cfbd 6168 0e3e
000000e0: ee30 93bd 6ec8 12bd 6e2c 8d3d 43ec 043c
000000f0: 4095 97bd afbb d3bc 937a 0cbe c083 0fbe
00000100: d0f0 39bd 2119 6f3e b9aa b4bd 7c39 533e
00000110: 4565 1d3b e2ef afbd 455b 773c 3948 d23c
00000120: 8176 ab3c 87ae 8f3d 8db1 debd e756 3bbd
00000130: 9f6a 283e cb40 b83e 50e7 e8bd 80c7 b63a
00000140: 244c 903b 5098 36be 4db6 32be fa03 a83d
00000150: 5f77 2b3e 7aec a13c 067e cc3c e07a 99bc
00000160: 0cd3 0e3b 94a0 06be 122a af3d 09e7 a53c
00000170: 6c61 cbbd 9014 3ebc 43b5 4dbe ce0c 81bd
00000180: 2fb4 f13d 6b19 343e 2ced aa3c add3 7e3d
00000190: 80af 2cbd 8a6f 773b 33a8 2bbe 899e 99bd
000001a0: dca4 c2bd bc62 acbd 5a0e 603d d396 2bbe
000001b0: 461b b2bd a4c5 cd3d 6559 b5bd b968 3cbd
000001c0: ac9e 2a3d a524 23bd a7d0 373e 0e91 613d
000001d0: 83fb 923c 6886 f9bc 8c74 993d 3c7d 0d3e
000001e0: 6fc9 a93d 18e2 fdbd 6f74 e8bc 13ee f53d
000001f0: d8a9 163e 5a57 303d 5747 efbc cd3b 52bc
00000200: 780b 36bd 1ec7 e5bd b516 c2bc fb4b b73d
00000210: 4ce9 78bd 7125 03be 3751 403e 00aa e4bd
00000220: a3d2 3bbe bf18 59bc ce03 11bd 3706 193e
00000230: 74d8 23bc 0f9d 0fbe c788 843e cd55 b73d
00000240: 8fec 493b a76a 71bd 7376 20be 9e27 873d
00000250: fca7 8a3d 5e9f 2b3e 18cc 613e 8d81 5abd
00000260: b977 8ebd c33d 14be c0c2 2bbc cd24 10bd
00000270: 5f42 853d d22f 83bd 0e13 a23d 61a1 ab3b
00000280: 4bf8 fa3d 895a 44bd 43e6 fdbc 31b1 cf3c
00000290: 0017 133e 69a9 133d 4810 0a3e fd8b 27bd
000002a0: b949 5abe 8691 933d 7be0 223e ec5a 3f3d
000002b0: 9249 d1bb 1e25 08be d80e 003c 14f4 95bd
000002c0: b323 7fbb c408 b6bc e59c 2d3e a41d a13d
000002d0: e57f 203e f386 5ebe 142c 6e3d caa2 a7bc
000002e0: ab62 c0bc b243 b1be 95de 223d 6409 cebb
000002f0: 98b5 a8bd 3ad9 b1bd f868 c8bd 4054 00be
00000300: 97f2 e23d 9c0e 653d e3c8 0fbd c022 823c
00000310: cc89 7cbe 8497 8fbc 0dc9 2bbd 3974 4dbe
00000320: d6a1 9dbb c1dc b33d 864b 053e f89d 173d
00000330: 6355 87bd 959e 8a3d b982 ba3c 1905 0abd
00000340: dd98 083e 84a4 8abd a576 e7bd f661 f9bd
00000350: 28cd d33d 1991 ce3d b192 d63d c9d4 083e
00000360: b3db bcbd 02bd 1abc e269 04bd c510 27bc
00000370: b342 39be 17f9 76bd 6484 c8bd 2bd2 373d
00000380: 725f 823d 461b 9bbd 57d3 033d 7096 8fbd
00000390: c9c2 3ebd f277 563e f6a7 35bd b89b 5d3e
000003a0: dae1 d53d 0bf3 6fbe 406b db3d 7714 f4bd
000003b0: 4580 42be b099 be3d 6b7e 0abc ee88 913d
000003c0: 7270 253e 2f75 fb3c f6af 893d e664 29bd
000003d0: 6372 c33d f7bb 803b 220a 9dbc 07b1 203e
000003e0: 3a25 f1bc 96a7 48be 2889 043d 50e2 8a3d
000003f0: ee9c 873d 59e0 5c3d 51d2 133e a642 a03d

network_body._body_endoder.seq_layers.2.bias f4 [128]
0.03958518 0.046566512 0.028149227 0.020054892 0.029809987 0.033641953 -7.617623e-05 0.020003337
0.023784546 0.037132133 0.032727327 0.02864713 0.029895995 0.03905322 -0.04535379 0.026573239
-0.035928115 0.024935506 0.025979098 0.029029697 0.025330286 0.030483298 -0.0006852747 -0.013582471
0.031175604 0.05759747 0.044448175 0.02187772 0.030732378 -0.020503407 -0.0130687645 -0.029452039
-0.02028004 0.023022825 0.014298584 0.024058197 -0.005526761 0.039374657 0.0049000974 0.0376632
0.04388357 -0.037925206 0.019534381 0.039478388 -0.013877926 0.013945621 0.030813845 0.02993245
0.012717931 0.040278792 0.01322697 0.03441704 0.02441084 0.025172636 0.031006262 0.03086683
-0.027258404 -0.03434713 0.040358603 0.02234856 0.054556258 0.036992963 0.015169263 0.049137596
-0.01452039 -0.004927347 0.014173448 0.04304304 -0.04581996 0.027796669 0.023811033 0.02622164
-0.02495219 -0.022578267 0.06656848 0.03489733 0.033129364 0.01445678 0.041753773 0.059165884
0.030343328 0.036224402 -0.04037277 0.015077731 0.031684138 0.027824849 0.018579325 -0.04316958
-0.050747637 0.029906118 0.042512316 -0.025268773 -0.009217802 0.020157315 -0.020278493 0.06515899
0.032257263 -0.016978908 0.019863242 0.029725285 0.038562346 0.036857508 -0.056915134 0.012501773
-0.0005280367 0.027601404 0.02198283 0.021150643 0.057033524 0.041717645 0.031823885 0.019004967
-0.0078036105 0.031568218 0.003998816 0.030116582 -0.015488114 -0.0008947667 -0.023307895 0.02497614
-0.012287731 -0.027183145 -0.017811304 -0.017422887 0.03355483 0.043486632 -0.02513141 0.037236854
00000000: 1224 223d 87bc 3e3d 3599 e63c 284a a43c
00000010: 1334 f43c 25cc 093d cdc0 9fb8 0ade a33c
00000020: cfd7 c23c dd17 183d 170d 063d 63ad ea3c
00000030: 72e8 f43c 45f6 1f3d e5c4 39bd 1fb0 d93c
00000040: 5c29 13bd 8c45 cc3c 1ed2 d43c b0cf ed3c
00000050: 7681 cf3c 1cb8 f93c 02a4 33ba 0389 5ebc
00000060: fb63 ff3c 53eb 6b3d 4a0f 363d e738 b33c
00000070: 78c2 fb3c c3f6 a7bc 5f1e 56bc 6745 f1bc
00000080: 5422 a6bc 5d9a bc3c 9c44 6a3c b215 c53c
00000090: d519 b5bb 5247 213d ff90 a03b ba44 1a3d
000000a0: 42bf 333d 7657 1bbd 9106 a03c 17b4 213d
000000b0: 3e60 63bc 2d7c 643c 516d fc3c e634 f53c
000000c0: de5e 503c 60fb 243d efb5 583c e2f8 0c3d
000000d0: 3ef9 c73c d836 ce3c d800 fe3c 6fdc fc3c
000000e0: 044d dfbc 94af 0cbd 104f 253d 5414 b73c
000000f0: 6276 5f3d ef85 173d 8088 783c 8144 493d
00000100: eee6 6dbc 9575 a1bb c037 683c e64d 303d
00000110: b6ad 3bbd d7b5 e33c 5b0f c33c c4ce d63c
00000120: 8968 ccbc 0ff6 b8bc 0e55 883d 81f0 0e3d
00000130: a8b2 073d 21dc 6c3c 0106 2b3d ed57 723d
00000140: 9292 f83c 0a60 143d eb5d 25bd 9608 773c
00000150: 3ac7 013d f0f0 e33c ab33 983c 96d2 30bd
00000160: c1dc 4fbd adfd f43c 6521 2e3d 7500 cfbc
00000170: 4406 17bc f420 a53c 151f a6bc 1472 853d
00000180: 3120 043d 5a17 8bbc 3db8 a23c 7182 f33c
00000190: 8df3 1d3d e6f7 163d d81f 69bd 3dd4 4c3c
000001a0: f16b 0aba 571c e23c 5615 b43c 1d44 ad3c
000001b0: fc9b 693d 1fe0 2a3d c359 023d 4eb0 9b3c
000001c0: 6eb5 ffbb ad4d 013d 8008 833b 0db7 f63c
000001d0: dcc1 7dbc c78e 6aba 33f0 bebc c39a cc3c
000001e0: 7b52 49bc 30af debc 03e9 91bc 71ba 8ebc
000001f0: ca70 093d 0a1f 323d 63e0 cdbc ac85 183d

action_model._discrete_distribution.branches.0.weight f4 [3, 128]
-0.012368965 0.0038422286 -0.029218787 0.007583055 0.0016163432 -0.0022126255 0.029437726 0.07069778
0.005166557 0.031561967 -0.021829583 0.101846255 0.007723247 0.0038964762 0.069405444 -0.08976833
0.010842849 -0.007652523 -0.013666261 0.017492026 -0.023507675 0.17249864 0.049687244 0.03413211
-0.047062807 -0.04412333 -0.005956081 -0.023971546 -0.042210206 0.13558973 0.053244844 -0.030904792
0.002272423 -0.048625264 -0.14568052 -0.021333354 0.024797693 -0.04583342 0.05501197 -0.033483204
-0.012322059 0.02539214 -0.029730752 0.018400202 -0.111217216 -0.03874617 -0.070477575 -0.033379976
-0.04126927 0.029372044 -0.012276385 -0.061844792 -0.017699372 -0.009586064 -0.017877787 -0.011636621
0.04963156 0.031197252 -0.013490743 0.093418665 0.009035862 -0.022140307 -0.051158354 0.0038512074
-0.0509525 -0.059909485 -0.07932693 -0.027179353 0.02314934 0.00412449 -0.048437204 -0.037700363
0.036476772 -0.100958966 -0.009003506 -0.0017552662 -0.023311097 0.09892253 -0.014619866 0.076302424
-0.0024624814 -0.014243841 -0.027249701 -0.05733271 -0.010507417 0.09710147 0.0169857 -0.036162894
0.04460211 -0.026264185 -0.013423793 -0.08793337 -0.05750815 -0.026716443 -0.055547226 0.03449217
-0.12290225 -0.03356307 -0.028620593 -0.007788593 0.06545322 -0.019016806 0.029197633 -0.10439455
0.08196032 -0.05789975 -0.06682757 -0.03602713 0.060492482 0.026561728 -0.07054662 -0.030192394
-0.09250521 0.02706838 0.042642616 -0.015048152 -0.029582176 -0.06426354 0.042014483 -0.0102444505
0.0237063 0.03493172 0.0040508313 -0.1100322 -0.025689103 -0.025670968 0.0070440783 -0.029867655
0.0068223556 0.026816744 0.039706696 -0.017251283 0.025215143 0.07138027 -0.06163816 -0.13704777
0.019097818 -0.03152348 0.05264869 -0.11169882 0.037829198 0.038684923 -0.13868175 0.112660654
-0.016822366 0.051185176 0.0133680245 -0.030167324 0.04139219 -0.22370261 -0.027804783 -0.06574039
0.050875545 0.057476874 0.019401742 0.02324146 0.06142595 -0.16118899 -0.0652058 0.009082754
-0.0034720022 0.050944325 0.16665909 0.029911138 -0.015595426 0.06253845 -0.10337307 0.068230934
0.013197884 -0.047809772 0.043932274 0.030517614 0.09281984 0.04673711 0.11587794 0.0852815
0.046125274 0.0011000527 0.031980895 0.043238267 -0.012344533 0.05564143 0.03884697 0.07327371
-0.09478672 -0.02877929 0.0032342642 -0.10941816 0.028907558 0.05121215 0.09066863 0.020632347
0.02972437 0.038004782 0.06829712 0.008473075 -0.08526608 -0.018153653 0.07676262 0.013879419
-0.10462701 0.039592367 0.019594274 -0.0017468646 0.040234957 -0.105635926 0.07039301 -0.06153078
0.03259764 0.016468246 -0.036043063 0.03683702 0.06794849 -0.1228231 0.024391 -0.047353033
-0.09559673 0.06572612 0.045855798 0.026362404 0.020984512 0.0051277494 0.01047541 0.06519764
0.12814572 0.039251175 0.039266802 0.010705094 -0.0545598 0.059883785 -0.058621734 0.08544781
-0.121209025 0.053816244 0.07701961 0.031248176 -0.009702365 -0.01428986 0.086520344 0.070718735
0.05896037 -0.0034901768 -0.09480374 0.02835904 0.012452951 0.035851046 -0.118727885 0.04072209
-0.05427999 -0.0774401 -0.058700383 0.053414717 0.06645923 0.038926277 -0.04275324 0.030231033
00000000: 33a7 4abc e6cd 7b3b 3d5c efbc 477b f83b
00000010: 7adb d33a b201 11bb 6327 f13c ffc9 903d
00000020: 394c a93b 1f47 013d f4d3 b2bc c594 d03d
00000030: 4b13 fd3b 065c 7f3b 7124 8e3d 75d8 b7bd
00000040: 34a6 313c 04c2 fabb 74e8 5fbc 704b 8f3c
00000050: 2b93 c0bc 7ca3 303e da84 4b3d 1dce 0b3d
00000060: eec4 40bd aaba 34bd 3b2b c3bb fa5f c4bc
00000070: 9ce4 2cbd 09d8 0a3e 4417 5a3d 0c2c fdbc
00000080: eeec 143b 492b 47bd 462d 15be 49c3 aebc
00000090: 8824 cb3c d3bb 3bbd 3b54 613d af25 09bd
000000a0: 76e2 49bc 2d03 d03c e88d f3bc 05bc 963c
000000b0: dac5 e3bd 4eb4 1ebd 8c56 90bd 71b9 08bd
000000c0: f709 29bd a49d f03c e422 49bc f750 7dbd
000000d0: 46fe 90bc de0e 1dbc 7074 92bc 87a7 3ebc
000000e0: 764a 4b3d 6191 ff3c 4708 5dbc 4952 bf3d
000000f0: 270b 143c 975f b5bc 6c8b 51bd 8a64 7c3b
00000100: 92b3 50bd a663 75bd 2876 a2bd 3ca7 debc
00000110: afa3 bd3c bb26 873b 1766 46bd b26b 1abd
00000120: ab68 153d 93c3 cebd 7183 13bc f610 e6ba
00000130: eaf6 bebc e597 ca3d 2a88 6fbc 7244 9c3d
00000140: 9561 21bb 005f 69bc c43a dfbc b4d5 6abd
00000150: 4d27 2cbc 23dd c63d 9825 8b3c 8b1f 14bd
00000160: b4b0 363d fd27 d7bc 78ef 5bbc 6916 b4bd
00000170: aa8d 6bbd 71dc dabc 7d85 63bd a947 0d3d
00000180: 2db4 fbbd 6e79 09bd bc75 eabc 7437 ffbb
00000190: 560c 863d 22c9 9bbc e02f ef3c cfcc d5bd
000001a0: d0da a73d 4a28 6dbd e5dc 88bd 2f91 13bd
000001b0: f7c6 773d fb97 d93c bf7a 90bd 0a56 f7bc
000001c0: 5f73 bdbd 82be dd3c 06aa 2e3d 868c 76bc
000001d0: 5256 f2bc 9a9c 83bd 6117 2c3d 57d8 27bc
000001e0: b733 c23c 9014 0f3d d6bc 843b 9058 e1bd
000001f0: f471 d2bc ec4b d2bc 03d2 e63b 03ad f4bc
00000200: 118e df3b caae db3c 7da3 223d 9052 8dbc
00000210: fd8f ce3c d22f 923d 4c78 7cbd 4056 0cbe
00000220: 0773 9c3c c41e 01bd 27a6 573d 5ac2 e4bd
00000230: caf2 1a3d 1574 1e3d 9702 0ebe a1ba e63d
00000240: 0fcf 89bc 8ca7 513d 8f05 5b3c 7721 f7bc
00000250: db8a 293d 4c12 65be dbc6 e3bc e6a2 86bd
00000260: e062 503d df6c 6b3d 67f0 9e3c e064 be3c
00000270: c799 7b3d ba0e 25be 9e8a 85bd d5cf 143c
00000280: 888a 63bb ffaa 503d aea8 2a3e 3408 f53c
00000290: f583 7fbc 2914 803d 43b5 d3bd a9bc 8b3d
000002a0: f03b 583c 2ed4 43bd 54f2 333d 1300 fa3c
000002b0: 5418 be3d 696f 3f3d 6a51 ed3d 11a8 ae3d
000002c0: dbed 3c3d a52f 903a 66fe 023d 9c1a 313d
000002d0: b940 4abc 45e8 633d 001e 1f3d 8710 963d
000002e0: 8a1f c2bd 8cc2 ebbc f3f5 533b a116 e0bd
000002f0: 8bcf ec3c d5c3 513d 7ab0 b93d 2b05 a93c
00000300: 8680 f33c e7aa 1b3d 5cdf 8b3d a7d2 0a3c
00000310: fc9f aebd f8b6 94bc b835 9d3d 8166 633c
00000320: b046 d6bd 9b2b 223d 2c84 a03c 0df7 e4ba
00000330: 69cd 243d a657 d8bd 362a 903d b307 7cbd
00000340: 1a85 053d 6ae8 863c e4a1 13bd 6ae2 163d
00000350: 9428 8b3d ad8a fbbd a2cf c73c 41f5 41bd
00000360: 38c8 c3bd 6a9b 863d 4ad3 3b3d f8f5 d73c
00000370: b6e7 ab3c ae06 a83b 0ea1 2b3c 5786 853d
00000380: a238 033e d7c5 203d 3ad6 203d 6b64 2f3c
00000390: 197a 5fbd b348 753d 581d 70bd 43ff ae3d
000003a0: 703c f8bd 6c6e 5c3d 75bc 9d3d 2dfc ff3c
000003b0: abf6 1ebc 0420 6abc 9431 b13d fcd4 903d
000003c0: 6e80 713d 73bb 64bb 7728 c2bd 3851 e83c
000003d0: 7607 4c3c 8cd8 123d 9b27 f3bd 35cc 263d
000003e0: b254 5ebd ea98 9ebd d06f 70bd 64c9 5a3d
000003f0: c71b 883d 2971 1f3d 051e 2fbd 12a7 f73c

action_model._discrete_distribution.branches.0.bias f4 [3]
0.0011724015 0.023247622 -0.063573346
00000000: 44ab 993a cc71 be3c be32 82bd

action_model._discrete_distribution.branches.1.weight f4 [3, 128]
0.037133146 0.032421872 0.0015817801 -0.009963976 0.043110363 0.022558764 0.074271195 0.02307503
0.007902331 0.11139045 0.0499473 0.03714465 0.007266867 0.010353335 -0.049173333 -0.023928706
0.036183596 -0.0066740527 0.0034750842 0.0070239035 0.014769675 0.05085887 -0.10012055 -0.029460924
0.035951015 0.021962801 0.023571631 0.013903493 0.022339253 0.091821805 -0.07046468 -0.10155739
-0.106727116 0.032691527 0.025086386 0.019529302 -0.06488069 0.025245234 0.0051863873 0.018793434
0.018251464 -0.064805105 0.013639086 -0.011140016 -0.043708112 -0.013722196 0.019163586 0.007948407
0.006050763 0.06853607 -0.05065344 0.033114478 0.07397951 -0.00813734 0.02713858 -0.0014915866
0.011145772 -0.02061539 0.039495464 0.010765341 0.016429495 0.02261166 0.018795077 0.03682739
-0.06017136 -0.09796821 0.0054048956 0.048402153 -0.055503532 0.12795839 0.022988902 0.06592885
0.03460943 -0.046165906 0.028513882 0.07432165 0.01975899 -0.02291777 0.035170678 0.093157284
0.024766479 0.04970534 -0.0066845804 -0.0030078397 0.038147483 0.061038855 -0.008999068 -0.057569206
-0.029287184 0.00047580525 0.038218226 -0.05791022 -0.07245609 0.030256448 -0.128232 0.0014935252
0.051360656 -0.11243692 0.023485852 0.02658689 0.10296005 0.0029190038 -0.0053267404 -0.005254572
-0.01068129 0.018208915 0.004601646 0.01651162 0.0237505 0.038686913 0.0115891555 0.012653712
-0.09759555 -0.029281037 0.03268662 0.010145524 -0.114853494 -0.11287591 -0.028211223 0.027011843
0.034066908 -0.08012405 0.026191378 -0.081064105 0.007580628 0.067583844 0.03569256 0.016000422
-0.041564625 -0.044192724 -0.046918724 -0.1387395 -0.013791572 0.027229792 0.052940667 -0.093833074
-0.021899909 0.030696357 -0.009373888 -0.045704998 0.055702772 -0.055159766 0.060007356 -0.057346933
0.13638268 -0.05474297 -0.081967555 -0.16431917 -0.047788035 -0.0632881 -0.09545862 -0.03480659
-0.13859299 -0.09775621 -0.15586184 -0.05519783 -0.0017745292 0.049479686 -0.050197456 0.042634822
-0.04007166 -0.06336849 -0.029290287 -0.10064881 0.08435919 -0.068346836 0.076222435 -0.15841778
-0.12447961 0.09442972 -0.023729526 -0.026648356 0.09738587 -0.04297358 0.012511194 0.01994083
-0.050739266 -0.032743707 -0.15028177 -0.030380318 0.074243486 -0.11111808 -0.047700953 0.0040241615
0.078181684 0.014378197 -0.066851616 -0.13514447 -0.053692497 0.00198115 -0.023475736 -0.05399262
0.12211258 0.050937302 -0.056806184 -0.14046103 0.049453285 0.10754177 -0.065638356 0.049880918
0.026001062 0.03077142 -0.098579586 -0.0642934 -0.0209624 -0.06628474 -0.025199085 0.023330709
0.005237262 -0.033889953 0.12910618 -0.06280429 0.0068727494 -0.016743207 -0.08926748 0.10090088
0.09248532 -0.039161082 -0.027555643 -0.028700544 0.014289393 -0.0024332523 0.055884708 -0.003975462
-0.09528299 0.0867968 -0.03465889 -0.11872469 0.033818297 -0.028944217 0.058067024 0.00071963144
-0.015586904 0.0007243443 0.010773008 -0.07250698 -0.015137721 -0.103568435 -0.020951534 -0.013127505
0.024106858 -0.16894817 0.08629699 -0.009958697 0.09503398 0.069420695 -0.022543114 0.0027303472
0.12367639 0.019211672 0.12179355 -0.028784486 -0.034842398 -0.05556343 0.0812085 -0.057501733
00000000: ed18 183d cccc 043d bc53 cf3a f23f 23bc
00000010: 7e94 303d 28cd b83c 7f1b 983d d807 bd3c
00000020: c778 013c ad20 e43d 8a95 4c3d fd24 183d
00000030: e61e ee3b 09a1 293c fa69 49bd 2206 c4bc
00000040: 4035 143d 03b2 dabb 3dbe 633b c628 e63b
00000050: 82fc 713c 6451 503d 010c cdbd 0958 f1bc
00000060: 5f41 133d 55eb b33c 4b19 c13c 7acb 633c
00000070: cf00 b73c 120d bc3d c94f 90bd 52fd cfbd
00000080: bf93 dabd 8de7 053d f781 cd3c eafb 9f3c
00000090: 2be0 84bd 18cf ce3c 92f2 a93b b0f4 993c
000000a0: 1884 953c 8ab8 84bd 7976 5f3c 9d84 36bc
000000b0: 4707 33bd 10d3 60bc f4fc 9c3c 093a 023c
000000c0: 7b45 c63b a45c 8c3d fb79 4fbd 0ca3 073d
000000d0: 9282 973d 7a52 05bc ba51 de3c 5781 c3ba
000000e0: c29c 363c 9be1 a8bc ffc5 213d 1d61 303c
000000f0: 2697 863c 173c b93c 22f8 993c 51d8 163d
00000100: 3e76 76bd 8fa3 c8bd 8d1b b13b 5641 463d
00000110: ac57 63bd 8607 033e 3953 bc3c b405 873d
00000120: 9ec2 0d3d 7618 3dbd f295 e93c f335 983d
00000130: 9bdd a13c 0cbe bbbc 210f 103d 3fc9 be3d
00000140: 12e3 ca3c d497 4b3d 530a dbbb 2d1f 45bb
00000150: 8940 1c3d e103 7a3d d470 13bc b0cd 6bbd
00000160: adeb efbc 8075 f939 b78a 1c3d 4433 6dbd
00000170: dc63 94bd 5fdc f73c 404f 03be 64c2 c33a
00000180: 8d5f 523d 5445 e6bd 6765 c03c c0cc d93c
00000190: b8dc d23d c24c 3f3b f08b aebb 8b2e acbb
000001a0: 9400 2fbc dd2a 953c 68c9 963b 6043 873c
000001b0: 6990 c23c 2b76 1e3d 71e0 3d3c 8451 4f3c
000001c0: 2de0 c7bd c9de efbc 68e2 053d 6939 263c
000001d0: 4f38 ebbd 7c2b e7bd 391b e7bc f147 dd3c
000001e0: be89 0b3d 1418 a4bd 4d8f d63c f004 a6bd
000001f0: eb66 f83b 6669 8a3d 5d32 123d 5113 833c
00000200: ab3f 2abd 6e03 35bd d92d 40bd ba11 0ebe
00000210: 0cf6 61bc 0311 df3c 50d8 583d 8e2b c0bd
00000220: 7067 b3bc ed76 fb3c f094 19bc 2a35 3bbd
00000230: 9728 643d 35ef 61bd 46ca 753d 9ee4 6abd
00000240: e7a7 0b3e 2a3a 60bd 9bde a7bd 4943 28be
00000250: 63bd 43bd 319d 81bd cf7f c3bd 5b91 0ebd
00000260: 52eb 0dbe 6834 c8bd 3f9a 1fbe 1f17 62bd
00000270: 5297 e8ba 36ab 4a3d d99b 4dbd daa1 2e3d
00000280: 2e22 24bd 57c7 81bd 2ff2 efbc f720 cebd
00000290: 83c4 ac3d 6df9 8bbd 821a 9c3d 4538 22be
000002a0: 2aef febd 5e64 c13d 6c64 c2bc a74d dabc
000002b0: 3e72 c73d 1105 30bd c0fb 4c3c f45a a33c
000002c0: fad3 4fbd 441e 06bd 77e3 19be 25e0 f8bc
000002d0: f80c 983d e091 e3bd 1362 43bd 1ddd 833b
000002e0: b81d a03d 8792 6b3c 80e9 88bd 5063 0abe
000002f0: aaec 5bbd 2ed6 013b 3050 c0bc 5e27 5dbd
00000300: 2916 fa3d a2a3 503d 9aad 68bd 04d5 0fbe
00000310: 878f 4a3d dc3e dc3d 676d 86bd ef4f 4c3d
00000320: 2e00 d53c 5814 fc3c 18e4 c9bd 42ac 83bd
00000330: 57b9 abbc 4bc0 87bd 506e cebc 0b20 bf3c
00000340: 579d ab3b 31d0 0abd 6934 043e 899f 80bd
00000350: cd34 e13b 0d29 89bc ded1 b6bd 1fa5 ce3d
00000360: f268 bd3d 5f67 20bd 5fbc e1bc 671d ebbc
00000370: 0f1e 6a3c 3377 1fbb 5de7 643d 9844 82bb
00000380: ba23 c3bd 85c2 b13d 7bf6 0dbd ee25 f3bd
00000390: 0e85 0a3d 6c1c edbc b0d7 6d3d a6a5 3c3a
000003a0: 3760 7fbc ece1 3d3a 4581 303c 8a7e 94bd
000003b0: 3404 78bc b01b d4bd 8da2 abbc bf14 57bc
000003c0: bf7b c53c c000 2dbe 7abc b03d cd29 23bc
000003d0: 2da1 c23d 702c 8e3d 56ac b8bc a0ef 323b
000003e0: 0c4a fd3d cc61 9d3c e66e f93d 71cd ebbc
000003f0: e7b6 0ebd 7b96 63bd a450 a63d f086 6bbd

action_model._discrete_distribution.branches.1.bias f4 [3]
0.039899956 -0.05616856 -0.0031435017
00000000: 236e 233d 0111 66bd 3503 4ebb
